Assets/Brains/Misc/CarAgent/CarPractice_run23-3.onnx (onnx, 108915 bytes, 15 tensors)

85 f4 [25]
0	0x3ad9dec0	0.0016622171
1	0x3a9a0f1c	0.001175377
2	0x3a9a0f1c	0.001175377
3	0x3a9a0f1c	0.001175377
4	0x3e17d31c	0.14826626
5	0x3ad9dec0	0.0016622171
6	0x3a9a0f1c	0.001175377
7	0x3a9a0f1c	0.001175377
8	0x3a9a0f1c	0.001175377
9	0x3e0c4929	0.13699783
10	0x3ad9dec0	0.0016622171
11	0x3a9a0f1c	0.001175377
12	0x3a9a0f1c	0.001175377
13	0x3a9a0f1c	0.001175377
14	0x3e0cf099	0.13763656
15	0x3bd9df53	0.006648937
16	0x3a9a0f1c	0.001175377
17	0x3a9a0f1c	0.001175377
18	0x3bd66d79	0.006543812
19	0x3d445071	0.047928277
20	0x3b7393f3	0.0037167042
21	0x3a9a0f1c	0.001175377
22	0x3a9a0f1c	0.001175377
23	0x3b6713c6	0.0035259589
24	0x3d412e94	0.04716356

88 f4 [30]
0	0x3e20d509	0.15706266
1	0x3e20d627	0.15706693
2	0x3a9a0f1c	0.001175377
3	0x3a9a0f1c	0.001175377
4	0x3a9a0f1c	0.001175377
5	0x3e9811bf	0.2970104
6	0x3ec7f913	0.39057216
7	0x3ec7e606	0.3904268
8	0x3a9a0f1c	0.001175377
9	0x3a9a0f1c	0.001175377
10	0x3a9a0f1c	0.001175377
11	0x3e1e00bb	0.15429966
12	0x3ec8a40b	0.39187655
13	0x3ec898ff	0.39179227
14	0x3a9a0f1c	0.001175377
15	0x3a9a0f1c	0.001175377
16	0x3a9a0f1c	0.001175377
17	0x3e18c31c	0.14918178
18	0x3e80ca2f	0.25154254
19	0x3e8062e9	0.25075462
20	0x3a9a0f1c	0.001175377
21	0x3a9a0f1c	0.001175377
22	0x3b3cae4b	0.002879041
23	0x3d86aff4	0.06576529
24	0x3e78d95b	0.24301665
25	0x3e777eae	0.24169418
26	0x3a9a0f1c	0.001175377
27	0x3a9a0f1c	0.001175377
28	0x3a9a0f1c	0.001175377
29	0x3d6dc9d3	0.058053803

91 f4 [13]
0	0x3a9a0f1c	0.001175377
1	0x3aac3e01	0.0013141037
2	0x3cb4cb6a	0.022069652
3	0x3ed1357c	0.40861118
4	0x3cb89727	0.022533013
5	0x410e758f	8.903701
6	0x3b3797cf	0.002801407
7	0x3d35460f	0.044256266
8	0x3b2deb98	0.002653813
9	0x3c4ae3be	0.0123833995
10	0x43d95106	434.633
11	0x3a9a0f1c	0.001175377
12	0x411fc80a	9.986338

action_model._discrete_distribution.branches.0.bias f4 [3]
0	0x3dfb97ac	0.122847885
1	0x3d4d47be	0.050117247
2	0x3d1cbbf5	0.038265187

action_model._discrete_distribution.branches.0.weight f4 [3, 128]
0	0x3e8e52c6	0.27797526
1	0xbe1eee70	-0.15520644
2	0xbe1fee78	-0.15618312
3	0x3dcee4c1	0.10102225
4	0xbeb2f78a	-0.34954482
5	0x3e0dc11e	0.138432
6	0xbe6a141a	-0.2285923
7	0x3e5e5017	0.2171024
8	0x3e535455	0.20637639
9	0xbbb2f710	-0.005461581
10	0x3e752a06	0.23941812
11	0xbd1b44e7	-0.037907507
12	0x3e41f001	0.1893921
13	0xbe146c74	-0.14494497
14	0xbe1a6bf0	-0.15080237
15	0xbbb84a69	-0.0056241048
16	0xbe10687b	-0.14102356
17	0xbdd8ec04	-0.105918914
18	0x3e570e16	0.21001467
19	0xbe7795e1	-0.24178268
20	0xbe23f9fc	-0.1601333
21	0xbcfabb7d	-0.03060698
22	0x3b887efb	0.004165528
23	0x3d30f098	0.043198198
24	0x3e90d494	0.28287184
25	0xbdc15ccb	-0.09441527
26	0xbd5346e1	-0.051581267
27	0x3d987210	0.07443631
28	0x3d87e152	0.06634773
29	0xbd3e7f12	-0.046507902
30	0x3e0bf80d	0.13668843
31	0xbe2d76e7	-0.16939889
32	0xbdc3ae97	-0.09554785
33	0x3def0c87	0.11672311
34	0x3d13a9ad	0.036050487
35	0xbe6056de	-0.21908137
36	0x3e6705fe	0.2256088
37	0x3e43c1f9	0.19116963
38	0x3d09b4e4	0.033619776
39	0x3e681849	0.22665514
40	0xbddac03b	-0.10681196
41	0xbe4b1049	-0.19830431
42	0xbc0e6ca2	-0.008692892
43	0xbda5f06d	-0.08102498
44	0x3e106055	0.14099248
45	0x3e852004	0.26000988
46	0x3e221af2	0.15830591
47	0xbe6f00f8	-0.23340213
48	0x3e6f2b07	0.23356257
49	0xbec4551f	-0.38346192
50	0x3e0fc446	0.14039716
51	0x3e3fe277	0.18738733
52	0xbe7e1108	-0.24811184
53	0xbe85e472	-0.26150852
54	0xbe8017b9	-0.250181
55	0xbe092ca8	-0.13395941
56	0x3e89b9ee	0.26899666
57	0xbe01b80e	-0.12667868
58	0x3e683bc6	0.22679052
59	0x3e8bee5e	0.27330297
60	0x3e51f30f	0.20502876
61	0x3e6b0389	0.22950567
62	0xbe15a8f9	-0.14615239
63	0xbe8bc1b5	-0.27296224
64	0x3e8248d7	0.25446197
65	0x3d14e661	0.03635252
66	0xbe682250	-0.22669339
67	0x3e9a5d8f	0.30149505
68	0x3c8d16d5	0.017222801
69	0x3e121f1d	0.14269681
70	0x3e93918a	0.28821975
71	0x3e6219e1	0.22080185
72	0x3e0d564b	0.1380245
73	0xbe0f0034	-0.13964921
74	0x3e2f23ad	0.17103453
75	0x3e7ac8a1	0.24490596
76	0x3e8685ed	0.26274052
77	0x3d81c0ab	0.063355766
78	0xbe2b309b	-0.1671776
79	0x3d924f00	0.07143974
80	0x3e1761d6	0.14783415
81	0xbe20d356	-0.15705618
82	0xbd4747e6	-0.048652552
83	0x3d8e60bc	0.06952044
84	0x3e805b23	0.25069532
85	0x3d898a28	0.06715804
86	0x3cda8f49	0.026679652
87	0xbdf7b0de	-0.120942816
88	0xbe23df7f	-0.16003226
89	0xbe321bab	-0.17393367
90	0xbde22489	-0.11042125
91	0x3db3bb8c	0.08776006
92	0x3c98bf23	0.018645829
93	0xbe2885bc	-0.16457266
94	0x3e4b6219	0.1986164
95	0xbe0dbb2f	-0.13840936
96	0x3de0acb4	0.109704405
97	0x3d660df6	0.056165658
98	0x3e5eb681	0.21749307
99	0x3c28ef61	0.010310979
100	0xbe10dad1	-0.14145972
101	0xbea9c4d6	-0.33157986
102	0xbe926f65	-0.28600612
103	0x3c1c6226	0.009544885
104	0x3e408b2e	0.18803093
105	0xbe1561cb	-0.14588086
106	0x3e517f3c	0.20458692
107	0x3e27c383	0.16383176
108	0x3e37dd83	0.17955594
109	0x3df93fb5	0.12170354
110	0x3d80ffdd	0.06298802
111	0xbe458c38	-0.1929177
112	0x3d943187	0.07236009
113	0x3e89788b	0.2684978
114	0xbe1f3c6b	-0.15550391
115	0x3e60f5c1	0.21968748
116	0x3e8f2e63	0.27965078
117	0x3e46bd13	0.19408064
118	0xbe18bc47	-0.14915572
119	0x3e26eab1	0.16300465
120	0x3dc6ee6d	0.09713445
121	0x3ddf78a3	0.109116815
122	0x3e387871	0.18014695
123	0xbd3235d3	-0.043508362
124	0x3e6ffbb3	0.2343586
125	0xbd5786c4	-0.052618757
126	0xbdcdf99a	-0.10057373
127	0xbab0c0a9	-0.0013485152
128	0xbe71d09b	-0.23614733
129	0x3e80374a	0.25042182
130	0x3e734dbc	0.23760122
131	0x3ce6c743	0.028171187
132	0x3eab9b72	0.33517033
133	0xbd0a2968	-0.033730894
134	0x3e9f6068	0.3112824
135	0xbe4c4ba6	-0.19950733
136	0x3b645786	0.0034842207
137	0xbe18be3e	-0.14916322
138	0xbe426b4c	-0.18986243
139	0xbdd1bf51	-0.10241569
140	0x3d15af89	0.036544356
141	0x3c5dca27	0.013536966
142	0x3e4a6640	0.19765568
143	0x3e1f16d0	0.15536046
144	0xbb90f2ad	-0.0044234605
145	0xbc9f2b32	-0.019429777
146	0xbdc34979	-0.09535498
147	0x3eaccc61	0.3374968
148	0x3e2e5de4	0.17028004
149	0xbd43078f	-0.04761463
150	0xbd96225f	-0.073307745
151	0x3ce42340	0.02784884
152	0xbe2ca2e1	-0.16859008
153	0xbc04c9f2	-0.008104788
154	0xbd591f11	-0.053008143
155	0x3d318ea2	0.043348916
156	0x3e0ba2ac	0.13636273
157	0x3e214944	0.15750605
158	0xbd5209b0	-0.05127877
159	0x3e9c507a	0.3053015
160	0x3e762974	0.2403925
161	0xbd72b669	-0.05925599
162	0x3c1be38c	0.009514701
163	0x3e9d28de	0.30695242
164	0xbe22772f	-0.15865777
165	0xbdefd314	-0.11710182
166	0x3da732f0	0.081640124
167	0xbdcab204	-0.09897235
168	0xbca3d9b4	-0.02000127
169	0x3e83d095	0.25745073
170	0x3e1e16a3	0.15438323
171	0xbd9fce59	-0.078030296
172	0x3ce99be4	0.028516717
173	0xbd08d215	-0.033403475
174	0xbd80fd25	-0.062982835
175	0x3e960e56	0.29307812
176	0xbe0b8d9c	-0.13628238
177	0x3e9c5770	0.3053546
178	0xbcd69850	-0.026195675
179	0xbdf1ca0a	-0.11806114
180	0x3de4882c	0.11158785
181	0x3ea87d8f	0.32908294
182	0x3e9c8cce	0.30576175
183	0x3bc21cb3	0.0059238314
184	0xbdfbf789	-0.12303073
185	0xbc18ef4c	-0.009334397
186	0xbc8c0269	-0.017090993
187	0xbdb9f970	-0.090807796
188	0xbce44b99	-0.027868079
189	0xbdfedaef	-0.12444102
190	0x3cd83642	0.02639306
191	0x3e154968	0.14578784
192	0xbe2f856f	-0.17140745
193	0xbd86a228	-0.065738976
194	0x3e826d8e	0.2547421
195	0xbe7b4262	-0.24537042
196	0x3bf3b1fd	0.0074369893
197	0x3dab23cd	0.08356438
198	0xbe581976	-0.21103463
199	0xbe1a1b9c	-0.15049595
200	0xbd0a5bf0	-0.033779085
201	0x3e829687	0.25505468
202	0xbc081d89	-0.008307823
203	0xbd834b25	-0.06410817
204	0xbe40b838	-0.18820274
205	0x3d718661	0.058966044
206	0x3e8af5a5	0.27140537
207	0x3d579306	0.052630447
208	0xbd2b2320	-0.041781545
209	0x3cc84a59	0.024449514
210	0x3e303496	0.1720756
211	0x3d71ceda	0.05903516
212	0xbe378314	-0.17921096
213	0x3d7e1c5e	0.06203877
214	0x3cd3ff55	0.025878588
215	0x3e63cb5d	0.22245546
216	0x3d01ce8a	0.03169111
217	0x3d064d0d	0.032788325
218	0x3d897d43	0.06713345
219	0x3d23edc2	0.040021665
220	0xbd7b9837	-0.06142446
221	0x3da3aa54	0.07991472
222	0xbdf5a034	-0.11993447
223	0x3e600123	0.21875434
224	0x3daed4b1	0.085366614
225	0x3d59088d	0.05298667
226	0xbdf985a6	-0.121836945
227	0x3e06ff8a	0.13183418
228	0xbc28ffcd	-0.010314894
229	0x3ea74277	0.32667896
230	0x3e7a0e85	0.24419601
231	0xbe1533db	-0.14570563
232	0xbca69dfb	-0.020339003
233	0x3e5bf738	0.21481025
234	0xbd51d2f7	-0.051226582
235	0xbc1a3588	-0.009412177
236	0xbd9c9eaf	-0.07647454
237	0xbcb536ae	-0.0221208
238	0x3d9d7353	0.07688012
239	0x3e8c7e51	0.27440122
240	0x3ce58e77	0.028022034
241	0xbdc3f5c3	-0.0956836
242	0x3e4fa225	0.20276697
243	0xbe431a8e	-0.19053099
244	0xbe46e74f	-0.19424175
245	0xbde4ef15	-0.11178414
246	0xbd282821	-0.041053895
247	0xbd12e363	-0.035861384
248	0x3c09569c	0.008382466
249	0x3d629903	0.055321705
250	0xbd9e02f5	-0.07715408
251	0xbd962946	-0.07332091
252	0xbdd9a611	-0.10627378
253	0x3a0c8f39	0.0005361918
254	0x3dc02211	0.09381498
255	0x3de0b24b	0.10971507

action_model._discrete_distribution.branches.1.bias f4 [3]
0	0x3d9cc729	0.07655174
1	0x3d6eead7	0.05832943
2	0x3e4c6a32	0.19962385

action_model._discrete_distribution.branches.1.weight f4 [3, 128]
0	0xbe096c24	-0.13420159
1	0x3dd3791c	0.10325834
2	0x3e5f50b6	0.21808133
3	0xbd73fc1a	-0.059566595
4	0x3e187709	0.14889158
5	0xbd940804	-0.07228091
6	0x3e19266b	0.14956062
7	0xbe1a3b14	-0.15061599
8	0x3d1d885e	0.038460128
9	0xbd896d0d	-0.06710253
10	0x3c6c437f	0.014420389
11	0xbdbe1e59	-0.09283132
12	0x3e0cfeae	0.13769028
13	0xbdf6199a	-0.12016602
14	0x3e153c3a	0.14573756
15	0x3e0818ea	0.13290754
16	0xbdcc408e	-0.0997325
17	0xbd42e4bb	-0.047581416
18	0x3b69e313	0.0035688325
19	0x3e26c5df	0.1628642
20	0x3e58f29f	0.21186303
21	0xbe0b60de	-0.1361117
22	0xbe241a0a	-0.16025558
23	0xbd83fa56	-0.06444232
24	0xbdbaea43	-0.09126713
25	0xbdffec16	-0.12496202
26	0x3c3d92b1	0.0115706185
27	0x3cd8bd3b	0.02645742
28	0x3e1fe896	0.15616068
29	0x3e453d1e	0.19261596
30	0xbde40ed3	-0.1113564
31	0x3dd07e40	0.1018033
32	0x3e076859	0.13223399
33	0xbe335acf	-0.1751511
34	0xba8f5746	-0.0010936044
35	0x3e00967a	0.12557402
36	0x3c582234	0.013191748
37	0xbe053fcc	-0.13012618
38	0x3e2cc2bc	0.1687116
39	0x3ab0322a	0.0013442684
40	0xbdc6f6bc	-0.097150296
41	0x3e4014fa	0.18758002
42	0x3e59e892	0.21280125
43	0xbd9aa578	-0.07551092
44	0x3e525da0	0.20543528
45	0x3db25eab	0.08709463
46	0xbe0c5d25	-0.13707407
47	0x3e0f60e7	0.14001809
48	0xbe435c15	-0.19078095
49	0x3e60adcb	0.21941297
50	0xbcf1f2cc	-0.02953472
51	0xbe330f1c	-0.17486233
52	0x3db0934a	0.08621843
53	0x3e6491af	0.22321199
54	0x3e07e1ef	0.1326978
55	0xbdeda154	-0.116030365
56	0xbdb5727d	-0.088597275
57	0x3cc5e0e6	0.024155091
58	0x3b53c9f2	0.0032316414
59	0x3dd4b333	0.10385742
60	0xbde840a6	-0.11340456
61	0xbe0f3f17	-0.1398891
62	0xbd8bc531	-0.06824721
63	0x3cadc07a	0.021209944
64	0xbe1212bc	-0.14264959
65	0x3d4b5960	0.04964578
66	0x3de61464	0.11234358
67	0xbdd93bfa	-0.10607143
68	0xbe1c0f65	-0.15240248
69	0x3c56de10	0.013114467
70	0xbd2976e1	-0.041373137
71	0xbdb10a78	-0.08644575
72	0xb9b9f091	-0.00035465186
73	0x3e04573b	0.12923901
74	0x3dc74c33	0.09731331
75	0xbde1f1f5	-0.11032478
76	0xbda8c90f	-0.08241474
77	0x3cf546b0	0.029940933
78	0x3e5e58bc	0.21713537
79	0x3c99feca	0.01879825
80	0xbdace5fc	-0.084423035
81	0x3cc8b1df	0.024498878
82	0x3e1c0705	0.15237053
83	0x3e0a13e9	0.13484158
84	0xbbdd72d6	-0.0067580743
85	0x3d176418	0.03696069
86	0xbe5c02a9	-0.2148539
87	0x3e5ba10b	0.21448152
88	0xbdd9e097	-0.1063854
89	0xbda69de9	-0.08135588
90	0x3cff1ef6	0.031142693
91	0xbe05193d	-0.12997909
92	0xbdc2c7c9	-0.09510762
93	0xbd60dd15	-0.05489834
94	0xbdd20a3d	-0.10255859
95	0x3e0563c1	0.13026334
96	0x3df44cbd	0.11928699
97	0xbdf717da	-0.12065096
98	0xbca5e3cc	-0.020250224
99	0x3e1a8c54	0.15092593
100	0xbcd59179	-0.026070343
101	0x3e375f33	0.1790741
102	0x3e4e16b9	0.20125856
103	0xbd16155e	-0.03664147
104	0xbe15c44d	-0.14625664
105	0x3e09f080	0.1347065
106	0xbdf30593	-0.118662976
107	0x3e421857	0.18954597
108	0x3c8c557d	0.017130608
109	0xbe160300	-0.14649582
110	0x3d2296cf	0.039694604
111	0x3e06dee4	0.13170964
112	0xbe09c597	-0.13454281
113	0x3cf3e92c	0.029774271
114	0x3e20abd7	0.15690552
115	0xbd4579e6	-0.048211955
116	0x3d39dfe7	0.045379546
117	0xbd478b82	-0.04871703
118	0xbd7f0ade	-0.062266223
119	0xbda0f7b0	-0.07859743
120	0xbd86d9c6	-0.06584506
121	0xbd979aa4	-0.07402542
122	0x3d7931df	0.060838576
123	0xbdd6fee2	-0.10497834
124	0x3c97d9e0	0.018536508
125	0xbce1e0b3	-0.027572965
126	0x3e0d1f3f	0.1378145
127	0x3e13c8fe	0.14432141
128	0xbe82550e	-0.25455517
129	0x3e5e14d7	0.21687637
130	0x3d005275	0.031328637
131	0xbc769187	-0.015049345
132	0x3dab94e8	0.08378011
133	0xbdf79187	-0.12088304
134	0x3de9566b	0.11393436
135	0xbeb8316d	-0.3597521
136	0x3ddc3e32	0.1075405
137	0xbd19f3d1	-0.037586037
138	0xbe76afb5	-0.24090464
139	0x3c9bc064	0.019012637
140	0x3dfe055e	0.124033675
141	0x3c07fc37	0.008299879
142	0x3e1bbc21	0.15208484
143	0x3e2e16c1	0.17000867
144	0xbdbd1ba3	-0.09233787
145	0xbe06a76e	-0.13149807
146	0x3c3c1d53	0.011481601
147	0x3e00e88a	0.12588707
148	0x3e2831c1	0.1642523
149	0x3d360b08	0.044444114
150	0x3d85cae2	0.065328375
151	0xbcdfca9a	-0.027318288
152	0xbe9d397c	-0.3070792
153	0x3b219aee	0.0024658996
154	0xbe0803d2	-0.13282707
155	0x3e27a0b3	0.16369896
156	0x3d78a1d9	0.060701225
157	0x3db7376e	0.08946119
158	0xbe22a5a6	-0.15883502
159	0x3e7f5e0a	0.24938217
160	0x3e4d3880	0.20041084
161	0xbe456972	-0.19278505
162	0x3d92962b	0.071575485
163	0x3e6ca86a	0.2311112
164	0xbe2763e9	-0.16346706
165	0xbe6310ae	-0.22174332
166	0x3db7543a	0.08951612
167	0xbe2dc0bd	-0.16968055
168	0xbcd6e601	-0.026232721
169	0x3de61a36	0.11235468
170	0x3e0a94f0	0.13533378
171	0xbd6119c9	-0.05495623
172	0x3d3c40ab	0.04596011
173	0x3de4af0d	0.11166201
174	0xbe0336c6	-0.12813863
175	0x3e3890d8	0.18024004
176	0xbde6b330	-0.11264646
177	0x3ca08daa	0.0195988
178	0x3c39de2b	0.011344473
179	0xbdc96da7	-0.09835368
180	0xbba8a723	-0.0051468774
181	0x3dceb1ac	0.10092482
182	0x3e4c5dfd	0.19957729
183	0xbd97d1a8	-0.07413036
184	0x3b71b4f6	0.0036881543
185	0xbddc857e	-0.10767649
186	0x3d990f5d	0.074736334
187	0x3d50e4ac	0.05099933
188	0x3dea4505	0.11438946
189	0xbe2af680	-0.16695595
190	0xbd9f4c29	-0.07778198
191	0x3d418836	0.04724904
192	0xbe1ccc6f	-0.1531236
193	0x3da14e38	0.07876247
194	0x3e0032ec	0.12519425
195	0xbe3fc988	-0.18729222
196	0x3d7c7933	0.061639022
197	0x3cd3e9ed	0.02586838
198	0xbe0abd3c	-0.1354875
199	0xbe03e39c	-0.12879795
200	0xbbd584ae	-0.006516061
201	0x3e3bdbb9	0.18345536
202	0x3df615c4	0.1201587
203	0x3d390147	0.045167234
204	0x3d8db1dd	0.0691869
205	0x3e7afc3a	0.2451028
206	0x3e09f8a9	0.13473763
207	0xbdac8913	-0.08424582
208	0x3dba6437	0.09101146
209	0xbcf0de43	-0.029402858
210	0x3e3fe70e	0.18740484
211	0xbd021315	-0.03175648
212	0xbda4ea89	-0.080525465
213	0x3e22e4e9	0.15907635
214	0xbe2587da	-0.16165105
215	0x3e1499f4	0.14511853
216	0xbe035582	-0.12825587
217	0xbdc654d3	-0.09684148
218	0x3de5e230	0.112247825
219	0x3d521d5a	0.051297523
220	0xbd9bd614	-0.076091915
221	0x3dd692a1	0.10477186
222	0xbe5f0cf0	-0.21782279
223	0x3e4a6bfb	0.19767754
224	0x3df04cb4	0.1173338
225	0x3d50bde5	0.050962348
226	0x3d1a9728	0.03774181
227	0x3e0bd48f	0.13655303
228	0xbd79151d	-0.06081115
229	0x3dd9f473	0.10642328
230	0xbc8859bb	-0.01664435
231	0xbd03af68	-0.032149702
232	0xbddbfa0e	-0.107410535
233	0x3e2a2c09	0.1661836
234	0xbd60d2f4	-0.05488868
235	0x3dbafc31	0.09130133
236	0xbda6a0ba	-0.08136125
237	0xbce33bab	-0.027738413
238	0x3e1fc233	0.15601425
239	0x3e2270ed	0.1586339
240	0x3d852761	0.065016516
241	0x3d4ef2cd	0.05052452
242	0x3e705ded	0.2347333
243	0x3d6e7640	0.05821824
244	0xbe06328c	-0.1310522
245	0xbe2519db	-0.16123144
246	0xbdf17428	-0.11789733
247	0x3d30f0a6	0.04319825
248	0xbd1b9f30	-0.03799361
249	0xbd865f8f	-0.06561195
250	0x3d990188	0.07470995
251	0x3c5195df	0.01279208
252	0xbd58f7ef	-0.052970823
253	0x3da8c621	0.08240915
254	0x3da07dcc	0.07836494
255	0x3d9efe2e	0.07763325

discrete_action_output_shape f4 [1, 2]
0	0x40400000	3.0
1	0x40400000	3.0

network_body._body_endoder.seq_layers.0.bias f4 [128]
0	0xbdeba008	-0.11505133
1	0x3e0fcf25	0.14043863
2	0x3e30fe7f	0.17284583
3	0xbcf6ceba	-0.030127872
4	0xbd14c05b	-0.036316257
5	0x3d9ee0a9	0.07757694
6	0xbd4d411a	-0.050110914
7	0xbdb164e4	-0.086618215
8	0x3dd87b6a	0.10570414
9	0x3dde9198	0.108676136
10	0x3e4cbde2	0.1999431
11	0x3e212234	0.15735704
12	0x3c0f9cd9	0.008765423
13	0x3db7875b	0.08961364
14	0x3e3a16fe	0.18172833
15	0xbde1b424	-0.11020687
16	0xbaf7f3a5	-0.0018917216
17	0x3ddcc51e	0.107797846
18	0x3e33dd90	0.17564988
19	0xbd22b325	-0.039721627
20	0x3e176d4a	0.14787784
21	0x3d83965e	0.06425165
22	0x3e3e4e7f	0.18584631
23	0x3dde8cda	0.10866709
24	0x3e121993	0.14267568
25	0x3d4f28c7	0.050575998
26	0x3e26ee95	0.1630195
27	0x3e2b34d0	0.16719365
28	0xbd6b254f	-0.057408627
29	0xbd8f695f	-0.0700252
30	0xbd538cdf	-0.051648017
31	0x3dc4a6f0	0.09602153
32	0x3e279b31	0.16367795
33	0x3e096955	0.13419087
34	0x3dfc7fab	0.12329038
35	0x3e41c9fd	0.18924709
36	0x3d616984	0.05503227
37	0x3d863b4e	0.0655428
38	0xbe1fe177	-0.15613352
39	0x3e39c8d9	0.18143024
40	0x3e386fee	0.18011448
41	0x3e062334	0.13099366
42	0xbdc2aa48	-0.09505135
43	0xbe2fef21	-0.17181064
44	0x3e01746c	0.12642068
45	0xbe859a98	-0.26094508
46	0x3e44f029	0.19232239
47	0x3db15853	0.08659425
48	0x3ddf961d	0.10917304
49	0x3e259960	0.16171789
50	0xbd962d8a	-0.07332905
51	0xbdc5b52f	-0.09653699
52	0x3e500ec2	0.2031813
53	0x3dba51af	0.09097611
54	0x3dce3dc8	0.100703776
55	0xbc427cdb	-0.011870588
56	0x3dd734de	0.105081305
57	0xbc2bf205	-0.010494714
58	0xbca9d318	-0.02073054
59	0xbdb43319	-0.087988086
60	0x3d91f58d	0.07126913
61	0xbe013f28	-0.12621748
62	0x3e528375	0.2055796
63	0xbd92534a	-0.071447924
64	0xbe011ab2	-0.1260784
65	0xbd466dcc	-0.048444554
66	0x3dc5c957	0.09657543
67	0x3e26ab49	0.16276278
68	0x3cbe9aca	0.023267169
69	0x3de7b33a	0.11313482
70	0xbcb51dec	-0.022108994
71	0xbc485f2e	-0.012229724
72	0x3e0e3867	0.13888703
73	0x3e2955e7	0.16536675
74	0x3d2978a9	0.041374836
75	0x3e1af1e0	0.1513133
76	0x3e15551a	0.14583245
77	0x3dd56dbc	0.10421321
78	0xbdc2a36c	-0.095038265
79	0xbdccf2e6	-0.10007267
80	0x3d249ad9	0.040186737
81	0x3d89b08a	0.06723125
82	0xbd26f3c0	-0.040759802
83	0xbd9d6d10	-0.07686818
84	0x3cd106ef	0.025516002
85	0x3e1b09a3	0.15140395
86	0x3c89356b	0.016749104
87	0x3dab1de0	0.083553076
88	0xb9a21793	-0.00030916612
89	0x3d115506	0.035481475
90	0x3b895d52	0.004192033
91	0x3df667a2	0.12031485
92	0xbdd8def3	-0.10589399
93	0xbc4dc543	-0.012559238
94	0xbc8e7891	-0.017391475
95	0x3e350f50	0.17681623
96	0x3da9f7ae	0.08299194
97	0xbd9ccd8a	-0.07656391
98	0xbddda5e3	-0.10822656
99	0x3dfe6314	0.124212414
100	0x3e2fbfcb	0.17163007
101	0x3e3b3591	0.18282153
102	0xbd2437d8	-0.04009232
103	0x3d517cb9	0.051144335
104	0x3da22292	0.0791675
105	0x3bd3ddea	0.006465663
106	0xbd995b41	-0.074881084
107	0xbdd226c3	-0.102612995
108	0x3e46961f	0.19393204
109	0x3dbb4dfb	0.09145733
110	0x3c313944	0.010816876
111	0x3d6fa178	0.058503598
112	0x3e344609	0.17604841
113	0x3dc963db	0.09833499
114	0x3e0f929d	0.14020772
115	0xbd5b3c81	-0.053524498
116	0xbc86c998	-0.01645355
117	0xbdd31e2c	-0.10308489
118	0xbd23eb10	-0.040019095
119	0xbd7cd880	-0.061729908
120	0xbcfb0b74	-0.03064511
121	0x3e45badf	0.19309567
122	0xbba7f3f9	-0.0051255194
123	0x3e0ba33e	0.1363649
124	0x3e43f596	0.19136652
125	0x3d8368f9	0.06416506
126	0xbd476bd1	-0.048686806
127	0x3d8de3a3	0.06928184

network_body._body_endoder.seq_layers.0.weight f4 [128, 68]
0	0xbdacb6d0	-0.08433306
1	0x3da54ad6	0.080709144
2	0x3dd85c56	0.10564487
3	0xbd9e2b42	-0.077230945
4	0xbd8e4a5b	-0.06947776
5	0xbe1f45f9	-0.15554036
6	0xbd8664bc	-0.06562182
7	0x3db37b5e	0.08763765
8	0x3dde4ddc	0.10854694
9	0x3dc0091a	0.09376736
10	0xbe10a73a	-0.14126292
11	0x3d258ef0	0.04041952
12	0xbdffef47	-0.124968104
13	0xbe024c4a	-0.12724414
14	0x3d459bc8	0.048244268
15	0xbe5657b7	-0.20931898
16	0xbe010ba2	-0.12602094
17	0xbe1ec988	-0.15506566
18	0x38c2e376	9.293009e-05
19	0xbc3ae32a	-0.011406699
20	0xbde0c8c3	-0.10975792
21	0x3df26a15	0.1183664
22	0xbe2f4131	-0.17114712
23	0x3d9734e1	0.07383133
24	0xbdf2cb1c	-0.11855146
25	0x3e9f0f05	0.31066146
26	0xbd6ca629	-0.05777565
27	0xbdabc897	-0.08387869
28	0xbe46c83d	-0.19412322
29	0xbd0f67bc	-0.03501104
30	0x3d1731c0	0.03691268
31	0xbe0bce57	-0.13652931
32	0x3e064aa3	0.13114409
33	0x3d0eef02	0.034895904
34	0x3c439b4f	0.011938884
35	0xbdf024a5	-0.117257394
36	0x3c88ee2a	0.016715128
37	0xbe5cd029	-0.21563782
38	0x3e2b6241	0.167367
39	0x3e22de0f	0.15905021
40	0x3d9ac90c	0.07557878
41	0xbdf12156	-0.117739365
42	0xbe2fffc4	-0.1718741
43	0xbdc62e69	-0.09676821
44	0x3d8adcaf	0.06780373
45	0xbcca81f3	-0.024720168
46	0x3e6b51b2	0.22980383
47	0x3d8e957c	0.06962106
48	0x3de7f7d8	0.11326569
49	0xbe72da0d	-0.23715992
50	0xbb851bad	-0.004062137
51	0xbe966e91	-0.2938123
52	0xbd294260	-0.041323066
53	0xbd494534	-0.049138263
54	0x3e70cc70	0.23515487
55	0xbdc2d86c	-0.095139354
56	0x3e20924a	0.15680805
57	0xbe1063ce	-0.14100572
58	0x3ea3185e	0.31854528
59	0x3e09add9	0.13445224
60	0x3c222dde	0.009898631
61	0xbc1054bc	-0.008809265
62	0xbe89b5c9	-0.26896504
63	0x3e79323e	0.24335572
64	0xbdc6ef22	-0.0971358
65	0xbe339ad8	-0.17539537
66	0x3dd100a8	0.10205203
67	0xbdd64e36	-0.10464136
68	0x3cff3e2f	0.031157581
69	0x3d2b8f2b	0.041884582
70	0x3d15a4b3	0.036534023
71	0x3db5e6b7	0.08881896
72	0x3d86d541	0.06583644
73	0x3e23893b	0.15970318
74	0x3d39b134	0.04533501
75	0xbdd2afd6	-0.10287444
76	0x3e0266f3	0.12734585
77	0x3eb64758	0.35601306
78	0x3dd0520c	0.10171899
79	0xbd52ca1d	-0.05146228
80	0x3d656041	0.055999998
81	0xbe2f0df7	-0.17095171
82	0x3d2e0a61	0.042490367
83	0x3dec7499	0.11545677
84	0x3e015461	0.12629844
85	0xbda35040	-0.07974291
86	0xbdf35120	-0.11880708
87	0x3d632563	0.055455577
88	0x3caef5c8	0.021357432
89	0xbe28be92	-0.16478947
90	0xbe8249ce	-0.25446934
91	0x3d2ae4cb	0.0417221
92	0xbd7336d0	-0.059378445
93	0xbce7ea11	-0.028309854
94	0x3e9661e7	0.2937157
95	0x3d557ba0	0.05211985
96	0xbdb27554	-0.08713785
97	0x3e34213c	0.17590803
98	0x3d1da887	0.0384908
99	0xbe2eb3ae	-0.1706073
100	0x3e6616b9	0.22469606
101	0x38233af7	3.8917144e-05
102	0xbd5b378c	-0.05351977
103	0xbe884087	-0.2661173
104	0x3c214ebd	0.009845433
105	0xbd5eac65	-0.054363627
106	0xbe80fa37	-0.251909
107	0x3e091bd3	0.1338952
108	0xbe696a8a	-0.22794548
109	0xbcd8d0a9	-0.026466684
110	0xbc0a3876	-0.008436313
111	0x3e0bc500	0.13649368
112	0xbe219bee	-0.15782139
113	0x3e47eaf7	0.19523226
114	0xbd4b5206	-0.04963877
115	0x3d460ded	0.048353124
116	0xbe17a514	-0.14809066
117	0x3ca98de9	0.02069755
118	0xbe0cbaba	-0.13743106
119	0xbe8b43db	-0.27200207
120	0x3d28269f	0.041052457
121	0x3cd51644	0.026011594
122	0x3d11aa19	0.03556261
123	0xbdeb3143	-0.11484005
124	0xbd649cdd	-0.05581366
125	0xbd65ea59	-0.056131694
126	0x3edac936	0.42731637
127	0x3d13cb26	0.03608241
128	0x3e32afb1	0.17449833
129	0x3d7bf9c4	0.061517492
130	0x3e86ae64	0.26304924
131	0x3dda8ac0	0.10670996
132	0x3e1d2b21	0.15348484
133	0x3e59e056	0.21276984
134	0x3c75b79f	0.014997392
135	0xbd5beb65	-0.053691287
136	0x3e560dcb	0.20903699
137	0xbc5308f8	-0.012880556
138	0xbcf2ad6f	-0.029623715
139	0xbc358f02	-0.011081459
140	0x3ccf0778	0.025272116
141	0x3d9954d2	0.07486881
142	0x3df63a50	0.12022841
143	0xbe63e6de	-0.22256038
144	0xbdb10273	-0.08643045
145	0xbd290cde	-0.041272037
146	0x3e8896c2	0.2667752
147	0x3e72ab82	0.23698238
148	0x3d763242	0.060106523
149	0xbe1a3f7f	-0.15063284
150	0xbcfc74ae	-0.030817356
151	0x3e963ac7	0.2934172
152	0xbc016a4c	-0.007898878
153	0x3e2ef266	0.17084655
154	0xb9861a33	-0.00025577992
155	0x3dfbe137	0.12298816
156	0x3e3a4966	0.18192062
157	0xbd6e3343	-0.058154356
158	0xbb1f90ef	-0.0024347862
159	0xbe8199eb	-0.25312743
160	0xbdca10e6	-0.09866504
161	0xbecedcd0	-0.40402842
162	0x3e6f39c9	0.23361887
163	0xbc98911b	-0.01862388
164	0x3d904653	0.07044663
165	0x3e133132	0.14374235
166	0x3dd48a85	0.10377983
167	0x3eba3e2c	0.36375558
168	0xbdd42f24	-0.10360554
169	0x3e0ef366	0.13960037
170	0x3e2672ee	0.1625478
171	0xbe9b10d2	-0.3028627
172	0x3e014262	0.1262298
173	0xbd9fcfdb	-0.07803317
174	0xbe16f3a5	-0.1474138
175	0x3d8f7a71	0.07005776
176	0x3ce25f2a	0.027633268
177	0x3e88ebcb	0.26742396
178	0x3d5b5e95	0.053556997
179	0x3e24ee2f	0.16106485
180	0xbead375c	-0.33831298
181	0x3de86ddc	0.11349079
182	0xbd8fac7f	-0.07015323
183	0x3d8fd8ee	0.07023798
184	0x3e89fcf7	0.2695081
185	0x3ddeb5ca	0.10874517
186	0xbe78aa76	-0.24283776
187	0x3db27a7c	0.08714768
188	0x3d7b3a07	0.061334636
189	0x3c42ce4f	0.011890008
190	0xbdff8e5c	-0.12478325
191	0x3e2a3046	0.16619977
192	0xbe873ad5	-0.26412073
193	0x3e1f4c39	0.1555642
194	0xbed47ee2	-0.41503054
195	0xbe5bc1dc	-0.2146067
196	0xbd67f001	-0.05662537
197	0xbe52339c	-0.205275
198	0xbc5e3267	-0.013561822
199	0xbd650e0c	-0.0559216
200	0x3e87ddaa	0.26536304
201	0xbd043cf4	-0.032284692
202	0x3e8e5dc0	0.278059
203	0xbe095e59	-0.13414897
204	0xbd221016	-0.039566122
205	0x3cc6b202	0.024254803
206	0x3d0c50cc	0.03425674
207	0x3c51a8ec	0.012796622
208	0xbda1ae8a	-0.07894619
209	0x3d3a6cd1	0.04551393
210	0xbce7f260	-0.028313816
211	0x3dc9e947	0.09858947
212	0x3d388108	0.04504493
213	0x3d96e601	0.073680885
214	0xbdd23667	-0.10264283
215	0x3d37a920	0.044839025
216	0xbe566bc1	-0.20939542
217	0x3d11b4c6	0.03557279
218	0x3e84af32	0.25914913
219	0x3dce8e4a	0.10085733
220	0xbe5966fd	-0.21230693
221	0xbe814fe1	-0.25256255
222	0xbce15194	-0.02750472
223	0xbe3bd3b2	-0.18342474
224	0xbea746a9	-0.32671097
225	0x3d29291d	0.041298974
226	0xbd50f35c	-0.051013336
227	0x3da2c4c8	0.07947689
228	0xbdc5158d	-0.09623251
229	0xbddd8753	-0.10816827
230	0xbdb64f67	-0.089018635
231	0x3db966cd	0.09052811
232	0x3da4f29c	0.080540866
233	0x3d67d6ec	0.05660145
234	0xbd80d056	-0.06289737
235	0xbe174b1c	-0.14774746
236	0xbd1bc6e7	-0.038031485
237	0x3c8ae9b9	0.01695715
238	0x3e297a14	0.16550475
239	0x3cf42868	0.029804423
240	0xbe686dfc	-0.22698206
241	0xbd7385f3	-0.059453916
242	0xbd8da975	-0.06917087
243	0x3d722312	0.059115477
244	0x3e2fd342	0.17170432
245	0xbe053f8d	-0.13012524
246	0x3d9aa827	0.07551604
247	0xbdbb12bd	-0.091344334
248	0x3d86463c	0.06556365
249	0x3eaae4f0	0.3337779
250	0x3db0967d	0.08622453
251	0x3e7f84b8	0.24952972
252	0xbe55dd30	-0.20885158
253	0xbe4cda53	-0.20005159
254	0xbdb7e2b9	-0.08978791
255	0x3e86a387	0.26296636

network_body._body_endoder.seq_layers.2.bias f4 [128]
0	0x3e27d49d	0.163897
1	0x3d6b3b66	0.057429694
2	0xbc808f24	-0.015693255
3	0x3c1ea20d	0.009682191
4	0xbd194e49	-0.037428174
5	0x3d9f6af2	0.0778407
6	0xbaf73888	-0.0018861452
7	0x3e00d8b3	0.12582664
8	0x3dba8fda	0.09109469
9	0xbd94ea3b	-0.072712384
10	0x3e105be0	0.14097548
11	0x3d038c90	0.032116473
12	0x3deff40b	0.117164694
13	0xbde6a34d	-0.11261616
14	0xbd188e4f	-0.03724509
15	0x3e09e84a	0.13467517
16	0xbe3063e5	-0.17225607
17	0xbe2e0f8e	-0.16998121
18	0x3e1da47e	0.1539478
19	0x3cd87966	0.026425075
20	0xbd20a28c	-0.039217517
21	0xbd331f2e	-0.043730907
22	0xbd49479b	-0.049140554
23	0xbc8965ae	-0.016772117
24	0x3e0a88b2	0.13528708
25	0xbd0a389d	-0.033745397
26	0xbdbf68ae	-0.09346138
27	0x3e944d14	0.28965056
28	0x3e0e533f	0.13898943
29	0x3e053543	0.13008599
30	0x3d9d1a4a	0.0767103
31	0x3db396a4	0.08768967
32	0x3dd0ba57	0.101917915
33	0x3e21fc5c	0.15818924
34	0xbcce8a54	-0.025212444
35	0x3d8e498c	0.06947622
36	0x3e38fdab	0.18065517
37	0x3e205841	0.15658666
38	0x3e7ff0f9	0.24994268
39	0x3e02a07b	0.12756531
40	0xbc878388	-0.016542211
41	0xbd4b5eaa	-0.049650826
42	0x3e1b65d6	0.15175566
43	0xbe1c3cc6	-0.15257558
44	0x3e0044a8	0.1252619
45	0x3dd39166	0.10330467
46	0x3e64cd57	0.22343956
47	0x3ca945b3	0.020663118
48	0x3dffbe48	0.12487465
49	0xbd3f515c	-0.04670845
50	0x3e1c7a32	0.15280989
51	0x3e661e3a	0.22472468
52	0xbda28978	-0.07936376
53	0xbca36efa	-0.019950379
54	0x3d24fa17	0.040277567
55	0xbe271169	-0.16315235
56	0x3e12887b	0.14309876
57	0xbd014b39	-0.03156588
58	0x3dceccda	0.10097666
59	0x3def48e8	0.11683828
60	0x3e062a4d	0.13102074
61	0x3e1d878e	0.15383741
62	0xbdc468f8	-0.09590334
63	0xbcb2fcd2	-0.02184907
64	0x3d9fb4f1	0.07798184
65	0x3b8ced5b	0.004300756
66	0x3cfbf034	0.030754186
67	0x3e2dca83	0.16971783
68	0x3cb246f8	0.021762356
69	0x3b012b8f	0.00197098
70	0x3e088ccd	0.13334961
71	0x3e1d69f8	0.15372455
72	0x3e498bcc	0.19682235
73	0x3d7f8d1e	0.06239044
74	0x3db66aaf	0.08907067
75	0x3dc077a7	0.09397822
76	0x3de17c52	0.1101004
77	0x3e84e175	0.2595326
78	0x3c463325	0.012097155
79	0x3d0ce7b1	0.034400646
80	0x3db61113	0.088899754
81	0xbc313d71	-0.010817871
82	0x3db80644	0.0898557
83	0x3e4dabb2	0.20085028
84	0x3e449aad	0.19199629
85	0x3e72d1c6	0.23712835
86	0x3df1cf5d	0.118071295
87	0xbcc30dce	-0.023810294
88	0xbd74bd9b	-0.059751134
89	0xbe0a6367	-0.13514481
90	0xbd5cb0f8	-0.053879708
91	0x3dbc735e	0.09201692
92	0xbd9ed17c	-0.077548
93	0xbd8f163c	-0.06986663
94	0x3e5d8684	0.21633345
95	0x3db5af20	0.08871293
96	0x3d5fe2f2	0.05465979
97	0x3ce3aa98	0.027791306
98	0x3e0c4147	0.13696776
99	0x3e2d4aec	0.16923112
100	0xbd268587	-0.040654685
101	0xbd802927	-0.06257849
102	0xbd469b3a	-0.04848788
103	0x3d20b180	0.039231777
104	0x3dd05ef0	0.10174358
105	0x3d1320da	0.03592
106	0x3db6d8da	0.0892808
107	0x3e07bef4	0.13256437
108	0x3e59d210	0.21271539
109	0xbd3c2d38	-0.04594156
110	0x3e908fc5	0.28234687
111	0x3d64c9d3	0.055856537
112	0x3d831fdc	0.06402561
113	0x3d9a7fd7	0.07543915
114	0x3be292af	0.0069144587
115	0x3db17332	0.0866455
116	0x3d833f71	0.06408585
117	0x3e316f20	0.17327547
118	0xbdc91f44	-0.098204166
119	0x3d68474a	0.05670861
120	0x3b885c66	0.0041614054
121	0x3cbd1736	0.023082357
122	0x3e0a1ead	0.13488264
123	0xbca46695	-0.020068446
124	0x3e24449d	0.16041799
125	0xbd1c5501	-0.038167004
126	0xbb8ed0d8	-0.004358392
127	0x3e4d2c62	0.20036462

network_body._body_endoder.seq_layers.2.weight f4 [128, 128]
0	0x3bfe2c77	0.0077567655
1	0x3d02c617	0.031927194
2	0x3e9a3ad2	0.30123
3	0xbdf81d91	-0.12115014
4	0xbdde3d7c	-0.10851571
5	0xbdf5f5c8	-0.1200977
6	0xbcc84633	-0.024447536
7	0xbde82e93	-0.11337008
8	0x3e5b520b	0.21418016
9	0x3e0a4387	0.13502322
10	0x3e98d376	0.29848832
11	0x3c20f8aa	0.009824911
12	0xbe26eaf7	-0.1630057
13	0xbd8996df	-0.067182295
14	0xbde1090a	-0.10988052
15	0xbd3522db	-0.044222694
16	0xbe0d49ad	-0.13797636
17	0x3ddada33	0.106861494
18	0x3e57fc45	0.21092327
19	0x3d20c8c0	0.03925395
20	0xbcfa256a	-0.030535419
21	0xbd4a2703	-0.04935361
22	0x3e65fd3d	0.22459884
23	0x3e8601f3	0.26173362
24	0xbc287006	-0.010280615
25	0xbd98ff69	-0.074705906
26	0x3ed5e867	0.4177887
27	0x3da9fae5	0.082998075
28	0xbde50039	-0.11181683
29	0xbd9c3493	-0.07627215
30	0xbe221f68	-0.15832293
31	0x3e0cda8c	0.13755244
32	0x3e49258d	0.1964323
33	0x3e671ae1	0.22568847
34	0x3cc3d8ba	0.023907054
35	0x3db7e806	0.08979802
36	0xbe8dd3de	-0.27700704
37	0x3d074119	0.033021066
38	0x3d0d7ec6	0.03454473
39	0x3e66ecc5	0.22551258
40	0x3d477995	0.048699934
41	0x3cce7930	0.025204271
42	0xbd3fd548	-0.04683426
43	0xbe9cbf55	-0.30614725
44	0x3dd1bd7e	0.10241221
45	0xbd080a1e	-0.033212774
46	0xbd998241	-0.07495547
47	0x3dae3909	0.08506972
48	0x3e991fa0	0.2990694
49	0x3d34a977	0.044106927
50	0x3df6ccd5	0.12050787
51	0xbeecc42c	-0.46243417
52	0x3e35fecc	0.17772979
53	0x3e99403d	0.29931822
54	0xbb240e2e	-0.0025032866
55	0x3ceafc67	0.028684808
56	0x3df938bd	0.12169025
57	0xbdad629f	-0.08466076
58	0xbc50ee7a	-0.01275217
59	0xbe0c8fc7	-0.13726722
60	0xbdd5d938	-0.10441822
61	0xbd286780	-0.04111433
62	0xbd93947f	-0.07206058
63	0xbcf8821e	-0.030335482
64	0xbe2564a2	-0.1615167
65	0xbe18f888	-0.14938557
66	0x3d2e7e37	0.042600837
67	0x3d5a780a	0.053337134
68	0x3d272601	0.040807728
69	0x3e8b2771	0.2717853
70	0xbddc681f	-0.10762047
71	0xbd4455b2	-0.047933288
72	0x3e884a6d	0.26619282
73	0x3edeff8b	0.4355434
74	0xbc85a668	-0.0163147
75	0x3e0c6e26	0.13713893
76	0x3bd3886a	0.006455471
77	0xbb99ba36	-0.0046913875
78	0xbc85848d	-0.016298557
79	0xbd51c0ec	-0.051209375
80	0xbb173ad3	-0.0023075833
81	0xbcc03940	-0.023464799
82	0xbb439c4a	-0.0029847794
83	0xbd9f42a7	-0.07776385
84	0x3c9eebfc	0.019399635
85	0x3eae250c	0.3401264
86	0xbd588288	-0.05285886
87	0xbd89226d	-0.06696019
88	0xbb818c27	-0.003953475
89	0x3e2ca9ac	0.168616
90	0xbd023118	-0.0317851
91	0x3dbe8316	0.093023464
92	0xbe699a79	-0.22812833
93	0x3d8c4cd2	0.0685059
94	0xbdbfe8d9	-0.09370584
95	0x3eba447c	0.36380374
96	0xbbd46051	-0.0064812084
97	0x3db80428	0.08985168
98	0xbe4dbe95	-0.20092233
99	0xbd692068	-0.05691567
100	0x3ecfba62	0.40571886
101	0x3e98318d	0.29725304
102	0xbd927c07	-0.071525626
103	0xbcb6b1c7	-0.022301568
104	0x3e907427	0.28213617
105	0xbe333ed4	-0.17504436
106	0xbd5e0c1f	-0.05421078
107	0xbdeb3e90	-0.11486542
108	0x3d8df5de	0.06931661
109	0x3d0ce05a	0.034393646
110	0xbdecb4c9	-0.115579195
111	0x3d9f5cd7	0.0778138
112	0x3e13d2e7	0.14435922
113	0x3cd05770	0.025432318
114	0x3d26d61c	0.040731534
115	0x3d731b21	0.059352044
116	0xbd0787a7	-0.033088353
117	0xbe6d0a42	-0.23148444
118	0x3dc13f86	0.09435944
119	0x3df9f386	0.122046515
120	0x3c856325	0.016282627
121	0x3e798afb	0.24369423
122	0xbd4046cf	-0.04694253
123	0x3d9120c1	0.070863254
124	0x3dcc68bf	0.09980916
125	0x3e64120b	0.22272508
126	0xbe0596a5	-0.13045748
127	0x3d18a8aa	0.037270226
128	0xbdd5f173	-0.104464434
129	0x3e575c7a	0.21031371
130	0x3d02f0df	0.031967994
131	0x3e932f85	0.28747192
132	0x3e052442	0.13002113
133	0xbe82567a	-0.254566
134	0x3e2ae366	0.16688308
135	0x3da0b752	0.078474656
136	0x3ccdcd02	0.02512217
137	0x3e28eceb	0.16496627
138	0xbe966b71	-0.29378846
139	0xbdd4e624	-0.10395458
140	0x3ea52378	0.32253623
141	0x3df9f4d7	0.122049026
142	0xbe0a6073	-0.13513355
143	0xbd407bcd	-0.046993066
144	0x3ebf89c5	0.37409797
145	0x3d071d9e	0.03298723
146	0xbc5beb28	-0.013422765
147	0x3c8ddabb	0.017316213
148	0xbe5355e4	-0.20638233
149	0x3e6ea2cb	0.23304288
150	0x3ddc8023	0.10766628
151	0xbe8a4fdd	-0.27014056
152	0x3e2b864f	0.16750453
153	0xbe342a01	-0.17594148
154	0xbee269fc	-0.44221485
155	0xbe6ea513	-0.23305158
156	0x3cb40e77	0.021979554
157	0x3c762de6	0.0150255915
158	0x3e315d6b	0.17320792
159	0x3e2572ad	0.16157027
160	0xbe5069d7	-0.20352875
161	0xbd2c258a	-0.042027988
162	0xbe6a9950	-0.22910047
163	0x3de811dc	0.113315314
164	0xbd002063	-0.031280886
165	0xbe1a0f01	-0.15044786
166	0xbe32ac4e	-0.17448542
167	0x3d3e1e6f	0.046415742
168	0xbd15aa29	-0.03653923
169	0xbcbb9768	-0.022899345
170	0xbdc80e48	-0.09768349
171	0xbdd50f38	-0.10403293
172	0xbe98ccdd	-0.29843798
173	0xbddaff73	-0.10693254
174	0x3e05faa0	0.13083887
175	0xbde395de	-0.11112569
176	0xbea7745f	-0.32705972
177	0xbcc59d10	-0.024122745
178	0x3e2006b1	0.15627553
179	0x3ea40898	0.32037807
180	0xbec0093e	-0.3750705
181	0xbe90a036	-0.2824723
182	0x3e0c7773	0.13717441
183	0x3e2b280d	0.16714497
184	0x3e86ec03	0.26351938
185	0x3ee75f36	0.45189828
186	0x3784576b	1.5776333e-05
187	0x3e287fd6	0.16455016
188	0xbdc678bb	-0.09690996
189	0xbdf9b52e	-0.121927604
190	0x3e16e909	0.14737333
191	0x3e6da06e	0.2320573
192	0x3cfb33a3	0.03066427
193	0x3e35d61f	0.17757462
194	0xbe5e6dbb	-0.21721546
195	0xbd9c9640	-0.076458454
196	0xbd5a8dbd	-0.05335783
197	0x3dbcd1da	0.092197135
198	0xbce49a4f	-0.027905611
199	0x3e906e09	0.2820895
200	0xbe690bfe	-0.22758481
201	0xbee13b17	-0.43990394
202	0x3d68d8e9	0.056847487
203	0x3e03394d	0.12814827
204	0x3d7477d2	0.059684582
205	0xbe9f8ca6	-0.31161994
206	0xbc7148d8	-0.01472684
207	0xbe394ee0	-0.18096495
208	0xbe476b7d	-0.19474597
209	0x3e30364d	0.17208214
210	0x3e773e63	0.24144892
211	0xbd30e8f1	-0.0431909
212	0x3d9cff70	0.07665908
213	0xbdabf13d	-0.08395622
214	0x3e9c603d	0.30542174
215	0x3e19d0b7	0.15021025
216	0x3d793f3c	0.06085132
217	0x3e5a2946	0.21304807
218	0x3e89557f	0.2682304
219	0x3ceb512f	0.028725235
220	0x3df946ec	0.121717304
221	0x3b6a4cf9	0.0035751446
222	0x3e99e145	0.3005468
223	0xbea0d1e0	-0.31410122
224	0x3e4d4232	0.20044783
225	0x3dbdc0f4	0.092653185
226	0x3d2753fa	0.04085157
227	0x3dad3270	0.08456886
228	0xbe79517e	-0.24347493
229	0xbe1fe7e0	-0.15615797
230	0x3e369d0c	0.17833346
231	0x3e135d6f	0.14391111
232	0x3e0b2874	0.1358965
233	0xbe447547	-0.19185363
234	0xbe0f2565	-0.13979109
235	0xbd9c10c0	-0.07620382
236	0x3d963070	0.073334575
237	0x3e322dae	0.17400238
238	0x3edb546a	0.4283784
239	0xbe017174	-0.12640935
240	0xbb7026fb	-0.0036644328
241	0xbdf75290	-0.120762944
242	0xbb889664	-0.0041683186
243	0x3e9c37ef	0.30511424
244	0x3e5e45ba	0.21706286
245	0x3db84eab	0.0899938
246	0x3e32acd8	0.17448747
247	0x3d698c74	0.057018712
248	0x3e116166	0.14197311
249	0xbeb926c5	-0.3616239
250	0xbe72efbc	-0.23724264
251	0xbd121c28	-0.035671383
252	0xbe62affc	-0.22137445
253	0xbdbc28f7	-0.09187501
254	0xbcf55a13	-0.029950177
255	0xbeb692af	-0.35658786

network_body.observation_encoder.processors.0.normalizer.running_mean f4 [25]
0	0x3f7ffe21	0.99997145
1	0x00000000	0.0
2	0x00000000	0.0
3	0x00000000	0.0
4	0x3e513eea	0.20434156
5	0x3f7ffe21	0.99997145
6	0x00000000	0.0
7	0x00000000	0.0
8	0x00000000	0.0
9	0x3e6140a6	0.21997318
10	0x3f7ffe21	0.99997145
11	0x00000000	0.0
12	0x00000000	0.0
13	0x00000000	0.0
14	0x3e624462	0.22096398
15	0x3f7ff3f4	0.9998162
16	0x00000000	0.0
17	0x00000000	0.0
18	0x382dd587	4.1445277e-05
19	0x3e63190b	0.22177522
20	0x3f7ffa20	0.99991035
21	0x00000000	0.0
22	0x00000000	0.0
23	0x37396c45	1.1052068e-05
24	0x3e6380e4	0.22217137

network_body.observation_encoder.processors.1.normalizer.running_mean f4 [30]
0	0x3ccf5280	0.025307894
1	0x3f798564	0.9746916
2	0x00000000	0.0
3	0x00000000	0.0
4	0x00000000	0.0
5	0x3ee55bc5	0.44796577
6	0x3f4fe8b6	0.81214464
7	0x3e402b27	0.18766461
8	0x00000000	0.0
9	0x00000000	0.0
10	0x00000000	0.0
11	0x3e9f8bb2	0.31161267
12	0x3f4f7fbb	0.81054276
13	0x3e41e5c7	0.1893531
14	0x00000000	0.0
15	0x00000000	0.0
16	0x00000000	0.0
17	0x3e9c563b	0.3053454
18	0x3f6e9eea	0.93211234
19	0x3d8a1150	0.06741583
20	0x00000000	0.0
21	0x00000000	0.0
22	0x36e7c77f	6.907561e-06
23	0x3e73a5d1	0.23793723
24	0x3f6fdb67	0.93694156
25	0x3d7f2508	0.062291175
26	0x00000000	0.0
27	0x00000000	0.0
28	0x00000000	0.0
29	0x3e716194	0.2357238

network_body.observation_encoder.processors.2.normalizer.running_mean f4 [13]
0	0x00000000	0.0
1	0xbefffe21	-0.49998572
2	0x4195fe8e	18.749294
3	0xbc950210	-0.01818946
4	0x3eab6f62	0.33483416
5	0x408f8146	4.4845304
6	0xbacc36d6	-0.0015580307
7	0xbb495bc1	-0.0030724856
8	0xb8119e8b	-3.471835e-05
9	0x3f7fba14	0.9989331
10	0x43667f18	230.49646
11	0x00000000	0.0
12	0xbf6c5104	-0.9231112
