Assets/Brains/Misc/CarAgent/CarPractice_run25.onnx (onnx, 108915 bytes, 15 tensors)

85 f4 [25]
00000000: 495c b93a 1012 833a 1012 833a 1012 833a
00000010: ad3e 183e fc7c 503c 1012 833a 1012 833a
00000020: 795c b93a 2a6f 193e 6d46 7e3c 1012 833a
00000030: 1012 833a 1012 833a 4aa9 143e 2684 963e
00000040: 1012 833a 1012 833a c638 bc3b 313a 853d
00000050: 0f6a 983e 1012 833a 1012 833a ccca d13b
00000060: cbfe 823d
0.0014141883 0.000999989 0.000999989 0.000999989 0.14867659 0.012725111 0.000999989 0.000999989
0.0014141939 0.14983812 0.0155197205 0.000999989 0.000999989 0.000999989 0.14517704 0.29397696
0.000999989 0.000999989 0.0057440726 0.0650524 0.29768416 0.000999989 0.000999989 0.006402349
0.06396254

88 f4 [30]
00000000: 885e aa3e d879 b53e 1012 833a 1012 833a
00000010: 1012 833a 57d1 9c3e d9e4 e33e c2ff c53e
00000020: 1012 833a 1012 833a 1012 833a 4c1c 223e
00000030: d1a8 e53e 548f c83e 1012 833a 1012 833a
00000040: 1012 833a f2c3 273e 13d3 cd3e 839b 843e
00000050: 1012 833a 1012 833a 1012 833a bb9a a43d
00000060: 51c6 cf3e 0586 8b3e 1012 833a 1012 833a
00000070: 1012 833a da89 aa3d
0.33275247 0.35444522 0.000999989 0.000999989 0.000999989 0.30628464 0.44510534 0.3867169
0.000999989 0.000999989 0.000999989 0.15831107 0.4485536 0.3917185 0.000999989 0.000999989
0.000999989 0.16383341 0.402001 0.25899896 0.000999989 0.000999989 0.000999989 0.08037325
0.4058099 0.27250686 0.000999989 0.000999989 0.000999989 0.08327074

91 f4 [13]
00000000: ecff ef3f 5d8a 923a b8d0 993c 2004 723f
00000010: 7a5e c63c 2188 0e41 7414 fe3a 1c98 0f3d
00000020: 0f80 d13b ec9d 9d3b 1538 7f43 1012 833a
00000030: d6ed 6841
1.8749976 0.0011180151 0.018776283 0.94537544 0.024214972 8.908235 0.0019384758 0.035057172
0.0063934396 0.0048100855 255.21907 0.000999989 14.558065

action_model._discrete_distribution.branches.0.bias f4 [3]
00000000: 033a d03d 6bb8 b4bd 2ef5 2b3c
0.10167315 -0.088242374 0.010495467

action_model._discrete_distribution.branches.0.weight f4 [3, 128]
00000000: b83e 303e 157b 613e fe2d 48bd 1c01 213d
00000010: 19ae 9b3d 1663 d1bb 82d8 91bd b399 463e
00000020: 4091 9ebc 7d69 d93d 4a6d c53d c392 bb3d
00000030: 1cea 6cbd cbd3 65bd cbc3 f2bd cdbe b03d
00000040: 2e44 88bd 27b6 4f3e 6e8b f73d f1c7 44bd
00000050: 5c15 1e3e f634 833e b8b9 7c3e c120 75bd
00000060: 4b4b 353e 0be8 53bd 493b e5bc ab32 593d
00000070: 3b38 a03e 430d ba3d 9e75 873d 5149 253e
00000080: b48c 9bbd 7efe 16be c8d4 83bd e2a5 5fbb
00000090: 7835 77bb a994 ae3d 1671 56be e39a 793e
000000a0: edff 223d f600 f5bd 525a d5bc df38 8f3d
000000b0: 52e9 96bd f06b e5bd d108 b7bd 56f4 82bd
000000c0: 210a 933b 2d8d d4bd 05b1 223e 7f68 123e
000000d0: b93c dabd e2db ff3d 562b a13e 1ca0 64bc
000000e0: 89aa d4bd c289 8f3e 25d6 433d 179a 9e3e
000000f0: 8a30 3b3e ab4d 743d d158 7e3e a108 aabc
00000100: d580 163e 9617 e4b9 7229 d7bd 0966 6d3d
00000110: 83f8 a53d cd35 ef3d 9e3a 37bb 9b3b b3bc
00000120: 899e a53e 705b 793e 4676 ac3e 6c75 7ebc
00000130: 7b8c 163e cda3 753e 08e5 9a3e a783 4bbe
00000140: b340 d13d 64af 73be 28cc 573e 6202 103e
00000150: 8664 64bc 0392 803e 3a5a 87bd 75e5 0639
00000160: 322d 8bbd 4fcc 7e3c 4f85 71be c0f1 803d
00000170: 5530 9a3e f8c7 d7bc 2db9 71bd 2a93 5c3e
00000180: d5a8 4c3d ab8f 68be f5c7 463e e6a4 40bd
00000190: f8ed 1ebd a16f 1d3d d746 a13d 7025 89be
000001a0: dff8 a73d cbcb aa3e feb1 813e 9b5b d63c
000001b0: 73e0 d5bd ed80 4c3e 91e4 e23d f586 aebd
000001c0: aa38 2dbe 3613 8b3e 1985 fe3c 6d2f 633e
000001d0: a13f d13c 97b8 b43d 3e99 023e 5347 b23e
000001e0: 4675 bcbd 988b c1bc 0598 ca3d 8a99 a43e
000001f0: f338 f73c a7b8 57be f5b5 163e 27a3 103e
00000200: eb99 1bbe b5f6 58be 8905 023e ccec 06bd
00000210: 8838 463d e149 8cbc d9b9 123e 3e67 2abe
00000220: e8e8 713d d8af 19be 5eba 13be f9a8 f6bd
00000230: 6525 7b3d 0e3a e83d ea00 853d 8b91 703d
00000240: 19c7 e53d 13ef babe 8b27 8cbe 82a1 de3c
00000250: 4a88 40be 1358 08be 855c 41be 4cbd d7ba
00000260: d3cc 043a fd55 0ebe e589 eabd 1c03 9cbc
00000270: 8745 30be b097 1cbe 12d5 ad3d b84c 7fbe
00000280: 7f36 443d 20ae 0b3e da93 a2bd 9ea5 243d
00000290: ccb5 cc3d ae76 14be 2b1b c03d 4245 1dbd
000002a0: 9ac9 7dbe 3ebd ef3c dbea fabd fd4f bcbd
000002b0: 9624 d43c 2248 053d 544b 333d f2e8 ce3c
000002c0: 4ea2 3d3d 709d 003e cf5f ce3b 6d7b 0c3e
000002d0: fb5e 883d 5f06 99be e02b 5dbe 6df4 d43d
000002e0: 7c6e 793e 7839 fbbd 496b 713d f475 35be
000002f0: d5d3 b5bd 2548 f33d 38e8 1bbe 01eb ac3d
00000300: a0a7 17be 84a6 6dbe 1a65 d03d d35f c03d
00000310: c328 1cbe e2e2 a4bc 1cf3 263e e215 96bd
00000320: 1972 2abe 37b8 5cbe 18f5 02be 4a70 16bd
00000330: 55a7 14be 5648 20be b886 55be 1713 f03d
00000340: 61d1 813d 3961 153e 4edb ffbd 339b ad3b
00000350: 3d57 51be 5ad7 2fbe 60d9 c63c a285 1dbe
00000360: fe79 8e3d 45a4 1abd 427e b93d 6b7e 5bbe
00000370: 5af1 70be 9f90 363e 2f55 9d3d 68b8 3cbd
00000380: 0cb9 9dbd 78a7 d73d f1f9 1cbe 8ef8 9c3b
00000390: c72a 773b 463e 123e 8845 e539 83a4 0a3e
000003a0: ba7c 133e de1d 34be 40a8 d03d 0cd6 643d
000003b0: 25aa 0d3e 798c a4bd 8a74 833d 8cfc c93d
000003c0: 65a2 d63d 4ff4 1ebe 27bc 0bbe 5e3d 853d
000003d0: 4c6d 78bd ddd8 9eba 2513 23be 84f9 8fbe
000003e0: 84c3 dc3d 83d5 d53c 9738 a43c d14a 4bbe
000003f0: 0fde 9a3d 9c8d d83d 515a 21be 7efc 35be
0.17211425 0.22019608 -0.048871987 0.0393077 0.07601566 -0.006389986 -0.07121374 0.19394569
-0.01935637 0.106158234 0.09639986 0.09158852 -0.05784045 -0.056110185 -0.11853751 0.08630142
-0.06653629 0.2028433 0.12087141 -0.04804224 0.15437835 0.25626343 0.24680221 -0.05984569
0.17704503 -0.051734965 -0.02798237 0.053026836 0.312929 0.09084561 0.066142306 0.16141249
-0.07595196 -0.14745519 -0.06437069 -0.0034125973 -0.003772108 0.085244484 -0.20941576 0.24375491
0.03979485 -0.11963074 -0.026044045 0.06993269 -0.07368721 -0.11202228 -0.089372285 -0.0639426
0.0044872914 -0.1037849 0.1588784 0.14297675 -0.10656113 0.12493111 0.31478375 -0.013954189
-0.103840895 0.28034788 0.047811646 0.30976936 0.18280235 0.059644382 0.24838568 -0.020756068
0.14697583 -0.00043505122 -0.10505952 0.057958636 0.081040405 0.116801836 -0.0027958523 -0.021879008
0.32347515 0.24351287 0.33683985 -0.015530925 0.14702027 0.23988266 0.30252862 -0.1987444
0.102174185 -0.23797375 0.21073973 0.14063409 -0.013939982 0.25111398 -0.06609006 0.00012864715
-0.0679573 0.015551641 -0.2358601 0.0629611 0.30115 -0.02634047 -0.059014488 0.21540514
0.0499657 -0.22711055 0.19412215 -0.04703226 -0.038801163 0.038436536 0.0787484 -0.26786375
0.08201765 0.33358607 0.2533111 0.026166728 -0.10443201 0.19971056 0.11078752 -0.08521835
-0.16916147 0.27163094 0.031069325 0.2218606 0.025543036 0.0882427 0.1275377 0.3482004
-0.09202056 -0.023626134 0.09892277 0.3214839 0.030178523 -0.21066533 0.14717849 0.14124738
-0.15195434 -0.21187861 0.12697424 -0.03294067 0.048393756 -0.017125072 0.14328708 -0.16640946
0.059060007 -0.15008485 -0.14426562 -0.12043948 0.06131496 0.11339198 0.06494315 0.05873255
0.112196155 -0.36510524 -0.2737392 0.027176622 -0.1880199 -0.13314848 -0.1888295 -0.0016459613
0.00050659216 -0.1389999 -0.114520825 -0.019044451 -0.17214023 -0.15292239 0.084879056 -0.2493161
0.047903534 0.13640642 -0.07938357 0.040197007 0.099956125 -0.14498398 0.09380182 -0.038396128
-0.24783936 0.029265042 -0.122518264 -0.09194944 0.025896352 0.032539494 0.04377301 0.025257561
0.046297364 0.12560058 0.0062980424 0.13718958 0.06658741 -0.29887673 -0.21598768 0.10398183
0.24358553 -0.12266821 0.058940206 -0.17720777 -0.088782944 0.11878995 -0.15225303 0.08443261
-0.14810038 -0.23208052 0.101755336 0.09393277 -0.15249924 -0.020127717 0.16303676 -0.073283926
-0.16645087 -0.21554647 -0.12788808 -0.03672818 -0.14516957 -0.15652594 -0.20852172 0.11722391
0.06338764 0.14587869 -0.12493001 0.005298042 -0.20443435 -0.17171994 0.024273574 -0.15383008
0.06956862 -0.037754316 0.09057285 -0.21434943 -0.23529568 0.17828606 0.07682263 -0.0460743
-0.077013105 0.10529989 -0.1532972 0.004790372 0.0037714706 0.14281568 0.00043730089 0.13539319
0.14403048 -0.17589518 0.10188341 0.055868194 0.13834436 -0.080346055 0.064187124 0.098626226
0.10480193 -0.15522884 -0.13645993 0.065058455 -0.06065111 -0.0012119074 -0.15925272 -0.28120053
0.10779479 0.026102787 0.020046515 -0.19852759 0.075618856 0.10573885 -0.15757109 -0.177721

action_model._discrete_distribution.branches.1.bias f4 [3]
00000000: 1ec3 96bd 80b0 213c c4a7 3a3d
-0.073614344 0.009868741 0.04557015

action_model._discrete_distribution.branches.1.weight f4 [3, 128]
00000000: 009d 1fbc e116 87be d0fc 933d 7ed3 f1bd
00000010: b776 703d db54 393e e646 20be a9ec 90bd
00000020: 25b1 b6bd 9311 3e3e 6cbb 433e e70e a73d
00000030: f906 82be 2834 cb3d 6a73 993d 2983 dabd
00000040: 8956 12be b998 0a3e a7f1 283e 908e e5bd
00000050: 9ef0 283e 67d9 663d f86d 94be b315 babc
00000060: f72a 4e3d d70b 153e a6e6 1abd eeb6 0cbe
00000070: 91c1 63be b162 433e 3a1a 7fbb 5ad4 173e
00000080: c979 adbd 54ba a13d 014d f63d 93a6 083e
00000090: 479f 3dbe ba1f 293e 85e4 eb3d 81ca 3dbd
000000a0: fb8f 8b3e 43d9 17bd d5d6 89bd d432 273e
000000b0: 4a0e e83d ad42 873d 6088 1cbe 31d3 093e
000000c0: 3b1b e7bd c039 a7bd 1328 773d 2711 17bd
000000d0: d660 cb3d a2cb 2b3d 9258 82be 6f14 45be
000000e0: 0738 bcba 09e4 e2bc c144 babd 58be 0bbd
000000f0: 74c8 433b 7178 10be 607e 0bbe a902 27be
00000100: 2029 3abc 71bb 073d c613 383c 8933 edbd
00000110: ff5e a3bd 8f64 84bd 17c0 113d 977c 163e
00000120: 1b67 b5bc 71a9 c83d 08ec 44bd 6862 9cbc
00000130: e9c8 513e 931a 0f3c e0ad 36be db87 4a3d
00000140: c77c 88bd c495 733c 38fc b8bd 8961 8b3d
00000150: d60f f83d 1ff8 e53c 49d7 0bbe 3c6b 9b3e
00000160: 5706 59bd 866a 3d3c 60d7 bd3d bb33 363e
00000170: 1915 51bd 15c4 44bd f307 debd d54b 0bbe
00000180: e207 b3bb 08fc 973d b7cd b0bc a831 c93d
00000190: c57e 7dbd 7e11 f2bc 8a20 3f3d 6391 c83d
000001a0: fd82 2d3d ad86 e8bd fdc1 8c3d 083c 2ebd
000001b0: 1584 0b3e dc01 67be 902d b7bd f84c 05be
000001c0: 4cae 96bd dc61 87be 1ec7 803e 66b2 7d3c
000001d0: c118 773e b0d1 ad3c b621 3a3e 1246 eabd
000001e0: 7b98 983d 9a5c b93d 503b afbd 97aa 8ebc
000001f0: 0491 f5bd 0182 a1bc 9e9b ee3c 492d 193e
00000200: af2c 25bd 0566 983d d3ec 7dbc 1f09 38bd
00000210: 871b bbbe f45f 3b3e 0e6e 2f3d a403 433d
00000220: 4461 d8bc 70b0 20be 1566 26be 0e1c 9ebe
00000230: 5983 293e a032 113e a829 b93d d292 9dbd
00000240: f36e 48be f94c 57bd c314 48be 5dcd 5b3e
00000250: 0cce 7ebc 9cd4 55bd 19c1 1c3e e84b aa3d
00000260: bcb8 a5be b94d 973d 716a 023d bc13 3e3c
00000270: 1cde 333e 5870 0a3d 1b28 4cbe 9d17 6f3d
00000280: 500f 38be 40fb 463e 1011 f43d e9b4 47bd
00000290: 22b0 fbbc 9146 ccbe 2762 393e 75b6 c4bd
000002a0: 98e2 39bd bbe9 cb3d aef2 9dbd db96 bdbd
000002b0: 0c42 1fbd 93ea 8dba 14d5 b8bd 4598 d9bc
000002c0: 870b 06be 0146 2cbd 2efe e43d c3ca 10be
000002d0: fd86 cf3c 3e56 56bd 73a7 6b3e a18e 12be
000002e0: 75a6 78bd 7b89 06be 841c 46be dca4 14bd
000002f0: 0c22 843b e187 393e de60 943d 1eea 94bd
00000300: aa76 33bc 67fc a5bd 0618 adbd 2707 5ebc
00000310: 6e4e dd3c 32bf fabc 3f40 96be 2b50 9fbd
00000320: 5e71 8d3d ce44 bcbc bab7 063e 491d b0bc
00000330: d8b4 9a3d 4bc9 0d3d ab92 ff3d d299 d13d
00000340: 4f11 91be 3826 b63d fa0b 203e 5a75 bfbe
00000350: d23b 41be 9563 1bbe 935b babd 853f b7bd
00000360: 0ed9 223e bbc4 2bbe 9dff cf3d 4203 b4bd
00000370: c0f6 84bc 2a61 2ebe 8e57 aebd d422 ac3d
00000380: 6724 04be 1f0d c9bc 421d 5b3d 79de 33be
00000390: 1fdf 86be 6d82 9ebe fa11 073e 3365 923d
000003a0: b1b5 9bbe 5fa7 e93d 62e0 41be 626a 8fbd
000003b0: 1f97 d43d d878 813e 6900 98bd caf7 9b3d
000003c0: c5d1 b33d bf61 2b3e 244d b3be 2423 76be
000003d0: 600c 3abe 6b3d c1be b2f8 6d3d 0bbe 663c
000003e0: 2777 abbd c09b 443d f8c3 543d edf7 06be
000003f0: e6c2 a0be 8287 d43d f4b3 913d 3ffa c63c
-0.009742022 -0.26384643 0.072259545 -0.11807917 0.058706965 0.18098776 -0.15652046 -0.07076389
-0.089205064 0.18561392 0.19114465 0.08157139 -0.25395945 0.099220574 0.074927166 -0.10669548
-0.14290823 0.13534822 0.16498433 -0.11208832 0.16498038 0.056359675 -0.2899015 -0.022715425
0.050333943 0.14555298 -0.03781762 -0.13741657 -0.22241808 0.19080617 -0.0038925544 0.148271
-0.08470494 0.078968674 0.12026406 0.13344793 -0.1851779 0.16516009 0.11518196 -0.0463357
0.27258286 -0.03707243 -0.06730429 0.16327983 0.113308504 0.06604514 -0.15286398 0.1345947
-0.11284491 -0.08165312 0.060340952 -0.036881592 0.09930579 0.041942246 -0.254582 -0.19246076
-0.0014359959 -0.027696626 -0.09095145 -0.034117073 0.0029874118 -0.14108445 -0.13622427 -0.16309609
-0.011362344 0.033137742 0.011235183 -0.11582095 -0.079771034 -0.064644925 0.03558358 0.14695965
-0.022143891 0.097979434 -0.04807666 -0.019089893 0.20486797 0.008734363 -0.17839766 0.049445968
-0.066644244 0.01486725 -0.09032482 0.06805713 0.121123955 0.028072415 -0.13656344 0.3035525
-0.05298456 0.011561042 0.09269595 0.17793171 -0.05104551 -0.04803856 -0.1084136 -0.13603146
-0.005463586 0.07421118 -0.021582467 0.09823924 -0.061888475 -0.029549357 0.04666189 0.09793355
0.04236125 -0.11353812 0.06872938 -0.04253772 0.13624604 -0.22559303 -0.08944237 -0.13017642
-0.07357463 -0.26441848 0.25151914 0.015484428 0.24130537 0.02121815 0.18176922 -0.11439146
0.07450958 0.090508655 -0.08556235 -0.017415328 -0.1199055 -0.019715311 0.029126938 0.14958681
-0.040325817 0.07441334 -0.015498358 -0.044930574 -0.3654444 0.18298322 0.042829566 0.047610894
-0.026413567 -0.15692306 -0.16249879 -0.3088078 0.16554011 0.14179468 0.090411484 -0.076940194
-0.19573574 -0.05256364 -0.1953917 0.21465059 -0.015552055 -0.052204713 0.15308036 0.08315259
-0.32367504 0.07387871 0.03183979 0.011601385 0.17565197 0.033798546 -0.19937174 0.05837213
-0.17974591 0.19431782 0.11917317 -0.048756514 -0.030723635 -0.39897588 0.18103848 -0.096051134
-0.045382112 0.0995669 -0.07712303 -0.09257289 -0.038881347 -0.0010827355 -0.090250164 -0.026561866
-0.13090335 -0.04205895 0.111812934 -0.14139847 0.025332922 -0.05232834 0.23013096 -0.14312221
-0.06070562 -0.13138382 -0.19346815 -0.036290035 0.004032379 0.1811824 0.072450384 -0.07271217
-0.010953585 -0.081047826 -0.08451848 -0.01355151 0.027014937 -0.030608747 -0.2934589 -0.07778963
0.06906389 -0.022982027 0.13156024 -0.02149834 0.075540245 0.034615796 0.124791466 0.10234417
-0.28333518 0.088940084 0.15629569 -0.3739422 -0.18870476 -0.15174706 -0.09099498 -0.08947662
0.15903112 -0.16774265 0.10156176 -0.08789684 -0.01623094 -0.17029253 -0.085127935 0.084050804
-0.12904511 -0.02454239 0.0534947 -0.17565335 -0.26342103 -0.30958882 0.13190451 0.071482085
-0.30412057 0.11408877 -0.18933252 -0.07002713 0.103803866 0.2528751 -0.07421953 0.076156214
0.08780245 0.16736506 -0.3501979 -0.24036843 -0.18168783 -0.3774217 0.058098502 0.014083396
-0.08372336 0.048000097 0.051944703 -0.13180514 -0.31398696 0.103774086 0.071144015 0.024289249

discrete_action_output_shape f4 [1, 2]
00000000: 0000 4040 0000 4040
3.0 3.0

network_body._body_endoder.seq_layers.0.bias f4 [128]
00000000: a4b4 093e 9551 0b3e 44c0 ac3d fee7 b03c
00000010: 3c9c 19bd 0ff7 d4ba 840a 613d 6770 903d
00000020: 03f3 113d 346b a33d 7607 253d 3306 dd3d
00000030: 0684 0f3e f83a 973d f262 6dbd b1ab ce3d
00000040: 40b3 adbc d7f1 743d e22f ad3d 62e2 cb3d
00000050: 9140 1bba 7fff e73d 59d4 0c3e d898 61bd
00000060: 1ac7 cebd 0862 08be b124 f43d 9dbf 06be
00000070: d2c7 ac3d a5ad 363e 3f75 b43d 188a cb3d
00000080: 9153 43be 1f82 663d 8afa 0abb 434d aa3d
00000090: c8d7 653d 4631 383d 98c9 f33d 4e87 65bd
000000a0: 01cf c7bc e8f6 83bd c6a9 883d 47c0 01bd
000000b0: 956d 9b3c d75c c7bc bc46 0c3e f617 9ebd
000000c0: 506e 3e3e d2f6 2b3d 888c 90bc a806 fd3c
000000d0: 42d6 b53d 8443 d43d 84c2 a8bc 0a06 533d
000000e0: dd34 1a3c 95d0 4ebd ec3e 333d 1856 223b
000000f0: 416b debd 24cb 45bc f830 193d 265a 01be
00000100: 2aab cc3c 7a92 fd3d 5391 7d3c 6a7b debb
00000110: 5c64 aa3d ef29 8a3d e115 af3d 7ce2 a1bd
00000120: b58f 6bbd 9a31 50bb ae60 94bd fe36 153e
00000130: 4dac 123e aa1b bbbd f82e 073e b578 f83d
00000140: f872 af3d f3f1 a7bd 12f5 8cbb ff2c 173e
00000150: 9549 ba3c 7fee 343d 0f65 12be 708a 25be
00000160: 3ea0 0c3d 7f56 033e b60c c63d c466 383d
00000170: 4e3c 453e 568b 973d 48ff 633b bcc6 b23c
00000180: a4ca ca3d 41ab 5abd c9c0 323d 449b 263e
00000190: 781b d7bd cc5f 423d 7871 113e f97e 8e3d
000001a0: 6682 ac3c 0bb4 a33d 9b89 ed3d 8740 a33c
000001b0: d156 153e 8b18 af3d aa51 2c3c a29c be3d
000001c0: e1bd cb3d c992 483e 05ca 353e e7e5 4a3e
000001d0: 3e49 6ebd b9ba a33d 7fe1 d23d d9e0 23be
000001e0: 7044 df3d d720 15be 7989 533e f328 413d
000001f0: 80ed 02be 4e81 e73d 4d2e 85bd cdcf 2d3e
0.13447815 0.1360534 0.08435109 0.021594997 -0.037502512 -0.0016247946 0.05494167 0.07052689
0.035632145 0.07979432 0.04029032 0.10792198 0.14015207 0.07384294 -0.05795569 0.10091341
-0.021203637 0.05980095 0.084563985 0.099552885 -0.0005922402 0.11328029 0.13752879 -0.055077404
-0.10096569 -0.13318646 0.11921061 -0.13159032 0.0843655 0.17839678 0.088114254 0.09938449
-0.19074847 0.056276437 -0.0021206462 0.08315518 0.05611399 0.044968866 0.11903685 -0.05603724
-0.0243907 -0.06443578 0.06673007 -0.03167751 0.018973151 -0.024336262 0.13698858 -0.07719414
0.18596768 0.041983433 -0.017645136 0.030886963 0.08878757 0.1036444 -0.020600565 0.05151943
0.009412018 -0.050491888 0.04376118 0.0024770554 -0.10860301 -0.012072358 0.037400216 -0.12632045
0.024983961 0.12381454 0.0154765425 -0.0067896144 0.08319923 0.067462794 0.08549095 -0.079045266
-0.057510097 -0.0031767846 -0.07245003 0.14571759 0.1432354 -0.09136136 0.13201511 0.12132398
0.085668504 -0.08200445 -0.0043016756 0.14763258 0.022740165 0.04417276 -0.14296363 -0.16166091
0.034332506 0.12825964 0.09670393 0.04501988 0.19261286 0.07399623 0.003478961 0.02182328
0.09901932 -0.053385977 0.043640886 0.16270167 -0.10503286 0.04745464 0.14203441 0.06957812
0.021058273 0.07993325 0.11598512 0.01992823 0.14583899 0.08549603 0.010517517 0.09307219
0.09948326 0.19587244 0.17752846 0.19814263 -0.058175318 0.07994599 0.10296916 -0.16003741
0.10901725 -0.14563309 0.2065791 0.047158193 -0.12785912 0.1130396 -0.06502972 0.16973801

network_body._body_endoder.seq_layers.0.weight f4 [128, 68]
00000000: bf07 5c3e 99c3 91bb 31df 083d 6fad 463e
00000010: 0193 483d 9f84 5dbc b751 80be fbad 833c
00000020: 82c0 b4bd f88f 193b dd00 933e e02f 613e
00000030: 2605 0d3d fc00 30bc 6295 a4be 3869 79bd
00000040: b5f6 06be d45f ef3c c427 0e3c c5bb 4e3d
00000050: 098d 2dbd 7220 de3c b3b4 d5bd 1321 24be
00000060: 8777 18bd 7ab2 37be 4b69 eb3d 7751 11ba
00000070: 176b 7ebb 6207 873d 3e07 593c ac6c 62bd
00000080: 4c75 edbc d31a 823c 93d8 1d3d b43f 9cbd
00000090: 73e6 6d3b 43be 3abd 9359 2ebe 0c3c 353d
000000a0: e39f 78be 49d7 21be 2f09 87be 6cbf fabd
000000b0: ddd9 12be ae1c e0bd 5cc7 28be 5932 f0bc
000000c0: c1a4 bb3d cd8c febc 4296 413e 1fb1 2ebc
000000d0: 8dcd dbbd b602 a43d fd0f f7bd 2066 0d3b
000000e0: cc1b debe 41f2 483e 8151 9fbd 582b 0d3f
000000f0: 70d8 943d 6ceb f9bd 96e7 18be 846d 58be
00000100: a66a ea3d a888 c63e 50b0 f3bd 199d e3be
00000110: 5a99 883e f02c a6bd 295f 12be 1b3d 78bc
00000120: eff1 223e 496f 49bd 70c2 b33d 9f50 833b
00000130: addf 9b3e 7cf1 3d3e 4da7 7c3e dcb8 a9bd
00000140: e95c 183d 12ac d43d a547 2bbe 8a16 843d
00000150: c171 543d 2d2e e5bd 7890 073e bf6b 4f3d
00000160: 3021 d93d b95f df3c 69cd 333d 42e8 49be
00000170: a5e4 863e 2d28 093e 532f 9b3c f2c5 183c
00000180: 45fc d03b a4f3 dcbd 3983 343d 822a 3d3e
00000190: ff49 51bc c3de c83c bc7f dc3b cbce 5a3e
000001a0: b2e7 5a3e ab57 4f3e fd46 adbe 1f7f db3c
000001b0: 0f43 87bd 9879 a6bb 9e95 71be 9875 473e
000001c0: 9f84 02be 5413 9ebd 17d4 a3bd fc5e f13d
000001d0: bfc8 3ebd 15af 02be a3d4 bbbe d013 f6bd
000001e0: 2ec9 a5bd 4d9b 05bd c0d0 3fbe 9311 bc3d
000001f0: 2ca4 fbbd d087 aa3d de04 5cbe e25d a23e
00000200: c36e 0cbe fea2 093e e275 7fbe 9c2d 1fbe
00000210: 731e 173e f940 eabc ce48 b53d c46f 99be
00000220: 1f37 e93c 1e5c 3f3e 97ed 33bd d006 94bd
00000230: ae34 edbd f2bc 3c3e 2e9d b23c 08fe b4bb
00000240: 7053 f0bd d097 afbe 09ac 0b3e 27d4 2f3e
00000250: 4991 f03d 90b4 d9bd 2193 d9bd 1c46 8d3d
00000260: 8815 083d 8538 05be be63 06be b838 863d
00000270: b7fd 2ebd 3f25 8b3d 4764 403d 5c0d 0a3e
00000280: 38a8 ff3e 944b 45bc 543e 06bf c053 073c
00000290: 0727 01be 8617 99bd dc35 3e3e 72ac d93d
000002a0: 218d e5be 6e91 2c3e 1027 053e 8996 3c3e
000002b0: c0d1 28bd 3703 74bd 2d9f 2cbe 7782 aa3b
000002c0: 0645 003d 7038 2d3d c5e3 2c3d c622 153e
000002d0: dbc9 cdbd d457 933d 1593 9cbb 771a c8bd
000002e0: b108 1b3e 8f82 1c3e c077 a43c 5f0c d43d
000002f0: fca8 9fbd 0947 063d 3ffa f83e d4d1 89bd
00000300: ac9b afbe 8a9f b53b c145 c03d 8d49 5dbe
00000310: 3b3d 253c dc7a 503d 070e ae3e c45f e9bb
00000320: c574 63bc 218d 14bc 44f0 1dbe 876e 06be
00000330: bbb3 38bd ab80 32be 1617 6b3e be84 1c3d
00000340: 255a c8bd 128b 3ebd b888 013d cec8 96bd
00000350: 6e34 38be d71f a53d cf39 0c3e 1828 ef3d
00000360: 632f 023e 0dcf 26bc fd51 093e a4ad 40bd
00000370: 4489 ba3c a5a9 e4bc d10e eabd 45a8 eb3d
00000380: 9822 7a3e 82bc 443d be0f 393d a7ce 3d3e
00000390: 7b79 5c3e 5547 723e 6815 6bbe fdcf 4dbe
000003a0: f215 243e 3109 193d 2f20 92bd 908f 9cbd
000003b0: 9989 5e3e 8fc0 09bd 688d 5fbd 369c d9bc
000003c0: 598d d5bd 11c6 023e 81c4 233c 4d4f 91bd
000003d0: 6cbe 8dbd a3be f53b a4ed 4bbe c969 42be
000003e0: cdc5 31bc 58af 04be e7d1 52bc fe30 cdbc
000003f0: 88f1 9bbd 0334 74bd f676 9b3c 44ce c93c
0.2148733 -0.004448366 0.033415977 0.19402097 0.04896832 -0.013520389 -0.25062343 0.016074171
-0.088257805 0.002343176 0.28711596 0.21990919 0.034428738 -0.010742422 -0.3214522 -0.06089136
-0.13180049 0.0292205 0.008676473 0.05047204 -0.04237083 0.02711508 -0.10434856 -0.16028242
-0.037223365 -0.17939177 0.114946924 -0.000554345 -0.0038821155 0.06593205 0.013246356 -0.05527942
-0.028986596 0.015881931 0.03853662 -0.07629338 0.0036300689 -0.045591604 -0.17026357 0.04424672
-0.24279742 -0.15804781 -0.26374194 -0.12243542 -0.14340921 -0.1094297 -0.164823 -0.029320883
0.09162284 -0.031072998 0.18904975 -0.010662346 -0.10732565 0.080083296 -0.120635964 0.0021575764
-0.43380582 0.19623663 -0.077792175 0.5514426 0.07267845 -0.12203106 -0.14932093 -0.21135527
0.11446123 0.38776135 -0.11898863 -0.44455793 0.26679498 -0.0811404 -0.14294113 -0.015151287
0.15912603 -0.049178395 0.087773204 0.0040074135 0.3044409 0.1854915 0.24673195 -0.08287212
0.03719798 0.10384382 -0.16726549 0.064496115 0.051866297 -0.11190448 0.13238704 0.050639864
0.10602033 0.027267324 0.043897066 -0.19717506 0.26346317 0.13394232 0.018943464 0.009324538
0.006377729 -0.10788658 0.044070456 0.18473247 -0.01277399 0.024520284 0.0067290943 0.21367948
0.21377447 0.20248286 -0.33843222 0.026794014 -0.06604587 -0.005080413 -0.2359223 0.19478452
-0.12745903 -0.0771853 -0.07999437 0.11785695 -0.046578165 -0.12762101 -0.36685666 -0.12015498
-0.080950126 -0.03261881 -0.18731976 0.091830395 -0.12287173 0.083266854 -0.21486232 0.31712252
-0.13714127 0.13441083 -0.24947312 -0.15544742 0.14757709 -0.028595435 0.08851777 -0.29968083
0.028468667 0.18687484 -0.043927755 -0.07227862 -0.115823135 0.18431452 0.021803465 -0.005523447
-0.117346644 -0.3429551 0.13639845 0.17170773 0.11746461 -0.10630143 -0.10623766 0.06898138
0.03322366 -0.13009842 -0.13123986 0.06553787 -0.04272243 0.067942135 0.046970632 0.13481659
0.49933028 -0.012041945 -0.52438855 0.008259714 -0.12612544 -0.0747519 0.18575233 0.106285945
-0.44834235 0.16852352 0.13003182 0.184168 -0.04121566 -0.05957338 -0.16857596 0.005203541
0.031315826 0.04229015 0.042209405 0.14564046 -0.100482665 0.07194486 -0.0047782757 -0.09770673
0.15140034 0.15284179 0.020076632 0.10353922 -0.07795903 0.03278259 0.48628423 -0.06729475
-0.34298456 0.0055427 0.093883045 -0.21610089 0.010085399 0.050898418 0.33995077 -0.007122012
-0.0138828205 -0.009066851 -0.15423685 -0.131281 -0.04509328 -0.17431895 0.22958025 0.03821253
-0.09782819 -0.046519347 0.031624526 -0.07362519 -0.1798875 0.080627136 0.13693927 0.11677569
0.12713389 -0.010181201 0.13410182 -0.047040597 0.022770531 -0.027912924 -0.11428607 0.11506704
0.24427259 0.048031338 0.04518103 0.18535863 0.21530716 0.23660024 -0.22957385 -0.20098872
0.16023996 0.03736228 -0.07135045 -0.0764457 0.21732177 -0.033630904 -0.054578215 -0.026563745
-0.104273506 0.12770869 0.009995581 -0.070952035 -0.06921086 0.0074995323 -0.19914871 -0.18985666
-0.010850382 -0.12957513 -0.012867427 -0.025047775 -0.07614428 -0.059619915 0.018977623 0.024634488

network_body._body_endoder.seq_layers.2.bias f4 [128]
00000000: dd3a b93d 97ed 543e b2de 2b3c 38b2 8b3d
00000010: 6950 e43d 84a2 f43c f757 073b 10a5 0a3e
00000020: 8e3e 613d a7a6 bbba 6963 f7bc 9969 913c
00000030: 78ce ba3d 1a00 99bd 0c8f fcbc 23c2 363d
00000040: 5bb0 353c b99b 5d3d d2d7 2a3d ff6b 913d
00000050: 58a2 143d 300d 9b3d 620a 233e 5bba 7c3d
00000060: 0b4d 293e 11bb e2bd 8a2a 0d3d c667 783c
00000070: 4e1f 083e 8d02 ab3c 52cb 193d 9e86 17bd
00000080: 8818 c73d 8254 e83c ff91 11bc a9e4 5fbb
00000090: 6df1 fb3d 4ed9 9c3d eea8 5a3d eaa1 cc3d
000000a0: 812b c33c a8b3 693d 2813 193d 6655 b6bd
000000b0: 40ea 643d f6e4 043d 33e8 d33d 55a0 6e3c
000000c0: 32df 3b3d be5f 8dbd 0f9f 4bbc c7a7 d93d
000000d0: d836 da3c 74c4 dd3d 5b8f 333e a4b8 e23d
000000e0: 9b46 0dbd a614 463e 3e3b 113e 624f d03d
000000f0: 00ff ab3c d090 cf3c 6814 903d e627 003e
00000100: ca73 2a3d 8598 da3c 1b66 47bd f962 e03d
00000110: df7d 08bd 26af 6c3d 6596 9a3d e31c 913c
00000120: 761c 2e3e c7f9 993c 105c 263e 078a 6fbd
00000130: 4a21 f83c 63af 433d c81f 103e 3335 b8ba
00000140: 8e19 233e 7de6 89bc aab0 b93d ce7a cf3d
00000150: d1e6 933c 73ac bc3d 7fbb 963d 1e91 f23c
00000160: a725 29bd 5212 ff3c 7129 86bc 45ca 3439
00000170: 5d48 a13d bd0f 853d d4d2 0c3e 2da5 843d
00000180: ebad 4f3d b352 053d ba84 1a3e d418 163d
00000190: 7c63 b23d 96b3 043e 9b54 30bd 9e78 a5bb
000001a0: 294b eb3d 533c 213e a4cb 053e 56f4 863d
000001b0: 0b43 86bd caab 7f3d 2881 193d 7e56 a7bc
000001c0: 9949 6e3c 1a37 213e 0891 eabc 76cb 083e
000001d0: ea91 e2bd bdbb c23d 964d 5b3d f434 193e
000001e0: e8c6 a23c 596c 26bc 9b00 fa3c 9c69 683d
000001f0: e2ab f03d d4e0 e0bc d770 dcbb 114f 4bbc
0.090444304 0.20793758 0.010490106 0.06821102 0.111481495 0.02986265 0.0020651796 0.13539529
0.054991297 -0.0014316634 -0.03019877 0.017750548 0.09121412 -0.074707225 -0.030829929 0.044618737
0.01108941 0.054103587 0.04170973 0.07100677 0.036287636 0.07570875 0.1592193 0.06170116
0.16533296 -0.11070836 0.034464397 0.01516146 0.13293192 0.02087524 0.037547417 -0.036993615
0.09721476 0.028360609 -0.008884906 -0.0034163392 0.12301908 0.07658635 0.05338376 0.0999182
0.023824455 0.0570561 0.037371784 -0.08903007 0.05588746 0.032444917 0.10347023 0.014564593
0.045867153 -0.06903027 -0.012428059 0.10627704 0.02663748 0.10828486 0.17535155 0.11070374
-0.034491163 0.19343814 0.14182755 0.10171391 0.020995617 0.025337607 0.07035142 0.1251522
0.04161433 0.026684055 -0.04868136 0.109563775 -0.033323165 0.057784222 0.07548217 0.01771397
0.17003044 0.01879586 0.16246057 -0.058481243 0.030289311 0.047774684 0.14074624 -0.001405394
0.15927717 -0.016833538 0.09066899 0.10130845 0.018054398 0.092125796 0.07359981 0.029610213
-0.041295674 0.031136665 -0.016377183 0.00017241489 0.0787513 0.064971425 0.137523 0.06476817
0.05070297 0.03254957 0.15089694 0.03664477 0.087103814 0.12959132 -0.043049436 -0.005049779
0.11488945 0.15745668 0.13065964 0.06589572 -0.06555756 0.06241969 0.03747669 -0.020426985
0.014543914 0.15743676 -0.02863361 0.13358864 -0.11062987 0.095084645 0.05354079 0.14961606
0.019870237 -0.010157668 0.030517867 0.056741342 0.11751534 -0.027450956 -0.0067273187 -0.012408988

network_body._body_endoder.seq_layers.2.weight f4 [128, 128]
00000000: 89b6 64be ee47 2cbe 79ce b7bd 88b8 cfbd
00000010: 38bd 3d3d d3ce 94bd 9abe 903e 9e08 d53d
00000020: 6e0d 063e ba93 643c 1fbf 873d ae92 873c
00000030: 8600 a93c 3dfa 1fbe 05c5 853d 3ac3 0b3d
00000040: 0949 6c3d 3a4b 33bc 511b b7bd 63f3 bc3d
00000050: 48af c3bd 4ec3 a13e fd10 78bd 4f43 b8bd
00000060: 5512 123e 9a9a 563d 463c a5bb 25b2 e8bb
00000070: 97e3 623e 4167 913d b9d6 cbbd b99d 52be
00000080: 3990 593e c923 6f3a effb 0c3d 4b8d 0a3e
00000090: bc35 bd3d ef72 65bd 73dc 5fbc fc7a a5bd
000000a0: 6484 04be 4989 983d 2668 cfbd aa0b 42be
000000b0: 8b85 e13d ec54 453d 22b1 b93e d6f1 1e3e
000000c0: 876e 02bd 135e 84be 81bd 34bd d83b 16bd
000000d0: f7ab 213d 3056 393d 60f9 19be 6969 88bb
000000e0: de03 453c 58b1 5cbd 4d20 ab3d 008c 0bbe
000000f0: 3968 903d 0161 023e 0cea 96bd ea91 96bd
00000100: f429 b4bd 63e1 183d b40b 8cbc 2cc6 b93d
00000110: 22b5 9e3e 2d2e 31bb 1f11 d73d 09ea 71bd
00000120: 1d7c 57be 3d33 593e ae92 283d afad 1dbd
00000130: 769a a23d 24ba 523d 9640 013e d620 363d
00000140: 0367 a2bd 62a3 d7bd ff6f 843e 394f 5d3e
00000150: a42d bdbd 9b28 143e 74f6 1ebe bf0e 483d
00000160: ee03 263e 1c8c 343e d69e 7e3e 7792 2cbd
00000170: f43a 6e3e 5be0 60bd 8928 89bd cb49 3abe
00000180: 02f6 f03d a67e 3dbe 644b 413e f900 ba3d
00000190: 4339 02be f661 c83d b83a 003e b722 79bd
000001a0: a2f1 813e 0c89 87bd 6db4 393e 758c 0cbb
000001b0: b2bc 5d3e fe31 183e 4e85 d33c 0f1e 42bd
000001c0: 50ff 093e addf 883d 2710 f63d 750e c1be
000001d0: 6c35 bdbe b40e 483d 1c08 7ebb bbbb 163c
000001e0: f64e 2b3d e576 9d3d 9708 063e 3f16 cebc
000001f0: d07c e13d ce43 713e b3b8 013d 6ff1 563e
00000200: dc20 373e 0b03 b73d 2dc8 acbe 1fe4 373e
00000210: 6336 503d 0965 38ba f63c 98be f6b4 13be
00000220: 3680 c73d 9a5d 2a3d da25 593e 2a3d 453d
00000230: efa6 893e c615 8d3e 8259 4ebe 136e 4a3c
00000240: 84a1 22bd 5425 55be 878f d03d 6578 b03b
00000250: 2fb9 263e ac73 a03d 4984 063e de08 6d3d
00000260: 5ebf c5bd 805e 3abd c420 463e 6393 dcbc
00000270: d38e 1dbe 5e41 e63e f0f3 ecbd 722d 99bc
00000280: 878a 86bc 32cc e2bd a3ee 4ebc 0dc4 6c3d
00000290: 51b6 e1bd 93a1 ac3d 60ef 963e b797 bebd
000002a0: e8f0 b43d 52d2 8bbd 9297 5fbe 86b0 0ebe
000002b0: dba6 ed3d 6e02 0fbf 22da a8bd 9420 71be
000002c0: c125 fc3d e04b 45be d50f 003e 67cc a5bd
000002d0: b11f 0f3d 4838 5b3d 5cd0 d5bd 9d19 de3c
000002e0: d830 663d 9761 8cbd 14d0 d2bd 3dab c0bd
000002f0: af70 7fbd bacb 3bbe 2d88 733d 8c17 c9bd
00000300: 6928 3bbe 4c75 093e bbb1 b93d 9cd3 e6bc
00000310: 91ac ee3b 44ea 41bc 69a2 19bc 00c2 06be
00000320: 4d01 9abc bd9f 2fbe b9fd 823d 8256 2b3e
00000330: 1ccb 893d a978 b7bd ee06 903e 2cf2 8fbe
00000340: 4177 ad3d c51b a3be 273f 01be b404 85bc
00000350: 0baf 103e f87f 453e 33ed 1dbe bcd0 18be
00000360: 2b84 a23d 9182 b93d 8f29 663a b3f3 2f3e
00000370: f59d c23e 6706 5cbd 7225 08bd 60ea bebd
00000380: b6ac 03bb 732e a0bc 41ec d2bd e804 913e
00000390: 05d3 cfbd 621f 82be 3a53 983e 0354 7d3d
000003a0: ae6b 44bd 20e0 783d a031 d13e f981 4bbe
000003b0: 9d25 a53d b294 3c3d 146d 8fbc 389b 7d3e
000003c0: e92a dc3e f387 ccbd 50ef 453e dfa4 bd3e
000003d0: 7fd7 9bbe c072 cb3d 8615 6cbe a02f 88be
000003e0: 8511 633e 3d9f 1dbe a729 163f b4f5 9b3e
000003f0: d630 6abe 8a66 f53d 7994 7abd 48ca 003e
-0.22335257 -0.16824314 -0.089749284 -0.101426184 0.04632303 -0.07266011 0.28270417 0.10402034
0.1309106 0.013951236 0.0662825 0.016549435 0.020630132 -0.15622802 0.06531719 0.03412173
0.05768684 -0.010943228 -0.08940757 0.0922611 -0.095549166 0.31594318 -0.060563076 -0.08997213
0.14264806 0.052393533 -0.0050425855 -0.0071013146 0.22157131 0.07099772 -0.099530645 -0.20567979
0.21246423 0.0009122459 0.03441995 0.13530461 0.09238765 -0.056017812 -0.013663399 -0.08080098
-0.12941128 0.0744806 -0.101272866 -0.18949762 0.110117994 0.04817669 0.36267954 0.1552194
-0.03184369 -0.25853023 -0.044126038 -0.036678165 0.03947064 0.04524821 -0.15036535 -0.0041629565
0.012024848 -0.053880066 0.0835577 -0.13627625 0.07051129 0.12732317 -0.0736886 -0.0735205
-0.087970644 0.03732432 -0.017095424 0.090710014 0.30997568 -0.002703558 0.105013125 -0.059061084
-0.21043439 0.21210952 0.04115551 -0.038495716 0.07939617 0.05144705 0.12622294 0.04446491
-0.07929804 -0.1052921 0.25866696 0.21612252 -0.09237221 0.14468615 -0.15523702 0.048842188
0.16212437 0.17631572 0.24865279 -0.042131867 0.23264676 -0.054901462 -0.066971846 -0.18192212
0.11765672 -0.18505344 0.18876415 0.09082217 -0.12717156 0.097843096 0.125224 -0.060824122
0.25379664 -0.066179365 0.18135233 -0.0021446024 0.21654013 0.1486282 0.0258204 -0.047391947
0.134763 0.06683288 0.120147996 -0.37706342 -0.3695482 0.048842147 -0.0038762158 0.009200032
0.04182335 0.07688693 0.13089214 -0.025157092 0.11010134 0.23561022 0.031670284 0.20990537
0.17883629 0.08936127 -0.33746472 0.17958115 0.050833117 -0.00070340984 -0.2973401 -0.144245
0.09741251 0.04159317 0.21205845 0.048154034 0.26885173 0.27555674 -0.20151332 0.012355345
-0.039704815 -0.20815021 0.10183626 0.005385446 0.1628158 0.07834563 0.131364 0.057869785
-0.09655641 -0.04550028 0.19348437 -0.026925748 -0.15386514 0.44971746 -0.11569965 -0.018698428
-0.016423477 -0.110741034 -0.012630138 0.057804156 -0.11021102 0.08429255 0.29479504 -0.09306281
0.08835012 -0.06827225 -0.21835163 -0.13934526 0.11604091 -0.5586308 -0.082447305 -0.23547584
0.123118885 -0.19267225 0.1250604 -0.08095627 0.034942333 0.05352047 -0.10440132 0.027111823
0.056198925 -0.06854551 -0.10293594 -0.09407661 -0.062363323 -0.18339434 0.05945604 -0.09818944
-0.18277134 0.13423651 0.090671025 -0.028177075 0.007283755 -0.011835638 -0.0093771005 -0.13159943
-0.018799448 -0.17150779 0.0639605 0.16732219 0.06728193 -0.08958561 0.28130287 -0.2811445
0.084700115 -0.31857124 -0.12621747 -0.016237594 0.14129274 0.19287097 -0.15422516 -0.14923376
0.07935365 0.09058107 0.00087799964 0.17182808 0.38011137 -0.053717043 -0.033238836 -0.09322047
-0.0020091957 -0.019553399 -0.10298968 0.28324056 -0.10147671 -0.25414568 0.29750997 0.061847698
-0.047954254 0.060760617 0.40858173 -0.198738 0.08063815 0.046040244 -0.017508067 0.24766243
0.43001488 -0.09986868 0.19329572 0.3703985 -0.30437848 0.09933996 -0.23055086 -0.26598835
0.22174652 -0.15392776 0.58657306 0.30460894 -0.22870192 0.119824484 -0.06117675 0.12577164

network_body.observation_encoder.processors.0.normalizer.running_mean f4 [25]
00000000: 79fe 7f3f 0000 0000 0000 0000 0000 0000
00000010: cfed 503e 64e8 7f3f 0000 0000 0000 0000
00000020: f036 8635 b61c 653e 81df 7f3f 0000 0000
00000030: 0000 0000 0000 0000 ec02 5f3e 218a 673f
00000040: 0000 0000 0000 0000 0137 0638 4b6e 4f3e
00000050: dad7 663f 0000 0000 0000 0000 8ec4 2738
00000060: 0f52 493e
0.9999767 0.0 0.0 0.0 0.20403217 0.99963975 0.0 0.0
9.999767e-07 0.22374234 0.99950415 0.0 0.0 0.0 0.21778458 0.90445143
0.0 0.0 3.1999316e-05 0.20256917 0.90173113 0.0 0.0 3.999896e-05
0.19660209

network_body.observation_encoder.processors.1.normalizer.running_mean f4 [30]
00000000: 02d8 013e d247 5a3f 0000 0000 0000 0000
00000010: 0000 0000 e12a e93e 834e 3a3f 0a6e 3b3e
00000020: 0000 0000 0000 0000 0000 0000 b053 933e
00000030: d68c 383f 33d4 413e 0000 0000 0000 0000
00000040: 0000 0000 eccc 973e 521e 4c3f 6515 943d
00000050: 0000 0000 0000 0000 0000 0000 1db6 523e
00000060: adc7 4a3f 9170 a53d 0000 0000 0000 0000
00000070: 0000 0000 d0d5 573e
0.12680057 0.8526584 0.0 0.0 0.0 0.45540527 0.7277605 0.18303695
0.0 0.0 0.0 0.28774786 0.720899 0.18928604 0.0 0.0
0.0 0.2964853 0.79733765 0.07230643 0.0 0.0 0.0 0.20577283
0.7921093 0.08078111 0.0 0.0 0.0 0.21077657

network_body.observation_encoder.processors.2.normalizer.running_mean f4 [13]
00000000: 15c0 f63d 79fe ffbe effe 9541 d1ff e33d
00000010: 3845 ac3e 870e 8f40 7c42 16bb 787d d93a
00000020: ab7d 8fb9 bec9 7f3f 84f4 b943 0000 0000
00000030: 18bf 8bbf
0.120483555 -0.49998835 18.74948 0.111327775 0.3364656 4.4705234 -0.0022927811 0.0016593179
-0.00027368715 0.9991721 371.91028 0.0 -1.0917692
