Assets/Brains/run30/CarPractice_run30-8.onnx (onnx, 108914 bytes, 15 tensors)

85 f4 [25]
0	0x3e95868a	0.29204208
1	0x3d136ef5	0.03599449
2	0x3a0c1f24	0.00053452165
3	0x3d889e5a	0.06670828
4	0x3db45244	0.088047534
5	0x3ebcf4d5	0.36905542
6	0x3d27a1f9	0.040925954
7	0x3a0c1f24	0.00053452165
8	0x3db307ab	0.08741697
9	0x3dd3dcf2	0.10344876
10	0x3eb6ca1e	0.35701078
11	0x3d40d46c	0.04707758
12	0x3a0c1f24	0.00053452165
13	0x3db091f6	0.0862159
14	0x3dd87eea	0.10571082
15	0x3eea6cc3	0.45786104
16	0x3d66a387	0.056308296
17	0x3a0c1f24	0.00053452165
18	0x3e41fb08	0.18943417
19	0x3e38ef02	0.18059924
20	0x3eff6a44	0.49885762
21	0x3e01a0c4	0.12658983
22	0x3a0c1f24	0.00053452165
23	0x3de54a1b	0.11195775
24	0x3e03a6fd	0.1285667

88 f4 [25]
0	0x3ed983da	0.42483407
1	0x3ed50bef	0.41610667
2	0x3a0c1f24	0.00053452165
3	0x3e361e71	0.1778505
4	0x3e303902	0.17209247
5	0x3ec32f3b	0.3812197
6	0x3ea602ef	0.32424113
7	0x3a0c1f24	0.00053452165
8	0x3e9343bc	0.28762615
9	0x3e8c4f99	0.27404478
10	0x3efeacf9	0.49741343
11	0x3e87670c	0.26445806
12	0x3a0c1f24	0.00053452165
13	0x3e7456a9	0.23861183
14	0x3e6bebd2	0.23039177
15	0x3e99b25d	0.30018893
16	0x3e8e391b	0.27777943
17	0x3a0c1f24	0.00053452165
18	0x3e875718	0.26433635
19	0x3e8204f5	0.25394407
20	0x3efffcf5	0.49997678
21	0x3e15f3ca	0.1464378
22	0x3a0c1f24	0.00053452165
23	0x3e853036	0.26013345
24	0x3e81141d	0.25210658

91 f4 [18]
0	0x41b10930	22.129486
1	0x3fb319e4	1.3992276
2	0x41bc7476	23.556866
3	0x40ba0747	5.8133883
4	0x3d25027c	0.040285572
5	0x40dde176	6.933772
6	0x3ce694a4	0.02814705
7	0x3eb7566c	0.35808122
8	0x3d268de1	0.04066265
9	0x3e193485	0.14961441
10	0x440f82b4	574.04224
11	0x41cd1cac	25.639
12	0x3f0e7322	0.5564443
13	0x3e27f4e9	0.1640202
14	0x3ef80a22	0.4844523
15	0x3f4e67d4	0.8062718
16	0x3a0c1f24	0.00053452165
17	0x3ef08157	0.46973678

action_model._discrete_distribution.branches.0.bias f4 [3]
0	0x3e0e025b	0.13868086
1	0xbe1eee17	-0.15520512
2	0x3d462e0d	0.04838376

action_model._discrete_distribution.branches.0.weight f4 [3, 128]
0	0x3d667920	0.056267858
1	0x3d53c326	0.05169978
2	0x3d91de89	0.07122523
3	0x3e0eeaa6	0.13956699
4	0x3cad7570	0.021174163
5	0xbea8348a	-0.32852584
6	0x3e82b1c1	0.2552624
7	0x3e900e62	0.28135973
8	0x3de45343	0.111486934
9	0xbd7e079d	-0.06201898
10	0x3e702607	0.23452006
11	0xbdea216c	-0.11432156
12	0x3e1a479b	0.15066378
13	0x3c7c6e03	0.015407088
14	0x3ea99cae	0.3312735
15	0xbe1c6fc7	-0.15277015
16	0xbe0ebcb7	-0.13939176
17	0xbda11059	-0.07864446
18	0xbc4a334a	-0.01234133
19	0x3e0bfcdb	0.13670675
20	0x3e09f115	0.13470872
21	0x3d59a217	0.053133097
22	0x3e814bfd	0.25253287
23	0x3e801acf	0.25020453
24	0x3e5071f4	0.2035597
25	0xbccf100f	-0.025276212
26	0xbd84a23c	-0.06476256
27	0xbd772067	-0.060333636
28	0xbe8e67ac	-0.2781347
29	0x3e01936a	0.1265389
30	0xbcdd9ed4	-0.027053274
31	0x3d79d8fc	0.060997948
32	0xbd8e0e57	-0.06936329
33	0x3cb59d2b	0.02216967
34	0x3d4946e2	0.049139865
35	0x3dbd2b95	0.09236828
36	0x3eb07ba3	0.34469327
37	0x3e865abe	0.26241106
38	0xbe1297ce	-0.14315721
39	0x3e19a89e	0.15005729
40	0x3e0ad595	0.13558038
41	0x3e68ea94	0.22745734
42	0x3e87f378	0.2655294
43	0xbcc1932d	-0.02362975
44	0xbe17dd8a	-0.14830604
45	0x3e3a1dec	0.18175477
46	0xbde6a01a	-0.11261006
47	0xbdec899c	-0.115496844
48	0xbcf3ea2b	-0.029774746
49	0x3ea20fd7	0.3165271
50	0x3e4f11d9	0.20221652
51	0xbdbad054	-0.09121767
52	0x3e3f5981	0.18686487
53	0x3d21847a	0.03943298
54	0x3b9a9b2c	0.004718205
55	0xbd3a49a8	-0.0454804
56	0x3cf12c16	0.029439967
57	0x3dc5c535	0.09656755
58	0xbc4ba021	-0.012428314
59	0xbe1de23f	-0.15418337
60	0xbe628ee8	-0.22124827
61	0x3d4ef5c5	0.050527353
62	0x3eb0e5ee	0.34550422
63	0x3d995bd6	0.074882194
64	0xbe13d011	-0.1443484
65	0x3e601fe7	0.2188717
66	0x3d8e1fcd	0.06939659
67	0xbddb4b1c	-0.10707685
68	0x3db3398d	0.08751211
69	0xbe43388c	-0.1906454
70	0x3eb7bfe6	0.35888594
71	0x3edc22a9	0.42995194
72	0xbe12dcf4	-0.143421
73	0xbe131111	-0.14361979
74	0x3e82ae94	0.25523818
75	0x3e3a97b3	0.18221931
76	0xbe6cbdca	-0.23119274
77	0x3deb6029	0.114929505
78	0xbe31b1db	-0.17353003
79	0xbe460dc1	-0.19341184
80	0x3e203864	0.15646511
81	0xbe69827f	-0.22803687
82	0x3f089139	0.5334659
83	0x3e319f33	0.17345886
84	0x3da32c44	0.079674274
85	0x3ebd41de	0.36964315
86	0x3da1a415	0.07892624
87	0x3e50305c	0.20330948
88	0x3cfca24c	0.030839108
89	0x3d545e05	0.051847477
90	0xbcf83d24	-0.030302592
91	0x3df23c72	0.11827935
92	0x3e385669	0.18001713
93	0x3d03b48d	0.03215461
94	0xbcdc7061	-0.026909055
95	0xbdb9856a	-0.0905865
96	0xbe46fc86	-0.19432268
97	0x3de96a12	0.113971844
98	0xbe679b80	-0.22617912
99	0xbcb231ad	-0.021752203
100	0x3e1fae95	0.15593942
101	0xbd57fa15	-0.05272873
102	0xbc30a94e	-0.010782553
103	0x3e1a5411	0.15071131
104	0x3e8eb420	0.278718
105	0xbdf27fbd	-0.118407704
106	0xbe235ca2	-0.15953305
107	0x3e6ca894	0.23111182
108	0xbdd858fc	-0.105638474
109	0x3e0a80fc	0.13525766
110	0x3d89f8ea	0.0673693
111	0xbe4bd977	-0.19907175
112	0xbd84760f	-0.064678304
113	0x3e5001c3	0.20313172
114	0x3c7026d1	0.014657692
115	0x3b60c126	0.0034294813
116	0x3e49163a	0.19637385
117	0x3e42805d	0.18994279
118	0x3e6377b8	0.22213638
119	0x3e568b6a	0.2095162
120	0x3de29a0e	0.1106454
121	0x3e4ecf35	0.2019623
122	0x3edc54d9	0.43033484
123	0x3e1316ac	0.14364117
124	0x3c96aa05	0.018391619
125	0xbd70e37c	-0.058810696
126	0xbd89353a	-0.06699605
127	0xbe1f0a73	-0.1553133
128	0x3e2a6fd2	0.16644219
129	0x3ca4aea4	0.020102806
130	0xbe9f7940	-0.31147194
131	0x3e3e1073	0.18560962
132	0x3e88c66a	0.26713878
133	0x3e5bb608	0.21456158
134	0xbc9a794a	-0.018856663
135	0xbbec3a24	-0.0072090793
136	0xbe21aae3	-0.15787844
137	0x3dfbf6d2	0.123029366
138	0xbee08cc8	-0.43857408
139	0x3e3c7ae9	0.18406262
140	0xbe238155	-0.15967305
141	0x3d6cb656	0.057791077
142	0x3d2ff4c5	0.04295804
143	0x3df58693	0.119885586
144	0x3ea889a9	0.32917526
145	0x3e00cab8	0.12577331
146	0xbe119a16	-0.14218935
147	0xbe0f4d15	-0.13994248
148	0xbe00c935	-0.12576754
149	0x3dbb5ce0	0.09148574
150	0x3cf4b2fa	0.029870499
151	0x3e90a1f6	0.28248566
152	0x3cf1c3c6	0.029512297
153	0x3d91dc04	0.07122043
154	0xbc0cba75	-0.008589377
155	0x3e1d1ec1	0.15343763
156	0x3d77354b	0.06035356
157	0xbdbba124	-0.091615945
158	0x3d6fbbda	0.05852876
159	0xbe583065	-0.21112211
160	0xbd834213	-0.06409087
161	0x3dc9190d	0.09819231
162	0x3d9d38d6	0.07676856
163	0xbd0cfb59	-0.03441939
164	0xbe07d79b	-0.1326584
165	0x3e28b341	0.1647463
166	0x3d931aff	0.071828835
167	0x3e144ebf	0.14483164
168	0xbcf8929f	-0.030343352
169	0xbdc0adf1	-0.09408177
170	0x3e00daaf	0.12583421
171	0x3d8be0d4	0.06829992
172	0x3e12b56f	0.14327024
173	0x3dc1c1b5	0.09460775
174	0x3e6d210e	0.2315714
175	0x3e347be1	0.17625381
176	0xbe26abef	-0.16276525
177	0x3d8e6976	0.06953709
178	0xbe4d58f9	-0.20053472
179	0x3b4b48d9	0.0031018762
180	0x3dc8e705	0.098096885
181	0x3d24d187	0.040238883
182	0x3e0cbb90	0.13743424
183	0xbe0497ac	-0.12948483
184	0xbd2080b1	-0.03918523
185	0xbed94f55	-0.42443338
186	0x3d7648e9	0.060128126
187	0x3e54c459	0.20778026
188	0x3d809719	0.062788196
189	0x3c8235fd	0.015894884
190	0x3d1c02b6	0.038088523
191	0xbe123915	-0.14279588
192	0x3d79d3af	0.060992893
193	0x3d7c4063	0.06158484
194	0xbcc45ceb	-0.023970088
195	0x3e585e8b	0.21129815
196	0xbe07acf7	-0.13249575
197	0x3e910dc8	0.28330827
198	0xbe493f3b	-0.19653027
199	0xbe503064	-0.2033096
200	0x3e59ba30	0.21262431
201	0x3dd43369	0.10361368
202	0xbd14a35c	-0.036288604
203	0x3d826418	0.063667476
204	0xbdef820a	-0.11694725
205	0x3d797bc8	0.060909063
206	0x3e662384	0.22474486
207	0x3e22e41e	0.15907332
208	0xbd4041a7	-0.04693761
209	0x3ed566ef	0.41680095
210	0xbe8a9961	-0.27070144
211	0x3d876e1d	0.06612799
212	0x3d820149	0.063479014
213	0xbd6db4ad	-0.058033634
214	0x3e52241a	0.20521584
215	0xbe14ef34	-0.14544374
216	0x3e06a237	0.13147818
217	0xbd87d6ec	-0.0663279
218	0xbbbab906	-0.005698326
219	0x3e0fa98b	0.1402952
220	0x3db27d51	0.087153085
221	0x3e817607	0.2528536
222	0x3e2c0777	0.16799723
223	0x3e61b7fc	0.2204284
224	0x3ea784cb	0.327185
225	0x3cb0e379	0.021592842
226	0x3ebd4579	0.36967066
227	0x3e2748f2	0.1633642
228	0xbe3f6509	-0.18690886
229	0x3dd81a80	0.105519295
230	0x3e941b7f	0.28927228
231	0xbeabae43	-0.3353139
232	0x3c48da0c	0.012259018
233	0x3e01a8d0	0.12662053
234	0x3e434d6e	0.19072506
235	0x3cfb537b	0.030679455
236	0x3ea62eb2	0.324575
237	0x3e27f0e2	0.16400483
238	0x3d63a595	0.055577833
239	0x3e1747eb	0.14773528
240	0x3e68dcc4	0.22740465
241	0x3dcb6b6f	0.09932601
242	0x3e17e8f3	0.14834957
243	0x3da3c1e3	0.07995965
244	0x3d13cab2	0.036081977
245	0x3db864bd	0.09003589
246	0xbe98a1e2	-0.29811007
247	0x3a2d23a9	0.000660474
248	0xbd54ab61	-0.051921252
249	0xbe4483da	-0.19190922
250	0xbc8e98b3	-0.017406797
251	0x3e2f41fa	0.17115012
252	0x3da20f35	0.07913057
253	0x3e157f0a	0.14599243
254	0x3e3b4e56	0.18291602
255	0x3dfaac17	0.12239855

action_model._discrete_distribution.branches.1.bias f4 [3]
0	0xbdf79409	-0.12088782
1	0x3db8fdbb	0.0903277
2	0x3e1adf80	0.15124321

action_model._discrete_distribution.branches.1.weight f4 [3, 128]
0	0x3e6f39e7	0.23361932
1	0xba43a922	-0.00074638624
2	0xbe25243e	-0.16127107
3	0xbdd75d33	-0.10515823
4	0xbda970eb	-0.082734905
5	0xbeb80e4f	-0.35948417
6	0x3e9eeefd	0.3104171
7	0x3da3d945	0.08000425
8	0x3eb4a2d5	0.3528048
9	0x3c9bacbf	0.01900327
10	0x3d872f2d	0.06600795
11	0x3e9c424f	0.3051934
12	0xbe68058c	-0.22658366
13	0xbe23a307	-0.15980159
14	0x3e2d682b	0.16934268
15	0x3e01ec22	0.12687734
16	0xbd2144e9	-0.03937236
17	0x3e4e4c47	0.20146285
18	0x3e60e499	0.21962203
19	0x3dcd3e0c	0.100216
20	0x3e667a13	0.22507505
21	0xbdc5d353	-0.096594475
22	0xbd2bbce9	-0.041928206
23	0x3d8748ab	0.06605657
24	0x3d42ef60	0.047591567
25	0x3ea6007c	0.32422245
26	0x3ec0b34e	0.376368
27	0x3f092cb7	0.53583854
28	0x3e63738f	0.22212051
29	0x3e6b0522	0.22951177
30	0xbd208b84	-0.039195552
31	0xbe7c394f	-0.24631236
32	0xbec4c8d0	-0.38434458
33	0xbddfd874	-0.10929957
34	0xbed74ff1	-0.42053178
35	0xbdaf37b7	-0.08555549
36	0x3d9ef836	0.07762186
37	0xbe391f09	-0.18078245
38	0xbdb5b380	-0.088721275
39	0xbe285c0c	-0.16441363
40	0x3e442939	0.1915635
41	0x3e1fe604	0.15615088
42	0x3dd1aa06	0.102375075
43	0xbd0accf5	-0.03388687
44	0xbe343088	-0.17596638
45	0xbd9a48fa	-0.075334504
46	0x3da93d6a	0.08263667
47	0x3d3736f9	0.04473016
48	0xbdb4c941	-0.08827449
49	0xbe08c6c3	-0.13357072
50	0x3e43b794	0.19112998
51	0xbe7d4088	-0.24731648
52	0xbd478d2a	-0.04871861
53	0xbe16a10e	-0.14709875
54	0x3e80336f	0.2503924
55	0xbe693dc3	-0.22777466
56	0xbea57bf6	-0.32321137
57	0xbd1d7451	-0.038441006
58	0xbef9c31a	-0.48781663
59	0x3d14da04	0.03634073
60	0x3e893b65	0.26803127
61	0xbc3e23a8	-0.011605181
62	0x3e9a340f	0.30117843
63	0x3dadf5e4	0.084941655
64	0xbd4bf4c0	-0.04979396
65	0x3e657663	0.22408442
66	0xbe18d475	-0.14924796
67	0xbe4598d9	-0.19296588
68	0xbe4d2f35	-0.2003754
69	0x3e23ff39	0.16015328
70	0xbe136bad	-0.14396544
71	0xbb98ec04	-0.004666807
72	0xbd9cf44c	-0.076637834
73	0x3e062cfb	0.13103096
74	0xbd279074	-0.040909246
75	0xbda61269	-0.0810898
76	0x3eafd9ca	0.34345847
77	0x3dc2a6d4	0.09504476
78	0x3c3cc4ba	0.011521513
79	0xbd7009d6	-0.05860313
80	0xbea2f3b9	-0.3182657
81	0x3e4e6b60	0.20158148
82	0x3d724028	0.059143215
83	0xbd4a87c6	-0.04944589
84	0x3d2255db	0.03963266
85	0x3e164fa0	0.14678812
86	0x3f00f5a4	0.5037482
87	0x3b94fbf5	0.004546637
88	0x3d72cc64	0.059276953
89	0x3d996215	0.07489411
90	0xbe3a60b7	-0.18200956
91	0x3e26fc79	0.16307248
92	0xbd4e493b	-0.050362807
93	0x3d4ec7c1	0.05048347
94	0x3dd05128	0.10171729
95	0x3e0a54b3	0.13508873
96	0x3e3f7c61	0.1869979
97	0xbbac159c	-0.0052515995
98	0x3d88bf93	0.06677165
99	0x3d595a09	0.05306438
100	0x3b4e59fa	0.0031486736
101	0xbdd039db	-0.10167285
102	0xbe11b641	-0.1422968
103	0x3e03411f	0.1281781
104	0xbe2becbc	-0.16789526
105	0xbebc56d5	-0.36784998
106	0x3e472a93	0.19449835
107	0xbded2428	-0.11579162
108	0xbda7784b	-0.08177241
109	0x3e8b5657	0.2721431
110	0x3e88eeac	0.26744592
111	0xbe0d8142	-0.13818839
112	0x3e829bcc	0.2550949
113	0xbd336615	-0.043798525
114	0xbe28ac94	-0.16472083
115	0x3dc4f35d	0.0961673
116	0xbda801ad	-0.08203445
117	0xbe53933d	-0.20661636
118	0xbe510ac5	-0.20414265
119	0xbdabc540	-0.08387232
120	0x3c77e640	0.0151305795
121	0x3e9bee6a	0.30455333
122	0xbd5be7db	-0.05368791
123	0x3ddfc9dd	0.10927174
124	0x3c6c624e	0.014427735
125	0x3e0f0e24	0.13970238
126	0x3e83fae1	0.25777343
127	0x3e0a43fd	0.13502498
128	0xbe6c5123	-0.23077826
129	0xbe91dfb1	-0.28490975
130	0x3e20085f	0.15628193
131	0x3a246d6e	0.000627241
132	0x3e020e1d	0.12700696
133	0x3e8679f3	0.26264915
134	0xbe2a3d2b	-0.16624896
135	0xbd4a9a8a	-0.049463786
136	0xbe1ac1ab	-0.15112941
137	0x3e26a122	0.16272405
138	0x3c3932de	0.011303632
139	0xbe6ba2fe	-0.23011395
140	0x3eaa0c83	0.3321267
141	0x3eabd11f	0.33557984
142	0xbdfd4d42	-0.123682514
143	0x3cbcccef	0.023046939
144	0xb8aa6029	-8.124143e-05
145	0xbd3a0b03	-0.045420658
146	0xbd6c825f	-0.05774152
147	0xbdf5dba2	-0.12004782
148	0x3d214d18	0.039380163
149	0x3e13ca66	0.14432678
150	0x3dd36e64	0.1032379
151	0x3dc3bf56	0.09557979
152	0x3d96008e	0.073243245
153	0xbc8c72ac	-0.017144524
154	0x3e164c04	0.14677435
155	0xbeb91088	-0.36145425
156	0xbd3d2a39	-0.046182845
157	0xbc98f19e	-0.0186699
158	0x3eba9b69	0.36446694
159	0x3db98163	0.09057882
160	0x3e62eca7	0.22160588
161	0x3e3a21af	0.18176912
162	0x3f02c2b0	0.5107832
163	0x3ee0d841	0.4391499
164	0xbd33c060	-0.043884635
165	0x3e431c35	0.19053729
166	0x3ea11436	0.31460732
167	0x3e6c3e74	0.23070699
168	0x3d1d1fdc	0.03836046
169	0xbdf7d0de	-0.12100385
170	0xbe02a03f	-0.12756442
171	0x3e839fb3	0.25707778
172	0x3e4a754f	0.19771312
173	0xbe5247b9	-0.20535173
174	0xbe025d37	-0.12730871
175	0x3dd60ed7	0.10452049
176	0x3de41473	0.11136713
177	0x3da18ce5	0.078882016
178	0x3d82b69a	0.06382485
179	0x3c3bffab	0.01147453
180	0x3ea67df8	0.32517982
181	0xbe9ee5bc	-0.31034648
182	0xbe1102b7	-0.14161192
183	0x3b688f82	0.0035485928
184	0xbd087aa2	-0.033320077
185	0x3ddcd479	0.107827134
186	0x3e5fc4d8	0.21852434
187	0x3d958e6f	0.07302558
188	0xbce4205a	-0.027847458
189	0x3eb9347a	0.3617285
190	0x3daadd92	0.083430424
191	0x3eaca1dc	0.3371724
192	0x3e3288ae	0.17434952
193	0xbbc7ea4a	-0.0061009275
194	0xbe97db68	-0.2965958
195	0x3e7a8860	0.24466085
196	0xbddb82d0	-0.1071831
197	0xbc8498c3	-0.016186124
198	0xbbbe2b1a	-0.005803478
199	0x3d78bd09	0.060727153
200	0x3e98698e	0.29768032
201	0x3dc5e290	0.09662354
202	0x3dbb31dd	0.0914037
203	0xbdbccb99	-0.09218521
204	0x3e877366	0.2645523
205	0xbe9ec99e	-0.31013197
206	0x3e2e1aee	0.1700246
207	0x3c980214	0.018555678
208	0x3edd5e11	0.4323583
209	0xbe24259d	-0.16029973
210	0x3dcb7e0f	0.09936153
211	0x3e40468a	0.18776909
212	0x3dce83be	0.100837216
213	0xbe0640b9	-0.13110627
214	0xbe60cc0f	-0.21952842
215	0xbe90920d	-0.28236428
216	0xbe341b3c	-0.17588514
217	0x3e28cac2	0.16483596
218	0x3ea4021a	0.32032853
219	0xbe116b3f	-0.14201067
220	0x3ea039e9	0.31294182
221	0xbd98db97	-0.074637584
222	0xbe267dec	-0.16258973
223	0xbdb86629	-0.090038605
224	0x3ddfdc59	0.109307
225	0xbda8e9e0	-0.08247733
226	0xbdff6d8e	-0.12472068
227	0x3e151cab	0.14561717
228	0x3dfbb4d5	0.1229035
229	0x3e630fe7	0.22174035
230	0x3e2c702e	0.16839668
231	0x3d8227e7	0.06355267
232	0x3e17559e	0.14778754
233	0x3eb16a6a	0.346515
234	0x3d69bee4	0.057066813
235	0x3e0dbfd1	0.13842703
236	0x3d82c1ed	0.06384645
237	0x3da6dabf	0.08147191
238	0x3d9b37e4	0.0757902
239	0x3e8893ce	0.26675266
240	0xbe327768	-0.17428362
241	0xbdf7b2b1	-0.120946296
242	0x3e791bc4	0.24326998
243	0x3e034d29	0.12822403
244	0x3defe88e	0.11714278
245	0x3c18c9be	0.009325443
246	0x3e25e5d2	0.1620095
247	0x3e9c2a3b	0.3050097
248	0x3e35f5d6	0.1776956
249	0x3d8a4abc	0.06752536
250	0xbcfc8ef7	-0.03082989
251	0x3ce59aff	0.02802801
252	0x3ebb46c9	0.36577442
253	0x3e5f6191	0.21814562
254	0xbd4e2823	-0.050331246
255	0xbe0f6e99	-0.14007033

discrete_action_output_shape f4 [1, 2]
0	0x40400000	3.0
1	0x40400000	3.0

network_body._body_endoder.seq_layers.0.bias f4 [128]
0	0xbdd7ba5c	-0.10533592
1	0xbe51b1df	-0.20478009
2	0x3dfef8fd	0.124498345
3	0xbc2db461	-0.010602088
4	0xbe69cd39	-0.22832192
5	0xbe22ff3b	-0.15917675
6	0xbc19231f	-0.009346752
7	0xbe9d32e8	-0.307029
8	0xbe28f413	-0.16499357
9	0xbe2294cc	-0.15877074
10	0xbe3347f9	-0.17507924
11	0x3d766bbb	0.060161334
12	0xbde4b086	-0.11166482
13	0x3b9bf16f	0.0047590057
14	0xbded695f	-0.115923636
15	0xbe1c5aaf	-0.15268968
16	0xbdc70126	-0.09717016
17	0x3de21370	0.11038864
18	0xbd915c92	-0.070977345
19	0xbe049300	-0.12946701
20	0xbb112fa4	-0.002215364
21	0xbe4cc348	-0.19996369
22	0xbe597636	-0.212365
23	0xbe143634	-0.14473802
24	0x3e132292	0.14368656
25	0xbd583e5e	-0.052793853
26	0xbe0c50b6	-0.13702664
27	0xbe11dd3b	-0.14244549
28	0xbe168c63	-0.14701991
29	0xbc9109f4	-0.017704941
30	0xbe96b98a	-0.2943843
31	0x3e813753	0.25237522
32	0x3dee3f74	0.116331965
33	0x3b1c29f2	0.0023828712
34	0x3e13bc97	0.1442741
35	0x3c3d8ae0	0.011568755
36	0x3e82c630	0.2554183
37	0xbdd686fa	-0.104749635
38	0x3cf1e0f2	0.029526208
39	0xbe894221	-0.26808265
40	0x3d669916	0.056298338
41	0xbde27350	-0.1105715
42	0x3d28f0d0	0.04124528
43	0xbdab89cc	-0.08375892
44	0xbded3f1b	-0.11584302
45	0x3e05be95	0.13060983
46	0xbd27c351	-0.040957753
47	0xbe4b577b	-0.1985759
48	0xbd3710de	-0.04469382
49	0xbdc09b09	-0.094045706
50	0xbde5ce82	-0.11221029
51	0xbe2bc8c3	-0.16775803
52	0xbcd60f1f	-0.026130257
53	0x3d84605e	0.06463693
54	0xbc58342b	-0.013196032
55	0x3e315bf8	0.1732024
56	0x3e16f6de	0.1474261
57	0xbe7b6862	-0.24551538
58	0xbe343d85	-0.17601593
59	0x3be98ddc	0.0071275067
60	0xbe5a8f3f	-0.21343707
61	0xbc03b165	-0.0080379
62	0x3b8d7687	0.004317108
63	0xbe01a2f8	-0.12659824
64	0xbe6f1d49	-0.23351015
65	0xbdfebcc5	-0.12438349
66	0x3e0ca4ab	0.13734691
67	0xbd158a63	-0.03650893
68	0x3daad3e8	0.08341199
69	0x3e0113f4	0.12605268
70	0xbd6ed20b	-0.05830578
71	0xbe205734	-0.15658265
72	0x3da1815d	0.07886002
73	0xbd30e152	-0.043183632
74	0xbde19c00	-0.11016083
75	0x3b6fd8ed	0.0036597804
76	0x3d9e42f5	0.07727615
77	0xbe16a155	-0.14709981
78	0xbe8ffcdc	-0.28122604
79	0xb96cac57	-0.00022570915
80	0x3db1c8a3	0.086808465
81	0x3d6893e7	0.056781676
82	0x3e5512b8	0.20807922
83	0x3d49de0e	0.049284033
84	0xbcec1c62	-0.028822128
85	0x3e4428e8	0.1915623
86	0x3a06bae3	0.00051395426
87	0xbdb7251a	-0.089426234
88	0x3da954ae	0.082681045
89	0x3dec872e	0.11549221
90	0xbe959138	-0.29212356
91	0xbd73f7f6	-0.059562646
92	0xbd8f53ae	-0.069983825
93	0xbde01c72	-0.109429255
94	0xbe0f312b	-0.139836
95	0x3c39adc2	0.011332931
96	0x3d444fe5	0.047927756
97	0xbe2441e4	-0.1604076
98	0x3e17e420	0.14833117
99	0xbe604a3c	-0.21903318
100	0x3dcbc35a	0.0994937
101	0xbd26a6a2	-0.040686257
102	0xbd0025dd	-0.03128611
103	0xbdb18421	-0.0866778
104	0xbe247f29	-0.16064133
105	0xbea2f438	-0.3182695
106	0xbd1302b2	-0.035891242
107	0xbe6416f4	-0.22274381
108	0xbd0eba00	-0.034845352
109	0xbd882710	-0.066480756
110	0xbe05972c	-0.13045949
111	0x3da629a0	0.08113408
112	0x3dd030b2	0.10165538
113	0xbe043134	-0.12909395
114	0x3d434cb4	0.04768057
115	0xbe89a90d	-0.26886788
116	0xbd609a9b	-0.054834943
117	0x3dc95c12	0.09832014
118	0xbe4fbd80	-0.20287132
119	0xbe24034a	-0.1601688
120	0xbd6d8c4f	-0.057995137
121	0x3e600961	0.21878578
122	0x3e89e4e3	0.2693244
123	0xbd0bc254	-0.034120873
124	0xbce56807	-0.028003706
125	0xbc952b86	-0.01820923
126	0xbd22e50d	-0.03976922
127	0xbe75e52d	-0.24013205

network_body._body_endoder.seq_layers.0.weight f4 [128, 68]
0	0x3e83a68f	0.25713012
1	0x3eaa7dad	0.33299008
2	0x3e1f0d5e	0.15532443
3	0xbd9e0217	-0.07715242
4	0x3e269d11	0.16270854
5	0x3e342813	0.17593412
6	0x3e8b5e2c	0.27220285
7	0xbe1d8c27	-0.15385495
8	0xbdf1cff3	-0.11807241
9	0xbdeaf389	-0.11472232
10	0xbea0e26a	-0.3142274
11	0x3e92ad82	0.28648
12	0xbcc875f6	-0.02447031
13	0x3d0b2177	0.03396746
14	0x3ef4ad0e	0.4778828
15	0xbe8932dc	-0.26796615
16	0x3d98be6b	0.07458194
17	0xbdfbe852	-0.12300171
18	0x3ef5fac6	0.48042887
19	0x3e7c1980	0.24619102
20	0x3e1e62c4	0.15467364
21	0x3e15090c	0.14554232
22	0x3de9af4e	0.1141039
23	0xbe879f7e	-0.2648887
24	0xbc07a600	-0.008279324
25	0xbe3cceab	-0.18438213
26	0xbe007c79	-0.12547483
27	0xbdc41803	-0.09574892
28	0xbd3f604e	-0.046722703
29	0xbe01ec73	-0.12687854
30	0x3d4fb9ac	0.05071418
31	0x3d8a14f9	0.067422815
32	0xbdd9cb34	-0.10634461
33	0x3ec8b343	0.39199266
34	0x3e87473d	0.26421538
35	0xbc231e57	-0.009955964
36	0x3ebbb039	0.36657885
37	0x3d258e63	0.040418994
38	0xbe7f289f	-0.2491784
39	0x3db5ae77	0.08871167
40	0x3e76d4bf	0.24104594
41	0xbc5ed223	-0.013599905
42	0x3e884498	0.26614833
43	0x3e9373ec	0.2879938
44	0x3e15e9f2	0.14640024
45	0x3a1941c4	0.00058462867
46	0xbea27c05	-0.31735244
47	0x3ea4fff2	0.3222652
48	0xbd0e6820	-0.03476727
49	0x3bd6e9b4	0.0065586213
50	0x3eaad10c	0.33362615
51	0x3df1678b	0.117873274
52	0xbd303515	-0.043019373
53	0xbed69c40	-0.41916084
54	0x3e5f380c	0.21798724
55	0x3e96a2f1	0.2942119
56	0xbda27a37	-0.07933467
57	0xba84a4ed	-0.0010119952
58	0x3e73a598	0.23793638
59	0xbd2eeef7	-0.042708363
60	0x3ec73cb9	0.38913515
61	0x3e055270	0.13019729
62	0x3e44c177	0.19214426
63	0xbc266e2a	-0.010158101
64	0xbe0e0eb6	-0.138728
65	0x3e842c6e	0.25815147
66	0x3e7bd120	0.24591494
67	0x3e0924de	0.1339297
68	0xbe3c9cf8	-0.18419254
69	0x3e2a1368	0.16608965
70	0x3d8487bb	0.06471201
71	0x3e01d4f7	0.12678896
72	0xbe611c93	-0.21983556
73	0xbe5fdd6a	-0.21861807
74	0x3e87b545	0.26505485
75	0x3d4a50ac	0.04939334
76	0x3e0046a6	0.1252695
77	0xbe3e271e	-0.1856961
78	0x3d71db9e	0.059047334
79	0x3c7c7d13	0.015410679
80	0x3e15b406	0.14619455
81	0x3daa64b1	0.083199866
82	0xbe724bc8	-0.23661721
83	0xbe692a9f	-0.22770165
84	0xbda0e6c8	-0.07856518
85	0xbda27d4b	-0.07934054
86	0x3ed50464	0.41604912
87	0x3e56b1b9	0.20966233
88	0x3c8d124b	0.017220637
89	0x3e3de2e2	0.1854358
90	0xbdd1cd23	-0.10244205
91	0x3e300c2b	0.17192142
92	0x3d9b972f	0.07597195
93	0x3cf22c54	0.029562153
94	0xbeca96a0	-0.39568043
95	0x3de36f6f	0.11105239
96	0xbb92d179	-0.0044805375
97	0xbaf63e4f	-0.001878688
98	0xbdc7af4b	-0.09750231
99	0x3d85238e	0.06500922
100	0x3e27672c	0.1634795
101	0xbe1d2351	-0.15345503
102	0xbd35fb7c	-0.044429287
103	0x3d449084	0.047989383
104	0x3eea8ed2	0.45812088
105	0x3e59ad22	0.21257451
106	0x3d8cbd0d	0.06871996
107	0x3d89f340	0.067358494
108	0xbd5ed74d	-0.054404546
109	0x3ddf7cfb	0.1091251
110	0x3e0667d7	0.1312555
111	0xbe2fbacc	-0.17161101
112	0xbd197c1b	-0.03747187
113	0x3c8b5646	0.017008912
114	0x3db52bec	0.08846268
115	0xbd7e7073	-0.06211896
116	0xbcd0c042	-0.0254823
117	0xbe563a2c	-0.20920628
118	0x3cfc241a	0.030778933
119	0xbea91b00	-0.33028412
120	0xbdd7c2b9	-0.10535187
121	0x3a96f6d6	0.0011517655
122	0xbeccbbb3	-0.39986953
123	0xbdbd4af3	-0.09242811
124	0x3f096641	0.5367165
125	0x3e2d869a	0.16945878
126	0xbe99c6da	-0.30034524
127	0x3de7011e	0.1127951
128	0xbe150db8	-0.14556015
129	0x3e0552ab	0.13019817
130	0xbd882379	-0.06647391
131	0x3df8722e	0.12131153
132	0x3ebe7bac	0.3720373
133	0xbe047db8	-0.12938583
134	0xbda2fa61	-0.07957912
135	0x3da47bcb	0.08031424
136	0xbe32d901	-0.17465593
137	0xbe2e8f57	-0.17046867
138	0x3d1e513b	0.038651686
139	0xbeae369c	-0.3402604
140	0x3e6f3cf8	0.23363101
141	0x3da7877e	0.0818014
142	0xbcf12706	-0.029437553
143	0x3e561294	0.20905524
144	0xbd010f81	-0.031508926
145	0x3e8f85cc	0.28031766
146	0x3d7e49a9	0.062081967
147	0xbe945695	-0.28972307
148	0xbdb2c451	-0.08728851
149	0xbe4966db	-0.19668142
150	0x3e2dded9	0.16979541
151	0xbe6a0b5d	-0.22855897
152	0x3e88633b	0.26638207
153	0xbd4cecc9	-0.050030503
154	0x3e86267c	0.26201236
155	0xbd4f5b31	-0.050624076
156	0xbd3cdb27	-0.046107437
157	0x3d308740	0.043097734
158	0xbe02d5ed	-0.12776919
159	0x3e3b2b16	0.18278155
160	0x3d63bc11	0.055599276
161	0xbeaedd5d	-0.34153262
162	0xbec9ece0	-0.39438534
163	0xbdf0c4a9	-0.1175626
164	0xbd8848f2	-0.06654538
165	0xbe3661c4	-0.17810732
166	0x3e4bfa55	0.19919713
167	0x3eb1394f	0.34614035
168	0xbdbbd9f6	-0.09172432
169	0x3e02f758	0.12789667
170	0x3e61c71a	0.22048607
171	0xbe6a3d08	-0.22874844
172	0x3edf772f	0.43645617
173	0xbd4b8857	-0.04969057
174	0x3e0ec46c	0.13942116
175	0xbe26152f	-0.16219018
176	0x3d316b46	0.043315195
177	0x3ed38b23	0.4131709
178	0xbd6d3e3e	-0.057920687
179	0x3d116fd1	0.035507027
180	0xbe11a507	-0.14223109
181	0x3d12e1d7	0.03585991
182	0x3e4b4101	0.19849016
183	0xbbceb4a3	-0.0063081547
184	0xbc988248	-0.01861681
185	0xbc35a91f	-0.011087685
186	0xbef8bb3d	-0.4858035
187	0xbe52efd3	-0.20599298
188	0x3e6b311b	0.22967951
189	0xbde207eb	-0.110366665
190	0x3e70f3ca	0.23530498
191	0x3e06b26e	0.13154003
192	0x3e227319	0.15864219
193	0xbd7fe626	-0.062475346
194	0x3e0f9ad2	0.14023903
195	0xbe4d95b1	-0.20076634
196	0x3e5517a0	0.20809793
197	0x3d63a9ae	0.05558174
198	0xbdf695dd	-0.12040303
199	0xbdff3e68	-0.12463075
200	0xbde2bad0	-0.11070788
201	0xbe4b2725	-0.19839151
202	0x3d714909	0.058907542
203	0x3d94c503	0.072641395
204	0x3d5415d6	0.051778637
205	0x3e07cc04	0.1326142
206	0x3df627ed	0.12019334
207	0xbd47d4c4	-0.048786893
208	0xbe924a18	-0.28572154
209	0x3e4b730f	0.1986811
210	0x3e0ef4f2	0.13960627
211	0x3e3d8f3b	0.1851167
212	0x3d2cbd34	0.042172626
213	0xbe4579b4	-0.19284707
214	0x3e1078e7	0.1410862
215	0xbd6d60e2	-0.057953723
216	0x3d12eb6d	0.03586905
217	0xbd4d7657	-0.050161686
218	0xbcb460ac	-0.022018753
219	0x3ef495bc	0.47770488
220	0xbca3bc10	-0.019987136
221	0x3dbfac7c	0.09359071
222	0x3d831b85	0.06401733
223	0xbf06c905	-0.5265048
224	0xbea4a263	-0.3215514
225	0x3e24818f	0.16065048
226	0xbe22767c	-0.1586551
227	0x3cbfca4e	0.023411896
228	0x3c8559a2	0.016278092
229	0xbccbdb06	-0.024884712
230	0xbf273991	-0.65322214
231	0x3d8d20a5	0.06890992
232	0xbe16f144	-0.14740473
233	0xbddffcc5	-0.10936884
234	0xbd2547c0	-0.04035163
235	0xbdadaa51	-0.08479751
236	0xbaa24ada	-0.0012381927
237	0x3b6b876d	0.0035938874
238	0xbca732ed	-0.020410025
239	0xbe89a152	-0.2688089
240	0xbe5a92f3	-0.21345119
241	0x3e14b43e	0.14521882
242	0xbc060348	-0.008179493
243	0xbd8cf445	-0.06882528
244	0xbdd5772d	-0.104231216
245	0x3e05ce28	0.13066924
246	0x3d6ae3f8	0.057346314
247	0x3d0769d1	0.0330599
248	0xbe852e85	-0.26012054
249	0x3ec02e5f	0.37535378
250	0xbcc87802	-0.024471287
251	0xba69913c	-0.0008909886
252	0xbdfc75cf	-0.12327158
253	0xbddf6339	-0.10907597
254	0xbe3e5e38	-0.18590629
255	0xbe29f37e	-0.16596791

network_body._body_endoder.seq_layers.2.bias f4 [128]
0	0xbe3e080a	-0.18557754
1	0x3d38741e	0.045032613
2	0x3cb96ca3	0.02263481
3	0xbd45b4de	-0.04826819
4	0x3c597a9a	0.013273859
5	0x3cc95c5d	0.024580175
6	0xbdced3e9	-0.100990124
7	0xbde8f4a6	-0.11374788
8	0xbdf758b7	-0.12077468
9	0xbe18b37e	-0.14912221
10	0xbcf48e00	-0.029852867
11	0xbea58ad7	-0.3233249
12	0x3e07d35c	0.13264221
13	0x3c0a01c9	0.008423277
14	0x3cbb08a1	0.022831263
15	0xbeb1e427	-0.3474438
16	0xbdccb2aa	-0.09995015
17	0xbe3faf03	-0.18719105
18	0xbe0adf87	-0.13561831
19	0xbde569a8	-0.11201793
20	0x3d49efcf	0.049300965
21	0xbe2cc542	-0.16872123
22	0x3ca7a9ef	0.020466773
23	0xbdc5285f	-0.09626841
24	0xbe97a370	-0.2961688
25	0x3bf1d589	0.0073801917
26	0xbcb69fdc	-0.022293024
27	0xbe0cc98d	-0.1374876
28	0xbe048573	-0.12941532
29	0xbbb77f0d	-0.0055998624
30	0x3dae1a42	0.08501102
31	0xbc332549	-0.010934182
32	0x3df880f6	0.12133972
33	0xbe29a694	-0.16567451
34	0x3de534e7	0.11191731
35	0xbc1f4cb8	-0.009722881
36	0x3dd73fd3	0.105102204
37	0x3d8ee83a	0.069778875
38	0x3d85dc6a	0.06536181
39	0xbd6e0028	-0.058105618
40	0x3d9339a4	0.071887285
41	0xbd606da9	-0.05479208
42	0xbd8b6a40	-0.06807375
43	0xbe36d612	-0.17855099
44	0xbe158e98	-0.14605176
45	0xbd7647de	-0.06012713
46	0xbe8e96e1	-0.27849486
47	0xbe7c6beb	-0.24650542
48	0xbe3368f5	-0.17520507
49	0x3e22a924	0.15884835
50	0xbc0e4da3	-0.008685502
51	0x3e01f32d	0.1269042
52	0x3e3f92b5	0.18708308
53	0x3d1de34b	0.03854684
54	0xbda0aa12	-0.07844938
55	0x3def2ddd	0.116786696
56	0x3dc2c36b	0.09509929
57	0x3db1448f	0.08655655
58	0xbca30221	-0.019898476
59	0xbe0ec3f7	-0.13941942
60	0xbe78f829	-0.24313416
61	0xbdc6b5ff	-0.09702682
62	0x3c973e3b	0.018462291
63	0xbba2870d	-0.004959947
64	0xbe684546	-0.22682676
65	0x3bc6eade	0.006070479
66	0x3c78be38	0.01518207
67	0xbdd28a48	-0.10280281
68	0x3dd48846	0.103775546
69	0xbd90ab57	-0.070639305
70	0xbda297af	-0.079390876
71	0x3aba71e8	0.001422462
72	0x3d087058	0.033310264
73	0xbec0424d	-0.37550583
74	0xbdced468	-0.10099107
75	0xbe97c53e	-0.2964267
76	0x3d739d2f	0.059476074
77	0xbda9e742	-0.08296062
78	0xbdcb3d69	-0.099238224
79	0x3d22f7c4	0.03978707
80	0xbd06b17f	-0.032884117
81	0x3d17ee51	0.03709251
82	0xbe1347fd	-0.1438293
83	0xbe8374bb	-0.25674996
84	0xbe8728fd	-0.2639846
85	0x3cb6f3d7	0.022333069
86	0xbc47a5de	-0.012185542
87	0x3dc79c8a	0.09746654
88	0xbd782625	-0.060583252
89	0xbd93a922	-0.07209994
90	0xbb6688e0	-0.0035176799
91	0xbd8eae76	-0.069668695
92	0x3dceb5fa	0.10093303
93	0xba712320	-0.00091986544
94	0xbe89e3ab	-0.2693151
95	0xbe3a78f4	-0.18210202
96	0xbe3cbce1	-0.18431427
97	0xbe991a6a	-0.29902965
98	0xbe02a323	-0.12757544
99	0xbeba6eb6	-0.3641259
100	0x3deb1eb3	0.11480465
101	0xbea12155	-0.31470743
102	0xbd95c7c5	-0.07313494
103	0x3d555ee2	0.05209244
104	0x3ca5fbbd	0.02026164
105	0xbd3f1225	-0.046648163
106	0xbd9acd33	-0.0755867
107	0xbe7e100f	-0.24810813
108	0xbe82e07b	-0.2556189
109	0x3bdfa93b	0.0068255938
110	0xbe8fd1f2	-0.28089863
111	0xbe4118e3	-0.1885715
112	0xbe8a12ba	-0.26967412
113	0x3cd686c3	0.026187306
114	0x3b675207	0.0035296695
115	0xbe585fd0	-0.211303
116	0xbca331e9	-0.01992126
117	0xbd79f0ea	-0.06102077
118	0x3d5877c8	0.052848607
119	0xbd821f07	-0.06353574
120	0xbd2d22b9	-0.042269442
121	0x3d854c46	0.06508689
122	0x3c6ec7f3	0.014574039
123	0x3c0aa876	0.008463016
124	0x39dd773d	0.00042241244
125	0x3c99d01e	0.018775996
126	0xbddb2af2	-0.107015505
127	0xbea215b1	-0.31657174

network_body._body_endoder.seq_layers.2.weight f4 [128, 128]
0	0x3e35462a	0.17702547
1	0x3e1c2066	0.15246734
2	0x3e6aeb27	0.22941266
3	0xbdd143ee	-0.10218035
4	0x3cab4889	0.02090861
5	0xbdd3590d	-0.103197195
6	0x3e6f389d	0.2336144
7	0x3ea4b107	0.3216631
8	0x3e07fe94	0.13280708
9	0xbbf34c2e	-0.007424853
10	0x3dfd681c	0.12373373
11	0x3d1317df	0.035911437
12	0x3ad77fb9	0.0016441263
13	0xbda8a9ab	-0.082354866
14	0x3d900150	0.070315
15	0x3d97c3be	0.07410382
16	0xbc156988	-0.009119399
17	0xbec2c734	-0.38042605
18	0x3e12f3bb	0.14350788
19	0x3e7ccca3	0.24687438
20	0xbe5afdf5	-0.2138594
21	0x3e26ce7f	0.1628971
22	0xbe1e8d6a	-0.15483633
23	0xbd823fa7	-0.06359797
24	0xbe35e6c2	-0.17763808
25	0xbe0604e5	-0.13087805
26	0x3e813442	0.25235182
27	0x3de59fb3	0.11212101
28	0xbe55497a	-0.2082881
29	0x3dedb9a3	0.11607673
30	0xbd7aecaa	-0.061260857
31	0x3c40bba9	0.011763492
32	0xbe0cb852	-0.13742188
33	0x3dcf5dad	0.10125289
34	0x3dac0ec5	0.084012546
35	0xbd74c729	-0.059760246
36	0xbd86e1d2	-0.065860406
37	0x3d8d4855	0.06898562
38	0x3d86931f	0.0657103
39	0x3dd9abaa	0.106284454
40	0xbef4e4c0	-0.47830772
41	0xbd003c10	-0.03130728
42	0x3d5a1fea	0.053253092
43	0xbe5e3d2a	-0.2170302
44	0x3e992edb	0.2991856
45	0x3deb071c	0.114759654
46	0xbe9341cd	-0.2876114
47	0x3e7571f4	0.23969251
48	0xbab572f9	-0.0013843469
49	0xbdaf539a	-0.085608676
50	0xbea651b5	-0.32484213
51	0x3dfc6687	0.12324243
52	0x3db11d27	0.086481385
53	0x3e563b15	0.20920976
54	0xbe3cc8df	-0.18436001
55	0xbdf728a2	-0.12068297
56	0xbb1ea7c5	-0.0024208885
57	0x3ca8a4ef	0.020586459
58	0x3e57747e	0.21040532
59	0x3ddaf963	0.10692098
60	0x3c8d60cc	0.01725807
61	0x3d34fb9e	0.044185273
62	0xbb0b0112	-0.0021210355
63	0x3ebda622	0.37040812
64	0x3c3f0116	0.011657974
65	0x3def1cff	0.116754524
66	0xbe063cfc	-0.13109201
67	0x3e6d5700	0.23177719
68	0x3dac62ba	0.08417268
69	0xbeb9cac3	-0.36287507
70	0xbd960fb5	-0.07327215
71	0x3e14b6bb	0.14522831
72	0x3db6fc95	0.08934895
73	0x3d8c0de7	0.06838589
74	0x3d8b212b	0.06793436
75	0xbee44fdc	-0.44592178
76	0xbdb9b099	-0.090668865
77	0xbe99f189	-0.3006709
78	0xbe51bb88	-0.20481694
79	0x3e899a03	0.26875314
80	0x3e1844e2	0.14870027
81	0xbd5e2346	-0.054232858
82	0xbe4669fc	-0.19376367
83	0x3e059ee5	0.13048895
84	0xbe439ed7	-0.19103561
85	0xbe0ed7df	-0.13949536
86	0x3d89be06	0.06725697
87	0x3e282f5e	0.16424319
88	0xbf2b5336	-0.66923845
89	0xbd8471b9	-0.064670034
90	0xbc34e9f9	-0.011042112
91	0xbf06cb76	-0.52654207
92	0xbeabd746	-0.33562678
93	0xbd8d11cb	-0.06888159
94	0xbe9e96ee	-0.30974525
95	0x3db5a0f0	0.08868587
96	0xbe56e8de	-0.2098727
97	0xbde8bad6	-0.11363761
98	0x3d8bf9a9	0.06834728
99	0xbddc6d04	-0.107629806
100	0x3cc2dd7f	0.023787258
101	0xbe5c6d6c	-0.21526116
102	0xbe8181ab	-0.2529424
103	0xbcb29899	-0.02180128
104	0x3ed66d37	0.418802
105	0x3dd34b74	0.10317126
106	0x3ebffd05	0.37497726
107	0x3d1eb14a	0.038743295
108	0xbd060db2	-0.032727905
109	0xbecac48e	-0.39603084
110	0xbe983c6d	-0.297336
111	0xbe0c61a1	-0.13709117
112	0xbe3c191c	-0.18368953
113	0x3d872c54	0.06600252
114	0x3e146f2c	0.14495534
115	0x3e204e8f	0.15654968
116	0xbee87ffb	-0.4541014
117	0x3dc865b7	0.097850256
118	0xbeaf31bb	-0.3421763
119	0x3e3f789c	0.18698353
120	0xbe9a92f3	-0.30190238
121	0x3d650dc7	0.055921342
122	0xbeaa423b	-0.33253655
123	0xbe95f109	-0.29285458
124	0x3e455851	0.19271971
125	0x3e782082	0.24231151
126	0x3dac7d4f	0.08422338
127	0xbdcf7289	-0.10129268
128	0x3c297da4	0.010344896
129	0x3e2fa030	0.1715095
130	0xbe68e652	-0.2274411
131	0xbea5135c	-0.32241333
132	0xbcd26174	-0.025681235
133	0x3da9faa8	0.08299762
134	0xbcf0be54	-0.02938763
135	0xbe5e9659	-0.2173704
136	0xbdb72ca2	-0.0894406
137	0xbea3c35e	-0.3198499
138	0xbd83aba9	-0.06429226
139	0xbe910002	-0.28320318
140	0xbdd33516	-0.1031286
141	0x3e40fcf5	0.18846495
142	0xbe6123ca	-0.21986309
143	0xbda419fc	-0.080127686
144	0xbcf43897	-0.02981214
145	0xbd2e8cd5	-0.042614777
146	0xbdc51614	-0.09623352
147	0x3e70f145	0.23529537
148	0xbeb4056d	-0.3516039
149	0xbe413f35	-0.18871768
150	0xbd5b76da	-0.053580143
151	0x3e10107a	0.14068785
152	0xbe57ef7b	-0.21087448
153	0x3e198c18	0.14994848
154	0xbcf98873	-0.030460572
155	0xbcee0530	-0.029055208
156	0xbe867e28	-0.26268125
157	0x3ebd4570	0.3696704
158	0xbd3a74ab	-0.04552142
159	0xbdce5df3	-0.10076513
160	0xbce3b12f	-0.027794449
161	0xbd10ac7d	-0.035320748
162	0x3e80738c	0.25088155
163	0x3e50aa50	0.20377469
164	0x3dd1ef29	0.10250694
165	0xbe899fb6	-0.26879662
166	0x3e59a93e	0.21255967
167	0x3e7b50b3	0.24542503
168	0x3dcd03c3	0.10010483
169	0xbd7a282e	-0.061073475
170	0xbe596306	-0.2122918
171	0xbdf46f6e	-0.11935316
172	0x3e385209	0.18000044
173	0x3db3d788	0.08781344
174	0xbe0e9b03	-0.1392632
175	0xbd3d01dc	-0.04614435
176	0xbd0dc144	-0.03460814
177	0xbe4d8f86	-0.20074281
178	0xbe869036	-0.262819
179	0xbe6786d5	-0.22610028
180	0xbd61d043	-0.055130254
181	0x3e0a32d9	0.1349596
182	0xbea27bab	-0.31734976
183	0xbdb8506d	-0.08999715
184	0x3e95de8e	0.29271358
185	0xbdbb100d	-0.09133921
186	0xbe6c4bcd	-0.2307579
187	0x3f0590b0	0.521739
188	0x3de93989	0.11387927
189	0x3bcc5da6	0.0062367497
190	0xbe172bab	-0.14762752
191	0xbdb5b0c9	-0.0887161
192	0x3e00d45d	0.1258101
193	0x3d0844a1	0.033268575
194	0x3c5b6880	0.013391614
195	0xbee15883	-0.44012842
196	0x3db5025a	0.08838339
197	0xbeb48ef0	-0.35265303
198	0x3e657b4c	0.22410315
199	0xbdfd5b24	-0.12370899
200	0x3daf469a	0.08558388
201	0xbe8d4177	-0.27589008
202	0xbd2b2231	-0.041780654
203	0xbe1f6ee0	-0.15569639
204	0xbeb2ba77	-0.34907886
205	0xbe1f6227	-0.15564786
206	0x3ce73ea3	0.02822811
207	0xbed61295	-0.41811052
208	0xbd43b550	-0.047780335
209	0x3e3743e2	0.17896989
210	0xbda23df9	-0.079219766
211	0xbe6e98aa	-0.23300424
212	0xbe20cb45	-0.15702541
213	0x3df53135	0.11972276
214	0x3ec0a51c	0.37625968
215	0x3d2db4e5	0.042408843
216	0xbd272018	-0.04080209
217	0x3e0ff594	0.14058524
218	0x3dc3c5d2	0.095592156
219	0x3d814d86	0.063136145
220	0x3ea58f80	0.32336044
221	0xbd8b139e	-0.06790851
222	0xbe35008b	-0.17675988
223	0x3dca3926	0.098741814
224	0xbe57ccdc	-0.21074241
225	0xbd2f3569	-0.042775545
226	0xbe0b9d86	-0.13634309
227	0xbdff9b1c	-0.12480757
228	0x3e74f852	0.23922852
229	0xbe061e60	-0.13097525
230	0xbd5f130e	-0.05446153
231	0xbe567038	-0.20941246
232	0x3e467d5a	0.19383755
233	0x3ebbd533	0.36686096
234	0xbcc88945	-0.024479518
235	0x3e1e8923	0.15482001
236	0x3e932580	0.28739548
237	0xbe0b0b58	-0.13578546
238	0xbe7329b0	-0.23746371
239	0x3db5b9d0	0.088733315
240	0xbeaa76c5	-0.3329374
241	0x3e2a4e15	0.16631348
242	0x3ed9fa8f	0.42573974
243	0xbe32ddaa	-0.1746737
244	0xbe9bf7be	-0.3046245
245	0x3e0ed144	0.13947016
246	0x3d5c680c	0.053810164
247	0x3dbeff65	0.093260564
248	0x3e547d7a	0.2075099
249	0x3e4a72de	0.19770381
250	0xbe89b628	-0.26896787
251	0xbd1c25d9	-0.03812203
252	0x3b808205	0.0039217495
253	0xbeb364a1	-0.3503771
254	0x3db1fc37	0.08690684
255	0xbd617585	-0.055043716

network_body.observation_encoder.processors.0.normalizer.running_mean f4 [25]
0	0x3f67e410	0.9058237
1	0x3aaa17c6	0.0012977056
2	0x00000000	0.0
3	0x3b92805b	0.0044708676
4	0x3df91624	0.12162426
5	0x3f565ae5	0.83732444
6	0x3adc0cf2	0.0016788526
7	0x00000000	0.0
8	0x3bfc3381	0.0076965694
9	0x3e088b41	0.13334371
10	0x3f59a059	0.85010296
11	0x3b11b213	0.0022231385
12	0x00000000	0.0
13	0x3bf54866	0.007485437
14	0x3e0cb2db	0.13740103
15	0x3f336d82	0.7008897
16	0x3b5097f8	0.0031828862
17	0x00000000	0.0
18	0x3d18acdf	0.037274238
19	0x3e3a6c95	0.18205483
20	0x3eee9d04	0.46604168
21	0x3c857537	0.016291244
22	0x00000000	0.0
23	0x3c5007c3	0.012697163
24	0x3e2ce8a2	0.16885617

network_body.observation_encoder.processors.1.normalizer.running_mean f4 [25]
0	0x3e720733	0.23635559
1	0x3e641c0d	0.22276326
2	0x00000000	0.0
3	0x3d05f036	0.032699786
4	0x3da99842	0.08280994
5	0x3e34b481	0.17646982
6	0x3df47af5	0.11937515
7	0x00000000	0.0
8	0x3dba6959	0.09102125
9	0x3e12de63	0.14342646
10	0x3ee5fe3b	0.44920525
11	0x3d9af1c7	0.075656466
12	0x00000000	0.0
13	0x3d783f0a	0.060606994
14	0x3dc8bb04	0.098012954
15	0x3dcd1a6b	0.100148045
16	0x3dac913b	0.08426138
17	0x00000000	0.0
18	0x3d9acb90	0.07558358
19	0x3df4b48f	0.11948501
20	0x3f0152a3	0.5051672
21	0x3cb3922f	0.021920292
22	0x00000000	0.0
23	0x3d9580d3	0.07299962
24	0x3dd55d9c	0.10418245

network_body.observation_encoder.processors.2.normalizer.running_mean f4 [18]
0	0x40fdf1ee	7.9357824
1	0xbf6263c9	-0.8843351
2	0x41973c4b	18.90444
3	0x4027ec33	2.6237915
4	0x3ebe16da	0.3712681
5	0xc047d7d5	-3.1225483
6	0xbaa65b3f	-0.0012691988
7	0x3eb87dac	0.3603338
8	0xbb429034	-0.0029688003
9	0xbf58c85f	-0.8468074
10	0x4397eaf2	303.8355
11	0x4122d3e2	10.176729
12	0x3e961fe8	0.29321218
13	0xbe09a757	-0.13442741
14	0x3f11e1f3	0.56985396
15	0xbe15017c	-0.14551347
16	0x00000000	0.0
17	0x3ea84b15	0.32869783
