Assets/Brains/run30/CarPractice_run30-7.onnx (onnx, 108914 bytes, 15 tensors)

85 f4 [25]
00000000: 12d5 973e e920 4e3d 2b1f 0c3a 54a5 883d
00000010: 8446 ba3d ad9f af3e 9d07 213d 2b1f 0c3a
00000020: f64c f33d 99ab 033e 7518 cf3e 3226 5c3d
00000030: 2b1f 0c3a ceaf f83d b318 063e 070c f23e
00000040: 5800 823d 2b1f 0c3a 5713 5e3e 740c 503e
00000050: eee4 ff3e f621 d03d 2b1f 0c3a 2f25 213e
00000060: 9e44 233e
0.29654747 0.050324354 0.00053452206 0.06672159 0.09095481 0.3430151 0.0393139 0.00053452206
0.118799135 0.12858428 0.40448347 0.053747363 0.00053452206 0.12142907 0.1309536 0.472748
0.06347722 0.00053452206 0.21687065 0.2031725 0.49979347 0.101627275 0.00053452206 0.1573684
0.15944144

88 f4 [25]
00000000: cf1b e03e 5a58 e13e 2b1f 0c3a d264 383e
00000010: 81cd 323e 2d8b bb3e f001 a63e 2b1f 0c3a
00000020: c474 7b3e 5e45 723e 186f fd3e 9648 793e
00000030: 2b1f 0c3a 307d 883e a099 833e 4656 983e
00000040: 8328 913e 2b1f 0c3a c4f9 7e3e 3e5a 773e
00000050: 19dd ff3e be20 093e 2b1f 0c3a dc0f 903e
00000060: 423d 8b3e
0.43771216 0.4401272 0.00053452206 0.1800721 0.17461206 0.3662962 0.32423353 0.00053452206
0.24556261 0.23659274 0.4949882 0.24344096 0.00053452206 0.2665801 0.25703144 0.2975332
0.2835122 0.00053452206 0.24899966 0.24155518 0.49973372 0.13391396 0.00053452206 0.281371
0.27195174

91 f4 [18]
00000000: 2033 af41 cbcd 0940 832d b541 729a c440
00000010: 71c9 4b3d 4939 e540 f06d 433d 0989 b83e
00000020: b91d 873d 277d 013e 7914 0c44 a57a c841
00000030: 2a71 063f 208b 3f3e 07f5 ed3e 2c5d 503f
00000040: 2b1f 0c3a 2a70 f03e
21.899963 2.1531856 22.647223 6.143853 0.049752656 7.163243 0.047712266 0.3604205
0.06597466 0.12645398 560.3199 25.059885 0.52516425 0.18705416 0.46476004 0.8139217
0.00053452206 0.46960574

action_model._discrete_distribution.branches.0.bias f4 [3]
00000000: 4efe 033e 3c63 f3bd a56a 22bd
0.12889978 -0.11884162 -0.039652485

action_model._discrete_distribution.branches.0.weight f4 [3, 128]
00000000: 3770 f3bc bf43 9ebd 385d 813b 774e 1f3e
00000010: 415a 833e 1335 11bd 619a 503c 84c8 2d3e
00000020: b5e2 4d3e 5bf5 6a3e 510c 1e3e a979 b13d
00000030: d875 b9bc 104f af3e 3388 363e 3190 8d3d
00000040: 9a77 2d3e b6dc c1be bdbe 583c 0120 e9bd
00000050: 92e0 dabc 9258 d93d cab7 a73d a3ff 8f3c
00000060: 215f c8bd b12d 893e 509b 8c3d 0d98 a93c
00000070: 862d 6bbe 32fc 1abe 38af b0bd 9ec0 bb3d
00000080: 67bc 3ebe 5274 2dbe 7c0a ab3e 4d26 76bd
00000090: 711f 9ebe 4cc7 2c3c e3c9 503d 050c e93d
000000a0: b130 543e f2e5 2b3d b984 86be ca4a a3be
000000b0: c90f d43d c0d5 8c3c dbcf 17be 684f 933e
000000c0: 42e0 8c3d 83a2 0fbe 2948 8e3e d7d3 3bbe
000000d0: 5ec9 043d b105 a63b 6aca 893e 2186 143e
000000e0: ab08 31be 615d 923d f26e 8ebe 7d2a 1fbd
000000f0: 9edd 993e 0e86 443d 1c5f 693e 07a4 d1bd
00000100: 209e 783e 5c44 fd3d f678 10be 1501 35be
00000110: c10e 003d 6136 383d 0d6a 543c b4c6 43bc
00000120: bfbd 923d 0234 593e 948f 92bd 3b2a c6be
00000130: a1f5 62bd 83cc 80be 313f 87bd 41f7 7f3e
00000140: 5bce 183e a6ae d93d c9b9 733e de4b 123e
00000150: 14e8 183e e0cc 743e 0c12 5f3c efdb fe3d
00000160: b85c 40be 902d 343e b19b 823e 071f 2abd
00000170: c950 29bd 865e 95bd 7364 d53d 77d6 c2bc
00000180: 4744 c73d 5871 b13d 5ade a4be fe86 15be
00000190: 78b0 c53e 7c51 4fbe 1bc4 503e b86a bc3b
000001a0: 9d32 c83c ae3e d9bd b715 36bc e62a 11be
000001b0: e339 bf3d 4ff4 85be f4f1 4e3e cebe 2d3e
000001c0: adfe 13bd e9bb d43e ac7d a1bb 7f0f 1b3e
000001d0: 8f54 c6bc 60e7 a13e 131b c1be 8e0d cbbe
000001e0: 2724 023e e676 143e 31bf a23c e9b7 ac3d
000001f0: d2f3 433e ba29 d7bc 2282 a6be f504 4bbd
00000200: 2245 d3bd 303a fa3d e41d c0bd 7f3c 86be
00000210: 67d5 01be 52e3 783e 14bb 90be ff70 27be
00000220: bdef d63d 30a5 8cbd 4ca1 24be b60d 5d3e
00000230: eccb 243e 24db 93be bd64 a53d 1c0e 14be
00000240: 8eb5 81be f56b 823e b1d4 6e3e 0097 58be
00000250: d1c1 afbd 2368 b9be 0fef d03d 08c2 083e
00000260: e7c3 223e daa5 68bd 5096 153c a253 0f3e
00000270: 03ce cf3e 90e2 233e 46ef 29bb 25d3 8cbe
00000280: cec4 d03c 12cb e33d 196f 0abe 0e6c 8c3d
00000290: ddd4 3c3e 68ec 0abe 728b c9be 18fe c43d
000002a0: 6d2f 2abb f9fb bcbe c841 0e3e bb96 833e
000002b0: 8e3e fd3d d2ca fb3c 94a7 763d 9b49 f83b
000002c0: a046 1e3e 844b c33e 27a0 e53c 759a 4e3e
000002d0: b663 f7bd 7e24 0ebe 85a8 97bc 90a8 51bd
000002e0: 167a 313e 2e9f b3bd c831 333e 048c 543d
000002f0: 7a46 a4bd 6771 c93d 9f1e 04be bcd7 8f3e
00000300: 8039 84be d9b5 7abe a161 6c3d aeaf cb3d
00000310: 3677 a2bd 6630 6cbe d51e 06bd fe6f e73c
00000320: a2e9 34be 19e7 fdbc 666e a2be 72b3 d43e
00000330: f41f debc 4cf5 623e d0e1 8c3e f4d8 253d
00000340: 2deb 973d 68b5 d43d 21d9 f9bc 5002 d0bc
00000350: 3a1a e0be ec71 2dbe e080 ddbd af27 b3be
00000360: 4a54 dabc ebab a7bb e01d 19be caa0 d73b
00000370: ff41 953e 8805 473e adbe 0f3d 6c32 debd
00000380: 3afd 86be dcc6 52be 4d40 1a3e 6d89 ab3e
00000390: 26c9 bb3d 1c3f 003e 36fb 9c3c dbc7 27bd
000003a0: 75ea 4cbe 1b3c 333e ab58 c1bd e871 5e3b
000003b0: b927 a8bc a687 c83d 68cc 08be 9909 ef3c
000003c0: 294d 25be 873f f0be 3f18 26bd 3ed9 1cbe
000003d0: c3a1 8e3e c4a0 c0bc 781a 5e3e 1214 893e
000003e0: 4d9a df3c 0106 fbbd e588 d0bd 3816 193d
000003f0: 34d8 5cbc 154c 043f 4180 15bd a464 97bc
-0.029716594 -0.07727765 0.00394788 0.15557276 0.25654796 -0.035451006 0.012732119 0.16971022
0.20106013 0.22945158 0.15434386 0.08665783 -0.0226392 0.34240007 0.17825393 0.06912268
0.16940156 -0.37863702 0.013229069 -0.113830574 -0.026718412 0.106125966 0.08189352 0.017577952
-0.097837694 0.26792672 0.06865561 0.020702386 -0.22966585 -0.15135267 -0.0862717 0.09167598
-0.18626557 -0.16938904 0.33406436 -0.06009512 -0.30883363 0.010545563 0.050973784 0.11379246
0.207217 0.04196734 -0.26273134 -0.31892997 0.10354573 0.017191768 -0.14825384 0.2877152
0.06878711 -0.14026837 0.2778943 -0.18342529 0.0324186 0.0050665964 0.26912242 0.14504291
-0.17288463 0.07146717 -0.2781902 -0.03885888 0.30051893 0.047979407 0.22790188 -0.10236364
0.2427907 0.12366554 -0.14108643 -0.17676194 0.03126407 0.044973735 0.012964738 -0.01194923
0.071650974 0.21211246 -0.071562916 -0.38704094 -0.05541003 -0.2515603 -0.0660385 0.24996664
0.14922468 0.10629015 0.2380134 0.14286754 0.14932281 0.23906279 0.013615143 0.12444293
-0.1878537 0.17595506 0.25509408 -0.041533496 -0.04133681 -0.072934195 0.1041955 -0.023783905
0.0972982 0.08664197 -0.3220089 -0.14602277 0.38611197 -0.20245928 0.20387308 0.0057500266
0.024438197 -0.10607658 -0.011113576 -0.1417652 0.09337213 -0.26162955 0.20209485 0.16967317
-0.03613155 0.41549614 -0.0049283113 0.1514263 -0.024210243 0.31621838 -0.37715968 -0.3965878
0.12709104 0.14498481 0.019866558 0.084335156 0.19135979 -0.026265014 -0.32521158 -0.049565274
-0.103159204 0.1221813 -0.09380701 -0.2621803 -0.12679063 0.24305466 -0.2826773 -0.16351698
0.10494945 -0.068674445 -0.16077155 0.21587262 0.16093415 -0.2887813 0.08075855 -0.14458507
-0.25333828 0.2547299 0.23323323 -0.21151352 -0.085818894 -0.36212263 0.10201847 0.13355267
0.15895043 -0.056798793 0.009130076 0.13996747 0.40586862 0.16004395 -0.0025929972 -0.2750484
0.025484469 0.11122717 -0.13518943 0.06856547 0.18440576 -0.13566744 -0.393642 0.09618777
-0.002596821 -0.3691099 0.13892281 0.25700936 0.12365447 0.03073636 0.06021841 0.007577134
0.15456629 0.3814355 0.028030468 0.20176108 -0.12079565 -0.13881108 -0.018512974 -0.051186144
0.17331728 -0.087705955 0.17499459 0.05189134 -0.08021255 0.09836083 -0.12902306 0.2809428
-0.2582512 -0.24483432 0.057710294 0.099456176 -0.07932894 -0.23065338 -0.032744247 0.028251644
-0.17667249 -0.030993985 -0.31724852 0.41543156 -0.027114846 0.22163886 0.2751603 0.040490106
0.07417903 0.10386163 -0.030499043 -0.025391728 -0.4377001 -0.16937989 -0.108155966 -0.34991214
-0.02665152 -0.0051169298 -0.14952803 0.006580447 0.29151914 0.19435704 0.035093952 -0.10849461
-0.26365072 -0.20583671 0.15063591 0.33503285 0.091692254 0.12524074 0.019162755 -0.04096208
-0.20011313 0.17503397 -0.0944074 0.0033942405 -0.020526754 0.09791498 -0.13359225 0.029179381
-0.16142716 -0.46923468 -0.040550467 -0.15317246 0.2785779 -0.023514159 0.21689785 0.26773125
0.027295256 -0.122570045 -0.101823606 0.037374705 -0.013479281 0.5167859 -0.036499266 -0.018480606

action_model._discrete_distribution.branches.1.bias f4 [3]
00000000: 1e55 663d 9193 4e3e 4e6d 21be
0.056233518 0.2017348 -0.15764353

action_model._discrete_distribution.branches.1.weight f4 [3, 128]
00000000: 4d34 b5bd 3e79 ed3d 0ddf babe 84c7 fbbe
00000010: c13b 32be 7f62 9ebe 6647 16be 7c04 0f3d
00000020: 4f17 323e 3348 73bd 3517 0abf 24d5 8e3d
00000030: f56a 643d 73d3 bbbe bc12 9f3e f3a8 88be
00000040: 7e30 273e 9190 d8bd 9c2d 893d d8c1 72be
00000050: 78f9 193e 9836 3f3e 0be8 b8be 289c c4be
00000060: 1501 053e 0a4c 8d3e c922 043e 1616 4d3d
00000070: 6616 1bbc 862c b83c cd35 2bbe 6430 c3bd
00000080: fd9f 40be cc9a 66be c876 b6bc f078 25be
00000090: dfae 98be 364a 423d 1607 2fbe ca14 613e
000000a0: 62ec 393e 02fc 2fbe 45c0 193c 8e5a c03d
000000b0: c450 c3ba 9af7 4cbe 9eca c13d c143 a23d
000000c0: 6cb9 663d 5485 a63d 2458 b2bd 7e58 15be
000000d0: a1dd ae3e 840c 043c 5a23 b9bd 1402 0dbf
000000e0: f891 5c3e 75f3 cfbc c7c3 73be fe38 3dbe
000000f0: 204b e2bd 6a01 a73d 141f 6f3e 4602 b33d
00000100: 0f54 43be ab05 e4bd 5e96 78be d25e 2a3d
00000110: ed68 01be 4c1c 9bbd c469 fa3d b338 41bd
00000120: 536d 7e3e 58bd 44bd 8f3a 9dbe 2931 edbd
00000130: b2c4 3b3e 1328 77be 4557 55bd b9a9 d9be
00000140: 5f2c 95be c92c 663e 3bbe 90be d856 683e
00000150: 6289 64bc 7b83 12bf 4791 463e c81b 363e
00000160: eb35 4f3d 0685 ca3e ade1 5bbd ef89 05be
00000170: 1236 123d dfa7 ddbd efaf aa3e 203c 653e
00000180: 7e94 573d 7594 dcbe ce31 2cbe d590 84be
00000190: 7ecb bdbd 4c17 123e 3c64 883e 0897 963e
000001a0: 6072 b3be 670f 0b3e ef9a d9be ce71 a2bd
000001b0: e954 99be 2fe8 8fbe b525 c3bd fabf 3fbf
000001c0: 03d6 5ebe 4e03 bdbd 1fda c3be cbc1 24be
000001d0: 7125 4a3e b41e d83d 2c41 64be f642 043e
000001e0: b37c c33d 3b43 86be 3c72 7abe 0fca a33e
000001f0: bbc4 e0be caee 19be 0cf8 b83d 4da8 f5bd
00000200: ee85 883e 9107 59be d977 9a3e d856 663e
00000210: 46f3 443e bcd4 73bd ca44 a3be c208 a2bd
00000220: 3614 e83c d6fb 6f3d 6531 ee3d bd7b 233e
00000230: 8ed3 d9be 5291 863d 183a 6bbe 9d10 2a3e
00000240: a680 503e 9b95 773e a7de 3e3e 4e7a df3d
00000250: 2d79 943d e630 793c f9e5 55bd 6d61 ad3d
00000260: ea4f 9e3c 250f 9bbc f008 f13d fe21 2e3e
00000270: e16d 163d d23b f83d c73e 7a3e e3b1 89be
00000280: e7ff 953e 04a1 a43e 3eae 693d 1381 2b3d
00000290: 7873 a53e 45c6 3dbe 3498 1fbe cfbc 40bd
000002a0: 3632 7b3d 6df2 65bd e11b 843e 66f3 8dbd
000002b0: c1ca 3c3e 5f65 d63d c1ac e93b b5b2 063e
000002c0: 11f6 593e 983f 593c 7c5c b63d e95b 4f3e
000002d0: 7c5e 6abe ea52 8eba 50c2 963d 7032 263e
000002e0: bfe5 11be 2bff 303e 194f 853c 0645 1ebe
000002f0: df13 873d e20a 7ebe f9b8 db3d 19e0 94be
00000300: 3b47 fd3a 54ee 09bd 30b8 973e 2b2e 983d
00000310: 9900 fdbd 81eb 08bc 517c 903e 6f10 8e3e
00000320: 9396 d83d 149b 1d3e 976f d239 01c8 383e
00000330: 0556 c73d 5707 ae3e d3bf b7bd cafe 283e
00000340: 1b6e 3c3e 8af8 95be 109a fd3d cf08 73be
00000350: 9f3f 49be 500c 553e 86f2 99be f2eb 5dbe
00000360: cdd5 b93d 0666 dfbe 91c0 043d 1074 7a3e
00000370: 0e05 8fbe 0328 17be 6e4f 94be a09f f63b
00000380: 9dcc d23d 1262 de3c 1c7e 973e 629f 3c3d
00000390: 293a 2a3e c92d 2e3e 92a8 52be f513 adbe
000003a0: 3a33 abbe 8184 edbd 8b2f 833c 25ed e13d
000003b0: 487f 4c3e ac83 5f3e 0ad4 0c3e 54de 5d3e
000003c0: e4b9 e33c 21cd 8f3d e7a2 d63e 450f 1ebd
000003d0: e2e8 9bbd a818 d03d dfab 753e b738 9fbc
000003e0: adda 01bf ad20 f13d 566b 943e 4081 b2be
000003f0: 266e 6e3e 46f6 d3bd c962 943d e706 8e3d
-0.08847866 0.11595391 -0.364983 -0.49175656 -0.17405607 -0.30934522 -0.14675674 0.034916386
0.17391704 -0.059395026 -0.5394166 0.06974247 0.055766065 -0.3668476 0.3106898 -0.26691398
0.16327092 -0.10574449 0.066981524 -0.23706758 0.15036571 0.1867317 -0.36114535 -0.38400388
0.12988694 0.27597076 0.12903894 0.05006989 -0.009465789 0.022482168 -0.16719742 -0.09530714
-0.1881103 -0.22519988 -0.022273436 -0.16159415 -0.29820916 0.047434054 -0.17092547 0.21980587
0.18156579 -0.17185977 0.00938422 0.09392272 -0.0014901389 -0.20016328 0.09462474 0.07923079
0.056329176 0.08130899 -0.08708218 -0.14584538 0.34153464 0.008059625 -0.09039946 -0.55081296
0.21540058 -0.025384644 -0.23805152 -0.18478772 -0.11049485 0.081545666 0.23351699 0.08740668
-0.19075035 -0.111338936 -0.2427611 0.041594334 -0.12637682 -0.075737566 0.122272044 -0.047173213
0.24846391 -0.048032135 -0.3070874 -0.11581642 0.18336752 -0.24136381 -0.05208518 -0.425123
-0.29135415 0.22478022 -0.28270134 0.22689378 -0.01394877 -0.57231873 0.19391356 0.17784035
0.05058853 0.39554614 -0.053682018 -0.13040899 0.035696097 -0.108230345 0.33337352 0.22386217
0.052631848 -0.43082014 -0.16815874 -0.25891748 -0.09267329 0.142667 0.26638973 0.29412103
-0.350482 0.13580094 -0.42501017 -0.07931863 -0.29947594 -0.2810683 -0.095286764 -0.7490231
-0.21761326 -0.09229146 -0.3825235 -0.16089551 0.19740845 0.10552731 -0.22290486 0.12916169
0.09545269 -0.26223168 -0.2445764 0.31990096 -0.43900093 -0.15032497 0.09031686 -0.119949915
0.2666468 -0.21194293 0.30169562 0.22494066 0.19233426 -0.05952905 -0.3188842 -0.07911827
0.02832995 0.05858978 0.11630515 0.15965171 -0.42544216 0.065706864 -0.2297138 0.166079
0.20361575 0.24178164 0.18639623 0.10912 0.07249675 0.015209412 -0.052221272 0.08465848
0.019325215 -0.01892812 0.11769283 0.17005154 0.036725882 0.12120785 0.2443801 -0.2689353
0.292968 0.32154095 0.057050936 0.04187114 0.32314658 -0.18532665 -0.15585405 -0.047055062
0.06132718 -0.0561394 0.2580252 -0.0693119 0.1843672 0.10468554 0.0071311896 0.13154109
0.21285273 0.013259791 0.08904359 0.20249905 -0.22887605 -0.001085845 0.07361281 0.16230178
-0.14247797 0.17284839 0.016273068 -0.15456018 0.06595587 -0.24808839 0.1072864 -0.29077223
0.0019323596 -0.033674553 0.2963271 0.07430681 -0.123536296 -0.00835693 0.28219846 0.27746913
0.10575595 0.15391189 0.00040137462 0.18045045 0.09733204 0.33989975 -0.089721344 0.16503444
0.18401377 -0.29291183 0.12382901 -0.23733829 -0.19653176 0.20805478 -0.30067843 -0.21672037
0.090739824 -0.43632525 0.032410208 0.24458337 -0.27933544 -0.14761357 -0.2896685 0.007526353
0.10292933 0.027146373 0.295884 0.046050437 0.16623749 0.17009653 -0.20572117 -0.33804289
-0.3343752 -0.11597539 0.016013881 0.1103156 0.19970429 0.21827573 0.13752761 0.21666843
0.0277986 0.07021547 0.4192116 -0.03858878 -0.07612778 0.10160953 0.23991345 -0.019436223
-0.507243 0.117738105 0.2898814 -0.34864235 0.23284206 -0.10349707 0.07245404 0.0693491

discrete_action_output_shape f4 [1, 2]
00000000: 0000 4040 0000 4040
3.0 3.0

network_body._body_endoder.seq_layers.0.bias f4 [128]
00000000: ccf4 cb3c effd 673d d7c2 033e 9a59 9c3e
00000010: e2c0 18be 1d38 8a3e 0c67 b0be dce7 3fbd
00000020: f159 2cbd 491f 5a3c 8fe6 ac3d 40e7 da3c
00000030: 95e6 27be 8437 19be 2cef 1abe 7dbc 463c
00000040: 287c 78be e005 afbd e3ac fbbd cc2d 18bd
00000050: 1485 253e e5be 00be 1e76 17bd 1df1 12be
00000060: 38ab 4fbd febe 123e 5b05 90bd eff3 cebb
00000070: a825 323e 24ee 77bd abc6 16be d99b 1bbe
00000080: 58fd 91bd 5310 40be b523 acbe 2e84 38bc
00000090: c56e 0c3e c439 823d 932a 2dbd 68d2 9d3d
000000a0: 7e60 133d 6835 14be 671f 92bd f198 6f3d
000000b0: 8802 2dbd e94e 543e 477d 74be bf7d 873e
000000c0: 6d75 92bd 7636 ebbd 3647 893e 7807 9d3c
000000d0: c0c0 ebbd 6a6f 89bc 9315 093e 6325 fabd
000000e0: 40b3 9ebd e823 4bbe 7dcf 21be 6ac8 16bd
000000f0: a90e 5ebe c893 4bbe db55 d03d 2d13 ee3d
00000100: 7fee 18ba 70a0 a83d 8918 523d 12e4 19be
00000110: 60aa c2bd 73da 8e3d b4a0 1b3d 3bd1 0cbd
00000120: b69d 8dbc ffdc e03d 81b7 44be 2fbc 21be
00000130: a260 873d bfc1 d3bd 7cd1 9ebe bba2 a63d
00000140: c028 9bbe 96be a33d 2e86 8fbe f20c 893e
00000150: e385 4fbe 96ca fa3d 78cb da3c 4cf3 5fbe
00000160: 4c2b 2ebe d12f 95bb 4c7f 143e db06 40be
00000170: 3706 0bbe 6ddb 5ebd d74a 36be e7bd bf3d
00000180: 9847 20be 14b2 33be e415 81be 7b21 59be
00000190: 3b25 c9bd 18dd 81bd b7f6 22be 355f 2abe
000001a0: 268e 75be 2885 25be 64ab 903c 4a40 f1bd
000001b0: 19bb 583d 4844 69bd badf 81be 9df7 733c
000001c0: 18b0 a4bd 0796 82bd bb51 23be ba0a 30be
000001d0: 5229 5c3e 4c89 83bd a3dc 30be 1f8a 8bbe
000001e0: 27a4 b23e d178 733c ea27 14bd 82c3 353e
000001f0: 9f5f 5e3d ca46 bdbc 9e25 543e 7b76 7cbd
0.024897002 0.056638654 0.12867294 0.3053711 -0.14917329 0.26995936 -0.3445362 -0.046851978
-0.042077962 0.013313123 0.08442413 0.026721597 -0.16396554 -0.14962584 -0.151303 0.0121299
-0.24266112 -0.085460424 -0.12288835 -0.03715305 0.16164047 -0.1257282 -0.03697788 -0.1434979
-0.050700396 0.1433067 -0.070322715 -0.0063157002 0.17397177 -0.060529843 -0.14724223 -0.1519617
-0.071283996 -0.18756227 -0.33620992 -0.011261983 0.1371413 0.06358674 -0.04227693 0.077061474
0.035980694 -0.14473498 -0.07134896 0.058495466 -0.042238742 0.20733227 -0.23875915 0.26463124
-0.071513034 -0.11484997 0.26812142 0.0191686 -0.115113735 -0.01677676 0.13387136 -0.12214162
-0.07749033 -0.19837916 -0.15801807 -0.036812223 -0.2168528 -0.19880593 0.10172626 0.11624751
-0.00058338785 0.08233726 0.05129293 -0.15028408 -0.09505153 0.0697526 0.037995055 -0.034379225
-0.017287116 0.10979652 -0.19210626 -0.15794443 0.06610228 -0.103396885 -0.310192 0.08136507
-0.30304527 0.07995336 -0.28032058 0.2676769 -0.20265917 0.122456715 0.02670835 -0.21870154
-0.17008704 -0.0045528193 0.14501685 -0.18752615 -0.1357659 -0.05440848 -0.17801987 0.09362393
-0.15652311 -0.175484 -0.25212014 -0.21204178 -0.09821554 -0.063409984 -0.15914427 -0.16637881
-0.23980007 -0.16164076 0.01765985 -0.1177984 0.052912805 -0.056949884 -0.25366002 0.014890579
-0.080414 -0.06376272 -0.15949146 -0.17191592 0.21500137 -0.06422672 -0.17271666 -0.27253816
0.34890863 0.014860348 -0.036170878 0.17750362 0.05429041 -0.023105044 0.20717475 -0.06163643

network_body._body_endoder.seq_layers.0.weight f4 [128, 68]
00000000: 308d 523e 8617 3c3e 5bff 1bbd 6061 7abd
00000010: d1f7 e6bd 8491 7b3e c954 c4bb 80d1 863d
00000020: 2570 b53d 7266 1c3e b4a1 ef3d f7cf b53e
00000030: bcd4 87be c55e 693e c3b0 ad3c 8c5f e3bd
00000040: ef8b 8c3d 682a 2d3c faef 7e3e 2fe2 27be
00000050: 7ac8 21be 506f 2a3e 7fad a4bb 19ea 353e
00000060: d1b3 81be 7272 24be d8ae 40be cdfc 1cbd
00000070: 6210 2fbe ff79 bebe 1a76 49bd 8ce0 9f3d
00000080: d389 663d 9d10 1e3d a825 65be 4d8a efbd
00000090: 2a02 90be e06a 7b3e 244f 083d 7d3f e43d
000000a0: d190 0b3f 6f5a 893e 3956 61be 5379 6d3d
000000b0: eafc 43be fbf8 053e 47fe cbbd 862f 77be
000000c0: b12d 9cbe ae6c 503d 54c0 08bc 11b1 363e
000000d0: eab9 86bd ae86 ae3e 048f e23c 6360 d9bc
000000e0: 9a09 d4bd c9b2 87bd 26c6 0bbe dadb bc3d
000000f0: 26d4 343e b572 793e 8a0f d13e 2dde 76be
00000100: 247e 27bf 2165 853d 1512 183d bddc 5bbe
00000110: 709a 4d3e d591 4bbe 44c6 833d c8c3 6bbd
00000120: 9e8b 193e abd5 77bd 03dc 2dbd 68ae 793d
00000130: 35db dbbc 1942 5b3e 3b62 df3d e15f f8bd
00000140: adff 4a3e 3ba9 b5bd df8f cf3c bf5b fc3d
00000150: 2b81 533d 3604 a43d ae92 e03d 3e03 ba3e
00000160: 4d22 d4bd 33ec 583e 82f3 97bd 96a4 e8bc
00000170: 9337 143d a469 82be ab39 3ebe d4d6 87bc
00000180: 8bcd d13c 2e34 56be ff37 2dbe 359d 88be
00000190: 0ead d2bd 70dd 6b3e 5445 793c 1e60 a5bc
000001a0: fb91 383f 6706 dbbd 3693 c33d 5617 11be
000001b0: 4cc1 1e3f 0f7a 7fbd 66ea 873d 7de8 033e
000001c0: eb26 78bc b4ae e1be 18c4 623e efc8 39bd
000001d0: 8146 bebd f809 14be 932c 85be 65dd 4a3e
000001e0: 3039 a1bd 6d03 9d3c 1945 f4bd 63e7 353e
000001f0: de65 953d a402 e9be 2ab4 8bbe d94d cbbe
00000200: 170f 5bbe 9b0b 5dbc 444b 1cbf 7d58 6bbd
00000210: 0d32 8cbe b28e 943e 70ba 7ebe 5c99 6abe
00000220: be85 8bbe 0fc8 0dbe 12d8 113e 192f f0bc
00000230: 9a3e 95bd 9d42 3c3e f582 c7bd 1dd5 83bd
00000240: a973 91be cc58 143c 3a10 66be 64ef 4ebd
00000250: bd18 473d c6cb 76be 83e7 e2bd aa85 903c
00000260: 7fa6 6abe 10d7 533e cd22 e3bd 9028 2e3e
00000270: 8d22 88bd c868 f1bd bd88 bdbd 4f67 c9be
00000280: 9008 43be 092f e63d 895f adbe 0d0c ffbc
00000290: 8002 95bd 5b7c 3bbd f139 b63d 6d60 e43e
000002a0: aa20 203e bb85 ba3d fb14 26bd 0bb2 903e
000002b0: 060b abbb de5f 1fbd 1872 353e d258 2f3e
000002c0: 96d6 183e 0036 313f 2a9d 143d 0b4f 33bb
000002d0: 00d5 e23c bde7 3e3e 51dd febd 5a19 c3bd
000002e0: e5bd ffbb c0a7 46be bb26 653b 975d 91be
000002f0: af62 5b3e a65a 8c3d e7b9 01bf 3105 9c3e
00000300: e865 86bd 6048 94bd 84fb 8dbe ef4e 1e3d
00000310: 1de0 263d 1548 bcbc f5e0 a33e 2532 a7be
00000320: 131e 63bd 1ab1 06be 36e1 d7bc 1a05 32be
00000330: cd5e 903d e582 93bd 8c2c d4bc 131e 4bbe
00000340: 0b4b 0f3f b600 c0be dd34 f7bd 1cd1 6a3e
00000350: 1a83 92be 02ba 9d3e 542c 233d 90c2 edbe
00000360: 4f00 10bd 6be8 92be 1087 be3e d1fc 0abf
00000370: 7d43 d93d c473 32be a8ea 59be 0c46 66be
00000380: e31e 3e3d c73b 1c3d fbbd bcbd b2e0 283e
00000390: 2ea3 9b3e b9ab 2a3e cff3 043f 1ddc 0b3d
000003a0: b994 6b3d 6625 aebe 94b2 9b3e 8f3a 123f
000003b0: b129 0ebd c9ba b7be ecf7 f0be 8635 863e
000003c0: 12ce a23d 9424 513e 0d3b a6be e642 d4be
000003d0: 4ae4 873e 34f3 c4be 581f a03c ed29 44be
000003e0: 9126 bdbc 3f7a f53d 5f01 ba3c 75d3 35bd
000003f0: 5ca7 f7bc 63c0 06bf 2fc6 b13d af8d 9538
0.20561671 0.18368348 -0.038085323 -0.06112802 -0.11277736 0.24567229 -0.0059915525 0.06582928
0.088592805 0.15273455 0.11700764 0.35510227 -0.2652949 0.22790058 0.02120245 -0.111022085
0.06862628 0.0105691925 0.24896231 -0.16394876 -0.15799132 0.16644025 -0.005025565 0.17765082
-0.25332502 -0.16059282 -0.18816698 -0.038327027 -0.17096093 -0.3720245 -0.049184896 0.07806501
0.056283783 0.038590062 -0.22377646 -0.11696301 -0.2812665 0.24552488 0.0332786 0.11144922
0.5451785 0.26826808 -0.22005548 0.057977032 -0.19139448 0.1308326 -0.09960609 -0.24139223
-0.3050361 0.050884895 -0.008346636 0.17840983 -0.06578429 0.34087127 0.027656086 -0.026535219
-0.10353394 -0.066258974 -0.13649806 0.09221621 0.17659053 0.24360164 0.40832168 -0.24108191
-0.6542685 0.065134294 0.03712662 -0.21470924 0.20078444 -0.1987985 0.064343005 -0.05755976
0.14994666 -0.060506504 -0.042446148 0.060957342 -0.026837924 0.21411933 0.10907408 -0.121276625
0.19824095 -0.08870169 0.025337158 0.12322187 0.051636856 0.08008616 0.10965477 0.363306
-0.10358105 0.21183853 -0.07419492 -0.028398793 0.036185812 -0.25471222 -0.18576686 -0.01658193
0.025610706 -0.20918342 -0.16915892 -0.2668244 -0.10286914 0.2303369 0.015214283 -0.020187434
0.7209775 -0.106945805 0.09549563 -0.14169058 0.620137 -0.062372264 0.06636505 0.12881656
-0.0151459975 -0.440786 0.22145116 -0.04535764 -0.09290791 -0.14456928 -0.2601057 0.19811018
-0.07872236 0.019166673 -0.11927242 0.17764048 0.0729482 -0.45509827 -0.27285892 -0.3970783
-0.21392475 -0.0134915365 -0.61052346 -0.057457436 -0.27381936 0.29015118 -0.24875808 -0.22910064
-0.27250475 -0.13845848 0.1424258 -0.029319333 -0.07287331 0.18384786 -0.09741775 -0.064371325
-0.28408554 0.009054374 -0.22467127 -0.05052127 0.048607577 -0.24101171 -0.110793136 0.017641861
-0.22915076 0.20687509 -0.11090622 0.17007661 -0.06647215 -0.117875636 -0.092545964 -0.3933663
-0.19046235 0.1123944 -0.3386195 -0.031133676 -0.072758675 -0.04577289 0.0889777 0.44604817
0.1563746 0.09107538 -0.040547352 0.28260836 -0.00521982 -0.038909785 0.17719305 0.17123726
0.14925608 0.6922302 0.036282696 -0.0027360346 0.027689457 0.18643089 -0.124445565 -0.0952632
-0.0078046196 -0.19399929 0.0034965712 -0.28391716 0.21424364 0.06853227 -0.5067429 0.3047271
-0.06562406 -0.07240367 -0.27730954 0.038649496 0.040741075 -0.02298359 0.32007566 -0.32655445
-0.055448603 -0.13153496 -0.026352506 -0.17384759 0.07049332 -0.072027005 -0.025900148 -0.19835691
0.5597388 -0.37500542 -0.1207063 0.22931331 -0.28615648 0.30805975 0.039837196 -0.46437502
-0.035156544 -0.28692946 0.3721242 -0.5429202 0.106085755 -0.17426974 -0.2128092 -0.22487658
0.046416175 0.038142946 -0.092159234 0.16491964 0.30397934 0.1666707 0.5193452 0.034145463
0.05751488 -0.34012908 0.30409682 0.57120603 -0.03470773 -0.35884693 -0.4706415 0.2621271
0.07949461 0.2042411 -0.32466927 -0.4145729 0.26541358 -0.384668 0.019546196 -0.19156618
-0.023089679 0.11986207 0.022705732 -0.044391114 -0.03023117 -0.5263731 0.08680379 7.131264e-05

network_body._body_endoder.seq_layers.2.bias f4 [128]
00000000: bc40 ddbd 419e 66be 972c 07be df62 4e3d
00000010: 2777 95bc 2672 2fbe 5596 29be 8891 c1bd
00000020: b70d d33d 8170 86bd e709 9c3d f067 183d
00000030: 80ee 76bc 61be 613d 9df1 ad3d 4468 82be
00000040: a6ba 1fbe 3b35 b6bd 19ae 953d dc55 68be
00000050: 8e58 46be 21fc bfbd bfa4 01bc be07 0e3c
00000060: 8eb1 c0bd cd63 373e 9a55 363d ebf2 86ba
00000070: acc5 d9bd 00d1 0e3d 2d6d 5bbe 71d8 48be
00000080: 393c 233c 5fb3 3cbe 3c7c eebd 4259 8cbe
00000090: a875 39be fb65 33be 30a0 12be 34a9 5b3d
000000a0: b366 00bc ed6a 40be 8bf8 a63d a79b fabd
000000b0: 2740 0bbd 7e76 54bd d202 60be 66a1 023e
000000c0: 504a f9bc 67f7 f6bd 483f a13d c3ac 13be
000000d0: 581f 5dbc c3c3 41be dfeb 3a3c 64e9 a4bd
000000e0: f71d 70bd 9e8d 6a3d ab0d 8dbe c0f1 5ebe
000000f0: a855 bd3d 5237 16be b7f3 2cbc 5e70 55bc
00000100: 256f 94bd 88a1 afbd de28 09be d305 6bbd
00000110: f113 15be 0069 64be 02f4 dc3d 9238 15be
00000120: 2463 b8bd 5b9d 9a3d 92c3 43be 4719 9cbd
00000130: 49c1 c9ba a108 fdbd fc04 7bbe a8c1 89bd
00000140: 50d2 1d3c eef4 4c3c b684 0fbd fa59 a4bc
00000150: 2ea5 21bd 6788 40bb f8af e2bd 8082 503d
00000160: 2fd9 89bc e0c0 1f3d ff72 a23d 09f6 41be
00000170: 1f65 2dbd 5832 79bd b704 c93d a233 10bc
00000180: 0c36 c8bd da5a 26bd d902 83bd 1bb9 24be
00000190: 524a 283e dd1f 27bc ceb3 37be 1923 12be
000001a0: aa76 c8bd d208 a2bd 4923 6fbe 772c 53be
000001b0: c0cd 22be 3370 11be b9a3 6e3d 73e0 623e
000001c0: c4c3 48be 44b9 0c3e 10fc d5bc 6ce9 5abe
000001d0: ca4e 0f3c 64e5 d5bb 0629 78bd 6baf bfbd
000001e0: 01b4 323e 87cd 88be 660e a93c 05c0 e4bd
000001f0: fe81 15bd 6387 98bd 73f1 73be a532 15be
-0.10803363 -0.22521307 -0.13200603 0.05038726 -0.018245293 -0.17133388 -0.16561253 -0.09451586
0.1030535 -0.06564427 0.07619076 0.037208498 -0.015071511 0.0551132 0.0849335 -0.25470173
-0.15598544 -0.08896872 0.07308597 -0.22689003 -0.19369718 -0.09374262 -0.007912814 0.008668838
-0.09408866 0.17909165 0.04451523 -0.0010295784 -0.10633406 0.034867287 -0.21428366 -0.19613816
0.009963089 -0.184278 -0.116447896 -0.27411848 -0.18111289 -0.17519371 -0.14318919 0.05362816
-0.007836985 -0.18790789 0.081528746 -0.122367196 -0.033996727 -0.051870815 -0.21876076 0.12756881
-0.030430943 -0.12058907 0.07873398 -0.14421372 -0.013496242 -0.18922333 0.011408775 -0.08052328
-0.058622327 0.057263963 -0.2754949 -0.21771908 0.09244853 -0.1466954 -0.010556153 -0.013027279
-0.07247762 -0.085757315 -0.13394496 -0.0573786 -0.14558388 -0.2230568 0.10788728 -0.14572361
-0.090032846 0.075495444 -0.19117573 -0.07622009 -0.0015392686 -0.123551615 -0.2451362 -0.0672639
0.009632662 0.012509568 -0.035038672 -0.020062435 -0.03946417 -0.0029378177 -0.110687196 0.050905704
-0.016827194 0.0390023 0.0793209 -0.18941511 -0.042332765 -0.060839027 0.098153524 -0.008801373
-0.097759336 -0.040613987 -0.063970275 -0.16086237 0.16434601 -0.010200468 -0.17939684 -0.14271201
-0.097882584 -0.079118386 -0.23353304 -0.2062243 -0.158988 -0.14202957 0.058261607 0.22155933
-0.19605929 0.13742548 -0.02612117 -0.21378106 0.008746812 -0.0065275896 -0.060585998 -0.0935963
0.17451479 -0.26719305 0.020636749 -0.11169437 -0.036500923 -0.07447698 -0.23822574 -0.145701

network_body._body_endoder.seq_layers.2.weight f4 [128, 128]
00000000: aa7a d33d 7ce9 ddbe 4bf8 2c3e 7fc7 e1bd
00000010: 4d47 4b3c d76c 903c 2b38 c9bd 5c35 bd3e
00000020: a264 1fbd 0efa bb3c cea3 06bf 60a3 9ebe
00000030: abbc 333e 2555 e03d d271 85bd e42d 533e
00000040: 8da6 54bd 0915 1dbe beab 35be d794 dd3d
00000050: e24f 49bd c364 b33c 4214 b33c 3b5c 05be
00000060: fe16 923e 141f 83bc adb3 0c3e f5af c33d
00000070: 311c d43c cb7f 4ebe e053 573e 72ed 58bd
00000080: 54bf f43d f6d2 9d3d 01ff 06be 087e 013e
00000090: 0c40 c8be 6290 3abe a220 e63e 5297 cf3d
000000a0: 4cc9 d3bb b966 7d3e b04e 05be daec ef3d
000000b0: 49b5 debd f206 94be 09de 623d ff97 e5bc
000000c0: 1a62 50be e960 203e a091 46be 0528 ccbe
000000d0: a7d0 a43c b778 8abd 5d40 10bf 7e12 69bd
000000e0: 212b 66bd 6694 183d faec 8abe bf98 823c
000000f0: 1524 2fbd 1214 863e d84d 033e 730b 76be
00000100: 7ff3 2ebd cac6 35be 8a02 d43b d167 453e
00000110: 0eea 623e 04e7 48bd 834b 39be 414e 8bbd
00000120: 1a15 8a3e b1d9 01be 29f2 0c3e 7186 d6bc
00000130: 4415 4ebd 91b3 06bc 5618 abbc 8b3d 83be
00000140: 4e7f 923d 0e0b 0f3d 9d30 aa3d 4535 053e
00000150: cc2c c83e 59f4 b2bd cf41 b23c b72e 9f3e
00000160: ea6c babd 4c5d 97bd 621f 04bd 7852 2abe
00000170: 9ffe a1bc b75f a5bd ca44 75bc 7e00 5b3c
00000180: bb45 9138 467d febd b351 c73d 9350 6fbb
00000190: 1695 4c3d 1b99 6f3c d7c6 353d 6a62 44be
000001a0: bb82 3f3e c014 533e ac43 6f3e 32ba adbe
000001b0: 27aa 69bd 1007 273d 493d 5e3e 3a34 4a3d
000001c0: 192b ac3e 65d7 f7be cbc1 353d 4e37 e53d
000001d0: 0043 f6be 8428 09bd 0e87 cebd 48ee 0ebe
000001e0: 7478 1bbf fa55 033c be7b 70bc f771 97be
000001f0: 926a 5c3d bc3d 0ebd 5819 f7bd 1a76 07bc
00000200: 62cf 8dbe ce39 0cbe 9f7d 4fbf bb6d 17bd
00000210: 6e0d 01be 6123 bebd 879e 913e 81a2 f23d
00000220: d4f6 1e3e fbfc 54be 39a8 2abe 822a 1c3d
00000230: beb5 7c3d 096c 0fbe 02c2 f3bd 6997 203e
00000240: 08f1 50be 7c62 0abe 1245 3ebe 5fe6 30be
00000250: 86df a9bd d139 6d3e d333 fcbd a8f2 833e
00000260: c39c bdbe dd50 d13d a95e 78bd cd0b 2bbe
00000270: 92e5 54be 4be2 e0bd 6167 1d3e 134d 5a3e
00000280: 2d8c f7be 80ba 843d 02d8 edbd dee4 ff3d
00000290: bfca 8f3d 69e2 cabd 0ad5 9fbe 79a7 9bbd
000002a0: 764f 22be 3fcd b6bd b52a 5d3e 35b4 97be
000002b0: 8310 713e 1044 213c bdbc 4d3e bc07 4abe
000002c0: 1052 e73d dd18 81be a124 96bb 5a4d e4bd
000002d0: 76c5 8c3c 23da 853e 092e 043e d390 2bbd
000002e0: eeba 96be 0694 383d 9648 ad3c 89c5 713e
000002f0: 1155 85bd c771 5e3d 59d2 9dbb 8a77 063d
00000300: 5156 813e 6297 013e 79ca 47be 8802 c5bd
00000310: 8243 7e3d a568 d5be 859d c6be e669 153e
00000320: c3cf edbd 6569 6fbe 4c29 54be 6e15 ae3d
00000330: ce0d 123d aced f5bd 2389 083e 7e94 743c
00000340: 639a 4abe b9ec a7bd deeb 2b3e 457b 19be
00000350: e43a a1be 1240 c53e 6ba2 bbbe 1921 c3bd
00000360: c95d 053e b2fb c0be 717d 2f3e 13ef c23e
00000370: f997 aabe 81ba e53d 1c5f 63bd 609a 37be
00000380: 4c59 0abf e8c9 f2bd d847 38be 44dc 9e3e
00000390: e2ab 81bc 1a54 4c3e 0916 6b3e cce4 f0bd
000003a0: 4617 d9bd 08a7 43be 7fc4 9d3c 42ca 073e
000003b0: e381 dd3d ea2b b1be 1e12 b8bd 3416 acbe
000003c0: b033 c7be 2c97 dcbd 2919 76bd fe8e 32be
000003d0: 4179 313e 6d81 253d 2037 a93e b1a1 5d3c
000003e0: d174 b53b 45e1 62bd 6bb8 753d 8604 b6bd
000003f0: d6a0 30bd f680 c7bb 3769 3c3e 58b5 e0bc
0.10326131 -0.43342197 0.16891591 -0.11024379 0.012407136 0.017630024 -0.09825166 0.36954772
-0.03891433 0.022946384 -0.52593696 -0.3098402 0.1755244 0.1095374 -0.0651585 0.20622975
-0.051916648 -0.15340056 -0.17741296 0.108194046 -0.049148448 0.021898633 0.021860246 -0.13023464
0.28533167 -0.01600603 0.13740416 0.095550455 0.025892349 -0.20165937 0.2102809 -0.05296082
0.119505554 0.07706253 -0.13183214 0.12645733 -0.39111364 -0.1821914 0.44946772 0.10136284
-0.0064632054 0.24746217 -0.13018298 0.11715098 -0.10874421 -0.2891155 0.05538753 -0.028026579
-0.20349923 0.15661968 -0.19391489 -0.39874282 0.020119024 -0.06761306 -0.5634821 -0.0569024
-0.056193475 0.0372509 -0.27133924 0.015941976 -0.04275902 0.26187187 0.12822664 -0.24027805
-0.042712685 -0.17751613 0.0064700292 0.19277884 0.22159597 -0.04904844 -0.18095212 -0.06802035
0.26969224 -0.12680699 0.13764252 -0.026187154 -0.05031325 -0.008221523 -0.020885628 -0.2563289
0.07153188 0.034922652 0.083100535 0.13008602 0.39096677 -0.08738012 0.021759896 0.31090328
-0.09102805 -0.07390842 -0.03225649 -0.16633022 -0.019774733 -0.08074897 -0.014970014 0.013366817
6.927127e-05 -0.12426238 0.0973238 -0.0036516532 0.049946867 0.0146239055 0.04437908 -0.19178167
0.18702213 0.20613384 0.23365659 -0.33931118 -0.057047036 0.04077822 0.21703066 0.049366213
0.3362663 -0.4840652 0.04437427 0.11192189 -0.48097992 -0.033485904 -0.100843534 -0.13958085
-0.6073067 0.008016104 -0.01467794 -0.29579136 0.05381257 -0.034726843 -0.12065381 -0.008267904
-0.27697283 -0.13693926 -0.8105106 -0.03696988 -0.1260278 -0.09284092 0.2844126 0.118474014
0.15523845 -0.2079963 -0.16665734 0.038126476 0.06169676 -0.14006056 -0.119022384 0.15682758
-0.20404446 -0.13514131 -0.18581036 -0.1727538 -0.08294587 0.23166586 -0.12314572 0.2577107
-0.37033662 0.102205016 -0.06063715 -0.1670372 -0.20790699 -0.10980662 0.15371467 0.21318464
-0.48349133 0.064808846 -0.11613466 0.12494825 0.070210926 -0.099064656 -0.31217223 -0.07600302
-0.15850624 -0.08925866 0.21598323 -0.29629675 0.23541455 0.0098428875 0.20091529 -0.19729513
0.11294949 -0.25214282 -0.004582003 -0.11147566 0.017184 0.26142988 0.12908186 -0.041886162
-0.2943949 0.04506304 0.021152776 0.2361051 -0.06510366 0.054307725 -0.004816335 0.032828845
0.25261167 0.12655404 -0.19510831 -0.096196234 0.0620761 -0.416814 -0.38792053 0.14591178
-0.11611893 -0.23380049 -0.20718879 0.08500181 0.035657696 -0.12008223 0.13333564 0.014927981
-0.19785456 -0.08199448 0.16789195 -0.1498843 -0.31490242 0.38525444 -0.36647353 -0.09527797
0.13024057 -0.37692028 0.17137696 0.38073024 -0.3331907 0.112172134 -0.055510625 -0.17929983
-0.54042506 -0.11854917 -0.17996156 0.31027424 -0.01582903 0.19953957 0.22957624 -0.117623895
-0.10600142 -0.19106686 0.019258736 0.13260749 0.108157896 -0.34603816 -0.089878306 -0.3361069
-0.38906622 -0.10771021 -0.06008259 -0.1743736 0.17331411 0.040406633 0.3304987 0.01352732
0.0055376072 -0.055390615 0.059990328 -0.088875815 -0.043122135 -0.0060883714 0.18399511 -0.027430221

network_body.observation_encoder.processors.0.normalizer.running_mean f4 [25]
00000000: 860e 673f 0f71 263b 0000 0000 5a97 923b
00000010: 92f2 ff3d 4121 5d3f ef02 cb3a 0000 0000
00000020: fb86 6a3c 4866 173e e53c 4b3f 4f09 3e3b
00000030: 0000 0000 4631 753c cac8 0e3e beb0 293f
00000040: 8088 843b 0000 0000 d3ab 4a3d 7235 543e
00000050: 3a9e f83e 24eb 2a3c 0000 0000 ff21 d03c
00000060: 3593 233e
0.90256536 0.0025396978 0.0 0.004473609 0.124974385 0.86378866 0.0015488545 0.0
0.014314408 0.14785111 0.7938979 0.0028997248 0.0 0.014965361 0.13943782 0.6628531
0.0040445924 0.0 0.04948027 0.20723513 0.48558217 0.010432038 0.0 0.025406836
0.15974124

network_body.observation_encoder.processors.1.normalizer.running_mean f4 [25]
00000000: 4040 843e e287 863e 0000 0000 196b 093d
00000010: fdfb a93d 577d 233e e879 f43d 0000 0000
00000020: 0301 843d 575b e53d add6 db3e 6691 813d
00000030: 0000 0000 0eae 9d3d 59bb ea3d a60a c93d
00000040: a788 b43d 0000 0000 6701 883d b0c1 ce3d
00000050: 8eb9 f73e 97a0 953c 0000 0000 fc86 b13d
00000060: 5fc2 f63d
0.2583027 0.26275545 0.0 0.033549402 0.08300016 0.15965782 0.11937314 0.0
0.064455055 0.11199062 0.42937222 0.06326561 0.0 0.07699214 0.11461515 0.09816484
0.08815127 0.0 0.066408925 0.10095537 0.48383754 0.018265052 0.0 0.08668324
0.12048792

network_body.observation_encoder.processors.2.normalizer.running_mean f4 [18]
00000000: 2825 be40 db17 49bf 69b7 9c41 4438 3a40
00000010: c2ba bf3e 22c3 0dc0 6fc3 96bb 1284 a23e
00000020: eb6c ffbb e634 5dbf 81f4 bd43 0bf6 2241
00000030: 2ba4 883e 4b2d 1cbe 6a8b 1d3f f8d9 c4bd
00000040: 0000 0000 a713 a83e
5.9420357 -0.78552026 19.589556 2.9096842 0.37447172 -2.215035 -0.004600934 0.31741387
-0.0077949665 -0.8640884 379.9102 10.185069 0.2668775 -0.15251653 0.61540854 -0.09611887
0.0 0.32827494
