Assets/Brains/run30/CarPractice_run30-2.onnx (onnx, 108914 bytes, 15 tensors)

85 f4 [25]
00000000: 250f 7c3e bac2 823d c75c 393a 426c 463d
00000010: 862c a43d 69af 8e3e 2335 8d3d c75c 393a
00000020: 90f4 8c3d 956e c23d 9836 d13e 67ce 713d
00000030: c75c 393a f1f4 9b3d 701e c73d 9680 e43e
00000040: efe6 793d c75c 393a 83c8 f43d 6406 103e
00000050: 7e9b fe3e bcc2 8f3d c75c 393a c9d3 d63d
00000060: 4cce f13d
0.24615152 0.063847974 0.0007071015 0.048443086 0.08016305 0.27868202 0.06894901 0.0007071015
0.06882584 0.09493748 0.40861964 0.05903473 0.0007071015 0.07615078 0.09722602 0.44629353
0.06101125 0.0007071015 0.11952307 0.14064938 0.49728006 0.070195645 0.0007071015 0.104896136
0.11806926

88 f4 [25]
00000000: ed02 cd3e 4759 f63e c75c 393a 2907 3f3e
00000010: 0dce 373e e58b b83e e730 8f3e c75c 393a
00000020: d795 8d3e 3250 883e e922 fc3e 62f7 293e
00000030: c75c 393a b330 673e 082e 5e3e eeac 6a3e
00000040: e47e 7a3e c75c 393a aef4 713e de39 6b3e
00000050: 45c5 ff3e 73be f33d c75c 393a a946 713e
00000060: 9f9c 683e
0.40041295 0.48114988 0.0007071015 0.18655075 0.17949696 0.3604423 0.27966997 0.0007071015
0.2765338 0.26623684 0.49245384 0.16598275 0.0007071015 0.22577171 0.21697247 0.2291753
0.24462467 0.0007071015 0.23628494 0.22971293 0.49955192 0.1190156 0.0007071015 0.23562111
0.22715996

91 f4 [18]
00000000: 2204 b641 3c83 873f 8feb a941 cd2b bc40
00000010: 9299 263d ad30 d340 69e4 f43c be93 a33e
00000020: e775 ea3c 2fb5 123e aaa2 0544 bed7 bb41
00000030: f1be fd3e c64b 083e 1b54 e53e b3e9 513f
00000040: c75c 393a 2d43 ef3e
22.752018 1.0586925 21.240019 5.880347 0.0406738 6.599692 0.02989407 0.31948656
0.028620673 0.14326929 534.5416 23.480343 0.4955974 0.13310155 0.4479073 0.8199722
0.0007071015 0.4673094

action_model._discrete_distribution.branches.0.bias f4 [3]
00000000: 8611 1b3e 3039 2cbe cd6e b7bb
0.15143403 -0.1681869 -0.0055979253

action_model._discrete_distribution.branches.0.weight f4 [3, 128]
00000000: 8b53 e53d ac42 91bd f184 92bc 3381 383e
00000010: 89e4 d03d 6f1d 1cbe 6c9f 213e bfbc 03bd
00000020: 1490 063e 74d7 f13b eda8 dcbd c019 d2bd
00000030: 0b49 613c e515 a73d 77d1 bc3d a823 25be
00000040: ac4f c33d f2ca f4bd 3f66 18be b2f4 013d
00000050: 7d04 3c3e 1385 aa3d d2b7 24be 7074 e83d
00000060: 5d79 833e 59fe f43d 6a59 5b3e a782 d2bd
00000070: 65fb 5b3e 9838 123e a488 72be b401 3abe
00000080: b65c a5bd c8c1 cebd 4fe4 64bd 0f02 3ebe
00000090: 18ea 223d 1647 873d d934 7c3e 00bd 4b3e
000000a0: fdc1 a83c 9b14 17be 25ab 17be e8b4 403d
000000b0: 34d9 b63d 4dfd 4a3e 6161 c139 702c 2fbe
000000c0: 9fc8 82bd 4337 22be 8986 9dbe 8e37 163e
000000d0: 7ddd 3bbe 76ca 48bc 646c 5e3d 6a86 93be
000000e0: 28c8 30be a3e6 e63c f9da 4cbd 77b7 373e
000000f0: f173 88bd f834 993d abd2 803e a77f 9b3d
00000100: 8273 c03d d183 38bd 1a52 c43d 562a f03d
00000110: 4d16 81be c61e 2c3e b3c6 bebd b1e8 15bd
00000120: 3aeb 5fbe 4de2 8f3d d271 18be a9ad 1ebd
00000130: 31d8 9a3d 55a6 cf3d 4ede 8dbd 3b90 3dbd
00000140: c15e 4f3d a433 ea3d 7203 efbb 7edc 393e
00000150: a575 023e ae55 fb3d 0f67 3c3d f5e8 0fbe
00000160: e717 b4bb ac01 2a3e 62ce 3cbe 3bef 123e
00000170: 7f76 2d3e df3f af3b 279f 643e 66f8 423e
00000180: 9251 0c3e 94ef 33be 4dee 523e aa71 c93d
00000190: 308c 41bc ecf8 fd3d 9bd6 8d3c 8b39 f43d
000001a0: bcb7 293e d970 003e c6e4 d3bc 92e3 33bd
000001b0: c585 b7bd 176a 253e 9f71 ac3d 6023 793d
000001c0: ab3d 163e cd21 d9bd 082f ed3d 8cb6 883d
000001d0: a4f3 1c3e d5e8 6dbe 64da 10bd b69e 0cbe
000001e0: c29d aabd c717 bf3d 0948 1d3a 33c7 22be
000001f0: 1d4f 2ebd d85e f7bd 30c8 e9bd 0378 3ebe
00000200: 7a21 b83c 1868 733e 16e2 133e c5a6 c2be
00000210: d79b a73d 4e43 073e b715 6bbd 9ebc a43e
00000220: 53b0 3abe a4fb 323e a255 9b3e 3782 6d3e
00000230: 3a39 f2bd c327 bc3c 3752 f8bd fcce 6c3e
00000240: 38f7 ee3d 8e3c 663e 12d5 863d 95cb 4bbe
00000250: 887a 943c 2e2c 4d3e 3561 193e e957 69be
00000260: fd84 8bbc 3ad8 2abd aa0d cdbc 6f54 c53d
00000270: 442a 8dbe f138 e23d c4ac 833e 5ed0 873e
00000280: 2f10 803d 78eb b83d c591 443e 252a e93c
00000290: e3b0 123d 69af 233d 8937 893c 67a1 dcbe
000002a0: 7336 4f3a 964c 913e b652 573e 3d75 f43d
000002b0: 0a19 67be 5b05 933d c737 513e 2779 923e
000002c0: 314a 133e 5cc5 af3d 7823 533e 3212 0dbe
000002d0: 4843 783e dcf1 05bd 42b6 39bd f17d c73d
000002e0: 18f5 283d faf2 0d3d ac5e ef3c 73b2 8a3c
000002f0: 3bfd a13d 568c fbbd 71d8 70bd 3770 813d
00000300: 95f2 9b3a 371d 523e 6b59 adbd cd9a a2bd
00000310: 44dd 213e 2e2b ccbe 50e9 ca3d aba6 643d
00000320: 6a0e cd3e ec82 a93d 920c 8d3d 9ea1 823e
00000330: aa54 82bd 7542 c5bc 8f88 673e f239 833d
00000340: b100 4bbd 3739 203d eb4f 403e d4d1 65bd
00000350: 5c29 95bd 4fd8 06be efba 1f3e 82db 903e
00000360: 033d cabc 4ae9 b9bc 03a6 553e f141 1ebe
00000370: 5190 cabd b6d2 f53d 10b5 213e 7b36 edbc
00000380: efc9 b43c c7ca f13d 8afd a23d 40d3 44bd
00000390: 7ebc 4f3d 4f7f b1bd c6f2 eabd 41b1 55bc
000003a0: 4cbd b23c 2ca4 b0be 3c4f b93d 6b7c 6ebe
000003b0: b0d1 7d3e fb1e d5be c4b0 9d3d aafd 3abd
000003c0: 8a44 25be 1cf3 2f3e 915f 73be ace2 40bd
000003d0: 408c 143d b893 10bc 0ab4 3d3e dde5 1a3e
000003e0: 84e9 753e 981d f3bc 8630 b8bc 236c d9bc
000003f0: 7d76 393e 2718 403e 1c21 593e abf2 83bc
0.11197575 -0.07092795 -0.017885657 0.18018036 0.101998396 -0.15245603 0.15783471 -0.032162424
0.13140899 0.0073804203 -0.107744075 -0.10258818 0.013750325 0.08158473 0.0921964 -0.16126883
0.095366806 -0.11952771 -0.14882754 0.0317275 0.18361087 0.08326163 -0.16085747 0.11350334
0.2567853 0.119625755 0.21420828 -0.10278826 0.21482618 0.14279401 -0.23684937 -0.18164712
-0.08074324 -0.100955546 -0.055881795 -0.18555473 0.03977403 0.066053554 0.24629535 0.19896317
0.020600313 -0.14753954 -0.1481138 0.047047526 0.08928147 0.19823189 0.00036884382 -0.17106795
-0.06385922 -0.15841393 -0.30766705 0.1466963 -0.1834621 -0.012255302 0.054302588 -0.28813487
-0.17263854 0.028186148 -0.050013516 0.1794108 -0.06662739 0.07480806 0.25160727 0.07592707
0.09397031 -0.045047585 0.09585972 0.11726825 -0.25212327 0.16808614 -0.093152426 -0.036598865
-0.21867076 0.07025585 -0.14887169 -0.038739834 0.075607665 0.10139147 -0.06927167 -0.046280127
0.050627474 0.11435631 -0.007294112 0.18150517 0.1274019 0.122722015 0.04599672 -0.1405371
-0.0054960134 0.166022 -0.18438104 0.14349072 0.16939734 0.00534819 0.22326337 0.19040069
0.13702992 -0.1757186 0.20598717 0.09836133 -0.011813208 0.12400994 0.017314246 0.11925038
0.16573995 0.12543048 -0.025865924 -0.0439182 -0.089610614 0.16153751 0.08420109 0.06082475
0.14671962 -0.1060215 0.11581236 0.06675443 0.15327317 -0.2323335 -0.035364524 -0.13732418
-0.08330871 0.09330707 0.0005999809 -0.15896301 -0.042555917 -0.12078637 -0.11415136 -0.18600468
0.0224769 0.23770177 0.14441714 -0.3801786 0.08184021 0.13209268 -0.057393756 0.32175153
-0.18231325 0.17478806 0.3033877 0.23194204 -0.11827321 0.022968179 -0.12125056 0.23125833
0.11668247 0.22484037 0.06583609 -0.19901879 0.018124834 0.20036384 0.14978488 -0.22787441
-0.017031187 -0.041710116 -0.02503093 0.09635245 -0.2757131 0.11046017 0.25717747 0.2652616
0.06253087 0.09029287 0.19196232 0.028462479 0.035813224 0.039962206 0.016750114 -0.4309189
0.0007904537 0.28378743 0.21027645 0.11936424 -0.22568145 0.07178756 0.20431434 0.28608057
0.1438377 0.08582565 0.20618999 -0.13776472 0.24244416 -0.03270136 -0.04533983 0.09740818
0.041249365 0.03465555 0.029219948 0.016930794 0.07909628 -0.12282626 -0.058800165 0.063202314
0.0011897857 0.20518957 -0.08464321 -0.07939682 0.15807062 -0.39876693 0.09907782 0.05582301
0.4005006 0.082769245 0.06887163 0.2551393 -0.06363805 -0.02407954 0.22610687 0.064075366
-0.049561206 0.039117064 0.18780486 -0.05610831 -0.07283279 -0.13168453 0.15598653 0.2829247
-0.024687296 -0.022694249 0.2086411 -0.15454842 -0.098908074 0.120030805 0.15791726 -0.028956642
0.022068946 0.11806255 0.07958515 -0.048053026 0.05071687 -0.0866686 -0.114720866 -0.013042749
0.02181878 -0.34500253 0.09048316 -0.23289649 0.2478702 -0.416252 0.07699731 -0.04565207
-0.16139427 0.17182583 -0.23766924 -0.04709117 0.036266565 -0.008824281 0.1852571 0.15126748
0.2401486 -0.029677197 -0.022484075 -0.026540821 0.18111606 0.18759213 0.21204036 -0.016106924

action_model._discrete_distribution.branches.1.bias f4 [3]
00000000: e486 27bd 7a69 20bb 856d f73c
-0.040900126 -0.0024476931 0.03020359

action_model._discrete_distribution.branches.1.weight f4 [3, 128]
00000000: 4dc7 533c 8ab6 263e 9c6f 88be ad2a 05be
00000010: c900 db3c 84bb 233d b058 2c3e 2bee 953d
00000020: 6e88 46be 6a34 b0be c414 9fbd 17f3 04be
00000030: 7217 32be 6feb 81be e7c0 233e 5df8 69be
00000040: dc04 673c bd5f 853c 67be 4c3d 7433 403e
00000050: 563e 90bc 0a0f 623d e898 cc3b f412 18be
00000060: b745 e9bd 6ac2 66be 95a5 983d 3cec d0bd
00000070: 383e 6b3c 1aa5 d1be ed7a 023d d4e7 1fbe
00000080: 8b95 32be deea 20bd 48f0 cebd fbb5 363e
00000090: 6bd6 9bbd 7e0c bcbc 76bd 813c aeb5 1dbe
000000a0: 9d5e 513d ddbc de3d 0d9b c83b cb72 f23c
000000b0: 459f cd3d 6f72 883c 825d 853d b5e7 a0bc
000000c0: 25b9 123e 9a16 3c3d 6aaf aebd 772e 0f3e
000000d0: da8a 20be 1fe4 403d 575d 973d 0c94 c9bd
000000e0: cbee ac3e 1c9e b0be 8b97 79bc eeec 163c
000000f0: c5a1 b03c 7aa8 4dbe ffae d0bd 41ac 0cbe
00000100: 4422 1ebe db7a 573e a10c 8a3d 892f 4dbe
00000110: 4b1d 0cbd 2a5a 58be 44f2 7cbd 0d5e b8bd
00000120: a58b 543e fb96 0a3d 6764 113e c131 2abe
00000130: cee3 823e 9a3e 2fbe 81c3 9abc e8ed 12bc
00000140: c81b 81be efc5 a3bc 6740 81be e55d bf3c
00000150: 9c75 0bbe bbb3 8fbe a9ad 4dbe fb62 fb3d
00000160: fb4a 36bd 6568 89bc 5a1c 0abe 4581 30be
00000170: 63c9 9cbd e6f7 9fbe 7db1 19be e3fd 603d
00000180: 03e1 413d 1db3 1dbe d7c9 63be df72 94bd
00000190: 57b0 31be 345f 993e 7806 63be d523 2abe
000001a0: 7ed0 edbb 6e95 44be 0ac1 6dbc ed76 0f3d
000001b0: 45bd 03bc a0c2 3abc 6ea6 843c a1b7 463e
000001c0: 95ab 163e 3e91 5ebe dc43 48be f025 b53d
000001d0: 6b51 37bc fae2 283e 28e5 7d3e 5e54 363d
000001e0: c446 97ba 9b91 b2bd 6b63 aebc d963 713e
000001f0: bf27 94bc db18 653d 608e 03be 1af4 303e
00000200: 908a 513d 08d4 f53c 46d9 503e c6d8 263e
00000210: 6406 dfbd 07a2 7f3d 6c75 99bd 4411 c53d
00000220: 5663 c93e bc48 283e 5541 573e 55b9 893e
00000230: 7ad3 c53d d0c7 9f3e 5c54 69be 7f02 513d
00000240: 49f2 8f3e 545b 893d 8ea3 0c3e b20c 17be
00000250: 5b1f 93bd c21a 883c 9f4d 093e 79ee a33e
00000260: 9dcf 66bd 4d92 ff3d f4b5 e0bd ad18 153e
00000270: 4afe 0b3e 7c93 903e a1f3 30bd da85 383e
00000280: 18eb 133d a4df c1bc 159f 903c 324c 683c
00000290: 0084 863d 939f 24bd 9f40 c2bc 0743 1c3e
000002a0: 8b55 bebd 5820 af3d 747d 953d d178 ad3c
000002b0: 87dc bfbc 6dc5 c5bb 37ed e33b 84a6 063d
000002c0: a9ca 213d 89ee f23d 384e 6e3d 89f3 9a3d
000002d0: 81dc f93d db67 283e 1bb7 a1be 76be 5e3d
000002e0: 81c8 70bd 2480 063e c68b 353d 3a13 1fbd
000002f0: e3fb 693e 97a9 103e 14a3 0b3c 8073 2a3d
00000300: 9dad af3d e94e 8d3c 459b 25bb 6e79 103e
00000310: 4859 9c3c a61c 863c cfed 6e3d 6d03 8b3e
00000320: 13be cd3b 966a 33be c290 c4bc f5cd 0f3e
00000330: 3959 ec3c ac21 893e f4ac 083e 5a5d 3b3d
00000340: fd53 c33e 8d83 1cb9 7049 0c3e 4ddc 7f3d
00000350: 1813 92bd 63a1 943e ed06 373e 1a1c 51bc
00000360: 7ffe 0e3e 810d 293d 6422 f83d ea58 363e
00000370: a7f3 9a3c ea5b 293e 3a29 303e d11d 97bd
00000380: f3ba e33d d444 48be 3717 a23e 19ad 63be
00000390: c34b 883d e518 dd3c cbe0 833e a996 50bd
000003a0: df2f 2cbc 32ae 1a3e 0876 d73d 3537 14bd
000003b0: a900 25be 9813 be3d 8465 2f3d 3f4a 8cbe
000003c0: cc6f 633d 4135 413e c19c 173e ddce 6abe
000003d0: 5ca4 863d c3cb 7fbc 4638 b43c e221 4c3d
000003e0: bdb4 ea3d 7a30 003e 4740 583d 6669 9c3c
000003f0: c03e 8e3d 4b32 8a3d 2324 d13d 308b 263d
0.012925935 0.1628057 -0.2664765 -0.13004561 0.026733773 0.03997375 0.16830707 0.073208176
-0.19387981 -0.3441499 -0.077676326 -0.12983356 -0.17391756 -0.25374934 0.15991555 -0.2284865
0.01410028 0.016281003 0.04998627 0.18769628 -0.01760785 0.055190124 0.006243814 -0.1485098
-0.1139025 -0.225351 0.07453457 -0.10201308 0.014358096 -0.40946275 0.031855512 -0.15615779
-0.17439859 -0.039286487 -0.10104424 0.17842858 -0.07609256 -0.022955175 0.015837412 -0.15401337
0.05111562 0.108758666 0.006121999 0.029595753 0.10040144 0.016656129 0.06511976 -0.019641737
0.1432844 0.045919992 -0.08529551 0.13982569 -0.15677968 0.047092553 0.0739085 -0.09842691
0.33775935 -0.34495628 -0.015233885 0.009211762 0.021561513 -0.200838 -0.10189628 -0.13737585
-0.15442759 0.2104296 0.0674069 -0.20037664 -0.034207623 -0.21128145 -0.06175448 -0.09002314
0.20756395 0.033835392 0.14198457 -0.16620542 0.25564426 -0.17113724 -0.018892052 -0.008967854
-0.25216508 -0.019991843 -0.25244448 0.023360202 -0.13619083 -0.2806681 -0.20085777 0.122747384
-0.0445051 -0.016773412 -0.13487378 -0.17236812 -0.07655599 -0.3124382 -0.15009113 0.054929625
0.04733373 -0.15400358 -0.22244965 -0.072484724 -0.17352425 0.29955447 -0.22170436 -0.16615231
-0.00725752 -0.19197628 -0.014511356 0.035025526 -0.008040731 -0.011398941 0.016192641 0.19405986
0.14713891 -0.21735093 -0.19557136 0.08845127 -0.011188845 0.16492835 0.24794447 0.044514053
-0.0011541476 -0.08719178 -0.02128764 0.23573245 -0.018085359 0.055931907 -0.1284728 0.17280617
0.051157534 0.030008331 0.20395383 0.1629363 -0.10889891 0.06241038 -0.074930996 0.09622434
0.393336 0.16433996 0.21021016 0.2689921 0.096594766 0.31207132 -0.22786087 0.05102777
0.28114536 0.067068726 0.13734266 -0.14750937 -0.07183715 0.016614322 0.13408516 0.32017878
-0.05635034 0.124790765 -0.10972205 0.14560194 0.13671222 0.28237522 -0.043201093 0.1801981
0.036112875 -0.02366621 0.017653981 0.014178323 0.06568146 -0.040191244 -0.023712454 0.15259944
-0.0929366 0.08551091 0.07299319 0.021175774 -0.023420585 -0.006035498 0.0069557684 0.032873645
0.039499912 0.11861903 0.058180064 0.07565982 0.12200261 0.16445868 -0.3158501 0.054380856
-0.058784965 0.1313482 0.04432275 -0.038836695 0.22849993 0.14127193 0.008522768 0.041614056
0.08578036 0.017249541 -0.002526955 0.14108822 0.019085541 0.016371083 0.05833226 0.2715105
0.006278762 -0.17521128 -0.023994807 0.1404341 0.028851138 0.26783502 0.13347226 0.045743324
0.38150015 -0.00014926326 0.13699889 0.062465955 -0.07132548 0.29029378 0.17873736 -0.012763048
0.1396427 0.041272644 0.121159345 0.17807356 0.01891501 0.16538969 0.17203227 -0.07378734
0.11119642 -0.19557506 0.31658337 -0.22234 0.066550754 0.02698941 0.2575744 -0.05092493
-0.01050946 0.15105513 0.105205595 -0.036185462 -0.16113533 0.09281081 0.042821422 -0.27400395
0.05552654 0.18867971 0.1480589 -0.22930475 0.06574318 -0.015612545 0.02199949 0.049837
0.11460254 0.12518492 0.052795675 0.019093227 0.06945562 0.06747874 0.10211971 0.040660083

discrete_action_output_shape f4 [1, 2]
00000000: 0000 4040 0000 4040
3.0 3.0

network_body._body_endoder.seq_layers.0.bias f4 [128]
00000000: 72b0 aabd 027a 523e 6ed1 8dbc e818 88bb
00000010: 13b3 533c eac2 b53d fcaf 233d 30ad abbd
00000020: eedf 883c c740 08bd 517b bb3c 8e24 cd3d
00000030: c73f 1c3d 0dd1 7e3d a0ec 15be 758f 23bd
00000040: 5b75 b4bd 0f2c 573d c224 d8bc b4a1 fbbd
00000050: 2581 833d a6fd b939 6b54 3bbc c2e5 873c
00000060: 72c0 ea3b 8233 ccbc a15b 1c3e ac0d fc3c
00000070: 7a81 d43d 1991 47bd 5d7e 7c3d c44c 79bc
00000080: 4472 de3b 9dbf 08bb 5318 bbbd d264 e6bc
00000090: 408c 963d 81c3 5bbc a3bf 893d 4e96 3f3d
000000a0: 9a12 de3b e0a9 a4bc 25da 8cbd ae60 753d
000000b0: 8aaa 9c3d c41d ca3d 1274 af3c c4d5 e53d
000000c0: 3838 9e3d 8b47 79bd 6eac 43be 94ab edbd
000000d0: 5b11 b73d e3bd 333d 020c a43d 63e6 d7bd
000000e0: dd2c a9bc 8976 1dbe e285 bd3a 266b 513d
000000f0: de17 323d 2a45 debc db43 933c 518f 8dbc
00000100: 1a39 05bb 05cf b8bd 6a70 d53d 292c 4abd
00000110: 86ba 51bd f49d 013b 9861 383d ca6c 14ba
00000120: 31bf f43d 5734 4dbc b8e1 b7bd e860 14bd
00000130: 6adc 41bd c9be c33d 4c16 953d 6f48 cc3c
00000140: 942f 60bd d07f 0cbc f6be 2cbc 44a8 693c
00000150: 24a9 5c3d 99e1 5dbb 3b04 183e 5748 333c
00000160: 9ef7 87bd e650 2ebc 39b2 cfbd 0271 893d
00000170: 59bf e5bc 6c2a 1cbe 6daf 31be 2ca3 a1bb
00000180: 9ca3 d43c 6a75 4fbd ad71 f5bd 38eb a0bd
00000190: 52aa 103d f787 8f3d e15c f93d de32 5fbe
000001a0: 7817 7fbc c2c4 ff3c 32ef d63c 2d03 f3bb
000001b0: b69c ba3d 65c0 c1bc fa04 1b3d 119f 583d
000001c0: 5cfb 3abd cfd8 04bd e816 b03d 7117 7f3d
000001d0: f4b8 1f3e 3f6e 383d 466f 513d 5741 ec3d
000001e0: ad4e d2bc 49f4 2938 ce79 03bc bbf2 c33d
000001f0: f420 51bd bae9 f4bc 95aa 393c 7e6f e4bc
-0.083344355 0.20554355 -0.017311778 -0.0041533597 0.012921113 0.088750675 0.039962754 -0.08382642
0.01670834 -0.0332649 0.02288595 0.10016738 0.03814676 0.062211085 -0.14641047 -0.039931733
-0.08811446 0.052532252 -0.026384715 -0.12286702 0.06421117 0.00035474933 -0.011433701 0.01658905
0.0071640546 -0.024926905 0.15269329 0.030768238 0.10376258 -0.04872236 0.061643947 -0.015216056
0.006788524 -0.0020866164 -0.09135499 -0.028124247 0.07350969 -0.013413311 0.06726005 0.0467742
0.00677712 -0.020100534 -0.06877545 0.059906654 0.07649715 0.098689586 0.021417651 0.11222413
0.077255666 -0.060859244 -0.19108745 -0.116049916 0.08938857 0.043882262 0.08010103 -0.1054199
-0.020651275 -0.15377249 0.0014459456 0.051127575 0.043479793 -0.02713259 0.017976692 -0.017280253
-0.0020328225 -0.09023861 0.10421832 -0.04935852 -0.051203273 0.0019777985 0.045014948 -0.0005661963
0.11950529 -0.012524686 -0.08978599 -0.03622523 -0.047329344 0.09557874 0.072796434 0.024936883
-0.054732874 -0.008575395 -0.0105435755 0.014261309 0.053872243 -0.003385639 0.14845364 0.01094254
-0.06639026 -0.010639405 -0.10141415 0.06711008 -0.028045343 -0.15250558 -0.17352076 -0.0049327817
0.025956921 -0.050649084 -0.119845726 -0.078573644 0.03531868 0.07008355 0.12175918 -0.21796748
-0.01556956 0.031221751 0.026237104 -0.00741615 0.091119215 -0.023651311 0.037846543 0.052886073
-0.04564987 -0.032433327 0.08598119 0.062278215 0.15597898 0.045027014 0.05113151 0.115359
-0.025672281 4.0520248e-05 -0.008024646 0.095677815 -0.051056817 -0.029896606 0.011332174 -0.027885195

network_body._body_endoder.seq_layers.0.weight f4 [128, 68]
00000000: 6f75 eebd d19d 433e 52dc 8c3e 9852 103e
00000010: 54db ffbb 8bfb 34be 82d8 473e 532b babc
00000020: 31bf 8e3d ae07 0cbc 5748 a03d 437b 1fbd
00000030: 85d3 71bd bbed 55bd c41e ea3d d51a cb3e
00000040: 854c 093d 2994 24bd 74c6 293d 13c3 ffbd
00000050: 4939 bc3d baa6 783e 9a39 9c3e 9202 e63d
00000060: 65ff 53be 02f5 a6bd 908f 103e 5cbd afbc
00000070: 2921 b7be 1ff6 cebd e63e 84be 0bc6 793d
00000080: bc91 3bbe 2fb6 32be 1247 d3bc f44d b6bc
00000090: 5b3d 21be 1c3b 93bd 30a1 7bbd 0d5e a0bd
000000a0: 1374 5cbe 2a5a c2be 6572 8cbd de0e f5bd
000000b0: 15d0 c8bd fa87 cdbc 24c5 0e3e f435 503d
000000c0: 572a 06be cad7 283d 263b 93be 5ed3 f4bb
000000d0: 22d7 8f3d c81c 5c3b 3cc1 be3e 8bfe 47be
000000e0: 9604 df3d a3f4 14bd 3f3f 21bf 094b 46bd
000000f0: 5a8d 2b3e fd81 983e 3401 88bc 2d21 9abe
00000100: 7ace 283e 6bdb 913e f3e1 82bd f28d c1bd
00000110: 2923 673d f497 99be a230 ee3d dfbd f7be
00000120: 9202 1abe 3751 43be 2e7a bfbe 7684 a3be
00000130: 4636 91be f481 223d bc4c 24bc d6d6 b9be
00000140: ee77 1d3e fb2f 31be 796b cd3d 5421 663e
00000150: ee20 bb3c 776b ca3d a374 48be e4d1 a53d
00000160: e01b 84be d9aa 30be 5135 debd 1c71 893d
00000170: 0b88 e6bd c555 e0bd da1c aebd a11d 6ebc
00000180: 402d debc 4de8 3bbb 9eb8 aabe 3f50 173d
00000190: 7655 183e be45 d43d acc9 39be 1a66 d73e
000001a0: d734 1abe 2b31 02be 217e 4abe f249 4b3c
000001b0: ec3d 76be c2ed 6cbd 3ed5 d8bd 3ff4 aa3e
000001c0: 8032 9a3e 8601 4c3d 3f6e b0bd a86a 73bd
000001d0: b786 98be a6be 0dbe 2355 e8ba ea6b 74bd
000001e0: 6ade 513e 3cfe 973d 49a0 adbd a8d1 76bd
000001f0: b275 d3bd 5554 b5be 0320 3b3e 0662 acbd
00000200: 9cb0 09be 8c07 30be 2786 e03e 92ee b4bd
00000210: 8cb6 723e da33 533d 2db8 94bd 2094 933e
00000220: 7843 193e 558d 083e 9706 1bbe bd58 09bd
00000230: ccf7 4ebe 01bd 8abe 4edf d7bd 4c25 f1bc
00000240: f3ce 19be 4b13 79bd 90e5 673d 130e 50be
00000250: 86dd d0bd f14d 7cbc 97b3 9bbe ccca 9cbc
00000260: a579 1a3e 9e3c 0bbe a451 8cbd 3075 bbbe
00000270: 4198 37be 98f3 62bb e8ca ffbd 3612 993e
00000280: cddf f6bc bd50 89bd 6913 64be 19e6 68bd
00000290: 7143 383e 223f f3bd 8657 393e 41fe 76be
000002a0: 5ffc 443d 2ccd 503e c94b e23b 7df6 fbbd
000002b0: 8823 05bd ef1b da3b 7550 c33c 77e7 94be
000002c0: 79ec 6e3d 62ff 213e 9798 88bc 94b9 353d
000002d0: 5d29 20be c0ca 893c 034c 3bbd 84a5 d0be
000002e0: 29c2 bf3c 3e09 2cbc 708e 233d 5ade 3dbe
000002f0: acaa bdbb f9f9 2c3e 0725 0fbe f32d 063e
00000300: ee2d 803e 6464 6a3e 9c9e a2bd fe68 c23e
00000310: 36f5 98bc 1604 b53e 5c5f 943e a3d1 993c
00000320: c131 8e3e 9e81 3fbd 71e8 8f38 23f7 ddbe
00000330: f3ad 6d3e 701c b8bd d43d 5fbe cbde 6d3d
00000340: 5242 463e 8dcb 97bd 2013 133e 4da6 c23d
00000350: 2a78 033e ec08 7e3e 76a8 4e3e 1a82 613d
00000360: 8c23 dfbc 7301 8b3e a0b0 753e 20e3 743c
00000370: 6d38 93be 9c0c cebd 18e7 dabb 4035 50bd
00000380: 0d8e 5bbe 9185 cabd 0b83 24be 8572 413e
00000390: 5456 f63d 6656 c43d 89be b63c 150e 97bd
000003a0: d41d 203e 7458 8a3e 2890 ad3d 4a98 bf3e
000003b0: 0f19 e2bc a611 c0bd 84e9 173e fbaa 35be
000003c0: 61a3 9dbe 363b 2dbc 14da 46be 5f6b 13be
000003d0: 5a9b 883e 0c3e 7f3e 64c5 ef3d f86c 4ebe
000003e0: 2032 d7bb ec72 6b3e fdd1 03be 38eb 08be
000003f0: c092 743d 0d1d 47ba 6a2f 843d ab5e e83d
-0.116434924 0.19103171 0.2751184 0.14094007 -0.0078081284 -0.17674081 0.19516185 -0.022725737
0.069700606 -0.008546753 0.07826298 -0.03893591 -0.05903961 -0.05222867 0.11431649 0.3966891
0.03352024 -0.04018036 0.041449025 -0.12488379 0.09190614 0.24282351 0.30512697 0.11230959
-0.20702894 -0.081522 0.14117265 -0.021452598 -0.35767487 -0.101055376 -0.25829238 0.060979884
-0.18317312 -0.1745231 -0.025790725 -0.022253968 -0.15746062 -0.071890086 -0.061433017 -0.07830439
-0.21528654 -0.37959415 -0.068577565 -0.11965726 -0.098053135 -0.025089253 0.1394239 0.050832704
-0.13102089 0.041221417 -0.28756064 -0.007471486 0.07023455 0.003358649 0.372568 -0.19530694
0.108895466 -0.036366116 -0.6298713 -0.048411403 0.1675314 0.29786673 -0.016602136 -0.30103436
0.16485015 0.28487715 -0.06390753 -0.09450902 0.056430016 -0.29998744 0.1163037 -0.48387048
-0.15040043 -0.1907395 -0.37397903 -0.31936997 -0.2836172 0.039674714 -0.0100280605 -0.3629672
0.15377781 -0.1730346 0.100302644 0.22473651 0.02284285 0.098837785 -0.19575743 0.08096674
-0.25802517 -0.17252673 -0.10850013 0.06711027 -0.11256417 -0.10953859 -0.08501597 -0.014533431
-0.027121186 -0.0028672398 -0.33343977 0.036941763 0.14876351 0.10364865 -0.18143338 0.42070085
-0.1505922 -0.12714069 -0.19774677 0.012407767 -0.24047059 -0.05784393 -0.10587548 0.3338947
0.30116653 0.04980614 -0.08614778 -0.059427887 -0.2979028 -0.13842258 -0.0017725568 -0.059673227
0.20495 0.07421538 -0.084778376 -0.060258538 -0.10325183 -0.35415903 0.1827393 -0.08417134
-0.13446277 -0.17190379 0.4385235 -0.08834566 0.23702449 0.05156312 -0.07261691 0.28823948
0.14967144 0.13335164 -0.15139233 -0.033531893 -0.20211715 -0.27097324 -0.10540639 -0.02943673
-0.15020351 -0.060809415 0.056615412 -0.20317869 -0.10198502 -0.015399442 -0.30410454 -0.01913967
0.15085466 -0.13597342 -0.06851509 -0.36612844 -0.17929174 -0.0034630056 -0.12489873 0.29896706
-0.030136013 -0.06704853 -0.2227303 -0.056860063 0.17994477 -0.11877276 0.18099794 -0.24120428
0.048092242 0.20390767 0.006906007 -0.12302873 -0.03250459 0.006656162 0.023842076 -0.29082844
0.058330987 0.15820077 -0.016674323 0.044366434 -0.15640779 0.016820312 -0.045726787 -0.40751278
0.023408012 -0.01050025 0.03993076 -0.18541852 -0.005788168 0.16892232 -0.13978969 0.13103466
0.25035042 0.22889858 -0.079404086 0.37970728 -0.018671613 0.3535468 0.28979003 0.01877672
0.27772334 -0.046754472 6.862067e-05 -0.43352613 0.23210888 -0.08989799 -0.2180093 0.0580738
0.19361237 -0.07411871 0.14362764 0.095043756 0.12838808 0.24808091 0.2018145 0.055055715
-0.02723863 0.27149543 0.23993158 0.014946729 -0.28753987 -0.10060999 -0.0066803806 -0.050832033
-0.21440907 -0.09888757 -0.16065614 0.18891342 0.120281845 0.09586792 0.022307651 -0.07375733
0.15636379 0.2702061 0.08474761 0.37420875 -0.02759984 -0.09378366 0.14835173 -0.17741005
-0.3078871 -0.010573199 -0.19419128 -0.14396428 0.26681024 0.24926013 0.11707571 -0.20158756
-0.0065672547 0.22993058 -0.12873073 -0.13370979 0.059710264 -0.00075955765 0.06454356 0.113461815

network_body._body_endoder.seq_layers.2.bias f4 [128]
00000000: e607 7ebd 448a 91bd 01aa 96bc d130 7d3e
00000010: a14c 0ebe 68e2 eebd b762 d5bc 0055 1cbd
00000020: 54a3 0f3d 6866 6f3d 1517 5cbe 48c0 08be
00000030: 46ee 33be 213c cabb 7be8 053d de8c d6bd
00000040: 0333 0bbd 846a 52be 9571 2bbe 3ed6 0f3d
00000050: 057a 333d f539 f6bd fb72 a9bd bdd4 563d
00000060: d016 543d 4724 5f3c 65e7 343d 23bb 93bd
00000070: 5049 593d 3d6f ae3d 57ee bfbd 9396 20be
00000080: e478 d4bc 479e 2bbe 1cb5 28bd 942a d1bd
00000090: 0dd1 febc 3552 a4bc 580f e43c 2115 2a3e
000000a0: 09b6 efbd 22f4 2cbe 57f9 7dbc 0fcc dbbd
000000b0: e79b 2cbd 78ec cb3d 640b acbc f80c e7bd
000000c0: 07eb 72bd bdaf a7bd 05e7 f2bd 46ab 3cbd
000000d0: 788d e0bd be27 e9bd 8902 653c f1d6 08be
000000e0: cc29 97bc 22b0 aa3c d961 49bd 7bad ed3c
000000f0: 652b 013d a58a b6bd eb9d e13c 79ab c53c
00000100: 35de 183c 4e86 8fbd e654 be3c ee52 1d3d
00000110: 181b 45bd 6c97 bf3d 30b0 88bd c994 393c
00000120: 4f01 86bd ed68 08bd 2828 a4bd d9bb 9bbd
00000130: 19c2 303d ef8e be3d 5a7e c93c bdb7 23be
00000140: d5e9 0b3d 0faf f23b 6fca a8bd bed4 47bd
00000150: 7f19 ed3d d4a1 ab3d 3b22 0cbe d6f6 02be
00000160: feed 83be fd13 873d e358 0ebe ffb2 513c
00000170: c65a 0a3d 595e b3bc f501 173c 21a0 3e3c
00000180: 6331 acbd d5a5 25bd aa29 213d 0637 3e3c
00000190: 399e 88bd 5ed6 15bd 2a96 0c3c 38ed 6a3d
000001a0: 43bd acbc 363f 9c3d 3a3d f2bd 7e52 3ebd
000001b0: b47b abbd 7d7a 253e 7d42 d03b 1bbc f83b
000001c0: a361 ba3d 7d08 09be 7fba c23d 5806 07bd
000001d0: 2628 4e3d ef1e 9cbd 1d6e c1bc 94d7 1cbe
000001e0: 2ac6 cfbd 98d7 873d e62c 19be b12b b5bd
000001f0: 0985 07be cffa 34be 5cdb 89be 669f 2ebd
-0.06201925 -0.0710645 -0.018391611 0.24725653 -0.13896419 -0.11664277 -0.026048047 -0.038167
0.03506787 0.05844727 -0.2149318 -0.133546 -0.17571363 -0.0061717187 0.032692414 -0.10476087
-0.033984195 -0.20548445 -0.16742547 0.035116427 0.04381754 -0.12022773 -0.08273884 0.052448977
0.05177957 0.013619489 0.044165988 -0.07213428 0.053048432 0.08517311 -0.093716316 -0.1568244
-0.025936551 -0.16759597 -0.041188344 -0.10213199 -0.031105543 -0.02005873 0.027839348 0.16609623
-0.11704642 -0.16890004 -0.015501342 -0.107322805 -0.042140868 0.09957212 -0.021001525 -0.112817705
-0.05930617 -0.08187816 -0.1186047 -0.046061777 -0.10964483 -0.11384533 0.013977655 -0.13363244
-0.018452547 0.02083594 -0.04916558 0.029013386 0.031535525 -0.08913163 0.027541121 0.024129616
0.009330322 -0.070080385 0.023233842 0.038409166 -0.04812154 0.09355053 -0.0667423 0.011326977
-0.06543218 -0.03330319 -0.08015472 -0.076041885 0.043153856 0.09304606 0.024596382 -0.1598806
0.034158546 0.0074061225 -0.08241736 -0.04878687 0.115771286 0.08380476 -0.13684933 -0.12789473
-0.2576751 0.06595609 -0.13901095 0.012799024 0.033777975 -0.021895574 0.009216775 0.011634857
-0.08407857 -0.040441353 0.039346375 0.011609798 -0.066708036 -0.03658139 0.008580724 0.057355136
-0.02108634 0.07629244 -0.11828084 -0.04646539 -0.08373204 0.16160007 0.0063555823 0.0075907833
0.09100654 -0.13382144 0.095082276 -0.032965034 0.050331257 -0.076230876 -0.023612076 -0.15316612
-0.10145219 0.06632918 -0.14958534 -0.08846224 -0.13234343 -0.17673801 -0.2692517 -0.042632483

network_body._body_endoder.seq_layers.2.weight f4 [128, 128]
00000000: 0690 373e 3b97 2c3d deca 763e 7590 6fbb
00000010: 26de e5bd bf53 743e 9307 5a3e 3fba 3dbd
00000020: 6a45 423e 216b d73d d1e9 593e 302b 6b3c
00000030: 34d7 603e a113 5ebc 31a8 e0bc c6ff 23be
00000040: 7726 fc39 83c6 f5bd 51da 02bc a9c0 503e
00000050: 220c 25be 2eb3 1abd d5fd c5bc f981 5dbe
00000060: e92d 413e 78bf 203e 8843 203e 82a6 a0be
00000070: 3507 d83c a2ec d9bd b0e3 65be 8fb7 ebbd
00000080: f477 093c 9090 13bd e776 0f3c a21b 8f3c
00000090: dd81 4abb 464a 82bd 5bf3 613d f5da 26be
000000a0: 5b60 15be 2dbe 5bbe c34e 53be bf5d 993c
000000b0: 81eb 36bd 8ee1 783d 99cc c3bd 0a71 4ebd
000000c0: 34ea c13d 59a6 94bd f090 38be 9a2a 113b
000000d0: 9149 de3d 7fc0 a43e d3d4 903e 77ad 143d
000000e0: cebc b33c 31ee bd3d 0be6 e13d 6211 9a3d
000000f0: c1c9 cfbe 45ad 7f3e 9ee1 0abe 25c8 35bc
00000100: 47dd e33b 031a 5f3e 1e67 3d3d 0df8 94bd
00000110: 99ac 84bd a9af a7bd 3a0b 1d3e 28cd 1ebc
00000120: a8a0 82bc 13aa a33c 327a 943d 1d76 603e
00000130: bbd6 b33d d929 0bbd dacd 8bbb 6046 fb3c
00000140: 077f 80be c1d5 a9bd 1130 acbd dacc 8a3e
00000150: cddf fabd 5627 86bc 4148 bdbd 17f7 c1bc
00000160: 67d1 13be 1ded d9bc 31d2 48be 5cf1 1ebe
00000170: f99d 15be 0a45 163e 7bc6 5b3e 2a50 383e
00000180: 2b5a 25bd 9e9a 15bd 04c4 1abd 4ef0 153e
00000190: 6941 e5bd 1bfa 513d 6cce 093e 2e23 05be
000001a0: 1633 343e 5efc 12bd b96f 9f3d baed cbbd
000001b0: f43e 6c3d b64c 1a3e 2f3d 7c3c 33c3 b53c
000001c0: 8d15 283d 96d5 edbd f4a2 acbc a34b 28be
000001d0: 6af3 f53d c886 f03d 89c0 98be e9ea 3bbe
000001e0: 2618 193e 741f b03d 9fed 833c a8c8 aa3d
000001f0: d98e 64bd 36fc f83c b3ab f1bc 343f f3bd
00000200: b08e 41be 3060 17bd 5de7 bd3b 8a60 3f3d
00000210: 7bd9 87be 0537 7c3d 71ef fcbe 9195 a4bd
00000220: 033a 8f3d cd9b dfbd 250c 2bbe 469f 0f3d
00000230: b84b 7d3d 3230 a3be f421 14be 47c0 28bd
00000240: d7bf 0abc 8287 583e a1d2 29be 5dbb 9abd
00000250: 9086 3abe 6bac 85bd 91b2 cbbb 7d86 903d
00000260: 347b 883d b3a3 44be 59bb f8bc e9c2 edbd
00000270: 70a6 bc3c efd7 fabd 1cb0 4f3d 123f 91be
00000280: 3493 7c3e 55d9 ffbc 7b8a bb3d ba4a 833e
00000290: dc74 6fbe d228 e03d ad9a 05bd a426 9e3e
000002a0: 8159 f43d 22e1 6a3d 4aeb 9fbc 6b08 cabe
000002b0: 3cbc f93d e5f4 89bd e929 8c3e c6e7 af3d
000002c0: c270 98bd bd9e 2a3e 0e91 bfbd fe1f 213e
000002d0: 572d 94be fd46 153d 7048 a6be 11e1 103e
000002e0: 3dfa 4bbd 6b10 b3be bd6c 39be 927d 43be
000002f0: 0794 cebe a903 843c 294e a2bc 78ef a23d
00000300: a66c 72be 7072 473e cee1 0ebf 9115 f4bd
00000310: b928 7f3e bffa ca3d 21a7 83bd eee5 0fbd
00000320: 2d6b e3be a2f0 dd3d f73e 9d3c a056 68be
00000330: bf76 a93d 8cc9 913d 64aa 573d a8dd 1f3e
00000340: 055f ebbc 5db4 3fbd 25e7 39be 54bc 543c
00000350: 78d7 7fbe 7739 e53c 54fc 66bd e8af ce3c
00000360: 108f 773d e2fa e83d a771 d23d 7051 e4bd
00000370: 7c9e 96be a049 af3d 0672 0c3e 5c0d 0ebe
00000380: 2e61 21be d0e8 02be 62d2 66bd 67ae 573e
00000390: 3ad6 25be 8118 5a3e 84bf 323b c1f6 94bd
000003a0: 44c1 153e 72ff 4d3e 73f1 86be 297c f33d
000003b0: 2a1e e53b 0bb8 623e eac4 093c fb54 b8bd
000003c0: d704 6bbe 1760 b73c 8b2c 5e3d 6cf5 c23d
000003d0: 7a01 1c3d af3e 61be c7de 0a3c 9efe e93d
000003e0: 662c 683e 20df 323e 6aa1 cbbd 8f0f dbbd
000003f0: 25ec 54be 63ed 59be a843 c33e ae15 82be
0.17926034 0.042136412 0.24100825 -0.003655461 -0.11224012 0.23860072 0.21291952 -0.046320196
0.18971792 0.1051848 0.212806 0.014353558 0.21957093 -0.013554485 -0.02742395 -0.16015539
0.00048093844 -0.12000754 -0.007986621 0.20385994 -0.1611791 -0.037768535 -0.024168888 -0.21631612
0.1886517 0.1569804 0.15650761 -0.31377035 0.026370624 -0.10640837 -0.22450137 -0.115096204
0.008390415 -0.036026537 0.008756376 0.017469231 -0.0030900158 -0.06361823 0.055163722 -0.16294463
-0.14587538 -0.21459265 -0.20635514 0.01872146 -0.044658188 0.06076198 -0.09560508 -0.05040077
0.09468499 -0.07258291 -0.1802404 0.0022150637 0.108538754 0.32178113 0.28287372 0.03629824
0.021940615 0.09273947 0.11030205 0.07522847 -0.40583614 0.24968441 -0.13562629 -0.011095081
0.0069538685 0.21787266 0.04624092 -0.072738744 -0.06478233 -0.081878014 0.15336314 -0.009692468
-0.015945747 0.019978559 0.072498694 0.21920057 0.08781191 -0.033975456 -0.004266483 0.030673206
-0.25096914 -0.082927234 -0.084076054 0.27109414 -0.12249718 -0.016376179 -0.09242297 -0.023677392
-0.1443535 -0.026602322 -0.19611432 -0.15521759 -0.14611043 0.14674774 0.21462433 0.1799933
-0.040369194 -0.036524408 -0.03778459 0.1464245 -0.111941166 0.05126391 0.1345765 -0.13001701
0.17597613 -0.035885207 0.07784981 -0.09957452 0.057677224 0.15068325 0.015395447 0.022187805
0.041036177 -0.11613004 -0.021073796 -0.16435103 0.12009318 0.117444575 -0.29834393 -0.1835133
0.14950618 0.08599749 0.016104518 0.083390534 -0.055800293 0.030393701 -0.029500818 -0.118772894
-0.18902087 -0.036956966 0.005795403 0.046722926 -0.26533112 0.06157591 -0.4940143 -0.0803634
0.06993487 -0.109183885 -0.16703852 0.035064004 0.06183979 -0.31872708 -0.14466077 -0.041198995
-0.00846859 0.21145442 -0.16584255 -0.07555268 -0.18215394 -0.06527027 -0.006216355 0.070569016
0.06664124 -0.19203071 -0.030362772 -0.11609442 0.023028582 -0.12248217 0.05070506 -0.2836843
0.24665529 -0.031231562 0.091572724 0.2564295 -0.23384422 0.10945286 -0.032618213 0.30888855
0.11931134 0.05734361 -0.019521374 -0.39459547 0.12194106 -0.06736163 0.27375725 0.08589129
-0.07443382 0.16662116 -0.09353839 0.1573486 -0.28940842 0.036444653 -0.3247714 0.14148356
-0.049799193 -0.34973463 -0.18107887 -0.1909087 -0.4034731 0.016115027 -0.01981266 0.07955831
-0.23674259 0.19477248 -0.558133 -0.11918176 0.24917878 0.09911107 -0.06428362 -0.035131387
-0.44417706 0.10836913 0.019195063 -0.22689295 0.08274602 0.0711852 0.05265273 0.15611899
-0.028731832 -0.046802867 -0.18154581 0.012984354 -0.24984539 0.027981503 -0.056392983 0.025230363
0.06043917 0.11375977 0.10275584 -0.111483455 -0.2941779 0.08558965 0.13715371 -0.13872284
-0.15759727 -0.12784123 -0.05635298 0.21062623 -0.16195002 0.2129841 0.0027274797 -0.07273627
0.14624506 0.20116976 -0.26356086 0.11888916 0.006992121 0.2214052 0.008408764 -0.09000584
-0.22951065 0.022384686 0.0542417 0.09519467 0.038087346 -0.21996568 0.008475966 0.114255175
0.22673187 0.17467928 -0.09942897 -0.10696327 -0.20793207 -0.21281962 0.38137555 -0.25407165

network_body.observation_encoder.processors.0.normalizer.running_mean f4 [25]
00000000: 546a 6f3f 381e 863b 0000 0000 7423 1a3b
00000010: 446a f23d e245 6a3f 8f7f 9c3b 0000 0000
00000020: 5ee8 9b3b b77c 0c3e f0c3 493f 321c 653b
00000030: 0000 0000 d121 bf3b 3a3f 013e 1ab6 393f
00000040: 7ace 743b 0000 0000 ae7d 6d3c a582 4a3e
00000050: 8954 0d3f 2537 a23b 0000 0000 aa4a 363c
00000060: 2b93 1b3e
0.9352162 0.004092958 0.0 0.0023519667 0.11836675 0.9151288 0.0047759484 0.0
0.004757925 0.1371945 0.788146 0.0034959433 0.0 0.0058328887 0.12621775 0.7254349
0.0037354515 0.0 0.014495296 0.197764 0.55207115 0.0049504214 0.0 0.0111262
0.15192859

network_body.observation_encoder.processors.1.normalizer.running_mean f4 [25]
00000000: 275f 4d3e 8b5d ba3e 0000 0000 93e2 133d
00000010: e12e b53d 2b27 1d3e ad29 af3d 0000 0000
00000020: acdd aa3d f2de 033e b7b2 d33e be45 e83c
00000030: 0000 0000 d1ab 5c3d b821 c93d eccd 633d
00000040: f3ec 823d 0000 0000 281b 733d 8ba4 bc3d
00000050: 9428 f53e 5e71 6b3c 0000 0000 e5a7 713d
00000060: deaf ca3d
0.20055829 0.36399493 0.0 0.03610475 0.08846832 0.15346973 0.08552871 0.0
0.08343062 0.12878016 0.41347286 0.028353568 0.0 0.053874794 0.098208845 0.055616304
0.06392851 0.0 0.05935207 0.092110716 0.4788252 0.014370291 0.0 0.058998007
0.09896825

network_body.observation_encoder.processors.2.normalizer.running_mean f4 [18]
00000000: 82e7 a340 9087 5bbf a86f a841 fdd1 4340
00000010: 24cc bc3e a44e 17c0 6753 1bb9 f312 a63e
00000020: b451 16bb 85b5 60bf c4e8 8a43 2d73 5f41
00000030: a650 8d3e 091e f4bd 88e6 2a3f 1c4e 97bd
00000040: 0000 0000 cdf2 a43e
5.12201 -0.85753727 21.05452 3.0596917 0.36874497 -2.3641748 -0.00014813022 0.32436332
-0.0022936882 -0.87776977 277.81848 13.965619 0.27600592 -0.11919791 0.6675801 -0.07387945
0.0 0.32216492
