Assets/Brains/run30/CarPractice_run30-14.onnx (onnx, 108394 bytes, 15 tensors)

85 f4 [25]
0.31562808 0.050958894 0.00044721292 0.06425257 0.09043514 0.34624463 0.04998068 0.00044721292
0.08763059 0.10877414 0.42464262 0.048203632 0.00044721292 0.08430727 0.10534305 0.47048151
0.05862378 0.00044721292 0.18014131 0.17707749 0.49998674 0.078790784 0.00044721292 0.14489858
0.15214081
00000000: 019a a13e 46ba 503d e777 ea39 da96 833d
00000010: 0f36 b93d fa46 b13e 8bb8 4c3d e777 ea39
00000020: ab77 b33d fac4 de3d c26a d93e 2c71 453d
00000030: e777 ea39 4aa9 ac3d 19be d73d f4e2 f03e
00000040: 7d1f 703d e777 ea39 f776 383e cd53 353e
00000050: 43fe ff3e 105d a13d e777 ea39 4b60 143e
00000060: cdca 1b3e

88 f4 [25]
0.43555355 0.45982462 0.00044721292 0.19725642 0.19038233 0.3806915 0.3629335 0.00044721292
0.25242138 0.24283236 0.49535993 0.22942623 0.00044721292 0.26457977 0.25525647 0.27728635
0.26945418 0.00044721292 0.23736069 0.23047823 0.49885702 0.12629938 0.00044721292 0.27659118
0.2675688
00000000: e000 df3e 226e eb3e e777 ea39 96fd 493e
00000010: 96f3 423e ffe9 c23e 6bd2 b93e e777 ea39
00000020: 603d 813e 0ca9 783e d19f fd3e b6ee 6a3e
00000030: e777 ea39 0077 873e fab0 823e 7af8 8d3e
00000040: e6f5 893e e777 ea39 ae0e 733e 7c02 6c3e
00000050: 306a ff3e a054 013e e777 ea39 5c9d 8d3e
00000060: c7fe 883e

91 f4 [17]
21.52717 1.4094753 22.539278 6.239256 0.04748527 7.343389 0.022207709 0.3398783
0.03668836 0.13457076 587.9533 24.268547 0.47906044 0.18464631 0.4497075 0.7917667
0.00044721292
00000000: a537 ac41 b069 b43f 7150 b441 fca7 c740
00000010: ea7f 423d 0bfd ea40 f1ec b53c 8704 ae3e
00000020: 8946 163d ebcc 093e 03fd 1244 fc25 c241
00000030: 6947 f53e ec13 3d3e 1040 e63e 39b1 4a3f
00000040: e777 ea39

action_model._discrete_distribution.branches.0.bias f4 [3]
-0.0046598664 0.09279654 0.021001415
00000000: cbb1 98bb 1d0c be3d 290b ac3c

action_model._discrete_distribution.branches.0.weight f4 [3, 128]
-0.07905311 0.084331594 0.1552518 -0.05535973 0.12628922 0.07298927 0.090821244 0.11664103
0.081488736 -0.092051946 0.23517698 0.012721001 0.110635035 0.09614266 0.41271076 -0.21245088
0.15805745 0.303774 -0.034888692 -0.21906766 0.04841454 0.34222358 0.473776 -0.2774865
-0.010017775 -0.15118222 -0.010938838 0.061431076 -0.18778537 0.16045053 0.33704495 0.122225225
0.013520885 0.22252278 -0.07295055 0.2817903 0.10675068 -0.011750646 -0.020424254 0.38064772
0.19607496 0.30088794 0.17818797 0.049737126 -0.009263991 0.09100544 0.20515439 -0.06797619
0.046073336 0.34661806 0.46677837 -0.27521992 0.1350022 -0.0011505272 -0.09701617 0.012870788
0.08008719 0.10563207 -0.055589966 -0.111011945 0.08005122 0.2692589 0.1880298 0.23243825
0.13000455 -0.119166195 -0.06925274 0.10336603 0.10167928 0.059957564 0.19292699 -0.0726325
-0.11621973 0.12614565 0.13799958 -0.28413004 -0.057370126 0.019728336 0.31638473 0.40030816
-0.06451164 -0.15042272 -0.14989845 0.21071966 0.28685594 -0.050296713 0.17975098 0.15140806
0.3080963 -0.11367884 0.17581934 0.01255363 -0.07133095 0.07056531 0.04914031 0.32952425
0.020331418 0.113396615 -0.037303723 0.27483523 0.16671298 0.02697918 0.049567383 0.2915801
-0.03729267 0.1114622 0.142986 -0.25881878 0.26359674 0.49192947 0.11451457 0.12421667
-0.06038114 0.11372873 0.09053665 -0.03173922 -0.047321215 0.08489456 0.062342737 0.10988039
-0.1991607 0.21284965 0.086978376 0.28901932 0.23063555 0.32692832 0.36912328 -0.083038405
0.26173127 0.102437004 0.1467378 0.10723835 -0.21938147 -0.040246606 -0.2602818 -0.06393049
0.086952835 0.022158269 -0.07870053 0.23102406 0.036652554 -0.043716405 -0.09913009 0.4951966
0.060466904 -0.02014948 0.024422511 0.23376085 0.30479553 -0.12068716 -0.2251694 0.23653322
0.22552292 0.0831647 0.0021518336 0.028561119 0.16810003 -0.18484019 0.11457924 -0.19240692
0.019948576 0.080529355 0.02347909 -0.40038866 -0.52153784 0.10180181 -0.09253777 -0.29757437
-0.2179749 -0.12448924 -0.0022958987 0.33066806 0.12663089 -0.1452858 0.09116547 0.1512107
-0.04499413 -0.49851188 -0.30897498 0.116537146 0.12849669 0.19389373 0.2394216 -0.07569984
0.048247505 -0.16025914 0.024971353 0.12896653 0.20211196 0.085698955 -0.0459157 -0.0030518896
-0.176147 -0.1263543 0.17709644 -0.114886954 0.071747154 -0.076023735 -0.068003975 0.01305669
0.24641773 0.01430717 0.116552286 0.21179323 0.23462117 0.08340083 -0.19847225 -0.31050467
0.14302294 0.1897147 0.41822213 -0.056640685 0.0015532172 0.14600983 -0.08750154 -0.02183386
-0.28324372 0.040476512 -0.055736866 0.07811397 0.09025642 -0.22677882 0.07603359 -0.07412865
0.19708283 -0.3663852 -0.24857481 -0.050332535 0.09078267 -0.003173695 -0.41394514 -0.52002764
0.2679606 -0.30216917 0.048588876 0.29790807 -0.19262937 -0.495553 -0.33834666 -0.07717615
-0.011069856 -0.042884115 -0.39636815 0.062869474 -0.122397065 0.1813404 -0.20727618 0.12700973
0.5024136 -0.38794318 -0.05919842 -0.31410763 -0.17247029 0.0071110926 -0.08518516 0.22396289
00000000: 99e6 a1bd 0bb6 ac3d 54fa 1e3e e2c0 62bd
00000010: f651 013e 667b 953d 7d00 ba3d 7ee1 ee3d
00000020: 91e3 a63d bb85 bcbd 3cd2 703e bf6b 503c
00000030: 9f94 e23d 71e6 c43d d34e d33e b98c 59be
00000040: d0d9 213e 4488 9b3e 72e7 0ebd 4653 60be
00000050: 534e 463d ee37 af3e c592 f23e b612 8ebe
00000060: 9821 24bc 83cf 1abe d038 33bc 279f 7b3d
00000070: cf4a 40be 254d 243e 2891 ac3e 3851 fa3d
00000080: b486 5d3c 03dd 633e 1967 95bd d146 903e
00000090: 1aa0 da3d c885 40bc c450 a7bc 42e4 c23e
000000a0: e0c7 483e fc0d 9a3e e876 363e 28b9 4b3d
000000b0: ffc7 17bc 0f61 ba3d fe13 523e 1a37 8bbd
000000c0: 65b7 3c3d ec77 b13e 93fd ee3e a0e9 8cbe
000000d0: 043e 0a3e 49cd 96ba 6ab0 c6bd ffdf 523c
000000e0: c104 a43d a055 d83d 4eb2 63bd 3b5a e3bd
000000f0: e5f1 a33d 4ddc 893e e28a 403e 4b04 6e3e
00000100: ea1f 053e 680d f4bd 61d4 8dbd 92b1 d33d
00000110: 3a3d d03d 1096 753d a78e 453e 59c0 94bd
00000120: 9c04 eebd 532c 013e c34f 0d3e 7e79 91be
00000130: f0fc 6abd 529d a13c 2efd a13e 31f5 cc3e
00000140: ae1e 84bd 6a08 1abe fb7e 19be e5c6 573e
00000150: c8de 923e ed03 4ebd a410 383e b70a 1b3e
00000160: ccbe 9d3e 74d0 e8bd fc09 343e bead 4d3c
00000170: f615 92bd 8c84 903d 5a47 493d 67b7 a83e
00000180: 138e a63c 7c3c e83d cacb 18bd 34b7 8c3e
00000190: cfb6 2a3e 7103 dd3c 2b07 4b3d fd49 953e
000001a0: 33c0 18bd 4b46 e43d ec6a 123e e583 84be
000001b0: 27f6 863e 2ede fb3e 9d86 ea3d 4f65 fe3d
000001c0: 3752 77bd 9cea e83d 476b b93d fc00 02bd
000001d0: e4d3 41bd 33dd ad3d 195b 7f3d f808 e13d
000001e0: c8f0 4bbe 42f5 593e b821 b23d 57fa 933e
000001f0: ba2b 6c3e 2663 a73e bafd bc3e 0a10 aabd
00000200: a401 863e 7eca d13d 6f42 163e c89f db3d
00000210: 89a5 60be a0d9 24bd a843 85be fded 82bd
00000220: 5414 b23d 4285 b53c be2d a1bd 9291 6c3e
00000230: fd20 163d f90f 33bd b704 cbbd 698a fd3e
00000240: 25ac 773d 8610 a5bc b811 c83c 015f 6f3e
00000250: 290e 9c3e d42a f7bd cf92 66be c435 723e
00000260: 7bef 663e 4152 aa3d c705 0d3b 02f9 e93c
00000270: 6a22 2c3e bf46 3dbe 85a8 ea3d 5206 45be
00000280: 326b a33c 93ec a43d 3857 c03c beff ccbe
00000290: 8183 05bf 787d d03d 7184 bdbd ab5b 98be
000002a0: d034 5fbe 37f4 febd ca76 16bb 534d a93e
000002b0: 87ab 013e cdc5 14be f6b4 ba3d fad6 1a3e
000002c0: c44b 38bd f33c ffbe f831 9ebe 07ab ee3d
000002d0: a394 033e 148c 463e f02a 753e 8508 9bbd
000002e0: 2d9f 453d f91a 24be b990 cc3c cd0f 043e
000002f0: 70f6 4e3e ef82 af3d 1a12 3cbd 3602 48bb
00000300: e15f 34be 0663 01be c558 353e da49 ebbd
00000310: 2cf0 923d 55b2 9bbd ab45 8bbd baeb 553c
00000320: ee54 7c3e 9f68 6a3c f7b2 ee3d 53e0 583e
00000330: 8840 703e 0ece aa3d 4f3c 4bbe 78fa 9ebe
00000340: 9b74 123e 9244 423e 3621 d63e 1000 68bd
00000350: 5295 cb3a 9a83 153e 0234 b3bd ecdc b2bc
00000360: 5205 91be b3ca 253d 574c 64bd 38fa 9f3d
00000370: 5cd8 b83d b538 68be 80b7 9b3d c3d0 97bd
00000380: 15d0 493e d796 bbbe 658a 7ebe 7d29 4ebd
00000390: 44ec b93d c4fd 4fbb 9ef0 d3be 8820 05bf
000003a0: 2232 893e ebb5 9abe 2105 473d 6887 983e
000003b0: a240 45be 1fb9 fdbe c63b adbe 880e 9ebd
000003c0: 575e 35bc 41a7 2fbd c4f0 cabe b6c1 803d
000003d0: 50ab fabd 4cb1 393e 3540 54be d70e 023e
000003e0: 2d9e 003f 7da0 c6be 0b7a 72bd b7d2 a0be
000003f0: 0d9c 30be 2b04 e93b 8f75 aebd 8756 653e

action_model._discrete_distribution.branches.1.bias f4 [3]
-0.15545484 0.18357204 0.115579754
00000000: 8e2f 1fbe 4ffa 3b3e 14b5 ec3d

action_model._discrete_distribution.branches.1.weight f4 [3, 128]
0.13404055 0.006101461 -0.023832679 0.17062938 -0.29752016 -0.16930607 0.11543646 -0.5813772
-0.082814 0.08586595 0.18567166 0.023841336 -0.07074777 0.37773967 0.052749798 0.27014992
0.04471936 -0.2212033 -0.008726288 0.08532847 0.038241435 -0.21364291 -0.035500817 -0.30711782
0.03237683 0.24667858 -0.100006714 -0.016039321 0.3341245 0.17460874 0.06559945 0.13392489
0.20575859 -0.074403934 0.1755775 0.14945206 -0.19268772 -0.07398376 0.014431802 -0.24226692
0.19254962 -0.030012505 -0.08981315 0.15153585 0.004244755 -0.15644158 0.2846439 -0.28541502
-0.0885857 -0.021194004 0.11730024 0.035145596 0.1820775 0.020934403 0.13230525 0.12031256
0.13909052 0.25454703 0.2853448 0.18013522 -0.53982455 0.07233063 0.091721736 -0.0041005164
-0.007990488 0.03543599 0.06657253 0.036369663 0.07651523 -0.27868447 0.33154473 -0.08354728
-0.116981514 -0.3090842 0.05319381 0.09569392 0.12674932 0.11904062 0.1909471 -0.17038108
0.14739035 0.20769355 0.20485404 0.19058457 0.2059787 0.075364165 0.06434032 0.17554149
0.20266682 0.048220087 0.16715632 -0.02677931 0.038010675 0.014921583 -0.05874847 -0.10406907
-0.1650204 0.025066901 0.14017706 0.15990444 -0.13898586 0.19455463 -0.038185902 0.15689239
-0.03942576 0.21394432 -0.21706541 -0.38827303 0.27384558 0.1018188 0.03274365 0.092064634
-0.14536487 0.06604691 0.09375078 -0.33252302 0.15840462 0.14550123 0.027431795 0.030101355
0.106192246 0.06380697 0.016976824 0.26742327 0.026005294 0.008434222 0.072833054 0.036998793
-0.038918853 0.21252112 -0.26913518 0.1652796 0.2114212 -0.014709798 0.12329068 0.2724242
0.2333296 0.43068343 -0.2677523 0.19950496 0.12513691 0.023781575 -0.11893888 0.02694771
-0.43296617 0.13598166 0.006498222 -0.08346154 -0.07655051 0.029572587 0.09774159 0.37391362
0.12187106 -0.11568861 0.39702547 0.14465737 0.030893516 -0.51456344 0.0021273182 0.124177136
-0.41683266 0.27503014 0.047381986 -0.035689253 0.09368886 0.40430436 -0.15731038 0.26772535
-0.63103914 0.21365571 0.3563445 -0.045226846 -0.30674633 -0.015490947 -0.43341666 0.13996667
-0.004836556 -0.008045011 -0.104171015 -0.34677315 -0.13976891 0.018640835 -0.12132419 0.21109065
0.1633076 -0.5532056 0.22273493 0.07041511 0.30429047 -0.0045691803 -0.49037248 -0.137146
0.30032343 0.0035624115 -0.29390243 0.087382965 -0.16470094 0.30933103 0.095440775 -0.2221737
0.2691848 0.2536313 0.05475229 -0.11070977 -0.17316811 0.23014668 -0.5105834 0.066905305
0.20864567 -0.23288265 0.019292103 -0.13374037 0.11738415 -0.0775524 0.42383796 -0.20790295
0.0016310884 -0.023165029 -0.41743985 -0.05692793 0.21290384 -0.2568881 -0.010777011 0.0032595107
-0.09461799 0.20443536 0.173518 -0.46654487 0.062258046 -0.061668355 0.19080025 0.07942848
-0.0038423813 -0.03631146 0.25602782 0.25781357 -0.5600367 -0.10523881 -0.33284613 0.3198013
-0.20632479 0.20672415 0.020069033 0.20996825 -0.45664322 -0.17523737 0.22278702 -0.18595937
-0.038571775 -0.20507354 0.26599503 -0.06026715 -0.20821929 -0.14089802 0.12275088 -0.010287747
00000000: ed41 093e c4ee c73b c03c c3bc 78b9 2e3e
00000010: 9054 98be 925e 2dbe f369 ec3d 23d5 14bf
00000020: 639a a9bd 7dda af3d b620 3e3e e84e c33c
00000030: 35e4 90bd 1867 c13e 2c10 583d 1751 8a3e
00000040: a62b 373d 1e83 62be b4f8 0ebc b1c0 ae3d
00000050: 0da3 1c3d 35c5 5abe 4e69 11bd 8c3e 9dbe
00000060: 919d 043d 4f99 7c3e 52d0 ccbd e564 83bc
00000070: 5e12 ab3e a2cc 323e 0159 863d 9b23 093e
00000080: 61b2 523e 1761 98bd 97ca 333e f609 193e
00000090: ee4f 45be cc84 97bd 5d73 6c3c d214 78be
000000a0: ba2b 453e c9dc f5bc f5ef b7bd 372c 1b3e
000000b0: 9617 8b3b 3932 20be d8bc 913e eb21 92be
000000c0: 6b6c b5bd 0c9f adbc 1c3b f03d d4f4 0f3d
000000d0: 8672 3a3e a07e ab3c 077b 073e 6e66 f63d
000000e0: bf6d 0e3e fd53 823e b718 923e 5e75 383e
000000f0: f131 0abf 1522 943d 9bd8 bb3d a05d 86bb
00000100: 89ea 02bc 5425 113d 2e57 883d 5bf8 143d
00000110: 04b4 9c3d bbaf 8ebe 3bc0 a93e d61a abbd
00000120: 0194 efbd 4940 9ebe c1e1 593d 2dfb c33d
00000130: 93ca 013e 92cb f33d a387 433e 6178 2ebe
00000140: 7fed 163e 9ead 543e 42c5 513e 9a28 433e
00000150: 15ec 523e 8758 9a3d dcc4 833d 26c1 333e
00000160: e487 4f3e 6d82 453d 072b 2b3e 4960 dbbc
00000170: 15b1 1b3d a879 743c 3ca2 70bd 2a22 d5bd
00000180: 1cfb 28be 1a59 cd3c 938a 0f3e fdbd 233e
00000190: 4f52 0ebe 5439 473e d268 1cbd 66a8 203e
000001a0: e87c 21bd 3814 5b3e 6546 5ebe b9cb c6be
000001b0: 7d35 8c3e 6086 d03d 351e 063d 628c bc3d
000001c0: 87da 14be 9a43 873d 6900 c03d 7540 aabe
000001d0: d234 223e 46fe 143e a5b8 e03c 1e97 f63c
000001e0: 527b d93d 3bad 823d fb12 8b3c b4eb 883e
000001f0: 0e09 d53c b12f 0a3c 7f29 953d 0c8c 173d
00000200: 6069 1fbd 239f 593e 16cc 89be 0e3f 293e
00000210: cd7e 583e 5d01 71bc d37f fc3d 2f7b 8b3e
00000220: f4ed 6e3e 8a82 dc3e d416 89be 074b 4c3e
00000230: e423 003e 94d1 c23c 3a96 f3bd 72c1 dc3c
00000240: bead ddbe c73e 0b3e 09ef d43b e2ed aabd
00000250: 84c6 9cbd 3642 f23c be2c c83d 9b71 bf3e
00000260: 8997 f93d 26ee ecbd ec46 cb3e 1021 143e
00000270: 6614 fd3c 6eba 03bf 7a6a 0b3b 9550 fe3d
00000280: 176b d5be c0d0 8c3e 9d13 423d e52e 12bd
00000290: f2df bf3d fb00 cf3e f915 21be 4c13 893e
000002a0: c88b 21bf 90c8 5a3e c972 b63e c93f 39bd
000002b0: db0d 9dbe becd 7dbc cae8 ddbe 6c53 0f3e
000002c0: f97b 9ebb 39cf 03bc 9d57 d5bd 408c b1be
000002d0: 951f 0fbe aab4 983c d178 f8bd 2628 583e
000002e0: 1c3a 273e e29e 0dbf a014 643e cc35 903d
000002f0: f6cb 9b3e 10b9 95bb 1a12 fbbe 0070 0cbe
00000300: fec3 993e 5977 693b 617a 96be d7f5 b23d
00000310: 5da7 28be a360 9e3e 7476 c33d 8181 63be
00000320: 97d2 893e f6db 813e f043 603d cebb e2bd
00000330: fb52 31be 92ab 6b3e 98b5 02bf a605 893d
00000340: 36a7 553e ca78 6ebe 790a 9e3c 3cf3 08be
00000350: 1a67 f03d cbd3 9ebd 4a01 d93e 83e4 54be
00000360: 3fca d53a 96c4 bdbc adba d5be 432d 69bd
00000370: 7703 5a3e d686 83be 0f92 30bc 849d 553b
00000380: 14c7 c1bd 8157 513e b4ae 313e f8de eebe
00000390: 4b02 7f3d f597 7cbd 2461 433e 66ab a23d
000003a0: 76d0 7bbb 53bb 14bd 1416 833e 2400 843e
000003b0: 915e 0fbf 7287 d7bd cf6a aabe ffbc a33e
000003c0: ce46 53be 7faf 533e d067 a43c eb01 573e
000003d0: 24cd e9be 6d71 33be 4822 643e 226c 3ebe
000003e0: 70fd 1dbd ccfe 51be 8030 883e b0da 76bd
000003f0: 7037 55be 9247 10be d064 fb3d f08d 28bc

discrete_action_output_shape f4 [1, 2]
3.0 3.0
00000000: 0000 4040 0000 4040

network_body._body_endoder.seq_layers.0.bias f4 [128]
-0.1092415 -0.20851375 0.17528981 -0.077277124 0.05047845 0.015279445 -0.10475544 -0.21219368
0.13009213 0.041246373 0.03491391 -0.0910571 0.09065075 -0.24166164 -0.32592532 -0.47445825
0.050352365 -0.11797975 -0.014878652 0.04387217 -0.10683866 0.020266954 -0.018231146 -0.24675259
0.15046588 -0.034468677 -0.11484279 -0.20382966 0.059788927 0.06299453 0.044409767 -0.3150092
-0.31041017 -0.14713764 0.30897716 -0.11373823 -0.14109594 -0.006517392 -0.12874103 -0.09911378
-0.11080283 -0.07603894 0.06440033 0.1254306 0.0013356949 0.044050746 -0.07554083 0.23021054
0.08692581 0.27414134 -0.3621099 -0.21981438 0.10310206 -0.14970858 -0.033325765 -0.20177972
-0.26309055 0.09573331 0.11576733 0.16503054 -0.0940409 -0.27074116 -0.020981023 -0.20042221
0.06684441 -0.25042266 -0.02087423 0.07395483 -0.20402019 0.31954306 0.1392353 0.0036744883
0.10485899 -0.20381021 -0.26941073 0.09054141 -0.22962648 -0.07213655 -0.09136155 -0.28353122
-0.12752031 -0.26269302 0.11868627 0.22057243 -0.04758863 -0.18209717 -0.07378028 0.0819325
-0.31142882 -0.20651385 0.08841674 0.14862159 0.0015107563 -0.24287343 -0.13349228 0.12432423
0.12421036 -0.073334716 -0.07696842 -0.021415664 -0.5155547 0.13377152 -0.32970712 -0.13497542
0.21680686 -0.47954395 -0.023447193 -0.40803742 0.13923149 -0.1379813 0.094064854 0.12282869
-0.2872511 -0.045399472 -0.2564751 0.11246991 -0.19418912 -0.20612282 -0.1570918 0.020070205
-0.13660786 -0.34402496 0.11902907 0.067304075 0.2369716 -0.3449245 -0.04065373 0.045885485
00000000: 02ba dfbd a184 55be 2c7f 333e 7843 9ebd
00000010: 7ec2 4e3d a356 7a3c 058a d6bd 4d49 59be
00000020: df36 053e f5f1 283d e301 0f3d 257c babd
00000030: 1aa7 b93d 2676 77be afdf a6be 31ec f2be
00000040: 483e 4e3d 5e9f f1bd 97c5 73bc 4eb3 333d
00000050: 3ace dabd e206 a63c 7c59 95bc b6ac 7cbe
00000060: ba13 1a3e 072f 0dbd b232 ebbd b9b8 50be
00000070: 3ce5 743d 4703 813d 04e7 353d e348 a1be
00000080: 15ee 9ebe 40ab 16be 4132 9e3e 97ef e8bd
00000090: 747b 10be d98f d5bb b0d4 03be 2afc cabd
000000a0: 98ec e2bd 4eba 9bbd 52e4 833d e170 003e
000000b0: 7c12 af3a 8e6e 343d 27b5 9abd 50bc 6b3e
000000c0: 2906 b23d 415c 8c3e 7866 b9be 0517 61be
000000d0: 2c27 d33d 354d 19be 9980 08bd 589f 4ebe
000000e0: ceb3 86be d30f c43d 6c17 ed3d c4fd 283e
000000f0: 8498 c0bd 969e 8abe 65e0 abbc 7b3b 4dbe
00000100: b9e5 883d 6637 80be 6f00 abbc a175 973d
00000110: abea 50be 269b a33e b393 0e3e afcf 703b
00000120: 4fc0 d63d a0b3 50be 34f0 89be c66d b93d
00000130: 3423 6bbe 54bc 93bd c41b bbbd 012b 91be
00000140: af94 02be b37f 86be ca11 f33d bddd 613e
00000150: 4cec 42bd ae77 3abe 1e1a 97bd 3acc a73d
00000160: 9973 9fbe 5e78 53be d613 b53d 4230 183e
00000170: 9204 c63a d0b3 78be 33b2 08be b49d fe3d
00000180: 0062 fe3d 8330 96bd 9ea1 9dbd e76f afbc
00000190: 65fb 03bf 67fb 083e 5fcf a8be ff36 0abe
000001a0: 9e02 5e3e c986 f5be 5414 c0bc 48ea d0be
000001b0: b392 0e3e f84a 0dbe 13a5 c03d 9c8d fb3d
000001c0: 9412 93be ccf4 39bd b450 83be a056 e63d
000001d0: 83d9 46be dc11 53be acdc 20be 456a a43c
000001e0: eee2 0bbe 0a24 b0be 83c5 f33d b8d6 893d
000001f0: afa8 723e f299 b0be 8784 26bd 6bf2 3b3d

network_body._body_endoder.seq_layers.0.weight f4 [128, 67]
-0.23111102 0.16705403 0.053153753 0.107641585 -0.040583882 -0.12741506 0.14905307 -0.2586098
0.18869036 0.48227116 -0.12575065 0.21039253 -0.04201504 -0.12196583 0.2620285 0.103824556
0.15190014 -0.165881 0.31639543 0.031564 0.13601251 0.14794134 0.029062454 0.034241762
-0.026067743 -0.25130314 0.20969887 0.17432337 -0.023509577 -0.05485221 -0.14714307 0.13458675
-0.10913002 -0.17259239 -0.09840961 -0.26885757 -0.33926067 0.056788895 0.27250353 0.2511852
0.010494862 0.016411703 0.071618974 -0.009980596 0.16068606 -0.3604388 0.12539932 0.09871885
0.2294232 0.06992824 0.026620599 0.0009913854 -0.32593116 0.08019184 0.22578633 0.10757936
-0.18611006 -0.14712532 -0.18894346 0.0037548048 0.09358524 0.4415289 0.07466783 0.17808323
-0.17146158 -0.12813736 0.13717827 0.09510531 0.08899823 -0.045091752 0.14888024 -0.13100594
0.3782126 0.22332548 -0.15802434 0.084251784 -0.2987867 -0.29194972 0.022157155 0.15860392
-0.09684268 -0.23519476 0.34675816 0.35181046 0.117064625 -0.035177547 -0.24714005 0.19983245
0.1370185 -0.013719307 0.11685227 0.11062691 -0.04731007 -0.5919153 0.24785617 0.15967277
-0.12034503 -0.1667074 0.077759415 -0.07058279 -0.062231325 -0.04712454 -0.0593437 0.53993696
0.17047842 -0.26919064 0.09318794 -0.18538973 0.43516475 0.056309633 0.21281695 0.06930835
-0.012459794 0.24184822 -0.082684785 0.08182929 0.06262324 -0.11715546 -0.07599681 0.20001937
0.070206515 -0.08664644 -0.08393126 -0.05167154 0.08875091 0.057213727 -0.08459488 0.28561756
-0.09848713 0.10461501 0.1799799 -0.080567956 -0.16706075 -0.037710425 -0.13686131 0.21118678
-0.06423649 -0.14284113 -0.0974961 0.06071806 0.012087923 -0.1742985 -0.4402089 -0.1514541
0.14882499 -0.28075746 -0.03525056 -0.37550327 -0.19255778 -0.1590967 0.011363389 -0.08749137
0.04446376 0.19405071 0.1830819 -0.13244104 0.27423826 -0.31048504 -0.4160466 0.10885451
-0.72588277 -0.07139277 0.14064994 0.03264031 -0.22669199 0.53522676 -0.06510205 -0.057208985
0.13621008 0.27888694 0.064696975 -0.22925738 0.009050391 0.005850907 -0.023628239 0.028988902
0.047596183 -0.19947973 -0.14285469 0.18114032 -0.09911649 0.091004364 0.27374592 -0.16571839
0.11135505 0.10021367 0.11411995 0.20237629 -0.06452438 -0.11112667 0.43247965 -0.028836148
-0.16832183 0.23930295 0.16593397 0.20402904 0.9382287 0.3055487 0.3962351 -0.17382805
-0.15870366 0.037033293 -0.11405834 -0.065009385 0.112407655 -0.43866017 0.2708937 0.044742696
0.16679254 -0.15680969 -0.29421508 0.4334617 0.008405727 0.12791345 -0.04039988 0.049503833
-0.25243166 0.008354952 0.013376913 0.03056287 0.14868891 -0.17920952 -0.032257035 -0.033570055
-0.044711214 -0.24987398 -0.28653508 0.16829945 -0.00886807 0.17782088 0.034096327 0.14398834
-0.044945233 0.18878856 -0.12274874 0.0008941522 0.15796697 0.2767003 0.12070033 0.02742635
-0.017589977 0.05079255 -0.18603824 0.046615746 0.16642682 0.16216405 0.17779797 0.17817788
-0.09049816 -0.0017078208 -0.012551732 -0.062365185 0.13115619 0.34190878 0.4003655 -0.06629337
00000000: 5ea8 6cbe 3610 2b3e c0b7 593d 3173 dc3d
00000010: 493b 26bd 1879 02be 5ea1 183e 8168 84be
00000020: 0c38 413e 3fec f63e c7c4 00be 2471 573e
00000030: f617 2cbd 39c9 f9bd 9928 863e f8a1 d43d
00000040: b68b 1b3e b5dc 29be 95fe a13e 4149 013d
00000050: dd46 0b3e ef7d 173e 6214 ee3c 1741 0c3d
00000060: 058c d5bc ceaa 80be 4dbb 563e d381 323e
00000070: 2897 c0bc b6ac 60bd acac 16be 1cd1 093e
00000080: 8f7f dfbd 0fbc 30be fa8a c9bd b3a7 89be
00000090: 93b3 adbe 799b 683d 9585 8b3e 599b 803e
000000a0: a4f2 2b3c d671 863c f8ac 923d a785 23bc
000000b0: e38a 243e 6f8b b8be ae68 003e 1c2d ca3d
000000c0: eaed 6a3e 8936 8f3d 7113 da3c 60f1 813a
000000d0: 73e0 a6be 9f3b a43d 8834 673e 9152 dc3d
000000e0: a393 3ebe 05a8 16be 657a 41be 2c13 763b
000000f0: 9ea9 bf3d 1310 e23e 72eb 983d 735b 363e
00000100: a093 2fbe 7136 03be 7678 0c3e 93c6 c23d
00000110: b444 b63d 21b2 38bd 1074 183e 6c26 06be
00000120: 15a5 c13e 6faf 643e 22d1 21be 338c ac3d
00000130: 92fa 98be 6f7a 95be ec82 b53c 1169 223e
00000140: 7455 c6bd e5d6 70be 498a b13e 8020 b43e
00000150: 94bf ef3d 5516 10bd 4812 7dbe e1a0 4c3e
00000160: 944e 0c3e f2c6 60bc 3e50 ef3d 5d90 e23d
00000170: 34c8 41bd c387 17bf 02ce 7d3e 4281 233e
00000180: 7577 f6bd 58b5 2abe 5440 9f3d b68d 90bd
00000190: 46e6 7ebd a905 41bd 6112 73bd 4f39 0a3f
000001a0: e591 2e3e 5bd3 89be 52d9 be3d ced6 3dbe
000001b0: eacd de3e eea4 663d b0ec 593e 89f1 8d3d
000001c0: 2a24 4cbc 0fa7 773e a456 a9bd 1d96 a73d
000001d0: 9d40 803d 34ef efbd 37a4 9bbd e1d1 4c3e
000001e0: 6fc8 8f3d b073 b1bd 27e4 abbd 89a5 53bd
000001f0: 09c3 b53d f158 6a3d 1540 adbd 773c 923e
00000200: 9fb3 c9bd 6540 d63d a74c 383e d000 a5bd
00000210: f911 2bbe 3f76 1abd 5f25 0cbe 5941 583e
00000220: 6c8e 83bd f244 12be 09ac c7bd 80b3 783d
00000230: 6c0c 463c 4e7b 32be 1063 e1be c916 1bbe
00000240: 9465 183e 71bf 8fbe e462 10bd f741 c0be
00000250: de2d 45be 3fea 22be 822d 3a3c ad2e b3bd
00000260: a21f 363d 3bb5 463e d279 3b3e a09e 07be
00000270: f568 8c3e e5f7 9ebe 0f04 d5be 1def de3d
00000280: 74d3 39bf 5f36 92bd 8a06 103e d8b1 053d
00000290: f221 68be 9f04 093f 3954 85bd f853 6abd
000002a0: a87a 0b3e 45ca 8e3e d97f 843d 72c2 6abe
000002b0: 1748 143c f7b8 bf3b 0290 c1bc 227a ed3c
000002c0: 37f4 423d 6a44 4cbe 8048 12be d97c 393e
000002d0: 96fd cabd 7f60 ba3d 6d28 8c3e 15b2 29be
000002e0: 1e0e e43d d33c cd3d b8b7 e93d bb3b 4f3e
000002f0: 5c25 84bd 6196 e3bd f96d dd3e c939 ecbc
00000300: 8f5c 2cbe d50b 753e 98ea 293e fdec 503e
00000310: c22f 703f e170 9c3e 54df ca3e fbff 31be
00000320: 3683 22be 39b0 173d 6b97 e9bd a423 85bd
00000330: fc35 e63d 1198 e0be 94b2 8a3e 1e44 373d
00000340: aacb 2a3e b892 20be 5ca3 96be b1ee dd3e
00000350: 2db8 093c befb 023e 587a 25bd 88c4 4a3d
00000360: b93e 81be 35e3 083c d72a 5b3c fc5e fa3c
00000370: e841 183e b382 37be f41f 04bd c180 09bd
00000380: 1b23 37bd f7de 7fbe bab4 92be b156 2c3e
00000390: 624b 11bc ad16 363e 97a8 0b3d ae71 133e
000003a0: 7e18 38bd ca51 413e b163 fbbd 8a65 6a3a
000003b0: 18c2 213e a9ab 8d3e bc31 f73d 3aad e03c
000003c0: db18 90bc d90b 503d cf80 3ebe 27f0 3e3d
000003d0: cb6b 2a3e 550e 263e ac10 363e 4374 363e
000003e0: 1957 b9bd f5d8 dfba c8a5 4dbc a372 7fbd
000003f0: cf4d 063e ab0e af3e b5fc cc3e d2c4 87bd

network_body._body_endoder.seq_layers.2.bias f4 [128]
-0.29487512 -0.037140884 0.13086319 -0.2034767 0.005839804 -0.1345931 -0.005610006 0.22406073
-0.12020355 -0.17986773 -0.1798675 -0.113719314 -0.24086031 -0.10673439 0.1467879 0.047921423
-0.15355371 -0.03634723 -0.47969472 -0.24274534 -0.04585729 0.0724038 0.24923484 0.16367932
-0.14199726 -0.17489718 -0.08202459 -0.31144714 -0.06758278 -0.06824201 0.18106802 -0.035744835
-0.13255422 0.090501964 -0.01694174 0.13005204 0.06638237 -0.18879485 0.047403764 -0.006518607
-0.017833378 0.0047618314 0.11186817 -0.1617865 0.03351071 0.00935854 -0.12205896 0.14072149
0.05545677 -0.0033084333 0.2145078 -0.08480992 -0.052564044 -0.22287787 -0.14135115 -0.12637077
-0.1385415 0.046933748 -0.11775159 -0.06624055 0.12914446 0.08194111 0.0035074146 0.011512987
-0.037704702 -0.10988446 -0.338974 -0.33777544 -0.0726179 0.23886806 0.060030878 -0.083618626
-0.1777683 0.07093966 0.028998042 -0.20278445 -0.060078617 0.08270645 0.010344827 0.029410755
-0.18227893 -0.20180066 -0.01598582 -0.1598995 0.013206317 -0.47904056 0.06704209 -0.26730496
-0.021515375 -0.09435669 -0.15819463 -0.07469455 -0.26233408 -0.19009672 -0.19610026 -0.016789129
0.06347056 0.022699786 -0.0496319 -0.20687938 -0.08916643 -0.13416497 -0.06985041 0.1239424
-0.25835842 -0.01551846 0.06688691 0.1398249 0.0068030534 0.2323312 0.04873308 -0.0025472068
-0.1573085 -0.110571 -0.079084225 0.07250258 -0.07583544 -0.037558302 -0.08906345 -0.060584247
-0.2380308 0.07965545 -0.14224067 0.078173935 -0.030271102 0.031276073 0.116401576 -0.11163266
00000000: dff9 96be 0a21 18bd 0001 063e 325c 50be
00000010: d45b bf3b c6d2 09be 24d4 b7bb 2d70 653e
00000020: 472d f6bd 3f2f 38be 302f 38be ace5 e8bd
00000030: 16a4 76be 8f97 dabd 914f 163e 4149 443d
00000040: 2f3d 1dbe d5e0 14bd 8c9a f5be 3c92 78be
00000050: dbd4 3bbd 7248 943d 6b37 7f3e 8d9b 273e
00000060: bb67 11be 3f18 33be 82fc a7bd 0076 9fbe
00000070: d768 8abd 78c2 8bbd e569 393e 2d69 12bd
00000080: 4bbc 07be 1859 b93d 67c9 8abc 5d2c 053e
00000090: 7bf3 873d 7053 41be 732a 423d 0a9a d5bb
000000a0: 4e17 92bc 2309 9c3b 241b e53d 5cab 25be
000000b0: 8742 093d 9054 193c 0cfa f9bd 4b19 103e
000000c0: a326 633d 4dd2 58bb efa7 5b3e d3b0 adbd
000000d0: 654d 57bd 193a 64be 5bbe 10be 5767 01be
000000e0: d3dd 0dbe 9a3d 403d bf27 f1bd 20a9 87bd
000000f0: 723e 043e bed0 a73d a7dc 653b f8a0 3c3c
00000100: 3f70 1abd 1b0b e1bd 008e adbe e7f0 acbe
00000110: b2b8 94bd d499 743e f0e2 753d 3e40 abbd
00000120: e508 36be d048 913d 4d8d ed3c baa6 4fbe
00000130: ff14 76bd 0062 a93d 597d 293c d3ee f03c
00000140: 54a7 3abe d5a4 4ebe b2f4 82bc b2bc 23be
00000150: 4f5f 583c ce44 f5be 5d4d 893d 32dc 88be
00000160: 0341 b0bc 153e c1bd c6fd 21be 75f9 98bd
00000170: a750 86be b7a8 42be 82ce 48be 5b89 89bc
00000180: dafc 813d e7f4 b93c d24a 4bbd 30d8 53be
00000190: e49c b6bd 8b62 09be bb0d 8fbd 83d5 fd3d
000001a0: 8e47 84be 2441 7ebc 01fc 883d 422e 0f3e
000001b0: 26ec de3b 3be8 6d3e 579c 473d 0aef 26bb
000001c0: 7b15 21be 0c73 e2bd e9f6 a1bd 3c7c 943d
000001d0: 9c4f 9bbd bcd6 19bd e666 b6bd 3027 78bd
000001e0: 59be 73be 6622 a33d 8aa7 11be a819 a03d
000001f0: 1afb f7bc 571b 003d f363 ee3d aa9f e4bd

network_body._body_endoder.seq_layers.2.weight f4 [128, 128]
-0.14026296 -0.21086854 -0.27794126 -0.21548049 -0.11120494 -0.027178098 -0.2861915 -0.07196836
0.0032690254 0.11654202 -0.2683245 -0.05217605 0.13087887 0.12155189 0.11703048 0.20558342
-0.25998184 0.25857028 0.050311226 0.010439456 -0.35413134 0.24132565 -0.10176927 0.344696
-0.5015987 -0.0015533526 0.49536142 -0.092107736 -0.16306594 -0.079166524 0.002912739 0.1439196
-0.055732783 0.23081498 -0.31998026 -0.24657321 -0.011702309 0.27392164 -0.0070138643 -0.09823499
0.18812592 -0.018478837 -0.22979234 0.06879011 -0.046710405 0.015504739 0.0007489244 -0.26408872
0.0067055738 -0.14001352 0.40655303 -0.050809707 -0.18747747 -0.09787209 -0.04210682 0.048593648
0.040450837 0.20475256 -0.1328737 -0.14346452 -0.10299935 0.21283107 -0.16700059 -0.08140891
0.019089084 0.044388887 0.00033037525 -0.1157857 0.24241985 -0.3719168 -0.32307792 -0.38111156
0.0029608272 0.10819249 0.023616577 -0.1702459 0.21925348 0.52313286 0.11899444 0.18844257
0.05022169 -0.101620086 -0.3429112 -0.46629164 0.2503637 -0.027737623 -0.041783106 0.062283088
0.03811085 -0.1267769 -0.00046307093 0.0964957 -0.08349606 -0.03297441 -0.01398293 0.0058609094
-0.07786837 -0.19590934 0.14656131 -0.007997164 0.3893083 -0.40822735 0.11658153 -0.0045230053
-0.45554665 0.053187355 -0.31376845 0.19013004 -0.2309422 -0.08985375 -0.07504209 -0.25244236
0.15671803 0.2702412 0.26281247 -0.028496133 0.27534166 0.2600732 -0.006857758 -0.08708607
0.032690883 0.19673456 -0.7128634 -0.13003232 0.00087545655 0.075609654 -0.23028022 -0.07987393
0.066434294 -0.019791102 0.018525897 0.29349473 -0.08648337 -0.38114223 -0.1939518 0.18050967
-0.22492817 0.26266018 0.0063729603 -0.38541844 -0.22656588 0.21880081 0.14007068 0.12571579
0.32636556 -0.14417244 0.15536718 -0.035506263 -0.36108458 0.16267824 0.061707564 -0.084093615
-0.54398984 0.10579152 -0.04623517 -0.17569539 0.26504263 0.22573994 0.29283434 -0.43388808
0.06762158 0.2767117 0.15635464 -0.22512251 0.044418428 0.15591645 0.20072766 -0.091703415
-0.17632465 0.0064530913 0.21180233 -0.040193498 -0.1498982 -0.023393342 -0.29586604 0.07446564
0.19196896 0.10120735 0.28595465 -0.10037128 -0.3911693 0.027175859 -0.3853312 0.08321875
0.25217882 0.012400357 0.06434526 0.00981652 0.1667495 -0.09219362 0.123345226 0.10152775
0.17437783 0.37716833 -0.16648029 -0.23726627 0.20615964 0.120129906 0.030702455 -0.09120366
-0.01451831 -0.047902614 0.022736495 -0.45858636 0.20239846 0.332168 0.11734205 -0.027616216
-0.042328123 -0.0373743 0.38916564 0.025205908 0.29255208 -0.38615775 -0.590899 -0.014807083
-0.04458479 -0.3493377 -0.28932023 -0.26894316 0.011614612 -0.16387068 -0.38168794 0.31918883
0.0787453 0.1684023 -0.11610998 -0.044125468 0.2878129 0.40981987 0.034440827 -0.0036238665
-0.37844318 -0.26609185 -0.14939621 -0.006259893 -0.20178981 0.13298903 -0.15579048 0.14007297
0.044296782 0.17975959 0.084136814 0.36421984 -0.29113325 0.022991285 0.07544184 -0.41011196
0.13141847 -0.10385578 -0.105418384 -0.15680103 0.088159464 0.08851701 0.16769595 0.041369602
00000000: 18a1 0fbe eced 57be 514e 8ebe eba6 5cbe
00000010: 6abf e3bd 9aa4 debc b187 92be 2664 93bd
00000020: 253d 563b 95ad ee3d d461 89be 8eb6 55bd
00000030: 1c05 063e 33f0 f83d adad ef3d 7684 523e
00000040: 571c 85be 5363 843e 2513 4e3d 410a 2b3c
00000050: b450 b5be 121e 773e 686c d0bd fe7b b03e
00000060: c668 00bf dd99 cbba 03a0 fd3e fba2 bcbd
00000070: c2fa 26be 0f22 a2bd a7e3 3e3b a95f 133e
00000080: 0f48 64bd c35a 6c3e 74d4 a3be b07d 7cbe
00000090: 0bbb 3fbc 753f 8c3e 8fd4 e5bb 6d2f c9bd
000000a0: 15a4 403e ee60 97bc af4e 6bbe d4e1 8c3d
000000b0: 6953 3fbd 9707 7e3c 7753 443a a336 87be
000000c0: 6eba db3b b45f 0fbe b827 d03e d71d 50bd
000000d0: 18fa 3fbe 2a71 c8bd 3378 2cbd 220a 473d
000000e0: c7af 253d a8aa 513e 0b10 08be 5de8 12be
000000f0: 53f1 d2bd 63f0 593e 3402 2bbe b7b9 a6bd
00000100: b660 9c3c 1fd1 353d 3736 ad39 0e21 edbd
00000110: e93c 783e e16b bebe 786a a5be 0e21 c3be
00000120: 700a 423b 0694 dd3d 8d77 c13c f154 2ebe
00000130: fc83 603e 09ec 053f 5bb3 f33d 17f7 403e
00000140: 42b5 4d3d 311e d0bd 0f92 afbe c7bd eebe
00000150: ac2f 803e 033a e3bc c324 2bbd 8d1c 7f3d
00000160: 1f1a 1c3d ced1 01be 54c8 f2b9 8a9f c53d
00000170: fbff aabd 2d10 07bd a918 65bc df0c c03b
00000180: 7479 9fbd 759c 48be 2b14 163e 8906 03bc
00000190: 6b53 c73e 2d03 d1be 4cc2 ee3d b835 94bb
000001a0: 693d e9be fcda 593d 42a6 a0be 73b1 423e
000001b0: 1d7c 6cbe 3e05 b8bd abaf 99bd 2040 81be
000001c0: b17a 203e 0e5d 8a3e 5b8f 863e b970 e9bc
000001d0: 95f9 8c3e 5128 853e 0bb7 e0bb 2e5a b2bd
000001e0: e0e6 053d c974 493e 377e 36bf 3127 05be
000001f0: e57e 653a 3cd9 9a3d 94ce 6bbe f194 a3bd
00000200: b40e 883d f320 a2bc 9fc3 973c f144 963e
00000210: 311e b1bd 1325 c3be 4d9b 46be 87d7 383e
00000220: 9253 66be 657b 863e 44d4 d03b 9155 c5be
00000230: e300 68be 520d 603e b06e 0f3e a4bb 003e
00000240: 6319 a73e f1a1 13be 9318 1f3e 046f 11bd
00000250: 14e0 b8be 2095 263e 12c1 7c3d 4639 acbd
00000260: eb42 0bbf 39a9 d83d 1761 3dbd 7ee9 33be
00000270: abb3 873e 5f28 673e 62ee 953e 9426 debe
00000280: 2f7d 8a3d 28ad 8d3e 6e1b 203e 8486 66be
00000290: 19f0 353d 90a8 1f3e 8d8b 4d3e 00cf bbbd
000002a0: 738e 34be 7474 d33b b6e2 583e f0a1 24bd
000002b0: ea7e 19be 65a3 bfbc c17b 97be 7181 983d
000002c0: 8393 443e cd45 cf3d a668 923e 758f cdbd
000002d0: 5847 c8be e89f de3c 224a c5be 986e aa3d
000002e0: 951d 813e de2a 4b3c 73c7 833d 78d5 203c
000002f0: 62c0 2a3e 02d0 bcbd 6c9c fc3d c8ed cf3d
00000300: 1a90 323e 351c c13e cf79 2abe eef5 72be
00000310: 831b 533e ab06 f63d b783 fb3c fcc8 babd
00000320: 35de 6dbc 8835 44bd e341 ba3c d5cb eabe
00000330: 8b41 4f3e ed11 aa3e 0751 f03d 673b e2bc
00000340: 4160 2dbd cb15 19bd b840 c73e 9f7c ce3c
00000350: 63c9 953e 78b6 c5be 2845 17bf 6899 72bc
00000360: 8a9e 36bd 64dc b2be c821 94be ebb2 89be
00000370: 374b 3e3c b7cd 27be 9a6c c3be b86c a33e
00000380: 3745 a13d a771 2c3e 12cb edbd e8bc 34bd
00000390: 365c 933e e9d3 d13e d311 0d3d 647e 6dbb
000003a0: 4ec3 c1be 313d 88be 52fb 18be ca1f cdbb
000003b0: fda1 4ebe 472e 083e 8a87 1fbe 4a6f 0f3e
000003c0: 8b70 353d e612 383e ec4f ac3d 067b ba3e
000003d0: 6b0f 95be 3858 bc3c 4081 9a3d 32fa d1be
000003e0: 9092 063e 57b2 d4bd 98e5 d7bd 7390 20be
000003f0: f38c b43d 6848 b53d 7db8 2b3e 2c73 293d

network_body.observation_encoder.processors.0.normalizer.running_mean f4 [25]
0.88780546 0.002606234 0.0 0.0041493434 0.1258647 0.8607299 0.0025061946 0.0
0.007735757 0.14439927 0.7639433 0.0023308822 0.0 0.0071550403 0.13028313 0.6692984
0.003450928 0.0 0.033567242 0.19505183 0.5035825 0.0062398403 0.0 0.021444933
0.1587567
00000000: 3847 633f 5acd 2a3b 0000 0000 37f7 873b
00000010: ade2 003e cb58 5c3f f83e 243b 0000 0000
00000020: 3c7c fd3b 67dd 133e ca91 433f b7c1 183b
00000030: 0000 0000 d474 ea3b f168 053e 2457 2b3f
00000040: f728 623b 0000 0000 ce7d 093d abbb 473e
00000050: c8ea 003f 9377 cc3b 0000 0000 49ad af3c
00000060: 1e91 223e

network_body.observation_encoder.processors.1.normalizer.running_mean f4 [25]
0.25446588 0.30362594 0.0 0.040542793 0.09076379 0.17585494 0.15607657 0.0
0.06839669 0.117427364 0.43197927 0.05573698 0.0 0.075745 0.11287273 0.08393076
0.07880665 0.0 0.059937526 0.09394175 0.46624073 0.016215105 0.0 0.083472684
0.11598638
00000000: 5a49 823e dc74 9b3e 0000 0000 3310 263d
00000010: 5ee2 b93d 5113 343e 89d2 1f3e 0000 0000
00000020: 9013 8c3d c27d f03d 632c dd3e 764c 643d
00000030: 0000 0000 3220 9b3d d129 e73d e4e3 ab3d
00000040: 6265 a13d 0000 0000 0d81 753d 8864 c03d
00000050: 1bb7 ee3e 8ad5 843c 0000 0000 baf3 aa3d
00000060: 448a ed3d

network_body.observation_encoder.processors.2.normalizer.running_mean f4 [17]
6.4619303 -0.86299413 20.472101 2.760415 0.37046608 -2.2303603 -0.0011149843 0.352987
-0.0021719579 -0.86018276 353.08377 10.0399475 0.28012174 -0.15617014 0.6567364 -0.15388574
0.0
00000000: 22c8 ce40 2fed 5cbf ddc6 a341 a4aa 3040
00000010: bbad bd3e 39be 0ec0 aa24 92ba b6ba b43e
00000020: 6857 0ebb f034 5cbf b98a b043 a0a3 2041
00000030: 1e6c 8f3e 11eb 1fbe e01f 283f 3994 1dbe
00000040: 0000 0000
