Assets/Brains/run30/CarPractice_run30.onnx (onnx, 108914 bytes, 15 tensors)

85 f4 [25]
000000 03 7b 9c 3e 1c b7 96 3d 19 5d 39 3a 5c a6 70 3d
       0.305626 0.07359144 0.00070710626 0.058752403
000010 3b 29 b4 3d 60 21 a3 3e b3 de 88 3d 19 5d 39 3a
       0.087969266 0.318614 0.066831015 0.00070710626
000020 8d 78 b7 3d 92 f3 e3 3d ca e0 d3 3e 59 4d 80 3d
       0.0895854 0.11130442 0.41382438 0.06264753
000030 19 5d 39 3a ef df d5 3d 34 6a f4 3d 4c 79 f0 3e
       0.00070710626 0.104431026 0.11934319 0.46967542
000040 57 7e 47 3d 19 5d 39 3a 4d fa 18 3e 1f 1e 21 3e
       0.04870447 0.00070710626 0.14939232 0.15734147
000050 69 e1 ff 3e ae ae a5 3d 19 5d 39 3a 74 34 25 3e
       0.49976662 0.08089958 0.00070710626 0.1613329
000060 9e ae 25 3e
       0.16179892

88 f4 [25]
000000 51 0c d8 3e a1 67 e8 3e 19 5d 39 3a 27 58 4b 3e
       0.42196897 0.45391563 0.00070710626 0.19857846
000010 eb 47 44 3e 0e f6 b6 3e 7d c9 a5 3e 19 5d 39 3a
       0.1916806 0.357346 0.32380286 0.00070710626
000020 9d ab 8f 3e e1 4a 8a 3e 9b b6 fe 3e 06 7f 5a 3e
       0.28060618 0.27010253 0.49748692 0.21337518
000030 19 5d 39 3a dc d4 81 3e 01 df 79 3e db 56 a7 3e
       0.00070710626 0.2535771 0.24401475 0.32683453
000040 f1 ee 70 3e 19 5d 39 3a d8 1c 85 3e 79 26 81 3e
       0.23528649 0.00070710626 0.2599857 0.25224665
000050 ad d1 ff 3e 20 15 dc 3d 19 5d 39 3a 51 e7 81 3e
       0.49964657 0.10746217 0.00070710626 0.25371793
000060 f0 d1 7a 3e
       0.24494147

91 f4 [18]
000000 75 04 b6 41 56 5a 03 40 03 f4 b0 41 1e b4 c3 40
       22.752176 2.0523887 22.119146 6.115737
000010 a8 ab 50 3d fa 70 e1 40 5d dc 48 3d 3e f5 b3 3e
       0.050944954 7.045041 0.04903828 0.35148042
000020 41 34 2d 3d 37 bf 28 3e 39 c7 13 44 2d 4b d0 41
       0.04228616 0.16479193 591.11285 26.036707
000030 db 10 05 3f 8e a3 12 3e 6a eb f0 3e 54 c7 4a 3f
       0.51978844 0.14320204 0.47054607 0.792104
000040 19 5d 39 3a 6f 41 f7 3e
       0.00070710626 0.4829211

action_model._discrete_distribution.branches.0.bias f4 [3]
000000 b7 4d d5 3d ab 9d 31 be 36 45 65 3d
       0.104152136 -0.17345302 0.055974208

action_model._discrete_distribution.branches.0.weight f4 [3, 128]
000000 1c e6 b3 3d fc d6 b5 3d af b9 30 be 13 2d cd 3d
       0.08784124 0.08878896 -0.17258333 0.10018363
000010 29 3a 26 3e 27 42 29 3e a0 d8 03 be 8c 28 ac 3d
       0.16233124 0.16529141 -0.12875605 0.08406171
000020 f6 82 d3 bd b9 4a ac 3d 00 22 2c 3d 7f 12 29 3e
       -0.10327713 0.0841269 0.042024612 0.16510962
000030 1e cc 3c 3e 93 f6 ea bd ad 7e ca bd 02 89 1c 3d
       0.1843724 -0.114728115 -0.09887443 0.0382166
000040 61 37 ab bd 8b 11 34 3e 08 99 49 bd 33 e8 32 3e
       -0.08360172 0.17584817 -0.049218208 0.1747139
000050 3c 5a d9 3d ac 3b 88 3c fe 94 07 3d 53 8a bc 3d
       0.10612914 0.016630016 0.033101074 0.09206071
000060 d8 4d 54 3d 37 95 c8 bd 1f a1 a5 3c 7c eb 2a 3d
       0.05183205 -0.097940855 0.02021843 0.04172848
000070 d6 e0 27 3e 0e 52 9b 3e 04 70 03 3c e8 f7 a8 bd
       0.16394362 0.3033604 0.008022312 -0.08250409
000080 54 91 d0 3d b1 20 3a be 30 7f 5a 3e 2a 97 67 bd
       0.10183969 -0.18176533 0.2133758 -0.056540646
000090 b8 11 8a bd 3b 63 41 be 70 86 2e 3e f9 2d 00 be
       -0.06741661 -0.1888551 0.17043471 -0.12517537
0000a0 bb 78 cf 3c 43 0f 63 3e 1e 9a 9f bd de a0 6b 3d
       0.025326123 0.2217379 -0.077930674 0.05752646
0000b0 1d 4e 20 3e 55 fb 36 3d 95 14 20 3e a7 db 98 3e
       0.15654798 0.044673283 0.15632851 0.2985508
0000c0 96 13 62 3d 69 bc 71 3e 88 0d e6 bd c6 51 1f be
       0.05519446 0.23607029 -0.1123305 -0.15558538
0000d0 91 cc c9 3d 54 77 be 3c 5d 3c 24 3e 05 80 ed bd
       0.09853471 0.02325026 0.16038652 -0.115966834
0000e0 16 7a 4c be 35 38 1a be 58 6e de bc 6e df 54 3e
       -0.19968447 -0.15060504 -0.027152225 0.20788357
0000f0 6b ae 3c 3e 8b 21 87 bc e1 04 a7 bd 21 6d 0e 3e
       0.1842591 -0.016495487 -0.081552275 0.13908817
000100 31 2a ca 3c 49 12 a2 bb f3 e1 02 3e 78 a9 b5 bd
       0.024678322 -0.0049460274 0.12781505 -0.08870214
000110 7c 40 6d 3d 5b c9 a9 3d 51 41 d6 3d 1f 10 2b bd
       0.057922825 0.08290359 0.10461677 -0.04176342
000120 bf d7 c5 3c 0b de 0f 3e b5 46 05 bd 13 82 51 be
       0.024150727 0.14049546 -0.032538135 -0.20459776
000130 80 75 e7 3d 87 6a fe 3b 92 33 c4 bd 0a 5a 9c bc
       0.11301708 0.007764164 -0.09580149 -0.019085903
000140 e9 77 5e 3e d6 f7 08 3e cc 0a 11 3e b5 32 0d 3e
       0.2172543 0.13375792 0.14164275 0.13788874
000150 7b bb 9a 3d c7 12 a4 bd 4e ed 9f 3d 58 d7 49 3d
       0.0755529 -0.08011394 0.07808934 0.049277633
000160 b3 c1 04 3e 3f 33 3b 3e e6 60 d1 3d d9 2f 1c 3e
       0.12964515 0.18281268 0.1022356 0.15252627
000170 d6 f1 88 3d 46 60 89 bd da eb 16 3e d3 3c 3b bb
       0.066867515 -0.06707816 0.14738408 -0.002857019
000180 53 0a b8 bd 4a be 59 be b2 4c 82 bc 85 f7 fb 3d
       -0.08986344 -0.21263996 -0.015905712 0.1230307
000190 dd 6e 5d be a7 26 92 3d ba 70 fe 3b 80 6e 2e 3e
       -0.21624322 0.071362786 0.007764903 0.1703434
0001a0 6e 19 87 3c c0 d4 d4 3d 1a 91 12 be 35 52 11 be
       0.016491618 0.10392141 -0.14313164 -0.14191516
0001b0 4a 9f fb 3d 7b 81 07 3e f8 42 b7 bd eb 75 fe 3d
       0.12286241 0.13232987 -0.0894832 0.12424835
0001c0 46 a9 83 3d f2 21 cc 3d e0 16 31 3e b9 df 23 bc
       0.06428771 0.09967412 0.17293882 -0.01000207
0001d0 9f 44 05 3e b5 f6 6f 3e 70 17 3d 3e ab 70 0d 3e
       0.13014458 0.23433955 0.18465972 0.1381251
0001e0 e4 76 fc bd e5 d7 01 3e 4a 72 1b 3e 97 f6 5f 3e
       -0.12327364 0.12680013 0.15180317 0.2187141
0001f0 d1 85 80 3e ca 01 9a bb ab a5 ae bd 5a 74 4e be
       0.25102094 -0.0046999203 -0.085276924 -0.20161572
000200 b0 28 56 bc c0 3b 26 be 59 6c d7 3d 57 6d c0 bd
       -0.013071224 -0.1623373 0.105187126 -0.09395855
000210 84 30 9d be 36 02 7e bd 1f 55 e7 3d c7 89 d3 3d
       -0.30701077 -0.062013827 0.112955324 0.10329013
000220 04 45 15 3e ff 46 95 3d 59 2c 27 bd 0a fa 24 3e
       0.14577109 0.07288932 -0.040813778 0.16111007
000230 bb 49 18 be df 9c 9c 3d b1 a4 ef 3d 78 6c 0b 3e
       -0.14871876 0.07647108 0.11701334 0.13615596
000240 5c 82 33 3e 55 4c 04 be 18 0e 81 bc 3f ee 68 3c
       0.17530197 -0.12919743 -0.01575379 0.014216959
000250 22 bb f6 3d ab cc 26 3e ba 47 79 3c 46 d6 b3 3d
       0.120474115 0.16289012 0.015214855 0.08781104
000260 b5 36 de 3d 41 8b c9 3d 82 bc 6f bc 67 1c e4 3d
       0.10850278 0.09841014 -0.014632346 0.1113823
000270 55 70 18 be 11 9b e7 be 06 9a e4 b9 0d 9a 95 3c
       -0.14886601 -0.45235494 -0.00043602305 0.018261934
000280 5d 45 f7 3c 1a 73 7e 3d 37 d8 86 bd f6 c4 58 3e
       0.030184442 0.06212149 -0.065842085 0.21168885
000290 bc 26 49 3e 98 7e 53 3c 5c a4 89 be 9a f2 60 3d
       0.19643682 0.0129086 -0.2688321 0.054918863
0002a0 ca 23 fb bc 38 ff a2 be 38 e9 11 3e 26 f3 c6 3d
       -0.030656714 -0.3183534 0.14249122 0.09714346
0002b0 4c d5 4d be 3a 1b 2b 3d 00 0a 09 3d 62 cb 94 3d
       -0.20100898 0.041774012 0.033456802 0.07265355
0002c0 14 a8 04 be 8d 18 eb bc c0 c6 a1 3b b4 0f 1a 3e
       -0.12954742 -0.02869823 0.004937023 0.15045053
0002d0 dc e7 c5 3c 99 be 21 3e 0e 63 0e be a2 e5 f7 3d
       0.02415841 0.15795363 -0.13904974 0.12104346
0002e0 af d0 99 3e 58 c0 9a 3e 4c 0e 3a 3e 66 bd 02 be
       0.30042025 0.30224872 0.18169516 -0.12767562
0002f0 5e af 5b bc 91 f7 6f 3d 1e 60 0d 3e 40 ee bf bd
       -0.01340851 0.058585707 0.13806197 -0.093716145
000300 b1 6f 8f bd e8 57 85 be 66 92 50 be 97 1d 66 3d
       -0.07003725 -0.2604363 -0.20368347 0.056180563
000310 79 77 63 bd ca 5a 65 3d 55 3b d1 3b 65 57 74 3d
       -0.05553386 0.055994786 0.0063852468 0.05965366
000320 a6 f8 46 3d ea 22 bc bd 23 a6 10 3e 68 97 83 3e
       0.048576973 -0.09186347 0.14125876 0.2570145
000330 af 52 b9 bc 71 96 86 bb 73 b6 0e 3e c2 b8 1b 3e
       -0.022622434 -0.0041072895 0.13936786 0.15207198
000340 00 9b 82 be 8b fc 93 be 28 be db bc a1 54 30 bd
       -0.2550888 -0.28903612 -0.026824072 -0.04304946
000350 2b 1d cd 3d e7 3c 0f 3b 61 d0 fb bd e2 2d 47 3d
       0.10015329 0.002185637 -0.122956045 0.04862774
000360 3c b9 58 3d 66 00 94 bd e9 0f 8b bd 2c 62 e3 3d
       0.05291103 -0.072266385 -0.06790144 0.11102709
000370 37 00 bc bc f9 e1 36 3e b4 cf ce bd ba 67 ce 3d
       -0.022949321 0.17859639 -0.1009821 0.10078378
000380 2b f5 1b 3d d8 d8 10 3d 04 5e 82 bc 40 f0 42 be
       0.038075607 0.03536305 -0.01591397 -0.1903696
000390 43 b0 1f 3e bd 4a bf 3c ca d7 13 3e 79 c9 e3 bc
       0.15594582 0.023351068 0.14437786 -0.02780603
0003a0 1e 42 71 3d 46 bb d5 3d 21 7a 9b 3e f1 5b ed 3d
       0.058900945 0.1043611 0.30366614 0.11589802
0003b0 a1 2b 67 3d 45 3f d5 3c ec 6a 3f 3d b0 49 51 bd
       0.056438092 0.026031146 0.046732828 -0.051095665
0003c0 fa de 6b 3d da 91 e0 bd dd 09 33 3d fd 47 09 3e
       0.057585694 -0.10965319 0.04371058 0.13406368
0003d0 f8 c4 2a bd eb dd 06 be 6a 43 23 3d c3 2c b2 3b
       -0.04169175 -0.13170592 0.039859213 0.005437465
0003e0 4e 20 74 3d 9b 4a ff bd 50 91 60 bd 1f 06 49 bc
       0.05960112 -0.12465402 -0.05482608 -0.012269526
0003f0 70 ca 00 3c a4 e3 1d 3e 7d 24 84 3d be 12 3f 3e
       0.007860765 0.1541887 0.06452272 0.18659493

action_model._discrete_distribution.branches.1.bias f4 [3]
000000 00 70 8e 3d 80 8e 76 3d a1 ea a5 bd
       0.06954956 0.060194492 -0.081013925

action_model._discrete_distribution.branches.1.weight f4 [3, 128]
000000 20 1d 4e 3e 17 d0 18 3e d9 31 f7 3d c3 e0 a6 3d
       0.20128298 0.1492313 0.120700546 0.08148339
000010 d2 95 94 3d bb 22 86 be 35 38 3d be 8a e0 7b be
       0.072551385 -0.26198372 -0.18478473 -0.24597374
000020 c0 aa 80 3d 37 93 8c 3d 4a 4d 4b be cd 19 24 bc
       0.06282568 0.068640165 -0.19853702 -0.010015917
000030 d0 a6 bf bd b1 1f 32 3e 02 4e 65 3e 9c 9f af 3d
       -0.09357989 0.17394902 0.22393039 0.08575365
000040 0c 0c 58 3e 88 e5 24 3e 5a 7d ab 3d af cf 0d 3e
       0.21098346 0.16103184 0.08373518 0.13848756
000050 fb 0d a3 3c f2 2a ad 3d 59 e3 bf bd 2d 26 b6 bd
       0.019904127 0.08455457 -0.09369535 -0.08894
000060 1a 5c 79 bd 5e 7a 64 be 45 40 31 be e7 86 2f 3c
       -0.06087885 -0.22312304 -0.17309673 0.010713316
000070 65 b3 3d be 9f 6c d7 3c 1a c5 a7 be ed fd 08 be
       -0.18525465 0.026296912 -0.32767564 -0.13378115
000080 ca 6e 38 3e 29 7d a8 3d be 56 aa 3d 75 c5 52 3d
       0.18011013 0.082269974 0.08317326 0.05145784
000090 61 12 58 3d 3b 16 91 3d 0e 96 a5 be 1c 72 aa 3e
       0.052751902 0.07084318 -0.32341045 0.33290184
0000a0 1d c5 e1 be 92 18 42 bd ff 05 39 3c c9 34 9d bd
       -0.44095698 -0.047386713 0.0112929335 -0.076760836
0000b0 84 97 92 be b7 bf 24 3e f6 69 37 be 01 db 19 3d
       -0.28631222 0.16088758 -0.17911515 0.037562374
0000c0 dd 37 e5 bd a7 12 94 bd 63 bd ee bd 22 21 7f 3e
       -0.11192296 -0.0723012 -0.116572164 0.24914983
0000d0 b4 ac 6d bc c9 94 49 ba 42 32 cf 3d 33 65 56 3e
       -0.014506508 -0.0007689712 0.10117008 0.20937042
0000e0 e9 19 d8 3d 5b 72 95 3c d2 b7 15 3d f7 23 a8 bd
       0.10551817 0.018243005 0.036552258 -0.08209985
0000f0 2e af 2c 3e 42 8a 4b 3e 44 3f 14 3e d3 af b7 be
       0.16863701 0.1987696 0.14477259 -0.3587633
000100 79 22 6a be 95 d4 d9 3d 94 6d b5 3d 31 a6 87 3d
       -0.22864713 0.1063625 0.08858791 0.06623495
000110 ba fa 4a 3d ee 58 08 3d cf da d3 3d f7 3f 09 bd
       0.049555518 0.033287935 0.10344469 -0.033508267
000120 db d9 b3 bd a3 70 47 3d 86 28 b5 bd 9f 89 ec 3b
       -0.08781787 0.048691403 -0.0884562 0.007218554
000130 ee 31 79 3e fd 26 3b be ff cf 20 3d 47 6c 5d be
       0.24335453 -0.18276592 0.03926086 -0.21623336
000140 56 c1 44 be a0 7f 12 3e d2 8d 1f be 0d 61 fd bd
       -0.19214377 0.14306498 -0.15581444 -0.123720266
000150 ab 1a dc bc 11 da 81 3d 18 c5 a4 be ae d6 42 3d
       -0.026868185 0.06340421 -0.3218162 0.047568016
000160 2c 96 9c 3d 16 5c dc bc 83 9d af be 63 db 6f 3e
       0.076458305 -0.026899379 -0.3429986 0.23423533
000170 cc 80 77 be 7c 4c 8a 3d ac 4b aa 3d 54 c3 e8 3d
       -0.24170226 0.067528695 0.083152145 0.11365381
000180 c5 b5 b5 be cb 63 d7 3c 4f 47 0a bc 74 1d 45 3e
       -0.35490242 0.026292702 -0.008439853 0.19249517
000190 9a 49 f2 3c 11 11 a6 be d9 bd b1 3d 87 94 9d 3d
       0.029576112 -0.32434896 0.08678789 0.07694345
0001a0 be 8a 31 be ad 7e 5c 3d 0f 5d 48 be 9e a1 51 bb
       -0.17338082 0.053831745 -0.19566749 -0.00319872
0001b0 6b 49 62 be 85 1f 62 be 7b 26 b8 be ee 53 16 3e
       -0.22098319 -0.22082336 -0.35966858 0.14680454
0001c0 92 4c d8 bd 25 eb 91 3d db b8 2f 3c 53 38 a7 3d
       -0.1056148 0.071249284 0.010725225 0.0816504
0001d0 9c db ee 3c bd 14 c1 bc 7d 85 e8 3c d6 2a 03 3e
       0.029157452 -0.02356946 0.028383965 0.1280931
0001e0 5a 0a 90 be 5f df b9 3c b6 f2 0d be 8e 16 5a be
       -0.28132898 0.02268952 -0.13862118 -0.21297666
0001f0 6a 12 c8 3d ce 18 05 3e 21 4a a6 bd b0 ca 55 3c
       0.09769137 0.12997743 -0.08119608 0.013048813
000200 c9 99 de be fa c6 dc be 30 1b b9 3d ac a0 7c be
       -0.43476704 -0.43120557 0.09038389 -0.24670666
000210 bf 31 bb be 1e 38 12 3e 97 cf 77 be c4 19 53 3d
       -0.3656139 0.1427922 -0.24200283 0.051538244
000220 4d dd f3 3d 4f 1b c6 bd ea 3e 31 3e 30 7b f2 3d
       0.11907444 -0.096731775 0.17309156 0.118399024
000230 02 61 7a be a2 74 78 bd 78 c4 29 bd 34 f8 1d bc
       -0.24451068 -0.060658105 -0.041447133 -0.009641696
000240 3b ae 2d be 32 76 30 be be 2d 5f be 26 63 03 bd
       -0.16960995 -0.17232588 -0.21794793 -0.032076977
000250 4c 73 15 be 7e 3a 5d be 55 b5 89 3e 8c 6c 49 3e
       -0.14594764 -0.21604344 0.26896158 0.19670314
000260 17 fd 19 3e 3e db 2d bd 4e 35 98 bc da 8a 45 3e
       0.15037952 -0.042445414 -0.018580105 0.19291249
000270 e2 a2 25 3e 6d e3 98 3b 19 15 3d 3e b1 b8 3c 3e
       0.16175416 0.004665783 0.1846508 0.18429829
000280 02 6a 8b be cb 6b b1 be 68 d6 ce 3d 18 dd ae bc
       -0.27229315 -0.34652552 0.100994885 -0.02134566
000290 d8 13 b3 3d 73 42 9b bd ac 89 d0 3d 2c d1 9e be
       0.08744019 -0.075810336 0.10182509 -0.3101896
0002a0 9b c8 fb 3d 7a 0b 98 3c 2b ea 75 bd ea 64 0b 3e
       0.12294122 0.01856016 -0.060037773 0.13612714
0002b0 49 f0 c6 3d a6 57 16 bd 44 20 f9 3d 89 f3 ca bc
       0.097137995 -0.03670468 0.12164357 -0.02477433
0002c0 a7 d7 46 be 87 54 e4 bd 9e e3 09 3e c1 8d 53 be
       -0.19418202 -0.11148935 0.13465735 -0.20659544
0002d0 82 56 59 be d5 6b 4f 3e e5 61 5d be f3 5f 00 3d
       -0.21224406 0.20255978 -0.21619375 0.031341504
0002e0 db 2e 07 bc fe 08 aa bd 75 0a ca 3d aa b5 ed bd
       -0.008250917 -0.083024964 0.09865276 -0.11606915
0002f0 9e fa e5 3d a0 40 8a bd 9a ad 23 be 2d 44 c4 3d
       0.11229442 -0.067506075 -0.15984192 0.09583316
000300 40 42 8f 3e 82 e0 bc 3d e8 74 c5 be d9 10 15 3c
       0.27980232 0.09222509 -0.38565755 0.009098255
000310 53 73 b3 3d 0e c7 cf 3d e6 93 6f bc 55 7a cf 3d
       0.08762231 0.101453885 -0.014622664 0.10130755
000320 9e ec 4b be 93 d6 19 be 56 19 15 3e 58 71 df 3b
       -0.19914481 -0.1502326 0.14560446 0.0068189315
000330 03 37 d6 bd 47 77 70 3e 24 36 74 bd fc 75 48 3e
       -0.104597114 0.23483 -0.059621945 0.19576257
000340 ae ad 4d 3d 10 f4 ad be 74 33 85 bd 77 95 d8 bc
       0.050214462 -0.33975267 -0.065039545 -0.026438458
000350 39 af 91 3e 8f 27 c8 bc 8c 99 cf 3d c3 22 b8 be
       0.28453997 -0.024432926 0.101367086 -0.3596402
000360 d3 bb e8 bd 20 59 3e 3e fa 23 2e 3d f7 df 4f be
       -0.113639496 0.18588686 0.04251478 -0.2030028
000370 4c 32 1b 3e 31 c0 d9 bd 1d fc 25 be b7 6f f3 3d
       0.15155905 -0.10632361 -0.16209455 0.11886542
000380 2b 12 3c bc 68 4b e4 bd 98 17 49 3e 58 da bd 38
       -0.011478941 -0.11147195 0.19637907 9.052892e-05
000390 3f a9 de bd a3 4e 91 bc e4 f2 8f 3d 6c 06 fb bd
       -0.10872125 -0.017737692 0.070287496 -0.12257084
0003a0 a3 90 9a 3e a2 ea 1f 3e 5b 9e 30 3e b4 01 37 be
       0.30188474 0.15616849 0.17247908 -0.17871743
0003b0 8f 3e e8 bb 01 26 72 bd 20 44 8b 3b e7 a5 94 be
       -0.0070875357 -0.059118275 0.0042500645 -0.29032823
0003c0 df 54 8d 3e 63 49 65 be 96 d0 70 3d 80 82 4c be
       0.27603814 -0.22391276 0.058792673 -0.19971657
0003d0 c5 0f 0c 3e 74 31 24 bd 10 d4 28 3e 32 52 2e be
       0.1367789 -0.040086225 0.16487145 -0.17023543
0003e0 3b c9 c9 3d 15 16 6e be ce 3d bd bc 93 cf 62 bc
       0.09852835 -0.23250611 -0.02310076 -0.013843435
0003f0 38 45 e0 3b bc be 6a be 93 39 8d bd 31 8f d3 3d
       0.006844189 -0.22924322 -0.06895747 0.10330046

discrete_action_output_shape f4 [1, 2]
000000 00 00 40 40 00 00 40 40
       3.0 3.0

network_body._body_endoder.seq_layers.0.bias f4 [128]
000000 8f 0f 58 bd 6d 14 fc 3d df 83 26 bd 4b 8b 1a 3c
       -0.052749213 0.123085834 -0.040653106 0.009432624
000010 30 07 37 3c 20 f3 0a 3c 59 65 17 be ed 8a 1c 3e
       0.011171147 0.008480817 -0.14784755 0.15287371
000020 e4 3a 0f 3e 11 6a 81 3d d2 be 00 3e d9 6d e1 bc
       0.13987309 0.06319059 0.12572792 -0.0275182
000030 9b ba 08 3e 41 a2 b5 3d b2 71 93 3c 96 cc 0c bc
       0.13352434 0.08868838 0.01799855 -0.008593699
000040 9c 42 f4 bc 59 b2 55 3d 7c 71 5b 3d 59 cf 47 bc
       -0.029816918 0.05217204 0.053575024 -0.012195432
000050 7e 24 84 bd cc fe 4c 3e 12 54 9a 3b 49 ec c0 3c
       -0.06452273 0.20019072 0.004709729 0.02355017
000060 6a dc 33 3e 13 bf e0 bd f5 7f c8 bd 7b 32 a7 bc
       0.1756455 -0.109739445 -0.09790031 -0.020409813
000070 9b 50 7b 3d 29 4a a7 bb 09 d2 06 3e 4b 7c 82 bd
       0.06135617 -0.005105276 0.1316606 -0.06371363
000080 69 b4 2e be 91 7a 17 3d 80 dd 63 3e fd 9a 91 3d
       -0.17061009 0.036982123 0.22252464 0.0710964
000090 dc e0 22 3d d8 fd e4 3d 36 57 18 be 2a ec c9 bd
       0.039765224 0.11181229 -0.14877018 -0.09859498
0000a0 1c a7 97 3c 10 87 50 3d 39 f1 a7 bd 3a 22 0a 3e
       0.018512301 0.050910056 -0.082003064 0.13489619
0000b0 97 2d 42 bd 96 da 03 be c8 3d c7 bd 8a 68 8f 3d
       -0.04740676 -0.12876353 -0.09728581 0.07002361
0000c0 b5 37 21 3c 46 10 77 be eb 18 82 3d fc 1c 2e 3e
       0.009839942 -0.24127302 0.06352409 0.17003244
0000d0 62 64 2d 3e e3 5c 5c bd 97 e6 e6 bd 38 4d 58 3d
       0.16932824 -0.05379952 -0.1127445 0.052808017
0000e0 89 90 e8 bd a9 aa 48 bd b3 73 25 be fa 3b 23 3d
       -0.11355693 -0.04899088 -0.16157417 0.03985212
0000f0 f5 fc b2 3c 8f d2 b9 bd 68 05 26 3d f6 c5 26 3c
       0.021849135 -0.09073364 0.0405325 0.0101790335
000100 f4 64 fa 3c ae 1c 16 3e 12 10 c8 3c f5 63 81 bc
       0.030565716 0.14659378 0.024421725 -0.015794734
000110 44 43 f6 3c f3 19 ae bc 2f 5a 80 3d 12 d1 84 bd
       0.030061372 -0.021252608 0.06267201 -0.064851895
000120 41 f4 54 bd dd 83 c8 bd 06 e5 93 bc c5 ca 0a 3e
       -0.05199075 -0.09790776 -0.018053543 0.13553913
000130 6f 37 14 bd d7 84 4f be ff 5a 75 3d 0f 0e be bc
       -0.036185678 -0.20265518 0.059901234 -0.023200063
000140 00 3f 23 be 29 79 79 3c f5 bf 4f 3d fc 10 b2 bb
       -0.15942001 0.015226641 0.050720174 -0.0054341536
000150 b1 99 a5 bd 3f 17 89 bd 12 01 22 3d 1a 23 b9 3c
       -0.08085955 -0.06693887 0.039551802 0.022599746
000160 f9 02 7a 3d 03 f2 a0 3c f2 b4 12 3d 20 16 4d be
       0.06103799 0.01964665 0.035817094 -0.20027971
000170 ac bb ec 3d 96 60 87 bd 52 da 71 3c 50 05 5b bd
       0.11559233 -0.06610219 0.014761524 -0.053471863
000180 b6 c4 2e 3d ce d0 f1 3d 23 a9 8f 3c f1 d2 f0 bd
       0.042668067 0.118074045 0.017536705 -0.11758984
000190 a2 55 81 3d 93 1f 29 be 02 ac 61 bc 7d 55 6c 3e
       0.06315161 -0.16515951 -0.01377392 0.23079486
0001a0 66 9d a6 3d a1 88 b9 bd c4 f8 47 3d e5 a1 c3 3c
       0.0813549 -0.09059263 0.048821226 0.023880908
0001b0 6b 2d 3b 3d 41 78 b2 3a fa 9f 0d 3d 4c f4 96 bc
       0.04569761 0.0013616161 0.034576394 -0.018427037
0001c0 bd 83 99 3d bd 14 07 be 69 6c e6 bc 0d 16 d2 3d
       0.0749583 -0.13191505 -0.028127866 0.10258112
0001d0 66 f9 22 bc 93 dc 33 3d f8 14 0c be b7 f9 93 bd
       -0.0099471565 0.043911528 -0.13679874 -0.07225364
0001e0 b0 a6 5b 3d 71 bd cb bd 1b e8 b2 3d 67 87 6e 3b
       0.053625762 -0.099482425 0.08735677 0.0036396624
0001f0 5b 2e d0 3d 5d fc c5 3d 1a b3 ef bb b0 b8 13 bd
       0.101650916 0.09667275 -0.0073150517 -0.036064804

network_body._body_endoder.seq_layers.0.weight f4 [128, 68]
000000 ec e1 f1 3d 41 64 f3 3c 48 1c f4 bd a1 87 3d be
       0.11810669 0.02971089 -0.11919457 -0.1850877
000010 fe 44 e0 bd 35 65 cd bd e8 3e 2b 3e 40 6c 08 3d
       -0.10950659 -0.10029069 0.16723216 0.03330636
000020 c8 39 6a ba c0 d6 ec be dc 2a 74 3d 55 23 27 3e
       -0.00089350017 -0.4625759 0.059611186 0.16322072
000030 27 89 80 bd 36 0f 05 bd fa c7 76 be 05 26 42 be
       -0.0627616 -0.03248521 -0.24099723 -0.18959816
000040 55 3a 81 be e3 60 8e 3d e7 0b 93 3e fe 74 6d 3d
       -0.25239816 0.069520734 0.28720018 0.0579729
000050 50 5b f4 3c dd 32 80 be f1 5c 1a be d4 48 91 bc
       0.029828697 -0.25038806 -0.15074517 -0.017734922
000060 52 79 30 be 4c fe 39 be d8 bd 8f 3e 0f a3 0e 3e
       -0.1723378 -0.18163413 0.28074527 0.1392939
000070 9f 65 08 be f9 64 57 3e 30 5b d2 3d 5c 53 8e be
       -0.13320015 0.21034612 0.10271299 -0.27797973
000080 ad 7f 64 3e 88 2d 0c 3e 88 05 57 3e 36 f8 a9 3b
       0.2231433 0.13689244 0.20998204 0.0051870598
000090 81 c6 43 be f0 7e 44 3e 99 d9 0a 3e 96 fd 39 3e
       -0.19118692 0.19189048 0.1355957 0.18163142
0000a0 b3 2e 0a be ee 66 04 be a2 82 08 3d 0a fe 79 3d
       -0.13494377 -0.1292989 0.033327706 0.061033286
0000b0 29 85 cc 3c 59 13 57 bd 87 d0 e6 bd 17 83 90 bd
       0.02496584 -0.052508686 -0.11270242 -0.070562534
0000c0 01 1f 9b bd 3a 2a 9c bd 50 40 7e 3d 92 59 69 3b
       -0.07574273 -0.076252416 0.062073052 0.0035606367
0000d0 15 0c 08 be e8 54 38 be 5c 12 e1 3c d8 f7 d7 3d
       -0.13285859 -0.18001139 0.027474575 0.10545319
0000e0 49 d0 bf bd 6f 64 a2 bd 1f 59 af bd 01 e5 ee 3d
       -0.09365899 -0.079293124 -0.085619204 0.11664773
0000f0 e7 6c 2b bc 17 a3 4f 3d a1 28 fc be eb a2 1c 3e
       -0.010462976 0.050692644 -0.49249747 0.15296523
000100 12 d0 2e 3c 3c 0b 0b be ac c6 c0 3d 21 ca 85 3e
       0.010669725 -0.13578504 0.09412894 0.26130775
000110 dc 2c 26 bc 49 8f 1d be 1b 5b 9b bd fd 51 39 be
       -0.010142531 -0.1538669 -0.07585736 -0.18097682
000120 8b 3c 0c bd 29 b3 11 3e ce d7 c2 3c a2 4b 37 be
       -0.034237426 0.142285 0.023784544 -0.17899945
000130 57 b8 e3 3c d8 6a e7 bc 1f 97 89 3d c5 2f 06 be
       0.027797861 -0.02824919 0.06718277 -0.1310416
000140 e5 37 86 be 0b b5 f6 3d ce a4 48 bb 26 4a 0c 3d
       -0.2621452 0.1204625 -0.003061581 0.0342504
000150 c2 7d ae 3d d9 ab 24 3e ba 84 4d be c1 b6 54 3c
       0.0852008 0.1608118 -0.20070162 0.012983025
000160 d9 5e b6 3e f4 32 17 bc c1 05 5c bd 31 b4 90 be
       0.35619238 -0.009228457 -0.053716425 -0.28262475
000170 cf c0 30 bc e7 16 71 be 35 19 da 3d 28 c9 a4 3c
       -0.010788157 -0.23543893 0.10649339 0.02011545
000180 c9 8e cf 3d 88 3d 5a 3d 83 f4 9b 3d d3 d0 20 3e
       0.10134656 0.053281337 0.07614996 0.1570466
000190 37 34 a6 ba 6e 96 ac 3d 05 b8 31 be c6 9a c9 be
       -0.0012680356 0.0842713 -0.17355354 -0.39375895
0001a0 7d 24 a9 bd 4e 4d 0e 3e e1 46 47 bd ec 06 17 bd
       -0.08258913 0.13896677 -0.04865158 -0.036871836
0001b0 e5 57 42 be 26 7e cf be 0b 2e 47 be e5 8f 59 3d
       -0.18978842 -0.4052593 -0.19451158 0.053115744
0001c0 d7 e1 ce 3d 0a 9f 30 be 92 e1 08 be 45 be 98 3e
       0.10101669 -0.17248169 -0.13367298 0.29832664
0001d0 23 6c 31 bd be 56 51 3e d6 46 32 3e 2d 39 1f 3e
       -0.043316018 0.20443246 0.17409834 0.15549155
0001e0 07 a2 3a be 38 32 6a 3d 24 5c 7f bd 17 63 f6 3d
       -0.18225871 0.0571768 -0.06234373 0.12030619
0001f0 dc c3 23 be dd 4a 0b bb 0d fa 73 3e 97 b9 08 be
       -0.15992683 -0.0021254339 0.23825856 -0.13352047
000200 35 6e af 3c 55 fc 92 be 18 46 06 bf a7 65 4e 3c
       0.021414855 -0.2870814 -0.52450705 0.012597478
000210 3e 5b 8d 3e d1 36 76 bd 84 97 cc bc 51 4f 02 3e
       0.27608675 -0.06011087 -0.024974592 0.1272557
000220 2f 31 1b 3e 56 e1 a2 3d 45 6e 21 be 99 ab a3 3e
       0.15155481 0.07953136 -0.1576472 0.31966856
000230 a7 8e 51 3e 08 f4 14 3c bc 62 e4 3e 16 ee 39 3d
       0.20464574 0.009091385 0.44606578 0.045393072
000240 09 f4 d3 3c 29 8b 90 3e 2c 8f e4 be b0 a7 57 3e
       0.025873201 0.2823117 -0.4464048 0.21060061
000250 66 68 38 3c 5b a2 c4 bc 1c 7c 28 be d9 12 0c be
       0.011255359 -0.024003198 -0.16453594 -0.13679065
000260 27 85 30 3e 35 65 cd 3c 0d e7 b5 3e 95 21 81 3e
       0.17238294 0.025072673 0.3552784 0.25220934
000270 42 03 5e bd 17 7c 51 bd e3 72 1a 3e a7 07 1e 3d
       -0.054202326 -0.051143732 0.15082888 0.038581517
000280 a8 16 43 bd a1 50 11 3e af 84 9a 3d fc 99 0a 3e
       -0.04762903 0.14190914 0.07544839 0.13535303
000290 f4 d1 0d 3d 35 04 23 3e 4f f0 25 3e de 59 2c bc
       0.034624055 0.15919574 0.16204952 -0.010519473
0002a0 3a 50 62 3e 7f 8a 44 3e 3c 85 d4 bd 86 2b 17 3e
       0.22100917 0.19193457 -0.10376975 0.14762697
0002b0 3e b2 88 3e d6 42 22 3d 58 cd 73 3e 96 f5 fb 3c
       0.26698488 0.03961452 0.23808801 0.030756753
0002c0 d8 f8 a0 3d d0 04 a7 3e 64 f2 da bc 98 d9 af 3d
       0.07859963 0.3262086 -0.026726909 0.085864246
0002d0 8d 17 2c bc e3 dd 25 bc 05 3e b6 3d ef 13 13 3d
       -0.010503662 -0.010123703 0.08898548 0.035907682
0002e0 f0 5c 02 3e 4b 9c b4 3a 91 2f 37 be 42 ac e5 bd
       0.12730765 0.0013779489 -0.17889239 -0.11214496
0002f0 1c 5c 43 3d 5d 83 65 3e 1b d1 19 3e 82 0a 9e 3e
       0.047695264 0.22413392 0.15021174 0.30867392
000300 4f 8c a9 3d 15 36 34 3e 78 8e 97 3d 26 85 74 be
       0.08278715 0.17598756 0.07400221 -0.23878917
000310 fd 4a b7 3d 81 d0 0d bd 3c 0a 41 be cb 40 a0 be
       0.0894985 -0.034622673 -0.1885156 -0.31299433
000320 ee 68 87 be 0f 8f c4 3d 49 09 18 3d 60 68 29 3e
       -0.26447242 0.09597599 0.03711823 0.16543722
000330 20 6c 83 bd 30 b9 ad bd f2 d5 b5 3d fd 88 8d 3e
       -0.064171076 -0.08482587 0.088786975 0.27643576
000340 d2 84 a2 3d 6d 4d a4 3d 47 65 c9 3d 7f 5e a0 3d
       0.0793549 0.0802258 0.0983377 0.07830524
000350 93 70 cd 3b 34 0f a1 be d2 d9 0c 3d 2a 5a 44 be
       0.0062695234 -0.31456912 0.034387417 -0.1917502
000360 71 b0 83 3e 56 46 96 bd d1 97 68 bd 54 b5 52 3d
       0.25720552 -0.07337634 -0.05678541 0.05144246
000370 be 47 4f 3e 54 61 1f 3b 40 c6 e1 bd 2b 90 b5 3e
       0.20242211 0.0024319487 -0.11024141 0.35461554
000380 40 00 94 3e ae a8 b0 bc bc 1d 09 be 59 39 15 bd
       0.2890644 -0.021564808 -0.13390249 -0.036431644
000390 33 14 b4 be e8 9b 42 be 7d 6f fa be 15 bf c6 bd
       -0.3517166 -0.19004786 -0.48913184 -0.09704415
0003a0 5c 5f 8c 3c da cc 76 bd 78 a8 01 3d 43 97 42 3e
       0.017135315 -0.060253955 0.031654805 0.19003014
0003b0 f4 af b9 3d 7a 70 04 3e c2 16 9d bb 0a 88 b4 3e
       0.090667635 0.12933531 -0.0047939727 0.3526004
0003c0 e3 a7 c0 bd f9 7b e8 bd 1c c0 b9 bd 7e 6b 0b be
       -0.09407022 -0.11351771 -0.09069845 -0.13615224
0003d0 35 07 4c be d1 81 31 be 3c b1 bc 3c 77 e5 73 3c
       -0.19924624 -0.17334677 0.02303373 0.014886252
0003e0 89 8a 80 bd 08 97 56 3e 70 18 30 be 35 dd 66 3d
       -0.062764235 0.20956051 -0.17196822 0.056363303
0003f0 bd d1 03 be f0 71 80 bc e6 ac 82 bd 17 fa 0e be
       -0.12872978 -0.01567933 -0.06380634 -0.13962589

network_body._body_endoder.seq_layers.2.bias f4 [128]
000000 e2 85 fc 3d 3a c8 0c 3e b9 7b de 3c 98 66 14 bd
       0.123302236 0.13748255 0.027158605 -0.036230654
000010 14 ff 19 3e fb 19 39 3e 7f 7a 5a be 13 66 bc 3c
       0.15038711 0.18076317 -0.21335791 0.022997892
000020 81 52 40 bd 98 fb 6a be 95 73 ac bd eb 91 81 3d
       -0.04695368 -0.22947538 -0.08420483 0.0632666
000030 fc 4f 35 3d b8 29 9d 3d 17 19 71 3c 9a 03 e9 bd
       0.044265732 0.07673973 0.014715455 -0.1137764
000040 d8 cf 62 3d 9a d7 81 3c dd 97 35 be 1c 41 60 3d
       0.055373996 0.015849877 -0.17733712 0.054749593
000050 53 3f b3 bb a5 92 53 be 42 fc 10 3d a1 05 53 3d
       -0.0054701953 -0.20661409 0.03539682 0.05151904
000060 45 73 8c bd 32 7d 01 be bb 8c 00 bd 46 be 5c 3d
       -0.068579234 -0.12645414 -0.03138421 0.053892396
000070 03 09 e2 3b a4 6c 01 3e aa ec ac 3c 54 f2 d0 bd
       0.006898047 0.126391 0.021108944 -0.102024704
000080 8c 25 91 3a fd eb 5d bd 04 1c be 3d 9c b5 6a be
       0.0011073812 -0.054180134 0.09282687 -0.22920841
000090 27 77 19 bd 04 11 f8 bd 66 10 36 3e fd 31 cf 3c
       -0.03746715 -0.121126205 0.17779693 0.025292391
0000a0 81 33 7a 3a bf cc a9 3d 90 72 53 be d9 89 14 3d
       0.0009544418 0.08291005 -0.20649171 0.036264274
0000b0 7b ea 85 3c aa 56 cf bd ff 86 fa bd 56 c9 b6 ba
       0.01634716 -0.10123952 -0.1223278 -0.0013945501
0000c0 41 27 78 bc 8c 02 84 3d a8 2a 6e bd 86 69 22 bc
       -0.015146078 0.06445798 -0.05814615 -0.009912854
0000d0 8e c6 ff bd 28 0e 0d bc a2 7a 8b 3d 93 61 e5 bc
       -0.12489043 -0.008609332 0.068105 -0.028000629
0000e0 08 8c 07 be 6b a5 23 be 8a e6 c5 3c bc 71 22 3e
       -0.13237011 -0.1598107 0.024157781 0.15863699
0000f0 a7 27 1d 3e 76 2e da bd 7b 62 db bd b2 70 e2 3d
       0.15347157 -0.10653393 -0.10712143 0.11056651
000100 15 a9 8e 3d 11 09 0b 3e aa 72 9c 3d 29 9f d7 bd
       0.069658436 0.13577677 0.07639058 -0.10528404
000110 07 7d d8 bd 78 9a 33 be 88 42 8c bd ec 45 19 be
       -0.10570722 -0.17539394 -0.06848627 -0.1496808
000120 b9 73 ca 3c 8c 6b 80 3c 93 69 f8 bd 7f cf cf bd
       0.024713384 0.015676282 -0.12129512 -0.101469986
000130 99 11 62 3c 83 7f 1c ba b2 d0 43 be 41 78 e5 bd
       0.013798141 -0.00059699285 -0.1912258 -0.11204577
000140 22 cd a5 3d 41 76 c8 3d bb c0 1f bd 66 91 bb 3d
       0.080957666 0.0978818 -0.03900216 0.09158592
000150 10 8b e6 3d aa f1 a9 bd 53 fc f0 3c f1 fd 9d 3d
       0.11256993 -0.08298047 0.029417193 0.07714451
000160 53 4d bb bd a1 03 6b 3d aa ab 8e bd 73 7a ad 3d
       -0.09145608 0.057376508 -0.06966336 0.08470621
000170 cd 42 8b bd 72 35 08 be 68 c0 ce 3d 87 05 15 bd
       -0.067998506 -0.13301638 0.10095292 -0.036382224
000180 76 f4 a4 bd d9 ef d9 bd 3d 18 05 3d d3 4e 0d 3e
       -0.0805444 -0.106414504 0.03249382 0.137996
000190 ab 77 c1 bd 5a bb c9 bd f8 c7 9e bd 86 4b 21 3d
       -0.09446653 -0.098501876 -0.07752985 0.039378665
0001a0 19 48 6a 3c 6b 9b 07 bc bd 63 1b be 4a c4 85 bd
       0.014299416 -0.008276801 -0.15174766 -0.0653158
0001b0 0f d6 f5 3c 6b 00 f0 bc 41 38 a8 bb 7c a4 58 bc
       0.030009298 -0.029297074 -0.005133659 -0.01322281
0001c0 31 eb ad 3c bd 1d 39 bd 67 a3 5c bd 93 dd 21 be
       0.021230312 -0.045194376 -0.05386677 -0.1580718
0001d0 17 31 69 3d 34 32 90 3d 97 e3 93 3b ca a6 ae 3d
       0.05693158 0.070408255 0.004513215 0.08527906
0001e0 9a ac 52 bd f3 b4 16 3e 20 4f 91 bd 45 32 3f 3d
       -0.051434137 0.14717464 -0.0709517 0.0466788
0001f0 3f 65 c3 bc 06 b5 23 be fa 71 08 be 79 18 d8 bc
       -0.023851989 -0.15987024 -0.13324729 -0.026378857

network_body._body_endoder.seq_layers.2.weight f4 [128, 128]
000000 a8 64 5b 3e 5a 3b 3b 3e 21 3a 47 3c 99 4e 01 be
       0.21425116 0.1828436 0.012159855 -0.12627639
000010 36 1a e4 bd ad 00 12 be 85 e5 8d be d2 d7 3c 3e
       -0.11137812 -0.1425807 -0.27714172 0.18441704
000020 c7 63 18 bd 7a 03 8c ba e3 18 e8 3d e5 bb ca be
       -0.03720453 -0.0010682188 0.11332872 -0.39596477
000030 13 27 7a bd 53 80 8f 3e 8f a9 2d 3e 2f 11 47 3c
       -0.06107242 0.2802759 0.16959213 0.012150093
000040 aa 52 dd be c7 ce ac bd c7 ae dd 3d 7d 79 77 bd
       -0.4322713 -0.08437877 0.10824352 -0.060418595
000050 53 12 a5 3c 94 7f 84 3e bf a2 b8 3c f5 bc 88 3e
       0.02015034 0.25878584 0.02253854 0.26706663
000060 8a 13 09 3d ac 61 d9 3d fd 72 03 be e2 4c a2 3d
       0.0334659 0.106143326 -0.12836833 0.079248205
000070 84 6a ad 3d 10 17 1f 3d e2 1f 4c 3e 0a 9b a3 be
       0.08467582 0.038840353 0.19934037 -0.31954223
000080 ab 0d 33 be 5f cc 12 3e 26 45 41 3e 9f 43 77 bd
       -0.17485683 0.14335774 0.18874034 -0.060367223
000090 ae 0d 2e be 66 9a 01 3e 15 59 50 be 18 6d 05 be
       -0.16997406 0.12656555 -0.20346482 -0.13029897
0000a0 b5 f7 d7 3d 84 d4 17 be e0 11 4f bb ea bb 0d be
       0.10545293 -0.14827162 -0.0031596348 -0.13841215
0000b0 80 c5 2d 3e 72 e6 2a be d2 27 f5 bd ee d9 03 3e
       0.16969872 -0.1668947 -0.11970486 0.12876102
0000c0 fb 4a a2 3d 5a ac af bd 66 48 09 bc 72 03 43 3d
       0.07924458 -0.08577795 -0.008379078 0.047610708
0000d0 a3 fd 84 3e 60 d8 8e bd 93 37 27 3d 1b 88 a0 be
       0.2597476 -0.06974864 0.040824484 -0.3135384
0000e0 bd ae 05 3d 5a 17 18 3c 56 7b 4e be 44 12 9a be
       0.032637347 0.009282911 -0.20164236 -0.3009206
0000f0 56 fe c4 3d d8 b1 c3 bd e8 79 0a be 2d 59 71 bd
       0.09618823 -0.095554054 -0.13523066 -0.058922935
000100 be 19 73 3d 98 64 8b 3e 5d 6a 91 3d c4 60 e2 bc
       0.05935072 0.27225184 0.07100365 -0.027634032
000110 57 5d 37 3e 0f 00 5b be 3a 17 b8 3e 81 6b 5c bd
       0.179067 -0.21386741 0.3595522 -0.05381346
000120 24 a3 77 bd c9 05 54 bb 60 9a 20 be 74 6a 87 bd
       -0.060458317 -0.003235208 -0.1568389 -0.06612101
000130 04 66 53 3e 4a 66 fe bd 9e 7a 5e bd ac 3e c6 3e
       0.20644385 -0.12421854 -0.054316156 0.3871969
000140 7f 50 92 3d b7 ff a5 3e c3 f4 4f 3e 41 54 d2 3d
       0.0714426 0.32421657 0.20308213 0.102699764
000150 c5 a6 e0 3c b9 38 1d bd fb d5 29 3e 49 02 88 be
       0.027423272 -0.038384173 0.16585533 -0.26564243
000160 7a ec 84 3d 32 5e 24 be fb ac 7e 3d 82 de 87 be
       0.06490417 -0.16051558 0.062176686 -0.26536947
000170 d1 7e 72 bc e4 0b dd 3d 0f b2 8d 3e 21 74 c4 be
       -0.014800743 0.107932836 0.2767491 -0.3836985
000180 25 34 ad be 80 75 03 bc aa ad 8d be 40 b7 93 bd
       -0.33828846 -0.00802362 -0.27671558 -0.072126865
000190 77 f8 a3 3e a0 53 22 bc b3 3d 2c 3d 25 a3 2c 3e
       0.320255 -0.009907633 0.04205103 0.1685911
0001a0 ea 34 31 3e 7c fb b0 bc 2f aa b5 be 03 ef 33 be
       0.17305341 -0.021604292 -0.35481402 -0.17571644
0001b0 45 b2 a6 be 6d d5 4e be 18 48 ce bb 23 e8 88 ba
       -0.32557884 -0.20198603 -0.0062952153 -0.0010445159
0001c0 18 97 90 3b 68 77 2f be 8f 62 15 3e 85 70 bf 3d
       0.004412543 -0.17135394 0.14588378 0.09347633
0001d0 2e e6 21 3e e4 89 bb be a5 18 d0 bd 4b 4a 8e be
       0.15810463 -0.3662864 -0.101609506 -0.27791056
0001e0 05 b7 1e be c7 f2 b1 bd d7 83 08 3e d2 31 94 3e
       -0.15499504 -0.08688884 0.13331543 0.2894426
0001f0 56 4f dc bd 83 b7 58 3e ab 3c 1a be a1 9e 7d 3d
       -0.1075732 0.21163754 -0.15062205 0.06191886
000200 6e bf 9e 3d aa 52 3b 3e 7a d3 49 3d 05 b4 56 be
       0.07751356 0.18293253 0.049273945 -0.2096711
000210 0c fd ca be 49 32 b9 bd 09 c5 3a be 8b f9 29 3e
       -0.39646184 -0.09042794 -0.18239225 0.165991
000220 01 07 a4 3e 58 18 ba 3d 18 cc d3 bb 41 c8 5d 3d
       0.32036594 0.090866745 -0.006463539 0.054146055
000230 bb 39 9a bd f1 34 5b 3e d2 1a c1 3d 6b 33 b1 be
       -0.075305425 0.21406914 0.09428944 -0.3460954
000240 d0 da 7c be 2c 2e a9 bc 8d 32 b5 bd 19 f8 a7 bd
       -0.24692845 -0.0206519 -0.088475324 -0.08201618
000250 1c 85 1f be 87 9c 76 3e 87 2f 02 bd 9c f5 93 3d
       -0.15578121 0.24083148 -0.031783607 0.07224581
000260 ab ec 02 bd d5 6d e1 be f8 2e f7 be da d6 26 3e
       -0.031963985 -0.44029108 -0.48278022 0.16292897
000270 c0 6f 92 3e d7 02 34 be 9e 22 2c 3e e1 22 c6 bd
       0.28600883 -0.17579208 0.1681008 -0.096746214
000280 76 ef c3 be 4e a3 0f bf d3 2f 2a 3e 0d c1 24 bc
       -0.38268632 -0.5610856 0.16619806 -0.0100557925
000290 cb fc c5 be 9e 7e 35 be 4f eb 31 be a8 55 7c bd
       -0.38669428 -0.17724082 -0.1737492 -0.061605126
0002a0 50 43 fc 3d 38 d4 ee 3d fb 7d 38 be 97 77 b8 3d
       0.12317526 0.11661571 -0.18016808 0.09007185
0002b0 cb aa b9 3b 54 81 0a be ff 32 0e be 18 b0 86 3e
       0.005666112 -0.13525897 -0.13886641 0.26306224
0002c0 7e e6 41 3d 2e 0b 53 3e bf 12 33 3d 6e cd 86 3d
       0.047338955 0.20609733 0.04371905 0.06582151
0002d0 c7 e9 0a 3e e3 4c 90 bd 58 78 15 be 26 43 40 be
       0.13565741 -0.07045915 -0.14596689 -0.18775615
0002e0 75 64 e9 bd d8 9a 24 3e 63 95 e9 bd 04 d3 0e bc
       -0.11396114 0.16074693 -0.114054464 -0.008717302
0002f0 9e 21 5a 3e 35 2a 81 be a5 8f ef 3d 4b 00 22 be
       0.21301886 -0.25227514 0.1169732 -0.15820424
000300 82 11 7a 3d c4 07 a4 3e 9a c0 45 be d9 dc 0f bf
       0.061051853 0.32037175 -0.19311753 -0.5619636
000310 58 24 0f bd 6d 5b 97 3c d3 13 59 3d 26 32 0a 3e
       -0.03494677 0.018476212 0.05299742 0.13495693
000320 78 0c 9b 3d f4 33 8f be 95 ba 54 be 7c c2 73 3e
       0.075707376 -0.27969325 -0.207743 0.23804659
000330 89 e5 95 3d 31 13 3e be 69 a5 40 be df 5b a2 3d
       0.07319171 -0.18562008 -0.18813099 0.07927679
000340 3b 2c 03 be 93 6e 66 3e 2a 52 66 bd 47 d6 13 3e
       -0.12809841 0.22503118 -0.0562307 0.14437209
000350 44 ae 58 3d 2d ab 34 be 58 90 09 3d ff 71 a3 be
       0.052900568 -0.17643423 0.033584923 -0.3192291
000360 3f e2 03 3d 26 d7 34 be 08 ae 49 bd ba 31 06 be
       0.032198187 -0.17660198 -0.049238235 -0.13104907
000370 8b 44 c4 bd 60 2f 19 bd 29 08 45 be 0a 9d ac be
       -0.09583386 -0.037398696 -0.19241394 -0.3371356
000380 5b bd 6e 3d bc 79 94 be b9 67 c8 be ae 0e 03 be
       0.058286052 -0.28999126 -0.39141634 -0.12798569
000390 02 f3 1b 3e ba 1e 58 be 50 6e 97 bd d0 49 d0 3e
       0.15229419 -0.21105471 -0.07394087 0.40681314
0003a0 a9 e4 51 be 00 cb 27 be a2 79 ca be 8b cd 5d be
       -0.20497383 -0.16386032 -0.39545923 -0.2166044
0003b0 05 18 41 be c6 42 29 be f8 2b 58 3e 21 f4 da bc
       -0.18856819 -0.16529378 0.21110523 -0.026727738
0003c0 03 65 63 be 7e 94 55 be ce be 4c bd bc dc 93 3d
       -0.22206502 -0.20857427 -0.049986653 0.07219836
0003d0 c8 57 48 3e 88 1f da be 39 a4 49 be 5a c0 97 be
       0.19564736 -0.4260218 -0.19691552 -0.2963894
0003e0 0f 81 30 3e 7c 90 1a be 71 1a b4 be dd 90 59 be
       0.17236732 -0.15094179 -0.35176423 -0.21246667
0003f0 bf df 1b bc 07 aa b9 3e ca 00 3d 3e ef fe 07 be
       -0.009513794 0.36262533 0.18457332 -0.13280843

network_body.observation_encoder.processors.0.normalizer.running_mean f4 [25]
000000 fa 4d 65 3f 48 5b b2 3b 00 00 00 00 1c f3 62 3b
       0.8957211 0.0054430105 0.0 0.0034629768
000010 52 f0 f1 3d 61 a5 62 3f cb f6 92 3b 00 00 00 00
       0.118134156 0.885336 0.0044849864 0.0
000020 e0 87 04 3c ac 5c 10 3e c1 d7 47 3f 90 16 81 3b
       0.008089036 0.14097852 0.7806359 0.0039394572
000030 00 00 00 00 ab aa 34 3c 68 eb 03 3e da e3 2b 3f
       0.0 0.011027019 0.12882769 0.6714455
000040 e4 cf 1b 3b 00 00 00 00 fd 18 bb 3c b3 73 43 3e
       0.0023775036 0.0 0.022839064 0.19087104
000050 60 e6 03 3f 47 e4 d7 3b 00 00 00 00 17 13 db 3c
       0.515234 0.006588492 0.0 0.026742501
000060 ae 51 24 3e
       0.16046783

network_body.observation_encoder.processors.1.normalizer.running_mean f4 [25]
000000 64 5b 6d 3e 96 a6 94 3e 00 00 00 00 2d 73 28 3d
       0.23179394 0.29033345 0.0 0.041125465
000010 d6 09 ba 3d 3c e2 19 3e 26 b9 f3 3d 00 00 00 00
       0.09083907 0.15027708 0.11900549 0.0
000020 2a 75 b0 3d e6 72 05 3e 26 5d e6 3e 10 d9 43 3d
       0.08616097 0.13032112 0.44992942 0.04781443
000030 00 00 00 00 11 75 8d 3d 69 1a e1 3d c4 0d f9 3d
       0.0 0.06907094 0.109913655 0.12160829
000040 97 ec 70 3d 00 00 00 00 09 50 95 3d e5 1a d8 3d
       0.05881938 0.0 0.07290656 0.10552005
000050 82 60 f6 3e dc 67 3f 3c 00 00 00 00 9f a0 8d 3d
       0.48120505 0.011682477 0.0 0.06915402
000060 bc fa d8 3d
       0.10594699

network_body.observation_encoder.processors.2.normalizer.running_mean f4 [18]
000000 87 c3 af 40 c1 4f 54 bf 97 ea a1 41 f8 48 3c 40
       5.492618 -0.82934195 20.239546 2.9419537
000010 4d da bd 3e 08 55 1f c0 ef aa c7 3a e1 08 a5 3e
       0.37080613 -2.489565 0.0015233437 0.32233337
000020 3b b6 5f ba 65 66 5c bf bd dc ba 43 9e 1f 7b 40
       -0.00085339294 -0.8609374 373.72452 3.9238048
000030 b9 fc 82 3e db 33 f6 bd 1d 85 23 3f 99 69 3a bd
       0.25583437 -0.120216094 0.6387499 -0.045510862
000040 00 00 00 00 76 a8 bd 3e
       0.0 0.37042588
