Assets/Brains/run30/CarPractice_run30-13.onnx (onnx, 108394 bytes, 15 tensors)

85 f4 [25]
00000000: 2adc 883e e88b 4e3d f277 ea39 1a3b 7e3d
00000010: df70 b63d 8e57 aa3e 0803 483d f277 ea39
00000020: 08ea cb3d 7c50 ea3d 724f d83e 5663 503d
00000030: f277 ea39 c706 c93d 228b e53d 5236 ef3e
00000040: d2f9 a93d f277 ea39 f9d7 4e3e 8e31 433e
00000050: 6ef5 ff3e 668e ad3d f277 ea39 edde f03d
00000060: 58ff 063e
0.26730472 0.050426394 0.00044721324 0.062068082 0.08908247 0.33269924 0.048831016 0.00044721324
0.09956747 0.114411324 0.42248112 0.050875984 0.00044721324 0.09815746 0.11208178 0.4672113
0.082996026 0.00044721324 0.20199575 0.19061872 0.49991935 0.08474426 0.00044721324 0.1176127
0.13183343

88 f4 [25]
00000000: edd6 d23e acaa f93e f277 ea39 cad0 3c3e
00000010: 4f45 363e 9f19 bd3e c065 a43e f277 ea39
00000020: 2e0f 8e3e 0ded 873e 188e fb3e 2dda 693e
00000030: f277 ea39 508d 883e f798 833e e62c 903e
00000040: 7851 7d3e f277 ea39 3b12 6b3e a813 643e
00000050: 63d8 fe3e 12df 1c3e f277 ea39 e256 913e
00000060: 1271 8c3e
0.411796 0.48763025 0.00044721324 0.18439022 0.17799877 0.3693361 0.3210888 0.00044721324
0.27745956 0.26548043 0.49131846 0.22837134 0.00044721324 0.26670313 0.2570264 0.28159255
0.24738109 0.00044721324 0.22956173 0.22273123 0.49774465 0.1531947 0.00044721324 0.283866
0.27430016

91 f4 [17]
00000000: 7850 c641 565a 0740 24d7 cd41 7995 c240
00000010: f92d 493d 26c9 da40 8e99 1e3d c9ea a53e
00000020: dadb 813d 3e39 313e bd19 0b44 b863 ba41
00000030: 24d3 023f 73e0 2e3e b7eb e33e e7e1 483f
00000040: f277 ea39
24.789291 2.1148887 25.73005 6.080746 0.04911611 6.8370543 0.03872066 0.3240569
0.063407615 0.17306992 556.40216 23.29869 0.51103425 0.17077808 0.44515774 0.784697
0.00044721324

action_model._discrete_distribution.branches.0.bias f4 [3]
00000000: 7a2e 0b3e 87e0 5dbd 2d35 acba
0.13591948 -0.054169204 -0.0013138406

action_model._discrete_distribution.branches.0.weight f4 [3, 128]
00000000: d6af a7bd 79e8 da3d f0a7 d43d 9cfd 69be
00000010: c289 383e d917 6a3d 6f53 3cbd d9e7 07be
00000020: 67ec 13bc 59cd b13d 97b9 5b3e 3186 ad3d
00000030: 9abe c43e e9b0 103e 959c 8cbe c190 093d
00000040: 779b 3d3e 0868 a13e 2a18 203e c188 d2bc
00000050: fcf0 d6bd 475a c83d 5988 c33e c1da 033d
00000060: c695 913e 5295 e4bd b433 353e eebe 473e
00000070: 2689 adbe 181d c03c e828 043e e6c8 39bd
00000080: 885c 34bd 0bdb 433e 0898 033e abba 8abd
00000090: 7aa6 59be 4158 9f3c 98dd bcbc 40a4 863e
000000a0: bbb2 d4bd 807c a53e 4312 523d 228d 07be
000000b0: deef efbe f0ac 8d3d c704 8fbe c87c ac3e
000000c0: ce00 66be 7462 9bbe 0663 bdbc cffc 56bc
000000d0: 4208 6b3d d2f3 eb3d b371 79be 24bb 8ebe
000000e0: 5c45 82be cec5 44be c3a8 863e 0cff 463d
000000f0: 3657 53be 9f9f 8b3e 5439 443e 1f63 393d
00000100: 3d24 953b 0c05 663e f51b 333e 5061 b23d
00000110: 2802 79bd 33d9 ae3b 66bd 8dbd 16bc 42bc
00000120: d7a4 a0bd f195 2dbe f31e 4ebe 481c 2ebe
00000130: fa43 a2bc 6ba8 203e 5032 f2bd d75f 8e3e
00000140: 4f7c ecbc eae9 4f3e ea1a ad3a e833 833d
00000150: cdec efbd 052c 33bd e298 993e 1918 9b3e
00000160: ddde c8be cf6a 89bd 4447 a43e 8787 41bc
00000170: 7613 d43e d084 98bd 2065 febb a1f9 d4be
00000180: c6d1 64be e5b9 d7bc fdbb a4bd 13a0 a6bd
00000190: a6f3 8dbe 3b18 23be 2308 443d afdb 8f3e
000001a0: cfef 623e 86e3 a03d 3a18 4a3c 85c4 713d
000001b0: cd6f 363e 9c06 63be 81fa 26be 9f10 24be
000001c0: 19b3 9fbe 359d b8bd aa36 e13e 158f dd3d
000001d0: 7010 413e 3409 7d3e 2de0 893d 5bac 55be
000001e0: c456 9b3e e10f 933e baf8 14bb e71e 06be
000001f0: 7199 22bd 53a2 d73c 4435 c93e e659 003e
00000200: 8183 3a3e 3446 51be 9224 083e d11d 92bc
00000210: 7ca7 c03d f2f5 8e3d 3b9c 853e faf7 a03e
00000220: 106f 76bc 28eb 393e d9cf ccbe 78a9 bd3d
00000230: 23bb d2bd 2dce 6abe 4858 5c3e 03a2 dbbd
00000240: 478f 3bbe 1546 1d3e 6064 d3be e42d 923e
00000250: 94dc 97bc 5aa8 2d3e 0da0 cabd f487 1b3e
00000260: f8fe cfbd 3904 663e e5fc 10bd f7fe ec3c
00000270: 53bd b83e c9bc 8f3d 1893 fdbe 3001 e93c
00000280: 5684 963e 7e84 193e 4936 223c 7b4f 25bd
00000290: cdb8 c13e 48fc b0be ec2e 0c3e 9fcb cabd
000002a0: ac12 403e 0434 9cbe 2d5d 083d eaf5 e43e
000002b0: 244a 5ebd a942 a13e 991d 323e 20e3 9bbe
000002c0: 5b06 ad3e 5644 0a3d 3f46 4abd 21eb 38be
000002d0: 60e4 ae3e fc39 0cbe 40e3 5b3e a2bc 9ebd
000002e0: c9cd 293e 8d39 9e3e 6b41 aabd d897 ae3d
000002f0: 315a 47bc 65a1 a5bd 4ecd 143e 63d7 a6be
00000300: 28d9 163e e781 c3bc dac0 c8bc 6051 303e
00000310: 8994 093d 420a 293c 8e92 b23e aad4 6e3c
00000320: 10f0 debd 494c b4bb c191 be3d 0d10 983e
00000330: c20b 4bbd 28df b5bd 5eea ae3d c3c5 6ebb
00000340: 889f 10bd 8129 40bd 0765 a43e 2d60 2b3e
00000350: a71a 74bc a6b4 1abe a55a 1dbe bcc5 be3d
00000360: 02bb 2b3e 523e a43d 98ed d4bd 2cbb 3a3e
00000370: 023d b4be 3b8d a03e 7366 e4be c475 cd3e
00000380: 59dc 8a3e 1412 933d 6c39 47be f4ea 9d3e
00000390: b3d6 9c3e 132e 2cbb f907 383d 1af6 663d
000003a0: e45c 23be 70eb 06bf 9c38 ebbc 1437 e13d
000003b0: 79c7 25bd bc05 bd3b 977a d93d 17a9 90bb
000003c0: ccb4 1dbd 7aa0 62bc 2015 bebe 53f5 d33d
000003d0: 8c84 7bbd 5376 45be 6f08 8bbe a64d 713e
000003e0: 8b06 98bd 79f6 00be b4f6 3e3d 8700 65be
000003f0: deca 0d3d b63e 893e f47a 343e ca53 dd3d
-0.08187835 0.10688872 0.10383594 -0.2285065 0.180213 0.05715165 -0.045978006 -0.13272037
-0.009028531 0.08681745 0.21457516 0.084728606 0.38426667 0.14129986 -0.27463213 0.033585314
0.18516336 0.31524682 0.15634218 -0.025699975 -0.10495183 0.09782844 0.38189963 0.03219104
0.2843458 -0.11161293 0.17695504 0.19506428 -0.33893698 0.023451373 0.1290623 -0.045357607
-0.044033557 0.19126527 0.12850964 -0.06773885 -0.21254912 0.019451262 -0.023054883 0.26297188
-0.10385653 0.32321548 0.051286947 -0.13237432 -0.46862692 0.06917751 -0.27933332 0.3368895
-0.22461244 -0.3034855 -0.023118507 -0.013121798 0.057380922 0.115211144 -0.24359779 -0.27877152
-0.25443542 -0.19216082 0.2630063 0.048583075 -0.20638737 0.2727022 0.19162494 0.045260545
0.004551439 0.22462863 0.17491134 0.08709967 -0.060793072 0.0053359508 -0.069208905 -0.0118856635
-0.07843941 -0.1695173 -0.20128994 -0.17002976 -0.019807804 0.15689246 -0.118260026 0.27807495
-0.028867869 0.20304075 0.0013206874 0.06406385 -0.11715088 -0.043743152 0.29999453 0.30291823
-0.3923253 -0.06709825 0.3208562 -0.011812097 0.41421098 -0.07447207 -0.00776352 -0.41596702
-0.22345647 -0.026333759 -0.080436684 -0.081360005 -0.27724952 -0.15927212 0.047859322 0.28097293
0.22161792 0.07855897 0.012334878 0.059025306 0.17816086 -0.2217049 -0.16306497 -0.16021965
-0.31191328 -0.0901436 0.43987018 0.10818306 0.18853927 0.24710542 0.06732211 -0.2086653
0.30339634 0.28723052 -0.002273126 -0.13097726 -0.039697114 0.02632252 0.3929845 0.12534294
0.18214227 -0.20436937 0.132952 -0.017836483 0.09406945 0.06980504 0.26095757 0.3143919
-0.015041128 0.18156111 -0.40002325 0.09260839 -0.102896 -0.22930212 0.21518052 -0.10724261
-0.18316375 0.15358765 -0.41287518 0.28550637 -0.018537797 0.16958752 -0.098938085 0.15188581
-0.10156053 0.22462548 -0.03539743 0.02893017 0.36081943 0.0701843 -0.49526286 0.028442949
0.2939784 0.14991948 0.009900638 -0.040359 0.37836304 -0.34567475 0.13689774 -0.09902119
0.18757123 -0.30508435 0.033291984 0.44718868 -0.054269925 0.3149617 0.17394103 -0.3044672
0.3379391 0.033756576 -0.0493834 -0.18058445 0.3415861 -0.13693994 0.21473408 -0.077508226
0.16582407 0.30903283 -0.08313259 0.08525056 -0.012167499 -0.08087424 0.14531443 -0.32586202
0.14731276 -0.023865653 -0.024506021 0.17218542 0.03358892 0.010317387 0.34877437 0.01457707
-0.10885632 -0.005502258 0.09305144 0.29699746 -0.04957176 -0.08880454 0.08540796 -0.0036433793
-0.03530839 -0.04691458 0.32108328 0.16735907 -0.014898933 -0.15107974 -0.1536661 0.093150586
0.16770557 0.08019699 -0.1039688 0.18235463 -0.35202795 0.3135775 -0.44609413 0.4012891
0.27121237 0.071811825 -0.19455498 0.30843318 0.30632553 -0.002627258 0.04492948 0.056387044
-0.15953404 -0.52703 -0.028713517 0.109968334 -0.040473435 0.005768506 0.10619085 -0.0044146883
-0.0385025 -0.013832206 -0.37125492 0.10349526 -0.061405703 -0.19283418 -0.27154872 0.23564777
-0.07423123 -0.12594022 0.046621993 -0.22363482 0.034617297 0.26805657 0.17625028 0.10806997

action_model._discrete_distribution.branches.1.bias f4 [3]
00000000: 4705 72be d621 c83e debf 2ebd
-0.23634826 0.39088315 -0.042663448

action_model._discrete_distribution.branches.1.weight f4 [3, 128]
00000000: 0885 4e3e 5583 333e 5a48 293d 43df 863e
00000010: b355 0ebe 43ae 013e 5f53 893e 567b ac3d
00000020: a14e 81be 1a18 953e 7386 763d bbb2 fcbe
00000030: f879 f3bb 5c9e 79be 7514 463e ca8d a93e
00000040: a9d1 8f3e 7043 27be d082 73bd 7f20 07be
00000050: 02f5 a83e 7c1c cb3e 566d 563e 2437 26be
00000060: 535b 873e 659e 463d 740a c53d f9b0 283e
00000070: a9d6 aebe f1de ab3e 8eac 62be 7279 883d
00000080: 0907 d2bd f15a 1bbe 95aa 97be b26f e43b
00000090: e0d4 a3bd 1da9 a13d b360 5cbe 9eed ab3d
000000a0: 30ef 353e 0f60 0fbe c12e 8fbd 1e25 d7bd
000000b0: efa0 413e aca9 dcbc fa3c bd3e fec9 16be
000000c0: 21f6 a63e 3671 5abe dbf1 913e ae85 253e
000000d0: 8845 22be 5f0e f33c da52 e3bd afe3 aebd
000000e0: 117c 553d 505b eabd 1b74 203c a9f8 923d
000000f0: cc1c 82be 55f7 8f3e b756 683e 5cd4 543d
00000100: 092d 203e 2bc4 b1be 7a38 4d3d ae64 02bc
00000110: 6338 893e 3000 9c3d 4c5f a23d 377e a43e
00000120: 5e62 03bd 35fe 313e 6a74 373e 11c2 1bbf
00000130: 568a 1cbf 3525 b1be 8f3d 303e be82 09bc
00000140: dfc7 2d3b 98e9 963d e72a 3b3c 9a64 1c3e
00000150: 04c2 90bd bc81 503e 4fc9 683d ba1c bd3d
00000160: bab3 cdbc 75dc 85be d693 c7bd fa95 ce3d
00000170: b52e 2a3c 5d5e c83d 2424 8dbe 6ce0 6f3e
00000180: d06e b8be e464 8c3e 88b9 34bd 38bc b33d
00000190: 2e01 36bc ecd3 1ebc c689 533e 086e 45bd
000001a0: 3f61 9dbe d44e 7e3d 7aaf 153e 8c2e c53e
000001b0: d555 993d 018a 93be 07ec dfbb af83 493e
000001c0: 4dad ed3d 773c fabe f084 5dbe da36 aabe
000001d0: 52dd 003e 34dd b8bd 19c0 c53d 35f0 68bd
000001e0: 80f4 603e 6efd 5d3e d2bc 843d 6f65 3fbd
000001f0: e140 4f3e 8fec 21be fc84 83be 2dab 3b3e
00000200: c341 b3be 00b4 11be 37a1 10be 7caa bcbd
00000210: 54b1 a93e f199 7a3e 1622 e2bc 9f0f 9abb
00000220: 80e8 783e ba83 a3be 0847 2b3e 94a0 543e
00000230: 20cb b93d a5fb 993e f70c 143e 0494 c2be
00000240: bdfe 6c3e 0544 07be 2edd cf3d 80af 11be
00000250: 6bc9 d6be 9399 dd3b 1ad5 033e f8a5 b7be
00000260: e2e0 2d3d e612 153e f59e 43bc 6171 a8bd
00000270: 158c 5b3e 8f43 debd 169d b63d 00c9 803e
00000280: 6426 08bf 0718 89bd 39b3 ff3e 11aa 183e
00000290: 5be6 433e 92c7 aabe 31f3 e93e 2386 373e
000002a0: 7281 90be 46c6 ff3d baab c6bd d3d6 88be
000002b0: 0ee4 37bb cf55 193d 06bb 103d 15ba 163e
000002c0: b1c5 dcbb 8fd5 8bbd fd6a 6bbe 9827 b3bd
000002d0: 17f5 903d aa72 76bc 4b84 c73d de39 353e
000002e0: 3fcf 493d 59dd 5abe 0d20 5bbe 419e 09bd
000002f0: 5aa6 a93e 2304 9cbd dceb a5be 428f 1c3e
00000300: 9980 523e 5e3f 0e3e cd75 10be 2448 943e
00000310: 917d b9be 1516 8abe 28cf f3be c0e3 f6be
00000320: 66f0 1abe 6f37 183d 2eb2 b0be 2b13 8c3e
00000330: ca8d cd3e ee0d 933d 58c4 b5be d1b2 453e
00000340: 194d ccba 4ea8 973e e128 37be 2c1e 41be
00000350: 68e2 893e 5a19 a4be 6da3 e23c 1d1c 153d
00000360: 497b f6bc 4a5a 163f 3586 5e3e cd01 adbe
00000370: 0a2f 47bd d239 c43e b365 d7bd b02d 51be
00000380: 2d3d 343d cda4 03bf 11d2 cd3d caa9 d3be
00000390: a262 76be 0fde 073e f0a4 84be 745d 8e3d
000003a0: 4350 873e b8c5 903e 9504 3f3d 6b33 14bf
000003b0: 498a 1b3e 43b6 0f3e 4564 41bd 73a1 dcbd
000003c0: cfbc 123e 0591 a23e d2c8 663e 408a 8e3e
000003d0: 3386 193b bcf6 6f3e 38a1 1ebd f76f 9c3e
000003e0: 73ca 10be 55ac c7be dbd2 553e 073b f33d
000003f0: 9b32 923e 2de5 dc3d 3461 203e 8a09 933e
0.20167935 0.17530568 0.041328765 0.2634221 -0.13899879 0.12664132 0.2682142 0.08421962
-0.25255302 0.2911995 0.060186815 -0.4935511 -0.0074303113 -0.24376816 0.19343741 0.3311599
0.28089646 -0.16334319 -0.059450924 -0.1319599 0.32999426 0.3967017 0.20940146 -0.16231972
0.26436862 0.0484909 0.096211344 0.1647376 -0.34148148 0.33568528 -0.22136137 0.06663789
-0.10255248 -0.1517141 -0.2962233 0.006971323 -0.07999587 0.07893584 -0.21521263 0.08394931
0.17767024 -0.14001487 -0.069913395 -0.105051264 0.18909048 -0.026936375 0.36960584 -0.14725491
0.32609656 -0.21332249 0.28504834 0.16164276 -0.15846837 0.029669939 -0.11099787 -0.08539521
0.052120272 -0.11443198 0.009793307 0.071763344 -0.25412595 0.28118387 0.22689329 0.051960334
0.1564218 -0.34719977 0.05010269 -0.007958574 0.26800832 0.07617223 0.07928333 0.32127544
-0.032076232 0.17382129 0.17915502 -0.60842997 -0.61148584 -0.345987 0.17210983 -0.008392988
0.0026516838 0.07368773 0.011423803 0.15272751 -0.070682555 0.2036199 0.056832608 0.09233995
-0.025110114 -0.26144758 -0.09744994 0.100871995 0.010387112 0.09783623 -0.27566636 0.23425454
-0.36022043 0.27420723 -0.04412225 0.08776134 -0.01110868 -0.009694081 0.20658025 -0.048200637
-0.30738255 0.062086895 0.1461772 0.38512075 0.07487074 -0.28816226 -0.0068335566 0.1967914
0.1160532 -0.48874256 -0.21632743 -0.33244973 0.12584427 -0.09026566 0.0965578 -0.056869704
0.2196827 0.21678707 0.06481327 -0.046727594 0.20239593 -0.15812896 -0.25687397 0.18327017
-0.3501111 -0.14228821 -0.14123999 -0.09212205 0.33143103 0.24472786 -0.027604144 -0.004701569
0.24307442 -0.31936437 0.16726315 0.2076438 0.09071946 0.30074802 0.1445807 -0.38003552
0.2314405 -0.13209541 0.101496086 -0.14227104 -0.41950545 0.0067626922 0.1287426 -0.35868812
0.042450793 0.1455799 -0.011939754 -0.0822475 0.21440156 -0.108527295 0.089166805 0.2515335
-0.5318358 -0.06694036 0.49941424 0.14908625 0.19130842 -0.33355385 0.45693353 0.17922263
-0.2822376 0.124889895 -0.09700723 -0.26726398 -0.0028059515 0.03743535 0.03533461 0.14719422
-0.006737434 -0.068278424 -0.22990032 -0.08747786 0.07077997 -0.0150419865 0.0974203 0.17697856
0.04926991 -0.213735 -0.21398945 -0.03359819 0.3313473 -0.076179765 -0.3240651 0.15289024
0.20556869 0.1389136 -0.14107437 0.2896129 -0.36228612 -0.26969972 -0.47618985 -0.48220634
-0.15130767 0.03716224 -0.3451094 0.27358374 0.4014724 0.07180391 -0.3550136 0.19306494
-0.0015586942 0.29620594 -0.17886688 -0.18859166 0.26930547 -0.32050592 0.027665818 0.036403764
-0.030088084 0.5873152 0.21730883 -0.33790436 -0.048628844 0.38325363 -0.105174445 -0.20427585
0.044003654 -0.5142334 0.100498326 -0.41340476 -0.24061063 0.13268302 -0.25907087 0.069514185
0.26428422 0.28275847 0.04663523 -0.5789096 0.1518947 0.14034371 -0.047214765 -0.107729815
0.14329837 0.31751266 0.22537544 0.2783985 0.0023425936 0.23433965 -0.03872797 0.30554172
-0.14139728 -0.38998666 0.20881216 0.11876493 0.28554234 0.10785899 0.1566208 0.28718215

discrete_action_output_shape f4 [1, 2]
00000000: 0000 4040 0000 4040
3.0 3.0

network_body._body_endoder.seq_layers.0.bias f4 [128]
00000000: a9cf d7ba e451 aebc 3e9f a9be 9199 d3bd
00000010: 98c2 503e 249a 4dbd aa37 87bc 28b6 593d
00000020: f87d 8abe 17d9 88be cbf3 b6be 19b7 4ebd
00000030: 4ccf 153e 9af5 d4ba 6608 403d b24f aa3d
00000040: 1695 8dbd 073d a6bd bd8d 873d e4f1 bebc
00000050: a4ec 4bbc 3178 a3bd 2e9f 38be 7658 05bf
00000060: 53e0 08be 7a0e 61bd ab0a 83bd 47c6 d3bc
00000070: 1a31 88bd 28ee bdbe 0c69 9bbd f1d3 48be
00000080: 9c2d c63b 5726 7a3d 2f6a ef3d 90f8 b03d
00000090: 9df7 abbd 260f 6dbe caf9 383c d4fb 823d
000000a0: 9e3b 8abd e5e0 77be 5812 e53d 6c14 a73d
000000b0: cb58 1e3e b004 65bd c332 61bd 0c61 843e
000000c0: ed80 1e3e 4878 393d 9f2b 153d 288c 8f3d
000000d0: 22b6 dfbd 6911 21be f8b9 d7bd 78a2 b4bd
000000e0: 387b 9bbe b0d8 6fbd 7342 49bd b0b0 8dbd
000000f0: d032 973e c873 893c eac7 3cbd 5792 00be
00000100: f793 383d aa71 08be 75e4 80be ec09 d0bd
00000110: 9606 123e 85df 07be 1560 513d 64da 7abb
00000120: a0cd ccbd 9c68 07be 3d2e 35bd 2c43 473e
00000130: b23f 8dbe 1a1a c2bc 8b6d fabd 15b2 3ebd
00000140: ed47 173c d073 1e3e 4461 39be 99cd 583d
00000150: 3840 a2bd 29ae d63d d21f eabd 48ec a9be
00000160: e69d ebbc 871d 0e3e 5ae0 dcbc dd54 a8bd
00000170: 56a2 10be 3e92 00be e5af b8bd e2ab 963c
00000180: f9a6 b7bd 9976 fcbd 7a65 14bd 4055 3e3e
00000190: 3541 2fbe 8516 aabd 972f c93c e048 1e3e
000001a0: bce7 b6bd ff21 0d3d 83e9 043e 5ad0 a9bd
000001b0: a1f4 cf3d 44e1 96bd 7a83 2dbe ee6b 2bbe
000001c0: 58dc 64bd 9805 e93c 4f44 3b3e 19b6 7a3c
000001d0: b070 35bd 5f54 21be e97d 813c 7ac3 34bd
000001e0: 279f b6bc 0650 963b ec68 a1be e8e1 fb3d
000001f0: 2803 a0bd 6965 87bc 7435 6abd b095 78bd
-0.0016465086 -0.021279283 -0.33129305 -0.10332025 0.20386732 -0.050195828 -0.016506035 0.053152233
-0.27049232 -0.26728126 -0.35732874 -0.050467584 0.14629859 -0.0016247511 0.04688301 0.08315982
-0.069132015 -0.08117109 0.06618831 -0.023308702 -0.012446556 -0.07981909 -0.18029472 -0.52088106
-0.13366823 -0.054945447 -0.06398519 -0.025851382 -0.066499904 -0.3709576 -0.075883955 -0.19612099
0.0060479175 0.06107172 0.11690175 0.086411595 -0.08396838 -0.2315031 0.011290023 0.06395689
-0.06749652 -0.24206884 0.111851394 0.08158192 0.1546356 -0.055912673 -0.05498005 0.2585529
0.15478869 0.045280725 0.036418553 0.070091546 -0.10923411 -0.15729298 -0.105335176 -0.08820051
-0.30367446 -0.05855626 -0.049135637 -0.06918466 0.29530954 0.016778842 -0.04608909 -0.12555824
0.045062985 -0.1332461 -0.251743 -0.101581424 0.14260325 -0.1326886 0.05111702 -0.0038277144
-0.10000157 -0.13223499 -0.04423355 0.19459218 -0.27587658 -0.023694087 -0.12227925 -0.04655655
0.009233457 0.15473866 -0.1810351 0.05293045 -0.07922405 0.10482437 -0.114318505 -0.3318808
-0.028761815 0.13878451 -0.026962448 -0.082193114 -0.14124426 -0.12555787 -0.09017924 0.018392507
-0.089673944 -0.12327308 -0.036229588 0.18587208 -0.17114718 -0.083050765 0.024558825 0.15457487
-0.089309186 0.03445625 0.12979703 -0.08291693 0.10154081 -0.07367185 -0.16944686 -0.1674039
-0.0558742 0.02844505 0.18287776 0.0153022045 -0.04429692 -0.15754841 0.015807109 -0.044131733
-0.022292687 0.0045871763 -0.31525362 0.122989476 -0.07813102 -0.016527848 -0.057179883 -0.060689628

network_body._body_endoder.seq_layers.0.weight f4 [128, 67]
00000000: ae22 16be e552 41bd d155 5e3d c836 74bd
00000010: 389a 993d c775 2e3e 37f8 9bbd 5d51 10bd
00000020: 0267 89be 8fcd 873c f6b1 9dbd ca77 70be
00000030: 8f1e 803d bb14 a7bd 15bc f03e 35c3 8c3e
00000040: da8d 9a3c 7d22 1ebe 0339 3fbe 660d ab3e
00000050: ff27 833e 8445 9dbd aeed aabd 04bd 293c
00000060: 99bd a7bd 93ca 60be c0f1 dabd 5dbd 683e
00000070: 1d4f debc c26c 3abe bad3 d0bd f599 ce3d
00000080: ef7c e2bd 2459 1f3e 13e4 493e e647 3ebe
00000090: 7b0f 553e b3d1 d13d a3af fe3d 61a0 0f3e
000000a0: 7b8d 7ebe e27c 25be f253 173e 5f93 b23e
000000b0: ddf6 1a3e a7a2 4fbd cb6e c2be b7e3 01be
000000c0: 8119 263e 14aa 16bc 94d3 21be 5585 6d3e
000000d0: a7e1 86bd 264a 9b3d 2e65 c8bd f186 003e
000000e0: 207d a4be f2df adbe a6ec d13e f0c8 9bbd
000000f0: 568c bb3e 41f1 88be af10 653d 8eec 023f
00000100: 1227 8dbe ed31 40be 53ca 42be 4352 863e
00000110: 4ac5 023f e3cc 8b3d 4135 f3bc 7083 d93d
00000120: 9ce8 94be 4335 5f3e c8da dd3d 7cf0 09be
00000130: 4992 0b3e 2b9a 4fbe dda9 a63d d35f 4dbd
00000140: a9e7 fdbd e408 dfbd c781 8bbe 85d2 2fbe
00000150: 06ea 4b3d 0def 10bc 42ae a83e 94ec 173f
00000160: 548b e5bd 90c4 b23d 2890 a6bd 4596 873d
00000170: ccbe 2cbc 9ad3 19be 946b 043e a668 b63d
00000180: ae52 a13c 7317 c4be ca4d 39be 4dae c4bd
00000190: 0db3 5ebc ce0e aebd 9d83 9b3d e95f 9f3d
000001a0: 053d 373c 89f8 003d c44a f13d 3546 5cbe
000001b0: e42c 043f c28e 46be d70c be3e 7a2d d1bb
000001c0: 170c b83c d5d2 333e f48e 063c f92b 85be
000001d0: fc23 f4bd d218 773e 3d10 e33d 3de0 15bd
000001e0: 1b07 f83b cb70 7fbc a08b 843e cefd d2be
000001f0: aef9 9b3d a7d6 6e3e 4521 65be 2e90 e53e
00000200: 0301 b6bd fa49 29be 7d05 373e 19e7 83ba
00000210: ddfb 8c3d f7bc d63c 2944 a93d 7ab0 c33e
00000220: 5231 0d3e 9af6 aa3e 2537 24bd 9806 a03e
00000230: ab22 afbd 9181 403d ca65 cf3e 6ba4 a03d
00000240: 7e88 3dbd 803f af3e 2b9f 753d af94 ae3d
00000250: da17 4f3c 224e 283e 00ae 8f3e c02a 3b3e
00000260: 5ddf 0f3e 5510 58be 875b 603e 8850 923e
00000270: 276d 983d 7dd9 23bd 5be8 753e cc69 8bbd
00000280: c847 49be 9354 08be ebcb bdbd 3b55 123e
00000290: f5ea 22be 6991 e23c d5d1 893d 4b9b 31be
000002a0: 3e57 0c3e bdfc 173c 525d c53e 9dc8 41bd
000002b0: 8448 5fbe 822d 26be 3b4c 1b3e 6a01 263e
000002c0: e1bd cdbd 86ca de3e 35f6 cb3e 5f78 093e
000002d0: d846 363e 0fb1 ba3d a084 06be 2f08 7bbd
000002e0: cf08 913e e812 d6bc f66e ecbd 1888 a03d
000002f0: f33d c83e e122 e3be 2275 40bd 0d06 c63e
00000300: a7f1 c63e 4c2d 1d3f 9209 28bd 29e5 39bc
00000310: efd3 e53e 4055 b73d b463 b6bd e406 f7bc
00000320: 297b 27bd 0134 bbbd e020 883e 6a3d e4bb
00000330: b395 1e3e 3389 7bbd 7986 53bd 1fb2 7bbd
00000340: ddc0 b43d 548b 5abd 91e5 243e 4cc8 423a
00000350: b7fa 64be 1d1a 44be b919 963d fd2e 95bc
00000360: 992b d03e 60d5 18be 75a7 b93d bc6a 3b3d
00000370: 0652 933e 4b25 d83e 6c47 793d f0ea c43d
00000380: a74a 39bd f1d3 853c 4e06 bb3e d284 1bbe
00000390: 1152 1abd c147 8abd 5589 b03d 0523 513e
000003a0: 91b2 133f e848 2dbe 001a 99bd a731 a53c
000003b0: 599c 34be e655 ca3d 89c1 95bd b6f2 ecbd
000003c0: 5699 643d 60c6 9e3e 11bf 2fbc 8259 f3bd
000003d0: 83b2 d53d 67cd ea3d bc62 1e3b 6190 813e
000003e0: 4856 dfbc b902 8a3e e539 57bc 299d 2fbe
000003f0: 6638 a8bc bf77 0bbe 07c3 cabc 0028 a93a
-0.14661667 -0.047198195 0.05428106 -0.059622556 0.07500118 0.17037116 -0.076157026 -0.035233844
-0.268364 0.01657751 -0.07699959 -0.23483196 0.062558286 -0.08158251 0.47018495 0.2749268
0.018866468 -0.15442844 -0.18674092 0.3340866 0.25616452 -0.07679275 -0.08346115 0.010360006
-0.0819046 -0.21952276 -0.106906414 0.22728486 -0.027137334 -0.1820555 -0.10196634 0.10087959
-0.110589854 0.15561348 0.1971591 -0.18582115 0.20806687 0.10245075 0.12435844 0.14026023
-0.24858658 -0.1616092 0.14778116 0.3487806 0.15133233 -0.050692227 -0.37975153 -0.12684523
0.16220666 -0.009195823 -0.15803367 0.23195393 -0.065860085 0.07582502 -0.097849235 0.12551476
-0.32126713 -0.3395992 0.4100086 -0.07606685 0.36630505 -0.26746562 0.055924114 0.51142204
-0.2756887 -0.18769045 -0.19022493 0.26234636 0.5108229 0.068261884 -0.02968848 0.10620773
-0.29083717 0.21797661 0.10832745 -0.13470644 0.13630022 -0.20273654 0.081378676 -0.050140213
-0.12397701 -0.108903676 -0.2724745 -0.1717015 0.04978373 -0.008846057 0.32945448 0.59345365
-0.11208215 0.087288976 -0.081329644 0.066204585 -0.010543536 -0.15022126 0.12931663 0.08906679
0.019692745 -0.3829914 -0.1809608 -0.09603558 -0.013592494 -0.084989175 0.075934626 0.07781965
0.011183982 0.03148702 0.117818385 -0.21511157 0.51631 -0.19390395 0.3711917 -0.006383595
0.022466702 0.17560895 0.008212794 -0.2601011 -0.11920926 0.24130562 0.110870816 -0.036590803
0.0075692064 -0.015590857 0.25887775 -0.41209263 0.07615982 0.23324071 -0.22375973 0.44836563
-0.08886912 -0.16532126 0.17873187 -0.0010063379 0.068839766 0.026213152 0.08264954 0.38220578
0.13788345 0.33391267 -0.040091652 0.3125503 -0.08551534 0.046998564 0.40507346 0.0784386
-0.046272747 0.34228134 0.059966248 0.08524453 0.012639964 0.16436055 0.2806244 0.18278027
0.1405005 -0.2109998 0.21909915 0.28577065 0.07442694 -0.040002335 0.24014418 -0.068072885
-0.19656289 -0.13313513 -0.0926741 0.14290325 -0.15909941 0.027657228 0.067294754 -0.17344396
0.13705155 0.009276566 0.3854776 -0.04731046 -0.21805006 -0.16228297 0.15165798 0.16211477
-0.10045982 0.43513888 0.3983628 0.13424824 0.17800462 0.091158025 -0.1313653 -0.0612871
0.28327033 -0.026132062 -0.115446016 0.07838458 0.39109764 -0.44362548 -0.046986707 0.3867649
0.3885624 0.6139724 -0.041024752 -0.01134614 0.44888255 0.08951807 -0.089057356 -0.030154653
-0.04088894 -0.09140778 0.26587582 -0.006965329 0.15486793 -0.06141014 -0.051641915 -0.061449166
0.08825848 -0.05335553 0.16103198 0.0007430359 -0.22361265 -0.19150586 0.07329125 -0.018210882
0.40658262 -0.14925146 0.09065143 0.045756087 0.28773516 0.42215952 0.06085913 0.09615123
-0.04523721 0.016336413 0.36528248 -0.15187386 -0.03767592 -0.06751967 0.08619944 0.20423515
0.57694346 -0.16922343 -0.07475662 0.020165278 -0.17637767 0.09879665 -0.073123045 -0.11569731
0.055810295 0.31010723 -0.010726706 -0.11882307 0.10434439 0.11464959 0.0024167737 0.25305465
-0.027262822 0.26955202 -0.013136362 -0.17149796 -0.020534705 -0.13619898 -0.0247512 0.0012905598

network_body._body_endoder.seq_layers.2.bias f4 [128]
00000000: 80d9 3cbd 1219 b8bd eac4 8fbe 7f6f 91be
00000010: 6de2 c63c a995 b5bd d4f9 c5bd 9d48 5ebe
00000020: 0fee a1be b3ac 80bd d1d8 0dbe fc7b 803d
00000030: 6233 bebd 009b 36bd 600f 58be 7e63 08bd
00000040: ea5d 8cbd cf91 85be 21a8 cdbd 3076 f6bd
00000050: 41f3 37be 695e c6bd 5078 e6bd 0446 fabd
00000060: a5c0 733d a81a 98be c60d 7abe bae1 67be
00000070: 315a 12be d2f8 46bd b4b1 bebd ae4d 6dbe
00000080: 7b41 75bd 038e 1cbd dd8a df3d 955d 59be
00000090: 48d8 7b3d e446 83bc f268 72bc c89c 37be
000000a0: 77af 1cbd e846 1cbe 1ce1 17bd 0023 03be
000000b0: 6cc8 34bd f165 73be d6b0 a8bc 9671 abbd
000000c0: 92c5 1fbe f2f1 ab3d e875 bebd e37c 5cbe
000000d0: 6296 1e3d f7c6 47be 6036 78be c38c aabb
000000e0: a54a 68be b216 98bc 441a 9dbd d48a 83be
000000f0: 75a4 4f3d ed44 773d 309a 06be 6643 dd3d
00000100: 1864 49be 876b d13c 7885 ecbd 4eaf 903c
00000110: d5ac f0bd 3c63 33be 2179 2bbc 1912 aebb
00000120: 794a 2d3c f10f 74be cfcc a6bd 2344 de3c
00000130: e812 293d 819e bfbd 9861 3abd 5b0b 97bd
00000140: 12e4 13bf 9ece 733e 004c 24be 92aa 9dbe
00000150: 1e37 a7bd a2f7 93bc f677 45bd ee9b 29bc
00000160: cd73 d6bc a2e5 23bd db9d 9bbc 7824 bbbd
00000170: 7d60 a4bd ba76 4dbd 39c3 d53c 5b4b bb3d
00000180: fd58 61bd 3edd 83bd 85ea 66bd d5c4 f9bd
00000190: 1987 bcbd 3661 1dbd 48bb 87be e421 533c
000001a0: e3f1 0ebe 4633 373d 0da5 dbbe 6d4d 04be
000001b0: e066 78bd 4137 5bbd cb2b 39be cf3d d3bd
000001c0: bf82 c1bc 4240 853b 8f22 8dbd e61d 2abe
000001d0: 55aa 2cbe c31e 023e d198 12be f33a adbc
000001e0: 2284 003d 914b 1dbe 8a08 5ebe 8320 bebe
000001f0: f4ee 34be 5c29 c9bd dfc6 1d3d 35a1 03be
-0.04610586 -0.08989157 -0.2807992 -0.28405377 0.02427789 -0.08866436 -0.096667916 -0.21707387
-0.31626937 -0.0628294 -0.1385224 0.06273648 -0.09287144 -0.044581413 -0.21099615 -0.03329801
-0.0685385 -0.26087806 -0.10041834 -0.12034261 -0.17963888 -0.09685976 -0.112534165 -0.12220386
0.059509892 -0.29707837 -0.24419317 -0.22644702 -0.14292218 -0.048577137 -0.09311238 -0.23174164
-0.0598769 -0.03822137 0.10915158 -0.21227105 0.06148556 -0.016025014 -0.014795529 -0.17930901
-0.038253274 -0.15261424 -0.037079915 -0.1280632 -0.04413645 -0.23769356 -0.020592134 -0.08371274
-0.15602711 0.08395757 -0.092998326 -0.21532016 0.038717635 -0.19509493 -0.24239492 -0.0052047684
-0.22684725 -0.01856551 -0.076710254 -0.25691855 0.050693948 0.060368467 -0.13144755 0.10803871
-0.19667089 0.025563968 -0.11548895 0.017661717 -0.11751715 -0.17518324 -0.010465891 -0.005312216
0.010576838 -0.23834206 -0.08144533 0.0271321 0.041277796 -0.09356404 -0.04550323 -0.07375213
-0.5776988 0.23809287 -0.16044617 -0.30794197 -0.0816481 -0.018062416 -0.048210107 -0.010352118
-0.026178265 -0.040013917 -0.01899617 -0.09137815 -0.08026216 -0.050162055 0.026094066 0.09145232
-0.055016506 -0.06438683 -0.056376 -0.12195746 -0.09205455 -0.038422786 -0.26510072 0.012886498
-0.1395946 0.044726633 -0.4289936 -0.1292016 -0.060644984 -0.05351949 -0.18083112 -0.103145234
-0.023621915 0.004066498 -0.06891357 -0.16612968 -0.16861852 0.12707047 -0.14316107 -0.021146273
0.03137601 -0.15360858 -0.21682945 -0.3713418 -0.17669278 -0.09822342 0.038519736 -0.12854464

network_body._body_endoder.seq_layers.2.weight f4 [128, 128]
00000000: f8ff 85bc 9387 67bd 04c8 d73d 61a4 5cbe
00000010: 88c4 18bf ba36 11be 9110 513e 35e1 e23d
00000020: 4c87 aebe ccd9 073c 2bd3 523e 68b5 823d
00000030: 15cc 48be 4f0e adbe 1f03 09bd c84e 5cbd
00000040: 9d4c 20bc 1e07 3abe 94a0 863d 0d5f f5be
00000050: 1b65 15be bd75 ac3e d6e2 ddbd bfaf a9bd
00000060: 3e63 b93c fdca 79be c88d b8bc 883b 9abc
00000070: 5455 4f3e 452e 0b3e b20e 2e3c 65ac a53e
00000080: aac8 593d 0f2c bebe 5f86 db3e 33ef 81be
00000090: 1a62 7a3e 1948 c7bd 4b3b b7be b38e e6bc
000000a0: 5d73 0a3d 581e 6d3e b758 53be 4279 353e
000000b0: 64b1 afbe eb2a 5e3e a33b 0b3e 0282 87be
000000c0: ed10 9d3e 2a5e 08bf cc1f 573e 6d3c f1bd
000000d0: f021 683e e44f 95be cb64 08be 176a 2abe
000000e0: 3df3 813d 31e6 b83e 75e0 943e a761 edbd
000000f0: f754 f2be 2a56 ec3d 823a 013e 5b5b 4a3e
00000100: d897 ba3d 5b7a 45bd cc70 0abe 4117 5a3d
00000110: 6ed9 88bc fe6e 88be 8b6d 01be db8d 75bd
00000120: c66a 1c3e a92c 02bf 7a1d 933e 4995 f0ba
00000130: 8858 673d 3aaf bd3d 3885 8d3d e432 a9bc
00000140: b212 373e ff3c 47bf c232 8bbc 838c 603b
00000150: 08d8 6bbd b7f7 8f3e cb54 d33d 9cd6 213d
00000160: a2b3 e6bb c544 853e a5f9 d6be 6d06 963e
00000170: e50f 833d 9df5 b6bd 5f27 12be 47f1 88bd
00000180: 892e b23d 44c3 6d3e b82e 823e ddce ddbc
00000190: 4433 493e f78e 203c 3130 1d3e 7b6e 9abc
000001a0: c5d4 68be 9204 c5bd e528 69be 0aab 203e
000001b0: 9d9d 20be e6b2 49bd 97cc 643b 4c4b 703e
000001c0: c1a3 8abe 967e 47be e0a3 39be 3bb5 2d3d
000001d0: 516b 873e fc20 b83d acab 5a3b 89ac 163e
000001e0: 33bb d83d 642b c4bd cb8b 1f3e 47e8 e2bb
000001f0: 4cf7 453e 1619 833c 5ccd adbe 6d43 753e
00000200: 4b53 69be aa15 c5be ab69 89be 6a26 18be
00000210: e17f 393d 7274 ea3d aa8b 153c 96cb 59be
00000220: f118 7f3d 732e 39bd ef6a 98bd c233 0c3e
00000230: dc8c c6be 4f00 1f3e e0c5 72be cd78 60be
00000240: 200e 13be fe2b e6bc 5f49 1a3e c717 f83d
00000250: 3e7e 38be 8d76 153e c4f3 88be fc48 34be
00000260: e500 143e 1da3 78be 67f2 8b3d b0bd 83be
00000270: 2401 ae3d 15fb 35be b6c9 eaba 0999 81bd
00000280: 4efd abbd d4a8 763e e05a 78bd 72b0 3fbd
00000290: c9c1 ea3d 643f 89bd 871d 00bf b331 0e3c
000002a0: 7dab 2cbe 411c 843e b842 623e 7af9 00bc
000002b0: df65 6abe b6d9 563e f829 03be b03d 01bf
000002c0: b63f 883d 6615 a7be 8c8d 663d e5f3 c1bc
000002d0: bd58 2dbd a880 2cbe 935e 44bd bd08 8fbe
000002e0: f07c 463e ee30 6a3e d06a 21be 8711 71be
000002f0: 0787 96bd cd5a 92be e260 a8be 17d9 dc3e
00000300: 7a33 7fbd 7916 f0bd cde6 033d fa12 383d
00000310: 8e1d 86bd 3d4c 6cbe f67f 0cbe 4327 eebd
00000320: 7c9f 343e 18da be3d b23b e23d 8c49 7fbe
00000330: 7e61 b9be 30e7 82be ed3c c03d 3cbe 4d3e
00000340: 9847 f6bd 5c6a 4c3d 7655 d83e 19d4 48bd
00000350: 69f8 0e3e 4a69 613e c185 dfbe 99f1 2ebe
00000360: 71fe 123e b88a 043e f33d b0bd adf9 003e
00000370: 40fa 7dbd dd91 83be a488 ed3d ecc0 34bd
00000380: 3727 533e 1c91 ec39 a706 fe3e a00e fbbd
00000390: 7c64 40bd 7e80 95be ebd4 59bc 147a 07bb
000003a0: 9ff5 e63d df0d 77bd a518 d0bb e255 a6bd
000003b0: fafc 7a3d 1643 55be 4f45 0bbe e027 183e
000003c0: 591b 103d 121e 0b3c 4ef4 b4be 8ab0 eebe
000003d0: bfde adbd 07af 94be da59 513e 9874 27be
000003e0: 1346 0dbd bfa9 8abe e67e 993c e1ce 5ebd
000003f0: 7e44 113d 1506 363e a7bc 433e b06c 863e
-0.016357407 -0.056525778 0.10536197 -0.2154708 -0.5967488 -0.14181033 0.20416476 0.11078111
-0.34087598 0.008291673 0.20588367 0.06382257 -0.19609101 -0.3379998 -0.033450242 -0.05378607
-0.009783891 -0.18166777 0.065735966 -0.4792408 -0.1458935 0.33683577 -0.10834281 -0.08285474
0.02263033 -0.2439384 -0.022528544 -0.018827215 0.20247394 0.13591869 0.010623621 0.3235809
0.053169884 -0.3714299 0.42875955 -0.25377807 0.24451485 -0.097305484 -0.35787424 -0.028144216
0.033801425 0.23156106 -0.20639311 0.17722037 -0.34315026 0.2169606 0.13596968 -0.26466376
0.30676976 -0.5326868 0.21008223 -0.117791034 0.22669196 -0.29162514 -0.133197 -0.16642033
0.06345222 0.36113122 0.29077497 -0.11590891 -0.47330448 0.11539872 0.12619975 0.19761412
0.09110993 -0.04821239 -0.13519591 0.053244833 -0.016705241 -0.2664718 -0.12639444 -0.059949737
0.15275106 -0.50849396 0.28733426 -0.0018355037 0.056480914 0.092619374 0.06910175 -0.02065415
0.17878225 -0.7782745 -0.016991977 0.003426344 -0.05757907 0.2811868 0.10318907 0.039511308
-0.007040457 0.2602903 -0.4198734 0.29301777 0.06399516 -0.08933566 -0.14272831 -0.06686645
0.08700282 0.23219019 0.2542627 -0.02707618 0.19648463 0.0097997105 0.15350415 -0.01885151
-0.22737415 -0.09620012 -0.22769506 0.15690246 -0.15685125 -0.049242876 0.0034911984 0.23466223
-0.2707806 -0.19481882 -0.1812892 0.042409163 0.26449063 0.08990666 0.0033366485 0.14714254
0.105825804 -0.095785886 0.1558067 -0.0069246623 0.19332618 0.016003173 -0.3394574 0.23951502
-0.2278568 -0.3849309 -0.2683843 -0.14858404 0.04528797 0.114479914 0.009127537 -0.21269068
0.062279645 -0.045210313 -0.07442271 0.13691619 -0.38779342 0.15527461 -0.23708296 -0.21921082
-0.14360857 -0.028097149 0.15067051 0.1211391 -0.18016908 0.14596005 -0.26748478 -0.17605966
0.14453466 -0.24280973 0.06833344 -0.25730658 0.08496311 -0.17771561 -0.0017912898 -0.06328017
-0.083979234 0.2408784 -0.06063354 -0.04679913 0.11462743 -0.06701544 -0.50045055 0.008678841
-0.16862293 0.25802806 0.22095764 -0.00787198 -0.22890423 0.20981488 -0.12808979 -0.5048475
0.06652777 -0.32633513 0.056287333 -0.023675868 -0.042320956 -0.16845953 -0.047941756 -0.27936354
0.19383597 0.22870228 -0.15763402 -0.23541842 -0.07349973 -0.285849 -0.32886416 0.43134376
-0.06230495 -0.11723036 0.03220253 0.044939972 -0.06548606 -0.23075958 -0.13720688 -0.11628582
0.17638963 0.09318942 0.11046542 -0.249304 -0.36207193 -0.25567007 0.09386621 0.200921
-0.12025374 0.04990612 0.42252702 -0.049030397 0.13961948 0.22012821 -0.43656734 -0.1708435
0.14354874 0.12943542 -0.08605566 0.12595244 -0.062006235 -0.25697222 0.11598328 -0.044129297
0.20620428 0.00045121543 0.4961445 -0.12258649 -0.04697083 -0.29199594 -0.0132953925 -0.002067213
0.11277317 -0.060315963 -0.006350594 -0.081218496 0.061276414 -0.20826373 -0.13600658 0.14858961
0.03518233 0.008491056 -0.3534264 -0.46619064 -0.08489751 -0.29039785 0.20444432 -0.1635307
-0.034490656 -0.2708263 0.018737268 -0.054396514 0.03546571 0.17775758 0.19114934 0.26254797

network_body.observation_encoder.processors.0.normalizer.running_mean f4 [25]
00000000: 052b 6c3f 0243 273b 0000 0000 b4b0 7d3b
00000010: b1b7 003e a78b 5f3f d1cc 1c3b 0000 0000
00000020: 2ae6 233c 2357 133e a575 443f bd3f 2a3b
00000030: 0000 0000 0c45 1f3c d07c 063e e694 2d3f
00000040: 7a39 e33b 0000 0000 2491 2e3d a8f9 503e
00000050: a162 023f 2e10 ed3b 0000 0000 1cd6 653c
00000060: c57a 1f3e
0.9225314 0.0025522118 0.0 0.003871006 0.12570073 0.8732247 0.002392579 0.0
0.010003606 0.14388709 0.7674201 0.0025977932 0.0 0.009721052 0.1313355 0.67805326
0.006934342 0.0 0.042618886 0.20407736 0.50931746 0.007234595 0.0 0.014028098
0.15574177

network_body.observation_encoder.processors.1.normalizer.running_mean f4 [25]
00000000: 6095 5d3e 6277 c73e 0000 0000 0b61 103d
00000010: 3257 b13d dcde 263e 770e ef3d 0000 0000
00000020: 4a20 ac3d 48d1 083e 8d79 d03e 6816 623d
00000030: 0000 0000 b9d6 9d3d bcb2 ec3d add5 b13d
00000040: a91a 863d 0000 0000 84a9 643d 4200 bc3d
00000050: afc3 e73e 7600 c53c 0000 0000 1008 b53d
00000060: 1d9e f93d
0.21639013 0.3895827 0.0 0.035248797 0.08659209 0.16295952 0.11672681 0.0
0.08404596 0.13361084 0.40717736 0.05519715 0.0 0.07706971 0.115575284 0.086833335
0.06548054 0.0 0.055825725 0.09179737 0.45266482 0.024048071 0.0 0.088394284
0.12188361

network_body.observation_encoder.processors.2.normalizer.running_mean f4 [17]
00000000: 8674 883e fe86 5cbf af85 8041 a701 2c40
00000010: 1141 bf3e fc86 12c0 e91d 1bbb 7f8b b53e
00000020: 66f8 e4bb bc48 5bbf a50e a043 8cf2 4341
00000030: 5794 393e 014c 11be 8b59 2d3f 14c1 84be
00000040: 0000 0000
0.266514 -0.8614348 16.065275 2.6876009 0.3735433 -2.2894888 -0.002366895 0.3545799
-0.006987619 -0.8565786 320.1144 12.246716 0.18122993 -0.1418915 0.67714757 -0.25928557
0.0
