Assets/Brains/run31/CarPractice_run31-5.onnx (onnx, 124000 bytes, 15 tensors)

85 f4 [35]
00000000: ab66 a13e aa0a 633c f877 ea39 79e7 9a3c
00000010: 0583 823d fe7f 963e 8a54 483c f877 ea39
00000020: 361e cd3c 76c3 913d f01a cd3e 81a0 7a3c
00000030: f877 ea39 0ae5 ba3c 04fa 8a3d 424c c93e
00000040: 29eb 823c f877 ea39 38f1 623d b990 be3d
00000050: 6309 f93e 4fa7 c33c f877 ea39 8aec e63d
00000060: 1374 f63d 786d fb3e 1fda 753d f877 ea39
00000070: 1a20 4d3e 2c9b 413e b08a bc3e ddc7 3c3e
00000080: f877 ea39 fa65 7b3e 9413 673e
0.31523642 0.013857523 0.00044721342 0.018909203 0.06372646 0.29394525 0.012227187 0.00044721342
0.02503882 0.07117359 0.40059614 0.015297056 0.00044721342 0.022814292 0.06785968 0.39315993
0.015981274 0.00044721342 0.055405825 0.093049474 0.48639974 0.02388349 0.00044721342 0.11275585
0.12033858 0.49106956 0.06002247 0.00044721342 0.20031777 0.1890685 0.3682456 0.18435617
0.00044721342 0.2455062 0.22566062

88 f4 [45]
00000000: 5581 d23e 174b e93e f877 ea39 c920 2c3e
00000010: 2528 273e 1fd8 be3e e5c4 d93e f877 ea39
00000020: 3deb 483e d161 423e 1c46 f43e 3ad1 c53e
00000030: f877 ea39 6f91 373e 98e3 313e 3e23 c93e
00000040: 26dc c03e f877 ea39 404b 8d3e 2c89 873e
00000050: 2ecb fd3e 589c 8f3e f877 ea39 a54d 5a3e
00000060: 90dc 523e 0f05 ae3e 3c48 a83e f877 ea39
00000070: b28e a33e b0fb 9c3e c94e fe3e d793 343e
00000080: f877 ea39 d37d 963e 2f68 913e 056b ab3e
00000090: be7f 733e f877 ea39 08b0 903e ac30 8b3e
000000a0: 95a0 ff3e 85da e53d f877 ea39 e8cb 953e
000000b0: b8d0 903e
0.41114298 0.45565102 0.00044721342 0.16809382 0.16323908 0.37274262 0.4253303 0.00044721342
0.19620986 0.18982626 0.4770974 0.3863619 0.00044721342 0.17926572 0.17371976 0.392847
0.3766796 0.00044721342 0.27596474 0.2647184 0.49569076 0.28048968 0.00044721342 0.21318682
0.2059195 0.33988234 0.3286761 0.00044721342 0.31944805 0.30660772 0.49669483 0.17634521
0.00044721342 0.2939287 0.28399798 0.33480087 0.23779199 0.00044721342 0.282593 0.2718557
0.49927202 0.1122332 0.00044721342 0.2925713 0.2828424

91 f4 [17]
00000000: f1cc a941 6035 103f 3a91 b341 5120 b640
00000010: 0616 333c 48b3 cb40 85e9 173c 1811 ad3e
00000020: 5217 293c 4675 0a3e 6b38 1344 c165 eb41
00000030: baa8 f33e be58 2f3e eb08 d13e da2c 4d3f
00000040: f877 ea39
21.225069 0.56331444 22.445911 5.691445 0.010930544 6.365635 0.009271984 0.33802104
0.010320501 0.13521299 588.88153 29.424685 0.47589666 0.17123696 0.40827116 0.80146563
0.00044721342

action_model._discrete_distribution.branches.0.bias f4 [3]
00000000: 2f5a 053e bc19 f6bd 1b32 703d
0.13022684 -0.12016627 0.058641534

action_model._discrete_distribution.branches.0.weight f4 [3, 128]
00000000: 61c3 8e3d f469 e33d 5d14 dd3d d974 0fbd
00000010: e096 acbd b0ca b2bd 75ad 363e 4b33 e4bd
00000020: 91c1 6dbd 5e57 973d d4a5 aa3b 431f dd3d
00000030: 1ad0 c0bc 3842 483d df81 37bd 6095 693c
00000040: a00f bb3e 779f 9e3e 2881 3c3e f294 043e
00000050: 68b9 9d3d 408b d93d a0d8 0e3e 35ee e53d
00000060: aee7 05be 2cd3 de3d 7acf ad3d be10 96be
00000070: be34 cebe a13d 1b3e 4784 bf3d cf0e 0b3e
00000080: c0af 3cbd 67a9 24bb 9540 27be 7176 8ebc
00000090: e2c3 803e 6ce9 4fbe a253 b83d 904d 363e
000000a0: f138 5d3e 5c04 b73d 17f2 d33c 9875 753e
000000b0: 4bae f73e dd09 073e a50c 103e 1596 e03d
000000c0: 013c d63d cecf fc3d 915b a1be 36be e03d
000000d0: 5711 993d 6872 b53d 37f0 c33d a72a 08be
000000e0: 1063 85be f0c1 1fbe cd10 f4bd 84dc 50be
000000f0: 953f 853d 359c 2c3e 52e8 e93d 4961 1cbd
00000100: 076f 963e 0d90 9dbd f4cc 123c c3c3 f03d
00000110: 9044 02be bc9c cdbc f8f5 bc3d 52c0 e6bd
00000120: 51d3 88bd 5096 95bd a021 253e 4245 97be
00000130: f8c0 093d c93e 1abc 8513 503e a25b b03d
00000140: 4ff4 c73e 2ebe e7bd 38bd 6d3c 7d4c 713e
00000150: c6a9 9ebe 3756 a23e c747 783c 0b68 a03e
00000160: e93f 923e c3ba 19be 97ab 093e 1fdf a1be
00000170: b68e 5dbd 6f58 c73d 991e 3c3c bcec 39bd
00000180: dad0 ffbd 5f4d 1b3e 5412 59be 7267 c9bc
00000190: a9dc 2b3d 4917 763e 5342 fc3d 7b3b 2fbd
000001a0: 36c0 b73d 6626 d2bd 81b8 703d 15ff b43d
000001b0: a290 023e 6780 2e3e c220 0e3e 96b1 08bc
000001c0: 2c7d 26be a4fd 8fbd 2a5c 11bd e923 9fbd
000001d0: 1c74 853e 820c 903e 909d 813e 986f eebc
000001e0: b481 073d 7096 263e b3d1 d6bc 139e d6be
000001f0: 0049 bebe 959d be3d 451e ef3d 26bf a83d
00000200: 110f 34be 1617 8abe 4d37 5dbe e4ba 483e
00000210: 2f7f cb3e 2c66 26bd b657 e1be 5d81 3b3e
00000220: a960 53be 3e3f 733c d9b2 4f3e 4378 0ebd
00000230: a9e4 553e cbc8 3a3e bfc5 5c3e 3865 1cbd
00000240: caa8 30be 76be a7bd 5e05 93be 0248 6d3e
00000250: 210a 233c f444 78be 04ae 403e 409a b4bb
00000260: 04b5 263e 2fe1 173e 7551 d4be 4a31 253e
00000270: 9529 5d3e 1f03 e6be ac33 cd3c 9d7c 66be
00000280: 80f0 853e 60bc 623e 4510 8dbe c98c a63d
00000290: 3f9e c1be 0e2d 3d3e ae82 f33d 3689 b1be
000002a0: 6ac3 163e 485a 08be 127c 0a3a 98f4 d53c
000002b0: 2e3e 33be bcbd d4bd 840c 4e3c 6aee 8a3d
000002c0: e1d8 883e 9b12 6ebc 6fae 163d 3722 db39
000002d0: 926a 85be 53a3 82bd 6630 16be 7790 5e3d
000002e0: fdea 5f3e 3b9b 803e 4748 5b3e 378f 753e
000002f0: 4197 12bd 773a 8a3e d913 98bc 558e fa3c
00000300: 5a75 44bd faa2 4d3e b1b2 3ebd 7161 e5be
00000310: 3793 4e3e c67d e93d eb1e 56be dc45 5c3e
00000320: 1179 083e 5413 b13d bc10 133b 3b8c 183e
00000330: 295b 223c aeec 3a3e b9f1 ff3d 9209 333e
00000340: b150 a2be 5af4 ec3d a04c 19bd e237 353e
00000350: d7a7 a13d f6b8 f53d 13c5 1c3d 007b a2be
00000360: cdf4 05be 5fb7 f93d d552 0cbe ff17 393e
00000370: 3833 343e 9be0 e7be 30c6 6e3e cf42 623e
00000380: aa32 a0bc c0ef 4fbe 3a21 a7bd 2618 393e
00000390: 3151 953e 19d4 10be 23bf a93c c485 e13c
000003a0: f119 fc3d 8ac6 763e 6d60 773e 9b40 d53d
000003b0: ee7e 613e 94de 05bd 2109 55bc 9c5b e33d
000003c0: 8cea d93e df9f 30be ace2 2fbe f318 44be
000003d0: c7be 87bd bdb5 96be 52ec adbc 103c 94bd
000003e0: 9f2d 953e 57a6 cc3c fd30 e73c 8490 623e
000003f0: df3c 633d 5476 9ebd 6915 ba3a 6d05 37bc
0.06970859 0.11104193 0.107948996 -0.035023544 -0.084272146 -0.08730066 0.17839606 -0.11142596
-0.058045927 0.07389711 0.0052077565 0.10796978 -0.02353673 0.048891276 -0.04480159 0.014256805
0.36535358 0.30981037 0.18408644 0.12947443 0.07701379 0.10622263 0.13949823 0.11227075
-0.1307666 0.108801216 0.08486839 -0.29309648 -0.40274614 0.15160228 0.09351402 0.13579868
-0.046066046 -0.0025125386 -0.1633323 -0.017390462 0.25149447 -0.20303887 0.09000327 0.17803025
0.21603753 0.08936378 0.025872273 0.2397064 0.48375162 0.13187356 0.14067324 0.10966126
0.104606636 0.12344323 -0.31515172 0.1097378 0.074740104 0.08859712 0.09567302 -0.1329752
-0.2605214 -0.15601325 -0.11917267 -0.2039662 0.06506268 0.16856463 0.11421265 -0.038178716
0.29381582 -0.07693491 0.008959997 0.117560886 -0.12721467 -0.02509915 0.09226602 -0.11267151
-0.066809304 -0.073040605 0.16126108 -0.29545027 0.033631295 -0.009414383 0.20319946 0.086112276
0.3905358 -0.11315571 0.014510445 0.23564334 -0.30988902 0.31706402 0.015153832 0.31329378
0.28564385 -0.1501265 0.13444363 -0.3161554 -0.054091178 0.09733664 0.011481904 -0.045391783
-0.12491007 0.15166233 -0.21198398 -0.02458546 0.041958485 0.2403232 0.12317338 -0.042781334
0.08972208 -0.1026123 0.058769707 0.088377155 0.12750486 0.17041169 0.13879684 -0.008343121
-0.16258687 -0.070308 -0.035488285 -0.07770521 0.26065147 0.28134543 0.25315523 -0.029105946
0.03308268 0.16268325 -0.02622304 -0.41917476 -0.3716507 0.093074 0.11675695 0.08239584
-0.17583872 -0.26970738 -0.21603127 0.19602543 0.3974547 -0.040624782 -0.4401223 0.18311067
-0.20642342 0.014846621 0.20283069 -0.03478266 0.20888008 0.18240659 0.21559809 -0.038182467
-0.17251888 -0.081906244 -0.28715032 0.23172 0.009951145 -0.24245054 0.18816382 -0.005511552
0.1627999 0.14831994 -0.41468397 0.16132084 0.21597894 -0.44924256 0.025049053 -0.22508474
0.2616005 0.22142172 -0.27551475 0.081323214 -0.37816045 0.18474218 0.118901595 -0.34674996
0.14722982 -0.1331569 0.000528277 0.026117608 -0.17504188 -0.103877515 0.012576226 0.06783755
0.26727965 -0.014530803 0.036787447 0.00041796427 -0.2605787 -0.06378808 -0.146669 0.05433699
0.21866985 0.2511843 0.2141429 0.23980413 -0.03578878 0.2699773 -0.018564152 0.030585447
-0.047963478 0.20081702 -0.046557132 -0.44800904 0.20173346 0.114009425 -0.20910232 0.21511024
0.13327433 0.08646265 0.0022440394 0.14897244 0.00990943 0.18254349 0.12497277 0.1748412
-0.31702188 0.11570044 -0.03742659 0.17697099 0.07893341 0.11998169 0.038273882 -0.31734467
-0.13081665 0.121931784 -0.13703473 0.1807556 0.17597663 -0.45288548 0.2331779 0.22095798
-0.019555409 -0.20306301 -0.08160634 0.18075618 0.29163507 -0.14143409 0.020721024 0.027529605
0.123096354 0.24099174 0.24157877 0.10412713 0.22021076 -0.03268297 -0.013002665 0.111014575
0.42561758 -0.17248486 -0.17176312 -0.19150142 -0.06628185 -0.2943553 -0.02123085 -0.072380185
0.2913637 0.02498166 0.028221602 0.22125441 0.055477973 -0.07737413 0.0014197055 -0.011170727

action_model._discrete_distribution.branches.1.bias f4 [3]
00000000: ead2 23be 29b1 853d 1d69 fd3d
-0.15998426 0.06527931 0.123735644

action_model._discrete_distribution.branches.1.weight f4 [3, 128]
00000000: f582 5ebe 66e1 c4bc 217c 10be f463 853e
00000010: 3cf2 a83b 9fe5 343e cd4c ca3c 669c 91bb
00000020: 6853 5d3e 3c92 67bd f243 843e f088 c43c
00000030: 2496 e73c 9697 85be 290e 803e ec3b c9bd
00000040: 1628 8f3d dbcc be3c 0019 71be 3655 b63d
00000050: e24d 80ba 5b6e 9dbe ebf7 b03e 84c6 71be
00000060: 0c33 463e b0a9 b63c 3dc3 02be d2d9 ed3d
00000070: fbe9 973d 3627 09be aed1 89be ffb9 90be
00000080: af5d 023e 574a ef3d 3f01 1fbe 1706 953e
00000090: 87b3 40be efea 76bd 7c05 273e 4591 8abe
000000a0: f039 51bd 6058 adbd 5da4 9ebe 85ac 673e
000000b0: 15e9 b83d 2611 08bf 086c d1bd 2869 8f3e
000000c0: 8742 483d 1d11 a83e 83e7 193e 4dd8 753e
000000d0: 4c60 653e f5a6 8d3d 386c b3bd 23d6 473e
000000e0: 5b09 df3d 7aac 343e e51d 05be 50bc e43d
000000f0: 1154 053e d3f0 9d3d 39ec f73d e0a8 a63e
00000100: 5f29 fbbd 14f3 e73c 61ee f03e 9e50 d3be
00000110: 281a 433e 5447 c23e 3976 1ebe bb2b 7e3e
00000120: ec0f 553c d15a 9e3e c142 04bf 1083 c63d
00000130: 1a20 4f3e b6e4 cc3d 23e7 b13d b8ed f4bd
00000140: 8eca 28bd 887b debc 5a29 95be 5393 433e
00000150: 5e53 d73d 7fd5 aebc 58ab d73e 055f 3bbe
00000160: ddf6 333e 83e1 35bd 17d8 35be 9704 653d
00000170: 691e 52bb 1346 f0bd e88a 00bf 43e0 27be
00000180: b529 663c ab31 a43e 0437 13be 3513 463e
00000190: c1d0 6e3e 7527 ba3c 0f59 96bd 5027 c43d
000001a0: 567c 253e c292 1b3e a8f8 803e ad70 203e
000001b0: 8cd3 b43d b12d 4abe 0f64 cd3e 0ef2 46be
000001c0: 0c61 463e 8691 063d b3fa 0c3d 9037 9cbe
000001d0: 2784 fa3d 9329 5f3d 9a69 093e 38cb 3c3e
000001e0: 02b2 e7be 29ee 37be 1ca8 ddbd 1e90 bf3d
000001f0: 1907 263d d5d3 36be e9fa 3dbe ce86 b53e
00000200: 5464 b03e 61e1 fbbe d194 953e 9df2 babb
00000210: 1e4f 5bbd db68 20be 605d d8be f78c 3c3e
00000220: ef15 38be db78 503e 7619 03bd ec89 e7be
00000230: ceae 013e 6336 1dbd 0c6d 173a 2fdf 8a3d
00000240: 97c2 85be f0f3 60bd 98a0 453e 5c8c c5bd
00000250: cc60 ab3e a4e4 663d f0b5 f5bd 219c 8d3e
00000260: 4801 573d 8f68 a83d 4550 a63d 49d0 6e3d
00000270: 65de b03d 1654 a8bc a50b 043f d05d 2d3e
00000280: 42cd 803d b287 c53e 64d7 96bd b175 12bc
00000290: 6633 9a3c 4977 f73d 6409 4b3d d08c f8bc
000002a0: 0d78 c2be 1906 913d 8e96 dc3e 4c7d 40be
000002b0: e7a9 c4bd ebed 8e3e e7e8 393e a22e 40be
000002c0: 580f 9b3d a16b 2fbf 65e8 edbc 8e42 32bf
000002d0: 8c53 99bd 37bd 5b3d f491 5f3d 19ca 79bd
000002e0: 5b0d 183c 774b e6bc 6fca a7be 5936 83bd
000002f0: 5477 efbe 47f0 d3bd 0750 46bf 10ce 683d
00000300: 58b4 a73b 985c 333d 6213 433d f1e3 343e
00000310: f653 543d 0d2b 4abe 6794 c33e f0ed 59bd
00000320: f2e0 1b3d d2c7 69be bcb2 5d3e c6b1 06bc
00000330: 0800 3bbe fd6b 12bd c7a5 b3be c6b6 e03c
00000340: 524c 8ebd 1723 ed3d d19e e03e 7df4 c2be
00000350: 01aa 0b3d 4ecd 9d3c 0206 7dbe 3daa 3b3d
00000360: d1bf 32ba caac 313e f19d 793d fc04 8f3c
00000370: 4495 47bc 7a02 a1be 0943 303e 2ee7 0c3e
00000380: 58a5 263d d4f6 fc3c 6b2e 403e 5bc8 863e
00000390: 5aea bdbd 7d5f 09bf 776e 563e 7245 d4bd
000003a0: 7095 72be 1359 0d3e 4db2 8ebd 8e0f 1cbd
000003b0: 2f71 dbbd 1caa 7c3e 9961 d0be 2c3e 483e
000003c0: 5aa4 043d 31ff d9bd 9980 d8be 9659 fabc
000003d0: ff54 04bf 8120 8dbd b2a4 cebc 1cb9 0abd
000003e0: 72b6 8b3e 21d9 4b3d d8f6 c3bd d15b c9bb
000003f0: a0ec edbc 2de6 a93e 6a2b 623e f188 ffbe
-0.21729644 -0.02403326 -0.14109851 0.2605282 0.0051558297 0.17665718 0.024694825 -0.004443693
0.21613848 -0.056535944 0.25833088 0.023991078 0.028269835 -0.26092213 0.25010803 -0.09825882
0.06990068 0.023291042 -0.23544693 0.089029714 -0.0009788836 -0.30748257 0.34564146 -0.23610884
0.1935541 0.02229771 -0.1276979 0.116138116 0.07417675 -0.13393864 -0.26917785 -0.28266904
0.1273105 0.11684101 -0.15527819 0.2910621 -0.18818484 -0.060282644 0.16310686 -0.27063957
-0.051080644 -0.08464122 -0.30984774 0.22624405 0.09028832 -0.53151166 -0.102256835 0.28009915
0.04889157 0.32825556 0.15029721 0.24008293 0.22400016 0.0691661 -0.087608755 0.1951528
0.10890456 0.1764392 -0.12999685 0.1116873 0.1302035 0.07711949 0.12105603 0.32550716
-0.1226375 0.02831415 0.4705687 -0.41272444 0.19052947 0.37945044 -0.15474786 0.2482137
0.013004284 0.30928662 -0.5166436 0.09692967 0.2022709 0.10004561 0.08686664 -0.11959404
-0.041208796 -0.027158514 -0.2913311 0.19099168 0.10513948 -0.021342037 0.42122912 -0.18297966
0.1757464 -0.044404518 -0.17758213 0.05591258 -0.0032061583 -0.117321156 -0.50211954 -0.16394143
0.01404803 0.32069144 -0.14376456 0.19343264 0.23321821 0.022723893 -0.07341205 0.09577811
0.16160712 0.15192702 0.2518971 0.15667982 0.08829412 -0.19743992 0.401154 -0.19428274
0.19372958 0.032853626 0.034418773 -0.3051114 0.12232237 0.054483008 0.1341919 0.18436897
-0.45252997 -0.17961945 -0.1082308 0.0935366 0.040534113 -0.17854245 -0.18552746 0.3545441
0.34451544 -0.49195388 0.292151 -0.0057051913 -0.05354225 -0.15664999 -0.4225874 0.18413149
-0.17977117 0.20358603 -0.032006703 -0.45222414 0.12664339 -0.038381945 0.0005776442 0.0678085
-0.26125023 -0.054920137 0.19299543 -0.09645912 0.33472288 0.056370392 -0.119975924 0.2765818
0.052491456 0.08223068 0.08120779 0.058304105 0.086361684 -0.020547908 0.5158027 0.16930318
0.0628915 0.3858009 -0.07365301 -0.008939193 0.018823337 0.12083299 0.049569502 -0.030340582
-0.37982216 0.07081241 0.43083614 -0.18797797 -0.09602719 0.27915892 0.18155251 -0.18767789
0.07571286 -0.68523604 -0.029041478 -0.69632804 -0.074866384 0.053647246 0.05458255 -0.06098375
0.009280528 -0.028112156 -0.32771632 -0.0640685 -0.46770728 -0.10348564 -0.7746586 0.05683714
0.005117934 0.043789476 0.047625907 0.17665078 0.051837884 -0.19742985 0.3819916 -0.05320543
0.03805632 -0.22830132 0.21650213 -0.008221095 -0.1826173 -0.035747517 -0.35087416 0.027430903
-0.06948151 0.115789585 0.43871167 -0.38077155 0.034097675 0.019262936 -0.24709323 0.04581665
-0.0006818744 0.1735107 0.06094164 0.017458431 -0.012181584 -0.31447202 0.17213072 0.13760063
0.040685028 0.030879416 0.18767707 0.26324734 -0.09273215 -0.5366133 0.20940576 -0.10364808
-0.23689818 0.1380351 -0.06967602 -0.03810077 -0.107149474 0.24674267 -0.4069946 0.19554967
0.0323833 -0.10644377 -0.42285612 -0.030560296 -0.51692194 -0.06890965 -0.025225017 -0.03386794
0.27287632 0.049767617 -0.09568566 -0.0061449786 -0.029043496 0.33183423 0.22086874 -0.49909166

discrete_action_output_shape f4 [1, 2]
00000000: 0000 4040 0000 4040
3.0 3.0

network_body._body_endoder.seq_layers.0.bias f4 [128]
00000000: 6339 87bd 2b40 d6bd 0cca dcbd 8a67 08be
00000010: 3d68 76bd 689b 9ebc ea33 f8bd 5440 003e
00000020: f6d3 23be 1c77 7c3e 33cc 3b3e 4c3c 81bd
00000030: 642e 31be 07d9 3ebb 7ac6 09be 9f21 ae3c
00000040: 7b8b 903c 52ab 49bd e8a2 2bbe 6429 cfbe
00000050: 476e 893d dc54 0cbe fec2 81bc 20db 3fbe
00000060: 864e 2cbe 383f e03d 146f af3d e62d cabd
00000070: 681f 4cbe 24d8 133e 2bf9 11bd 985d 253c
00000080: e9eb 653e 396c a13c f2c7 893e 8a44 1c3e
00000090: 4f55 02be 0792 0cbe c12a 12be 2626 bebd
000000a0: b3fe 44be cbe3 07be 48a2 74be 7098 e83d
000000b0: 95d0 28be 5a6c c5bd 8ccb b43c 2c79 59be
000000c0: 170f 8ebc b5ea 12be 113d c8bd 084f da3d
000000d0: 0370 1abe 660e 31be a6b3 2a3d 0b46 23be
000000e0: 926d e63d 59a6 46be 627f 1a3b ff01 fdbd
000000f0: bfc6 e9bc 0f31 2dbe fedc 7dbe a591 8b3e
00000100: feb1 a6bd 80f4 9fbc 338c e5bc 03b4 cbbd
00000110: a065 2fbe 548e 7abe f93c 2fbe cfb6 f2bd
00000120: d6f9 363d da4f 42be 991f 83be 0336 8dbe
00000130: cf3f 14be b400 ad3b 95ee 153e 5a00 3cbe
00000140: e558 3f3e 0f4e 94be d270 37be 1285 30be
00000150: b79a 653d b537 a93e 9ba2 96be 635e a53d
00000160: 7970 b9bd c633 b3bd fd5d 853e 6f5c 083d
00000170: bb06 5e3d 5596 5fbd 7e8b 513e e27e 3dbe
00000180: 58c3 8ebe 6610 a2be c196 32be 076f afbd
00000190: 180c b0bd e2a6 88be 469d a73b 52c1 c13c
000001a0: 7436 e33d b468 8fbd 64bf c3bd 5cde 2cbe
000001b0: 18c6 46be 1252 a2be 7300 a1be e962 ad3e
000001c0: 4439 503e 02d2 79be 9920 edbd 8dfd 8fbd
000001d0: ccb9 553e 1efc d7bd 89ff bbbd bdec cebd
000001e0: be85 e13d c719 acbd 0f1f bbbc ff47 df3e
000001f0: bc2b 333d e970 843e 3b14 04bd ef14 ebbd
-0.066027425 -0.10461458 -0.10780725 -0.13320747 -0.060158003 -0.019361213 -0.12119277 0.12524539
-0.15998825 0.24654812 0.18339615 -0.06310329 -0.17302853 -0.0029121058 -0.13454619 0.021256266
0.017644634 -0.04923565 -0.16761363 -0.40461266 0.06710487 -0.13704246 -0.01584005 -0.18735933
-0.1682683 0.10949558 0.08566108 -0.09872036 -0.19933856 0.1443792 -0.035638016 0.010093115
0.22453274 0.019704925 0.2691036 0.1526052 -0.12727855 -0.1372758 -0.14274122 -0.0928462
-0.19237785 -0.1327049 -0.2389003 0.113572 -0.16485818 -0.09639807 0.022069715 -0.2123763
-0.01734118 -0.14347346 -0.097772725 0.10659605 -0.15081792 -0.17290649 0.041675232 -0.15944688
0.11251368 -0.19399394 0.0023574461 -0.12353896 -0.028537152 -0.16913246 -0.24791333 0.27259555
-0.08139418 -0.019525766 -0.028020954 -0.09946444 -0.1712861 -0.24468356 -0.17113103 -0.11851274
0.044671856 -0.18975773 -0.25610045 -0.2758027 -0.14477466 0.005279625 0.14641793 -0.18359509
0.18686254 -0.28965804 -0.17914131 -0.17238262 0.05605575 0.33050314 -0.29420933 0.080746435
-0.090546556 -0.087501094 0.2604827 0.033291277 0.054205637 -0.054586727 0.20463368 -0.18505433
-0.2788341 -0.31653136 -0.1744032 -0.08566099 -0.08596057 -0.2668982 0.005115184 0.023651753
0.110943705 -0.070023924 -0.09557989 -0.16881698 -0.19411504 -0.3170324 -0.31445655 0.33864525
0.20334345 -0.24396518 -0.11578483 -0.07030783 0.20871657 -0.105461344 -0.09179599 -0.10103748
0.110118374 -0.08403354 -0.022841958 0.43609616 0.04374288 0.25867394 -0.032245856 -0.11478602

network_body._body_endoder.seq_layers.0.weight f4 [128, 97]
00000000: f880 423e 1dfb 683d e69f 433c aa21 3f3e
00000010: 9ac7 db3d ce4a 813e a572 22bc d08d 10be
00000020: a004 11bd 579d 303d d16d c6bd 466e 8c3d
00000030: 0255 b4bd ef9f f33d c3d3 b73d a630 843e
00000040: e022 293e c717 6e3d 3467 e03d b942 2dbe
00000050: b649 06bf a0be b63d e6e3 21bd 3098 083f
00000060: cfdc 493e 0753 c43b c88c 163d 4fc2 593d
00000070: 44a3 8f3e 2f28 23be 145e a23c ff0e 053e
00000080: c9f5 813d d3cc 11be 9bae 993d 4d93 85be
00000090: 8ed9 15bc 3003 e43d 8526 6ebd 471e 81be
000000a0: 13ea c5bd 8111 5cbd 775f acbd 2f93 3e3e
000000b0: b435 6d3c 1aea 143d fe00 acbe ddee 803e
000000c0: 3984 463d 711a 19bd 8e7f 1bbd 2e5d 2d3e
000000d0: 980e 0abe de0e f63c dbe8 503d 22cf af3d
000000e0: af29 b2bc 0c7b 9f3d 5040 dfbd 1251 833d
000000f0: 7967 4dbe ed1f 9a3e 08a5 33be a009 c73d
00000100: ee45 18be aa74 74bc 26d0 bf3c 4933 aa3d
00000110: 0c0f cfbc 5e13 543e 5da2 a8bc fedd 46bd
00000120: fe48 b8bc 860e 283e 5eb3 dc3c bd7a 903d
00000130: 06ed 263e e376 adbd 97bd 673e bfe9 7dbc
00000140: 5982 123c 395c 21bd 905d db3d 3871 bfbe
00000150: 9cd6 e03e 8916 e63d e899 ce3e bfe3 343e
00000160: eca1 20be 2316 61be 31f5 253f 4d44 523d
00000170: 5a4c eb3e f2bf 9abe 6fb9 0e3e ab6c fcbc
00000180: 511d 6cbe dee6 ed3d 17f2 543e c42b 76bc
00000190: 409f 0b3d 5b12 f53d c0ef ec3d 21b3 e93d
000001a0: 2a34 bf3c 084f 403c f715 153e ca2d e83d
000001b0: 20d7 073e 768e 23be 6ec7 743e 81a9 cb3d
000001c0: 1db6 19be 790f 4f3e 391c dd3d 5855 703e
000001d0: 93bc 4bba 4ceb 173e 539b 343e 19a3 96bc
000001e0: f8d5 a43d 3e25 dd3e 52b5 063e f0c2 99bd
000001f0: a7c5 d1bc 8247 a13e a131 93bd 1d91 713e
00000200: acb4 2a3f b30e d7bd 646f aa3d d1bc 2a3e
00000210: 15b0 74be a3d4 72be 3a1c c53d af9d 103e
00000220: 33e0 0c3d e0d2 0c3e 07e8 c2be c1b2 2a3d
00000230: d941 1e3e b53a 733d ae30 c13d ddfc 293f
00000240: 2716 27bd 9f11 18bd 1720 ba3d d3bf d9bd
00000250: 9a28 413d b0ac 8bbd 136c 64bd 3081 30be
00000260: af07 103e 1e2d 153f a9d2 993e d421 5dbb
00000270: 68a8 803d 966a 82be b42a a4be 3731 2ebe
00000280: ed9d 593c 4b26 d8bd 8dca e5bd 55ea 313e
00000290: a75e a6bd e173 5f3c 776b aebd 3c45 c73d
000002a0: edde 863e 421c 973c 9ed8 123e 8fe8 3f3e
000002b0: a2de 513e 1f1b 8b3c c0aa 00be d9f8 0e3e
000002c0: 3ff0 ae3d 52b3 03be 5a41 c6bd 64bf f3bc
000002d0: b3fa 483d c698 7f3d 4f41 b7bd 1ff7 443d
000002e0: eaa3 44bd 4af6 1cbd 5dbe 943c 5f0b 873d
000002f0: 6d83 8dbe b885 e6be c391 4dbe 2e23 09be
00000300: 48d1 183c 06d3 f3bc 5079 5b3c 0bb5 6c3e
00000310: 3985 06bd 8ad7 403e 624e 61be 690d fcbd
00000320: 8036 353d fce8 ac3d 5174 183d bed1 2cbe
00000330: a92f 383d 05ae 9c3a 5716 7d3b d856 8d3d
00000340: 64ba 593e 5222 a53e 467c 123a 9fd1 283d
00000350: d142 16bd 3f63 f3bb 2c8e 17bd 5e91 5c3d
00000360: d814 b83c 4368 433e 6c00 233d 19be f23d
00000370: 8014 223e 9f11 973d 2af8 1c3c ee54 5ebe
00000380: aba4 b1bd 901f 90be 4796 023d 85e0 59be
00000390: c200 4cbe 093f c2be 7161 15bf c7f7 9e3d
000003a0: 8f13 9b3e 1eb4 633e 5f98 123e 92a2 b6be
000003b0: f2ed 973d ef53 c5bd 8b8e 69bd 942c 6dbd
000003c0: 2f8f ccbd d9a5 3a3d 5e6a 503e 37df 3a3d
000003d0: d6be 73bd f6e8 393d efd5 7d3e dcbe 913e
000003e0: eea7 24bd 8750 bd3d 4447 363e 6bc7 143d
000003f0: dd20 1bbd 62de 0bbe 84b2 17be 08e3 163e
0.1899451 0.056880105 0.011939978 0.18665186 0.1073143 0.25252384 -0.009915029 -0.14116597
-0.0354048 0.0431188 -0.096889146 0.068569705 -0.088052765 0.11895739 0.08975937 0.25818366
0.1651721 0.058128145 0.109571844 -0.16919984 -0.52456224 0.089230776 -0.03952398 0.5335722
0.19713138 0.005991343 0.036755353 0.053163823 0.2805425 -0.15933298 0.01982025 0.12994002
0.06345708 -0.1423829 0.075040065 -0.26088944 -0.009146107 0.111334205 -0.058142204 -0.25218412
-0.09663787 -0.05372763 -0.08416646 0.18610834 0.014478136 0.03635607 -0.33594507 0.25182238
0.04846594 -0.037378732 -0.037963443 0.16930076 -0.1348213 0.030036386 0.05100332 0.08584429
-0.021748392 0.07787141 -0.109009385 0.06411947 -0.20059003 0.30102482 -0.17543423 0.09718633
-0.14870426 -0.014920393 0.023414683 0.08310563 -0.02527573 0.20710513 -0.020585233 -0.048551552
-0.022495743 0.1641179 0.026940998 0.070546605 0.16301355 -0.084699415 0.22630917 -0.015497624
0.00894221 -0.03939459 0.10711205 -0.37391067 0.43913734 0.11234767 0.40351796 0.17665003
-0.15686768 -0.219811 0.6482726 0.051334668 0.4595669 -0.30224568 0.13937925 -0.030813536
-0.23058058 0.116163 0.20795475 -0.015025083 0.03408742 0.11966392 0.11569166 0.11411119
0.023340303 0.0117375925 0.1455916 0.113368586 0.13265657 -0.15972313 0.23904201 0.0994444
-0.15010877 0.20220746 0.10796399 0.23470056 -0.0007771935 0.14835852 0.17637376 -0.018388318
0.08048624 0.43192476 0.13155106 -0.075078845 -0.025606943 0.3149987 -0.071872 0.23590513
0.66681933 -0.105008505 0.08322027 0.1667359 -0.23895295 -0.23713927 0.096245244 0.14122652
0.0343935 0.13752317 -0.38067648 0.04167438 0.15454806 0.05938216 0.09433113 0.66401464
-0.04079261 -0.03712618 0.09088152 -0.10632291 0.04715786 -0.06820047 -0.05576713 -0.17236781
0.14065431 0.5827197 0.30043533 -0.0033742087 0.06282121 -0.25471944 -0.3206383 -0.17010961
0.013282281 -0.10554179 -0.11220274 0.17374547 -0.08123522 0.0136384675 -0.08516591 0.09730002
0.26341954 0.018446092 0.14340445 0.18741058 0.20495084 0.016980706 -0.12565136 0.13962115
0.08541917 -0.12861374 -0.096804336 -0.029754348 0.04906721 0.062401555 -0.089480035 0.048087236
-0.048007883 -0.038320817 0.018157179 0.06593966 -0.27639332 -0.45023894 -0.20075135 -0.13392326
0.00932724 -0.02976371 0.013395622 0.23115937 -0.032841895 0.18832222 -0.22002557 -0.12307245
0.04424143 0.08442876 0.037220303 -0.16876885 0.044967327 0.0011953717 0.0038618052 0.0690133
0.21262509 0.32252747 0.0005587976 0.041215535 -0.036684815 -0.0074276025 -0.03700082 0.05384957
0.022470877 0.19082741 0.039795324 0.118526645 0.15828133 0.07376408 0.009580651 -0.21712086
-0.08673986 -0.2814908 0.031881597 -0.21277054 -0.19922164 -0.37938717 -0.5835181 0.077621035
0.3028836 0.22236678 0.14315937 -0.35670906 0.07418431 -0.0963515 -0.057020705 -0.05790384
-0.099882476 0.04556832 0.20353076 0.04562303 -0.059508167 0.045388184 0.2478864 0.28465927
-0.040199213 0.09243875 0.17800623 0.036322992 -0.037873138 -0.13659051 -0.14814192 0.14735043

network_body._body_endoder.seq_layers.2.bias f4 [128]
00000000: 0d7c 7a3d 9f2b 6d3b 9769 8f3d 7cc7 34bd
00000010: af56 8abd 671b 97be ecb6 483d 9a00 5fbe
00000020: 1227 14be f98c d0bd cb55 9ebd 6411 623d
00000030: e463 94be cfa6 f73c 417a ecbd ae6c 4cbe
00000040: 99c7 923d 94dd 853c a1e3 d8bb c975 df3c
00000050: 7e36 1a3d 24a9 b13d ccd9 90be 24e6 aabc
00000060: 184e b1bd 53bf 373c 8b74 3f3d 1714 bc3b
00000070: 8154 873d fbb3 893d 23b4 333d b35b 0e3e
00000080: 262d 80be 1c38 ce3c 88cf 1ebb bb34 29be
00000090: 609c a93d fb1b f1bd cd02 58bd cc82 483d
000000a0: 1b5f 853d e9eb 14bd 78aa d13d 1062 3cbe
000000b0: 2815 0c3d 37d6 933e d3ae 9b3c e118 c7bd
000000c0: 01f8 953d f6da 063d 263a 3d3c 54d4 6ebb
000000d0: eae3 b6ba 4396 5bbe 7664 19be 8c62 c6bd
000000e0: 15cc 40bd 54f2 19be b47f 2ebd 362a edbc
000000f0: 64f4 cbbd e2fb a4bc ab3b 193e abbe 09bd
00000100: b454 e23d 10f0 65be b401 c7bd d0f3 323e
00000110: 7350 cfbd aacb 25bd d6a0 143d d5b0 70bd
00000120: 934f a1be 2e0e 8fbe 544e 8a3e 2367 49bb
00000130: 4dfc 44be ca8b f8bd f500 33bd e2bf 303e
00000140: 63f3 f63d 9c91 6fbd 5ded b63d c629 483e
00000150: d99e 123d 05e2 623e e29e cbbd 9b8c 3f3e
00000160: 8f97 37bd cc14 8cbd 9529 1cbe 25a6 3d3c
00000170: a376 a4bd 2069 eb3c d4c2 763e c103 53bd
00000180: b0dc 30bd 466a c63b 10ca 36be 3485 9c3c
00000190: a6a4 6ebc 0e00 5f3e a19d bc3d 14b9 66be
000001a0: 2845 1abe dc78 7ebe 2136 16be 1732 58be
000001b0: 5aba 1d3e f5b3 2d3e 5ee0 2ebd 8b79 20be
000001c0: 6b11 4cbe 5def 5ebe 9219 d73b 690a 50bd
000001d0: 43a6 813e 9f8a c8b9 44d9 973c 40ad d9bd
000001e0: eeeb 8f3e a7dc 283e 92a0 50bd 8ad3 783d
000001f0: 7414 d73d d182 8b3d 5cdf 4c3e 157e 83bd
0.06115346 0.003618933 0.070025615 -0.044135556 -0.06754815 -0.29513094 0.049002573 -0.21777573
-0.14468029 -0.101831384 -0.077312075 0.055192366 -0.2898246 0.030230908 -0.115467556 -0.19963333
0.071669765 0.016341008 -0.0066189324 0.027277844 0.037649624 0.08674839 -0.28291166 -0.020861693
-0.08657473 0.011215049 0.046742003 0.0057396996 0.06607915 0.06723782 0.043872964 0.13902168
-0.25034446 0.02517324 -0.0024232585 -0.16524021 0.08281779 -0.11772915 -0.052737046 0.048952863
0.065122806 -0.036357794 0.102375925 -0.18396783 0.034199864 0.2887437 0.019004261 -0.09721542
0.073226936 0.03292366 0.011549508 -0.0036442475 -0.0013953422 -0.21444039 -0.14979729 -0.09686765
-0.047069628 -0.15033847 -0.042602256 -0.028950792 -0.09958723 -0.020139638 0.14964168 -0.0336291
0.11051312 -0.22454858 -0.09717122 0.1747582 -0.10122766 -0.040477432 0.036286198 -0.05876239
-0.31506023 -0.27940506 0.27012885 -0.003073164 -0.1923687 -0.12136038 -0.043702085 0.17260697
0.12058141 -0.058488473 0.08931992 0.19547185 0.03579602 0.22156532 -0.09942414 0.1870598
-0.044822272 -0.06839904 -0.15250237 0.0115752565 -0.08030441 0.028736651 0.24097759 -0.051517252
-0.043179214 0.0060551492 -0.17850518 0.019106485 -0.014565622 0.21777365 0.09209753 -0.22531539
-0.15065444 -0.24850792 -0.14669086 -0.21112858 0.15403119 0.1696318 -0.042694442 -0.15671365
-0.1992852 -0.21770997 0.0065643275 -0.050791178 0.2532216 -0.00038250253 0.018536218 -0.10628748
0.28109688 0.16490422 -0.05093438 0.060748614 0.10501948 0.068120606 0.2000708 -0.064205326

network_body._body_endoder.seq_layers.2.weight f4 [128, 128]
00000000: 3ae2 a53d 2bb5 63bd 905d 923d a46c 75be
00000010: 8ddb 1fbe edad b23d 25d0 213e f17b 5e3e
00000020: 547f 31bc 01b2 7fbd f8aa d63d b557 73bc
00000030: 8e65 55be a642 3e3e 4725 18bd 8e1c a23b
00000040: 1bae cc3d 6961 02be ffe0 26be e234 983e
00000050: cc5b e2be 0776 04bf 7506 d6bd fbe5 bc3c
00000060: 07f6 abbe bef8 1f3d 1752 98bd 3c51 b0bc
00000070: 4ee2 28be 6fdf fcbd b71c 8c3e 4090 d83d
00000080: 9448 a83e b2e4 afbe a611 b53e 8551 673d
00000090: deba 2d3e ae49 363e baa0 d53c 226e f13d
000000a0: f11a 023d 9d9f fe3d 7f3b cf3d 608e 02be
000000b0: 52d9 e93d 0ead 9dbe e160 a83e 9f6c 223e
000000c0: 07cf d4bd 95ba 50be a23e 283e 511e 09be
000000d0: 2fb0 05be ea89 77be 77f1 313e e9c8 3abd
000000e0: 4980 0bbf cc77 173e 878b ca3d 126d 21be
000000f0: 4d80 8ebe b64d 1fbd f949 1fbe 3864 693c
00000100: b0ee 943e 2d3d 92bc 02de 1ebe 9c8a 283d
00000110: 9416 83be 9695 a3bd 1c62 2c3e 00ec 06be
00000120: d217 953e 77bd e1bd 948a 853d eaff eebd
00000130: 801c de3d da27 73bd 698e 8bbe 8eb6 15bd
00000140: 0b2d c5be eda1 14bd 77d5 273e e9dd 753d
00000150: 0f73 05bf 084d 433e 5a27 9cbe 3fd1 51be
00000160: 6370 40bd 2003 98be 7548 da3d 1f1e d33e
00000170: 61a1 71bd 32ad 443b 7fc9 20be 75e5 d43d
00000180: 933d f8bd 2f91 aabd fd01 5b3c f009 f03d
00000190: d216 59be 6625 96be da70 2fbf e1bb da3d
000001a0: a37c 433d f6ea e6bd b336 b23c 2c6b cc3c
000001b0: 91c5 09bc 15a9 873d 62c6 c83d 8bfa 163e
000001c0: bf2b f93b 754c 71be da7b 793e 1008 dcbd
000001d0: 8d82 9bbd 00c5 97bd c61a 2ebe 2b59 d43e
000001e0: d8e7 473e 1c92 b4be 6ad3 52be 1575 693d
000001f0: 15a2 803e 108a a63e 720d bfbd 8648 d6bd
00000200: 19f9 4dbe 05ec d6bc 249e 29be d4d4 39be
00000210: 2ba0 ba3e 22e1 1f3e f23b c7bd 4a7d 62be
00000220: 847f 4f3e 3449 9dbe 5a38 f8bd 7c32 cf3e
00000230: b08e 173e 891f 67be 5075 b03d 90a7 fb3b
00000240: 7e18 95be a55f 00be d583 0d3e 74f9 71be
00000250: 93f9 553e b770 38bd d9ed 0dbf 8d34 abbe
00000260: a85b 463e f450 a43b 0c90 ee3d 0f8b 5bbe
00000270: 83b3 ebbe 5bd5 be3e 9c7f e3be 5e23 c0be
00000280: ef23 783d 7da8 cb3e 0b5d 3e3c 3445 8cbd
00000290: c341 153e 2e23 8bbe e640 7dbd 41ff 0b3d
000002a0: fe95 2e3d f227 dabc 1220 1fbe d7ce 30be
000002b0: ec92 1ebe 049b a5bd d622 09bf aa36 79be
000002c0: dabb 3a3c f5bf 573c 5dfc 28be 9c55 913c
000002d0: 9ca4 843d 2a82 9d3d 1908 cf3d 57a4 81bc
000002e0: 7daf 883e efc1 b23e 36b9 e6be 4b7d 62be
000002f0: f657 03be 813c 883e f25b e9bd c535 37be
00000300: 92f5 8cbd 6bb4 17bf bd44 f23d 966d df3d
00000310: 6e7e e03c 2753 8abd f6a3 9a3d 8c45 2d3e
00000320: a9de b73d 2c9b 553e 65b7 edbc 6e71 17bf
00000330: 932d 9fbe a8eb 513d 28c0 263e 0802 053e
00000340: 2a91 a83e 0d57 1bbe 7fcd b9bd ecf4 6abe
00000350: 3956 9c3d 16ef eb3d 8669 35bd a902 2dba
00000360: 1636 913e ef8f aa3e dc07 013e 17f1 96be
00000370: 2a23 133d 0137 dabd 2c6b 6cbc 3956 a23e
00000380: b6bf b9be 500b a13d d5a9 12bd d916 263e
00000390: 0b6c 943e d600 2b3e cdb4 1b3e 2445 963e
000003a0: d23e 7f3e dc0e 3f3e 0a76 e83d 6bc9 cfbd
000003b0: fa63 413b 1512 693c 7a72 9bbd 725a ccbd
000003c0: 23b0 dcbd b70e d63d 471b 39be bb0e 3dbc
000003d0: 79db ec3e 31d7 b6bc 8a37 06be dad2 a23c
000003e0: 8e45 e03d 40a0 3a3e 3a96 4b3e 6898 1a3d
000003f0: 925d 34be f9d6 083e f324 163e 5211 76bd
0.0809979 -0.055592697 0.07146752 -0.23967224 -0.15611096 0.0872458 0.15802057 0.21726967
-0.01083358 -0.062425617 0.104818285 -0.014852454 -0.20839521 0.18580112 -0.037144925 0.0049472516
0.099941455 -0.12732472 -0.16296767 0.29727846 -0.4421066 -0.51742595 -0.1045045 0.023058882
-0.3358614 0.03905558 -0.074375324 -0.02152311 -0.16492578 -0.12347304 0.27365658 0.105743885
0.32867873 -0.34354168 0.35365027 0.056474227 0.16965815 0.17801544 0.026077617 0.11788584
0.031763975 0.124327876 0.1011877 -0.12749624 0.11418404 -0.30796093 0.32886413 0.15861748
-0.1039105 -0.20383675 0.16430143 -0.13390471 -0.1305549 -0.24173704 0.17377268 -0.04560176
-0.5449262 0.14791793 0.09889894 -0.15764263 -0.2783226 -0.03889247 -0.15555562 0.014245085
0.29088354 -0.017851437 -0.15514377 0.041147813 -0.25603163 -0.07987516 0.16834301 -0.13175964
0.29119736 -0.11022466 0.06520572 -0.116699055 0.1084528 -0.059364177 -0.27257088 -0.03655105
-0.38510928 -0.036287237 0.16390024 0.060026083 -0.5212869 0.19072354 -0.30498773 -0.20489977
-0.04698218 -0.29689884 0.10658351 0.41233918 -0.058991794 0.003001046 -0.15701865 0.10395328
-0.12121119 -0.08328473 0.013367173 0.117206454 -0.21200112 -0.29325408 -0.6853157 0.10680366
0.047726285 -0.11275284 0.021754598 0.024953447 -0.00840892 0.06624047 0.098034635 0.14744012
0.007604092 -0.23564322 0.24363652 -0.10743725 -0.0759326 -0.07410622 -0.17002401 0.4147428
0.19522035 -0.35267723 -0.2058846 0.056996424 0.2512366 0.32527208 -0.09328736 -0.104630515
-0.20114554 -0.02623559 -0.16564232 -0.18147594 0.36450323 0.15613225 -0.097282305 -0.22118106
0.20263487 -0.30719912 -0.12120123 0.40468204 0.14800525 -0.22570623 0.086161256 0.007679887
-0.2912025 -0.12536485 0.13819821 -0.23630315 0.20895986 -0.04502937 -0.5544105 -0.3343853
0.19370902 0.005014533 0.116485685 -0.21439765 -0.46035394 0.37272152 -0.44433296 -0.37526983
0.060581144 0.39776984 0.011618863 -0.06849137 0.14575867 -0.27175277 -0.06182947 0.034178976
0.042623512 -0.026630376 -0.15539578 -0.17266403 -0.15485734 -0.080862075 -0.5356878 -0.24337259
0.011397326 0.013168325 -0.16502519 0.017741017 0.06476709 0.076908424 0.101089664 -0.015825434
0.26696387 0.34913585 -0.4506318 -0.22118108 -0.12826523 0.2660866 -0.1139449 -0.17891605
-0.06882776 -0.5925967 0.11829517 0.10909574 0.027404036 -0.06754141 0.07550804 0.16921061
0.08978016 0.20859975 -0.029018113 -0.59157455 -0.31089458 0.05125013 0.1628424 0.12989056
0.3292325 -0.15169926 -0.090723984 -0.22944993 0.07633633 0.115202114 -0.044290088 -0.00065998227
0.28361577 0.33312938 0.12600654 -0.29480812 0.035922207 -0.106550224 -0.014429849 0.31706408
-0.36279076 0.07863486 -0.035806496 0.16219653 0.2898868 0.16699538 0.15205689 0.29349625
0.24926308 0.18658012 0.11350639 -0.10145839 0.0029509054 0.0142255025 -0.07590194 -0.099781886
-0.10775783 0.104520254 -0.18076812 -0.011539157 0.46261194 -0.022319408 -0.13107124 0.019875932
0.109507665 0.18225193 0.19881526 0.037743002 -0.17613819 0.13363256 0.14662533 -0.06007511

network_body.observation_encoder.processors.0.normalizer.running_mean f4 [35]
00000000: bf5a 633f d553 4939 0000 0000 9a7d bb39
00000010: ff24 023e ec8b 673f 3ba9 1c39 0000 0000
00000020: 2686 243a 5437 113e d298 4c3f 105d 7539
00000030: 0000 0000 5794 083a 01ce 073e 5c16 4f3f
00000040: cbe7 8539 0000 0000 7720 4a3b e319 303e
00000050: d797 1d3f 75bc 153a 0000 0000 7fc7 523c
00000060: 0bb6 233e 6016 183f 1587 6d3b 0000 0000
00000070: 126e 2b3d 03af 513e 93ab 253e d95e 103d
00000080: 0000 0000 42e7 833d 1dc4 543e
0.8881034 0.00019200084 0.0 0.00035761 0.12709425 0.9044788 0.00014940363 0.0
0.0006276093 0.14181262 0.79920685 0.00023399689 0.0 0.00052100926 0.13262178 0.8089349
0.00025540436 0.0 0.0030842104 0.17197375 0.61559814 0.0005711981 0.0 0.012864946
0.15987413 0.5940914 0.0036243845 0.0 0.041853018 0.20476918 0.16178732 0.035246704
0.0 0.06440593 0.20777936

network_body.observation_encoder.processors.1.normalizer.running_mean f4 [45]
00000000: 82a4 5c3e 1099 963e 0000 0000 015a ee3c
00000010: 9acd 9a3d 42c4 2a3e 52e1 723e 0000 0000
00000020: 1744 243d 5bfe ae3d c267 b33e c103 3b3e
00000030: 0000 0000 ed42 083d 2395 a23d 4c34 433e
00000040: 9b5b 2f3e 0000 0000 931a aa3d 242d 053e
00000050: 3376 de3e 0d4c b03d 0000 0000 4075 433d
00000060: 1dc1 b33d 497c 083e 5056 fc3d 0000 0000
00000070: 2e40 ec3d c07b 1f3e b047 e23e e7b0 033d
00000080: 0000 0000 35a0 c33d 1ab5 033e 4cbc 033e
00000090: da86 763d 0000 0000 203f b33d 4ea7 023e
000000a0: 096f f23e 2dde 503c 0000 0000 f09c c13d
000000b0: 92d4 013e
0.2154713 0.29413652 0.0 0.029095652 0.07558747 0.16676429 0.23718765 0.0
0.040103998 0.08544608 0.35040098 0.18263151 0.0 0.03326695 0.07938602 0.19062918
0.17124788 0.0 0.0830585 0.13005501 0.43449554 0.086082555 0.0 0.04771924
0.08777068 0.13328661 0.1232115 0.0 0.11535679 0.1557455 0.44195318 0.03215113
0.0 0.095520414 0.12862054 0.12864798 0.0601872 0.0 0.087522745 0.12759134
0.47350338 0.012748283 0.0 0.094537616 0.12678745

network_body.observation_encoder.processors.2.normalizer.running_mean f4 [17]
00000000: 12c5 db40 8d0e 67bf 3a94 9b41 c6de de3f
00000010: 1eac bd3e c68f 20c0 ef0a 8538 1372 c23e
00000020: 322c 41ba 77ad 59bf 39ad b343 3a94 f740
00000030: ec6a 883e c4d0 1abe 9509 323f 197b 48be
00000040: 0000 0000
6.8678064 -0.9025658 19.447376 1.7411735 0.37045377 -2.5087752 6.343971e-05 0.37977657
-0.00073689513 -0.8503031 359.3533 7.736844 0.26644075 -0.151187 0.6954587 -0.19578208
0.0
