Assets/Brains/run31/CarPractice_run31-6.onnx (onnx, 124000 bytes, 15 tensors)

85 f4 [35]
0.26001602 0.02399511 0.00044721307 0.025908971 0.0671905 0.29760924 0.025176765 0.00044721307
0.03452721 0.07267582 0.3256051 0.023503205 0.00044721307 0.03250933 0.07465035 0.3994926
0.02985613 0.00044721307 0.08675681 0.1052375 0.47065204 0.02551883 0.00044721307 0.10794932
0.11748546 0.4913316 0.12491038 0.00044721307 0.28577992 0.25542188 0.35926816 0.18734765
0.00044721307 0.23340875 0.2156208
00000000: d220 853e 6591 c43c ec77 ea39 0d3f d43c
00000010: 2c9b 893d 3d60 983e 813f ce3c ec77 ea39
00000020: 676c 0d3d 0fd7 943d b6b5 a63e cb89 c03c
00000030: ec77 ea39 8128 053d 48e2 983d 4b8a cc3e
00000040: d894 f43c ec77 ea39 8ead b13d c286 d73d
00000050: 4ef9 f03e de0c d13c ec77 ea39 8814 dd3d
00000060: 389c f03d d18f fb3e 03d1 ff3d ec77 ea39
00000070: bf51 923e a8c6 823e fff1 b73e 10d8 3f3e
00000080: ec77 ea39 b402 6f3e b3cb 5c3e

88 f4 [45]
0.4077401 0.46888256 0.00044721307 0.15475102 0.15036559 0.36614922 0.42257714 0.00044721307
0.2061862 0.19829704 0.48592263 0.3551312 0.00044721307 0.19746715 0.18995203 0.39068735
0.3490901 0.00044721307 0.279335 0.2668416 0.49960798 0.25756505 0.00044721307 0.26115024
0.25109407 0.30811387 0.3143659 0.00044721307 0.32759058 0.3134673 0.49927944 0.19646299
0.00044721307 0.34460855 0.33274513 0.32464123 0.2301633 0.00044721307 0.27490422 0.26401222
0.49974927 0.15037009 0.00044721307 0.33481935 0.32371578
00000000: 4fc3 d03e 6011 f03e ec77 ea39 0d77 1e3e
00000010: 70f9 193e e977 bb3e 085c d83e ec77 ea39
00000020: 7a22 533e 610e 4b3e daca f83e c2d3 b53e
00000030: ec77 ea39 d434 4a3e c982 423e 2c08 c83e
00000040: f0bb b23e ec77 ea39 ff04 8f3e 769f 883e
00000050: 9ecc ff3e 91df 833e ec77 ea39 7cb5 853e
00000060: 678f 803e 1ac1 9d3e 91f4 a03e ec77 ea39
00000070: f4b9 a73e c97e a03e 8ea1 ff3e 982d 493e
00000080: ec77 ea39 8870 b03e 925d aa3e 6037 a63e
00000090: eeaf 6b3e ec77 ea39 3fc0 8c3e 9c2c 873e
000000a0: 23df ff3e 9efa 193e ec77 ea39 716d ab3e
000000b0: 13be a53e

91 f4 [17]
21.231476 0.7202678 22.565136 5.5914226 0.015301315 6.3958783 0.016431442 0.33351198
0.018346362 0.11830427 602.7143 27.555368 0.48267353 0.17693986 0.4236216 0.80000305
0.00044721307
00000000: 10da a941 7863 383f 6685 b441 efec b240
00000010: 5eb2 7a3c 09ab cc40 3b9b 863c 15c2 aa3e
00000020: 1c4b 963c 8249 f23d b7ad 1644 6571 dc41
00000030: fc20 f73e b92f 353e eee4 d83e 00cd 4c3f
00000040: ec77 ea39

action_model._discrete_distribution.branches.0.bias f4 [3]
-0.041624136 0.5346945 -0.16836195
00000000: 127e 2abd bde1 083f 1367 2cbe

action_model._discrete_distribution.branches.0.weight f4 [3, 128]
0.22352342 -0.010500619 0.23565058 0.15538453 0.1341728 0.21718173 0.046124697 0.4734163
0.06762587 -0.055581417 0.23108815 0.040159415 0.29859984 -0.009646998 -0.20669813 0.28643867
-0.010905184 0.43147057 -0.07192024 0.3998309 0.2721659 0.12517093 0.14757648 0.096724674
0.45782858 0.04413543 0.094755836 -0.18176426 0.31527913 -0.16236386 -0.022290295 -0.3129042
0.112210274 0.2666644 -0.29568368 0.08425553 0.07874875 0.20719948 0.0046375343 -0.016635532
0.0430355 0.21129522 0.06267775 0.2737745 0.13148484 0.18514289 -0.06314553 0.3527993
0.33917004 -0.1303736 0.05901877 0.2147654 0.01776851 -0.14850947 0.15324253 0.118199825
0.21060766 0.2590699 -0.24423064 0.15311448 0.12408283 -0.048767507 0.22962657 0.1667827
0.21456201 -0.14763026 0.2583065 0.13461442 0.116911545 0.08486697 -0.18332925 0.5404197
0.342433 0.08273991 -0.27133748 -0.22996192 0.39066353 0.2575396 -0.19408114 0.07120546
-0.012781493 0.181509 0.23211075 -0.058178026 0.22702281 0.31681108 0.19135368 -0.42700005
0.2660507 0.37234777 0.10163385 -0.15877375 0.102975085 0.34401366 -0.27091032 0.103085004
-0.042235017 -0.12126536 -0.115963414 -0.09479107 -0.16847056 0.29427415 0.16059762 0.17733881
0.19373047 0.11189084 0.24665341 -0.09063035 0.07989397 0.45219213 -0.0739768 0.16378424
-0.29536092 -0.4915711 0.10162431 0.1241171 0.18117426 -0.02000115 0.21660656 0.30856186
0.44444358 0.42670676 0.23459573 0.3063787 0.17350616 0.068932705 0.12681803 -0.3375302
-0.39955798 0.040152203 -0.18371858 -0.39974937 0.05790909 0.05458308 0.1689265 -0.20350662
-0.00771499 0.23266503 -0.25901654 0.023737112 -0.21805246 0.047874287 0.11213152 -0.60364425
0.10494823 -0.11869866 0.1819499 -0.09290639 -0.18945768 0.13780774 0.04491382 0.055745766
-0.17686306 0.14628051 0.036864508 0.19166677 -0.1580778 0.30749026 0.12640455 -0.14436968
0.36382863 0.11215478 0.13407782 -0.1628659 0.03692182 0.13261355 -0.05303524 -0.107865185
0.06305439 -0.36476687 -0.12685087 -0.08217736 0.011241873 0.13910389 0.30650714 -0.06072264
-0.45408624 0.13230461 0.15263766 0.08006913 0.05460341 0.243963 -0.38027295 -0.30030963
-0.016105227 -0.24789143 0.005277162 -0.2596489 0.11413215 -0.049548574 -0.31011832 0.14678767
-0.2971004 0.32568052 -0.23937602 0.12664032 -0.1367954 0.3805154 0.3014701 -0.39503112
-0.18557379 0.036480736 0.30967563 0.36751294 -0.28695396 0.25081238 0.16455853 0.04454516
0.024144966 0.16045639 0.037015516 -0.10293349 -0.43091476 -0.24716245 0.076930046 0.30274594
-0.23787954 -0.47992286 0.040542565 -0.076730534 0.11644706 0.112143904 0.373305 0.19446173
0.24208528 0.23130883 0.17247432 0.28093562 0.21923554 -0.24258007 0.068466105 -0.059398852
0.09757874 0.1385581 -0.16091071 0.255002 -0.45653695 -0.5995005 0.020176105 0.12029636
0.02876033 0.32174465 0.13354295 0.117847316 -0.07313725 0.029711619 -0.14854553 -0.10642879
-0.30800456 -0.51673394 0.22454868 -0.43057787 -0.28316084 -0.37492543 0.05989297 -0.00437162
00000000: 53e3 643e ca0a 2cbc 634e 713e 1f1d 1f3e
00000010: 9864 093e e364 5e3e 40ed 3c3d 9f63 f23e
00000020: 6f7f 8a3d 57a9 63bd 5fa2 6c3e 337e 243d
00000030: 14e2 983e 710e 1ebc ada8 53be 17a8 923e
00000040: a8ab 32bc b6e9 dc3e eb4a 93bd a3b6 cc3e
00000050: 5459 8b3e cf2c 003e 4a1e 173e 9617 c63d
00000060: 8268 ea3e 5ac7 343d 590f c23d 6920 3abe
00000070: 446c a13e b642 26be 239a b6bc fb34 a0be
00000080: 80ce e53d 3c88 883e da63 97be 2a8e ac3d
00000090: 0647 a13d 1a2c 543e 75f6 973b 3d47 88bc
000000a0: fe45 303d c65d 583e 315d 803d 2c2c 8c3e
000000b0: f6a3 063e 1996 3d3e 7252 81bd 1ca2 b43e
000000c0: b2a7 ad3e a880 05be aabd 713d 76eb 5b3e
000000d0: 448f 913c de12 18be 9ceb 1c3e c012 f23d
000000e0: 89a9 573e cfa4 843e 9917 7abe 0bca 1c3e
000000f0: 241f fe3d 70c0 47bd 3a23 6b3e 16c9 2a3e
00000100: 25b6 5b3e 632c 17be c040 843e 5dd8 093e
00000110: 526f ef3d bcce ad3d aaba 3bbe f258 0a3f
00000120: 6153 af3e 8b73 a93d bfec 8abe 237b 6bbe
00000130: 0d05 c83e 3bdc 833e 35bd 46be 2bd4 913d
00000140: 7869 51bc 7fdd 393e 71ae 6d3e 154c 6ebd
00000150: ab78 683e 1035 a23e 38f2 433e c09f dabe
00000160: cc37 883e 5ea4 be3e 6825 d03d 9695 22be
00000170: 9ae4 d23d 8f22 b03e c2b4 8abe 3b1e d33d
00000180: a0fe 2cbd f959 f8bd 3a7e edbd d221 c2bd
00000190: 8c83 2cbe 1aab 963e b473 243e 4e98 353e
000001a0: 4861 463e 0627 e53d b692 7c3e 689c b9bd
000001b0: 739f a33d ba85 e73e 2681 97bd 0eb7 273e
000001c0: 8c39 97be 35af fbbe 6820 d03d 1b31 fe3d
000001d0: bf85 393e 74d9 a3bc 1cce 5d3e d2fb 9d3e
000001e0: 1c8e e33e 4f79 da3e dd39 703e abdd 9c3e
000001f0: 99ab 313e 972c 8d3d 96dc 013e c2d0 acbe
00000200: dd92 ccbe a376 243d b920 3cbe f3ab ccbe
00000210: 1532 6d3d 8292 5f3d 12fb 2c3e 0a64 50be
00000220: 07ce fcbb be3f 6e3e d19d 84be 5574 c23c
00000230: 2549 5fbe d417 443d 36a5 e53d 6e88 1abf
00000240: 19ef d63d 4818 f3bd 1351 3a3e b545 bebd
00000250: 3201 42be 791d 0d3e 8ef7 373d ac55 643d
00000260: 971b 35be 8fca 153e 3dff 163d 4b44 443e
00000270: 26df 21be 5d6f 9d3e 3270 013e a5d5 13be
00000280: bf47 ba3e 68b1 e53d b24b 093e 52c6 26be
00000290: 563b 173d d9cb 073e 7b3b 59bd 6ce8 dcbd
000002a0: a922 813d b9c2 babe 32e5 01be 9b4c a8bd
000002b0: d52f 383c 4071 0e3e 81ee 9c3e 4eb8 78bd
000002c0: fe7d e8be dc7a 073e 0c4d 1c3e 49fb a33d
000002d0: d3a7 5f3d 70d1 793e 23b3 c2be 2fc2 99be
000002e0: 1cef 83bc 40d7 7dbe 0bec ac3b b3f0 84be
000002f0: 1ebe e93d 72f3 4abd d4c7 9ebe 824f 163e
00000300: 8b1d 98be 99bf a63e fd1e 75be 00ae 013e
00000310: 1814 0cbe ead2 c23e 4a5a 9a3e 8541 cabe
00000320: 0e07 3ebe d36c 153d ce8d 9e3e a82a bc3e
00000330: a1eb 92be 7b6a 803e 0882 283e fc74 363d
00000340: aacb c53c ae4e 243e 959d 173d cbce d2bd
00000350: dca0 dcbe 2718 7dbe 808d 9d3d 8401 9b3e
00000360: b296 73be 73b8 f5be f60f 263d e624 9dbd
00000370: cc7b ee3d b4ab e53d d521 bf3e fa20 473e
00000380: 34e5 773e 39dc 6c3e 1c9d 303e cbd6 8f3e
00000390: 487f 603e e966 78be f537 8c3d 364c 73bd
000003a0: 5dd7 c73d 2de2 0d3e c7c5 24be 9f8f 823e
000003b0: 36bf e9be dd78 19bf 5c48 a53c f05d f63d
000003c0: c99a eb3c b7bb a43e 7cbf 083e ef59 f13d
000003d0: fcc8 95bd c865 f33c 521c 18be 56f7 d9bd
000003e0: c6b2 9dbe ad48 04bf 17f0 653e b474 dcbe
000003f0: 75fa 90be 3af6 bfbe 5552 753d ce3f 8fbb

action_model._discrete_distribution.branches.1.bias f4 [3]
0.18514214 0.2820727 -0.14726983
00000000: e795 3d3e d56b 903e e7cd 16be

action_model._discrete_distribution.branches.1.weight f4 [3, 128]
0.14800128 0.2090913 0.06969075 -0.009537402 -0.45011663 -0.34103444 -0.327018 -0.090848714
-0.26794267 -0.024668053 -0.09714007 -0.05934439 0.050878175 -0.14215697 0.21545209 -0.14304686
0.22343291 -0.18200034 0.32526883 0.2106334 -0.09483303 0.087427214 -0.50621736 0.44530097
0.14801855 0.09966039 0.18945038 0.02178637 0.10506256 0.257591 0.0853457 -0.11272098
0.30477285 -0.22188061 -0.098479025 -0.5665891 -0.4871909 0.07112917 0.14434189 0.18313025
-0.13046202 -0.35899585 0.12154457 -0.38852993 0.10139861 0.2502885 0.07945998 0.045738574
0.23354512 -0.06600488 0.040668454 0.28908852 -0.27896285 -0.13077693 0.03548514 0.19598359
-0.39849287 0.16774279 0.025119092 0.24662524 -0.3732129 0.18720223 -0.24598846 -0.15023191
0.23081475 0.2785152 0.09099054 -0.5489264 0.0475918 0.27749896 0.14774793 0.035775065
-0.38551968 0.24187286 0.017642114 0.17636326 0.3980359 0.03587038 0.21247865 0.15709256
0.17511111 -0.4253843 0.07697285 0.102620915 0.1815975 0.31422353 -0.25679997 0.25191256
-0.15504688 0.1724887 -0.5147504 0.038556285 0.27645177 -0.09722977 0.13711762 0.05128441
0.09574287 -0.12429741 0.21045426 -0.1277374 -0.07613119 -0.32562742 -0.44600058 -0.31775394
-0.04945293 -0.57324016 -0.015743744 -0.70646924 -0.22189112 -0.06192687 0.22063617 0.032002367
0.080018304 0.03995547 0.16490354 -0.33578953 -0.19846603 0.27239937 0.13550296 0.39497256
-0.11832616 -0.25210947 -0.005088613 0.016036082 0.051812287 0.12610969 -0.61424065 -0.09355011
-0.30481228 0.05191642 -0.1479352 0.18564776 0.17951652 0.12713142 0.3437612 0.022670634
-0.015704412 0.61424077 0.05529375 0.1694574 -0.51631457 -0.26441875 -0.34146106 -0.25403273
0.23915632 0.06503761 -0.22073933 -0.08645092 0.08038203 0.24329719 0.1904554 -0.2464473
-0.19838849 -0.36913547 0.40682542 -0.21357438 0.12297826 -0.22409177 -0.3508954 0.073782384
0.1718268 -0.042164657 -0.12530802 0.2512535 0.22177231 0.3272432 -0.4104168 -0.004492776
-0.032682583 0.18820724 -0.4569382 0.15462701 -0.003665791 -0.40077007 0.0059534283 0.30754724
-0.17313236 0.044779252 -0.6152363 -0.13562943 0.1012802 0.12289946 -0.3390193 -0.6874307
0.33890736 -0.06675904 0.31786135 -0.33887008 0.03950357 -0.5026952 0.015834317 -0.30956998
-0.45621157 -0.21719325 0.014002009 0.17480414 -0.09433222 0.27383733 -0.37818512 -0.05360797
0.26801822 0.27252886 -0.019183122 0.01373973 -0.10561063 0.5233177 -0.41168863 -0.42412207
-0.6837293 0.1358455 -0.09636483 -0.17138545 -0.12366589 -0.32772037 0.14726956 -0.2749969
0.053660188 -0.11974551 0.3797192 0.07885274 0.2410936 -0.10223083 -0.13352728 0.052833147
0.25401407 0.31216112 -0.07743586 0.21052292 0.12302716 0.04977437 0.4893089 0.19861272
-0.008726343 0.085231654 0.0606106 0.1299335 -0.15899847 -0.11029818 -0.52181494 0.29047325
0.025535995 0.010525048 0.13312165 0.5034733 0.08135608 -0.3748725 -0.5478989 -0.34994677
0.083629884 0.16883254 0.043379094 -0.020409096 -0.6575046 -0.41929498 0.42095184 -0.0406326
00000000: a68d 173e 081c 563e 06ba 8e3d c342 1cbc
00000010: b075 e6be 119c aebe e76e a7be e40e babd
00000020: c82f 89be a814 cabc 5ff1 c6bd 1a13 73bd
00000030: a265 503d 9991 11be 799f 5c3e e07a 12be
00000040: 99cb 643e 4c5e 3abe a389 a63e 48b0 573e
00000050: d237 c2bd 0a0d b33d 7697 01bf 7dfe e33e
00000060: 2d92 173e bf1a cc3d 48ff 413e 5479 b23c
00000070: 0a2b d73d f8e2 833e bac9 ae3d 42da e6bd
00000080: 300b 9c3e ac34 63be 5faf c9bd fc0b 11bf
00000090: 1671 f9be 2cac 913d 5cce 133e 7f86 3b3e
000000a0: d697 05be 4ece b7be 5cec f83d 65ed c6be
000000b0: 13aa cf3d d025 803e eabb a23d 5f58 3b3d
000000c0: 7426 6f3e 912d 87bd f793 263d 6903 943e
000000d0: 38d4 8ebe 63ea 05be de58 113d ecaf 483e
000000e0: 4207 ccbe c4c4 2b3e 8ec6 cd3c 548b 7c3e
000000f0: c315 bfbe f1b1 3f3e 66e4 7bbe 65d6 19be
00000100: b45a 6c3e 8b99 8e3e 4059 ba3d 7186 0cbf
00000110: 9fef 423d 5814 8e3e 3c4b 173e e088 123d
00000120: d662 c5be 85ad 773e 3286 903c 9298 343e
00000130: 5dcb cb3e d2ec 123d 0194 593e dfdc 203e
00000140: 5450 333e f9cb d9be f1a3 9d3d ea2a d23d
00000150: b2f4 393e e8e1 a03e 497b 83be affa 803e
00000160: 9cc4 1ebe e1a0 303e afc6 03bf 32ed 1d3d
00000170: 168b 8d3e 6720 c7bd 9068 0c3e 9a0f 523d
00000180: d614 c43d a48f febd 5281 573e 98cd 02be
00000190: abea 9bbd a3b8 a6be 305a e4be a5b0 a2be
000001a0: 288f 4abd debf 12bf 06f9 80bc 2bdb 34bf
000001b0: 6d37 63be 08a7 7dbd 73ee 613e ea14 033d
000001c0: a3e0 a33d 59a8 233d 79dc 283e 9bec abbe
000001d0: ae3a 4bbe ee77 8b3e 4ac1 0a3e d839 ca3e
000001e0: fc54 f2bd 7e14 81be 61be a6bb 1a5e 833c
000001f0: 1f39 543d e622 013e e03e 1dbf 3397 bfbd
00000200: 5b10 9cbe 50a6 543d 537c 17be 721a 3e3e
00000210: 2ed3 373e bd2e 023e 7801 b03e c4b7 b93c
00000220: 8aa6 80bc e23e 1d3f b37b 623d 3e86 2d3e
00000230: 312d 04bf e561 87be fcd3 aebe 9410 82be
00000240: 65e5 743e 7032 853d 7e09 62be 2e0d b1bd
00000250: 559f a43d e622 793e be06 433e ae5c 7cbe
00000260: 5a26 4bbe 53ff bcbe 6c4b d03e 3eb3 5abe
00000270: 07dc fb3d 5078 65be 90a8 b3be 381b 973d
00000280: 5df3 2f3e d9b4 2cbd bf50 00be 4ca4 803e
00000290: 4818 633e 6c8c a73e 2722 d2be 2338 93bb
000002a0: 2cde 05bd 66b9 403e cef3 e9be 8b56 1e3e
000002b0: c43d 70bb bc31 cdbe fa14 c33b d576 9d3e
000002c0: 9c49 31be 736a 373d 2080 1dbf 71e2 0abe
000002d0: fe6b cf3d b6b2 fb3d f093 adbe 75fb 2fbf
000002e0: 4485 ad3e f7b8 88bd b9be a23e 6180 adbe
000002f0: 7fce 213d a2b0 00bf f8b6 813c f57f 9ebe
00000300: 9094 e9be e867 5ebe af68 653c dbff 323e
00000310: 4031 c1bd 6834 8c3e 7ba1 c1be 0894 5bbd
00000320: af39 893e e788 8b3e ec25 9dbc 9b1c 613c
00000330: 634a d8bd 26f8 053f dac8 d2be 8726 d9be
00000340: e208 2fbf 151b 0b3e ed5a c5bd ab7f 2fbe
00000350: 8b44 fdbd f7ca a7be d5cd 163e 65cc 8cbe
00000360: c9ca 5b3d 223d f5bd 8e6a c23e 8c7d a13d
00000370: 3ee1 763e 665e d1bd 60bb 08be 9267 583d
00000380: 220e 823e 95d3 9f3e b196 9ebd 5293 573e
00000390: aaf5 fb3d 36e0 4b3d b286 fa3e 2261 4b3e
000003a0: eff8 0ebc ef8d ae3d d242 783d 4a0d 053e
000003b0: 7fd0 22be 03e4 e1bd aa95 05bf e9b8 943e
000003c0: dd30 d13c 4071 2c3c 0b51 083e a0e3 003f
000003d0: 049e a63d 4aef bfbe 1a43 0cbf 392c b3be
000003e0: 2546 ab3d 70e2 2c3e 47ae 313d fa30 a7bc
000003f0: 3952 28bf d5ad d6be 0087 d73e 5f6e 26bd

discrete_action_output_shape f4 [1, 2]
3.0 3.0
00000000: 0000 4040 0000 4040

network_body._body_endoder.seq_layers.0.bias f4 [128]
0.017930703 -0.35008875 0.07685252 -0.29315552 -0.42273247 -0.057255194 -0.12452045 0.11817451
0.046083648 -0.19878325 -0.06196523 -0.35142386 0.005075776 -0.066573694 -0.19489698 -0.3598645
-0.18377124 -0.028821757 0.117917374 -0.34239218 -0.39047173 -0.07273658 0.04872136 0.19064623
0.08198754 0.25607312 -0.30728522 -0.043831274 -0.2242842 -0.06810167 -0.28931266 -0.12384327
-0.011441842 0.065207034 -0.22731514 0.09172562 -0.33348337 0.23314449 -0.105300866 -0.23598626
-0.16192225 0.0886895 0.19424157 -0.064140595 -0.08816996 -0.041574698 0.25757822 -0.07035417
-0.12235889 -0.23521137 -0.050696 -0.2373366 -0.16498151 -0.019298688 -0.34093395 0.009623169
-0.10631188 -0.15152009 -0.09472789 -0.13490541 -0.14284985 -0.23799917 0.059887964 -0.2249867
-0.10835571 -0.22762091 -0.37049952 -0.021987284 -0.3229892 -0.46549946 -0.114076234 -0.1570134
-0.07102266 -0.027529674 -0.09878492 -0.2002243 -0.28330943 -0.058881465 -0.09917516 -0.097211994
-0.11969416 -0.12101283 0.04029617 -0.004081554 -0.16280854 0.09651935 0.09048697 -0.09301161
-0.33147305 -0.17075314 -0.17018434 0.22378436 -0.328115 -0.40700728 0.015071019 0.0419082
-0.23013312 -0.015752096 -0.045748707 -0.4720861 0.035434373 -0.014109967 -0.13339311 0.30399257
0.16045558 0.027802365 0.09960668 0.16195685 -0.14975247 -0.045298032 -0.08305973 0.04712815
-0.3635703 -0.25107774 -0.18801197 -0.06602399 0.036084507 0.018631754 0.16152869 0.043971173
-0.22697085 0.28880122 -0.34432557 0.007251359 0.08834253 -0.19056314 0.03672271 -0.13206252
00000000: 69e3 923c d53e b3be db64 9d3d 7b18 96be
00000010: 6470 d8be 6c84 6abd 9404 ffbd 7a05 f23d
00000020: 35c2 3c3d d68d 4bbe 41cf 7dbd d4ed b3be
00000030: b252 a63b ca57 88bd 1393 47be 2940 b8be
00000040: 872e 3cbe 9b1b ecbc aa7e f13d 074e afbe
00000050: e9eb c7be ebf6 94bd 0c90 473d c438 433e
00000060: 15e9 a73d 041c 833e 7d54 9dbe 6c88 33bd
00000070: c2aa 65be e378 8bbd ca20 94be 8aa1 fdbd
00000080: 9076 3bbc 448b 853d 4dc5 68be a4da bb3d
00000090: 55be aabe 6ebd 6e3e fba7 d7bd 62a6 71be
000000a0: f2ce 25be d7a2 b53d 43e7 463e 255c 83bd
000000b0: 7492 b4bd 3b4a 2abd 4be1 833e d915 90bd
000000c0: 4c97 fabd 40db 70be 9ca6 4fbd 5e08 73be
000000d0: eaf0 28be 4818 9ebc e58e aebe 7faa 1d3c
000000e0: 0bba d9bd 1528 1bbe b200 c2bd a524 0abe
000000f0: 3b47 12be 0eb6 73be 154d 753d ea62 66be
00000100: 99e9 ddbd 7515 69be 1db2 bdbe ad1e b4bc
00000110: d75e a5be f255 eebe cda0 e9bd 1fc8 20be
00000120: 5474 91bd e985 e1bc c04f cabd 9907 4dbe
00000130: ef0d 91be b12d 71bd 591c cbbd 1517 c7bd
00000140: 3622 f5bd 93d5 f7bd 990d 253d 8ebe 85bb
00000150: 48b7 26be f0ab c53d 3c51 b93d df7c bebd
00000160: d6b6 a9be e9d9 2ebe ce44 2ebe ba27 653e
00000170: b0fe a7be 4263 d0be 6fec 763c efa7 2b3d
00000180: 04a8 6bbe 8a0a 81bc ff62 3bbd 45b5 f1be
00000190: a223 113d 7e2d 67bc 3498 08be eaa4 9b3e
000001a0: 784e 243e c9c1 e33c 96fe cb3d 04d8 253e
000001b0: b658 19be 6e8a 39bd 381b aabd 7209 413d
000001c0: e325 babe 438d 80be 3686 40be 9637 87bd
000001d0: 59cd 133d 9fa1 983c c767 253e 1e1b 343d
000001e0: 0c6b 68be c1dd 933e 714b b0be cf9c ed3b
000001f0: eeec b43d fc22 43be 8d6a 163d 663b 07be

network_body._body_endoder.seq_layers.0.weight f4 [128, 97]
0.033450764 -0.17498922 0.050927322 -0.06058611 -0.057191677 -0.24787712 0.09444981 0.0241111
-0.09828004 -0.17306824 0.11502318 -0.23599176 -0.20184962 -0.02517985 -0.16894887 -0.37951198
-0.06455582 0.033192236 -0.34955457 0.16692081 0.39484763 -0.026101993 -0.13950622 -0.06483904
-0.035896853 0.22093545 -0.27116305 0.063713074 -0.2346645 0.1829688 0.3126948 -0.26870564
-0.011428317 -0.20056975 0.1182736 -0.4033963 -0.19898668 0.07637009 -0.17528631 -0.22857186
-0.48515478 -0.30295032 -0.05572281 -0.09304655 0.03900372 -0.25253198 0.6509146 -0.13945323
-0.2763171 -0.19471882 0.06782848 -0.38732633 -0.032890365 -0.18893455 -0.23660216 0.0097814435
0.2923693 0.0415894 -0.1862195 -0.24068022 -0.2558105 0.23396008 0.046769515 -0.12808052
0.047568515 0.014660239 -0.18375403 0.024288224 -0.06659515 -0.19735968 -0.044083256 -0.20121562
-0.22567126 0.3020162 0.23837656 0.24880339 -0.032258794 -0.1317884 0.07077474 0.23869185
-0.34224045 0.06159606 -0.25944066 0.12835142 -0.12848762 0.2283234 -0.026598945 -0.15212329
-0.08328278 -0.17491013 0.24151199 0.047088273 -0.45908374 0.51862603 0.28708577 -0.16018085
0.17512801 -0.0080160955 0.2790109 0.14888328 0.1136499 -0.19863026 -0.13084568 0.3573217
-0.0052447156 0.32864472 -0.2002961 -0.07569173 0.28048122 0.095522486 0.37481862 0.19530752
-0.32436344 0.18366535 -0.14427447 0.04101063 -0.27657565 0.57248175 0.29698288 0.006856242
0.06525043 -0.28136617 -0.20604344 -0.09391466 -0.054768723 -0.045841623 -0.32505223 0.34170157
-0.102703325 0.08422096 -0.16044085 -0.1995398 -0.26359048 -0.14154997 0.13887349 0.23892386
0.2830965 -0.22727449 -0.08251301 0.2621379 0.09330314 0.082810916 -0.05354672 -0.26487795
-0.057294916 0.41806075 0.2646955 0.38150847 0.24832769 -0.10701229 0.05801094 0.1171501
0.1155361 -0.3358623 -0.123730004 0.12521476 0.26209533 0.32098845 0.29617822 -0.13288675
0.027632186 0.17267305 -0.017233692 -0.2802442 0.009485393 0.1493909 0.078138955 0.3007483
-0.043320827 0.16414028 0.196987 -0.045698237 0.18931222 -0.17012574 -0.05463031 -0.065075725
0.041377276 0.20009413 0.30003121 -0.14539237 0.2864193 0.10721118 0.101788625 0.057222493
0.0067924103 0.23417361 -0.0053234324 -0.03250683 -0.015968636 0.6329914 0.0121517135 -0.17457314
0.1325412 0.080280736 0.011963717 0.11246442 0.14823964 0.061220456 0.15687928 -0.04174315
0.045786366 -0.012127035 0.112691805 0.014349922 0.15380473 -0.046474237 0.14028458 0.11758133
0.2693541 -0.18242905 0.23014772 0.026506465 -0.50185853 0.05863819 0.25932032 -0.023990585
0.13042626 0.17775875 0.028661085 -0.10553482 -0.17552403 0.1240568 -0.14554426 -0.09924243
-0.110217854 0.18362802 0.2719097 0.024853332 0.2254165 -0.11302583 -0.18243101 -0.08186616
-0.3009652 -0.27386352 0.07042523 0.49721238 0.074005 -0.12876889 -0.111790836 -0.3418255
-0.65763783 -0.03145315 -0.25323614 -0.4967283 0.32709098 0.21462575 -0.008510324 -0.0013523237
0.052213036 0.15059324 -0.27986616 -0.06393101 0.020633515 -0.047048975 0.04165865 -0.39512154
00000000: ab03 093d 6030 33be 2b99 503d 2429 78bd
00000010: d241 6abd 80d3 7dbe e76e c13d a484 c53c
00000020: 0c47 c9bd cd38 31be 4691 eb3d d3a7 71be
00000030: abb1 4ebe f945 cebc ef00 2dbe 654f c2be
00000040: d735 84bd 95f4 073d d1f8 b2be 4aed 2a3e
00000050: 7829 ca3e d9d3 d5bc b8da 0ebe 55ca 84bd
00000060: 9408 13bd e73c 623e e2d5 8abe 007c 823d
00000070: e44b 70be 2c5c 3b3e 8819 a03e c993 89be
00000080: d63d 3bbc 2862 4dbe 6e39 f23d f689 cebe
00000090: 2ac3 4bbe ec67 9c3d 417e 33be be0e 6abe
000000a0: 3566 f8be 4e1c 9bbe 9a3d 64bd 318f bebd
000000b0: 5dc2 1f3d df4b 81be 57a2 263f d4cc 0ebe
000000c0: 6f79 8dbe 5f64 47be a8e9 8a3d a34f c6be
000000d0: 0cb8 06bd 0f78 41be d647 72be 5942 203c
000000e0: 6eb1 953e a659 2a3d 53b0 3ebe e074 76be
000000f0: 98f9 82be 3b93 6f3e 6491 3f3d 8a27 03be
00000100: 34d7 423d 8031 703c 042a 3cbe 19f8 c63c
00000110: 0a63 88bd a818 4abe a590 34bd 780b 4ebe
00000120: 5e16 67be dea1 9a3e fc18 743e 51c6 7e3e
00000130: cc21 04bd 8af3 06be 59f2 903d a36b 743e
00000140: 243a afbe 264c 7c3d 68d5 84be 8e6e 033e
00000150: 4292 03be 9ccd 693e 08e6 d9bc 35c6 1bbe
00000160: 2a90 aabd a41b 33be eb4e 773e a2df 403d
00000170: 060d ebbe adc4 043f e8fc 923e 7306 24be
00000180: c254 333e f155 03bc 84da 8e3e dc74 183e
00000190: 47c1 e83d bb65 4bbe 69fc 05be dff2 b63e
000001a0: dddb abbb 1f44 a83e 6c1a 4dbe 4404 9bbd
000001b0: 3c9b 8f3e 4ba1 c33d 3ae8 bf3e b2fe 473e
000001c0: f712 a6be c512 3c3e b0bc 13be c3fa 273d
000001d0: 539b 8dbe 2a8e 123f 240e 983e 54aa e03b
000001e0: 04a2 853d 3a0f 90be 0dfd 52be 5456 c0bd
000001f0: 2b55 60bd 6dc4 3bbd 3f6d a6be 82f3 ae3e
00000200: 1f56 d2bd 0a7c ac3d 9b4a 24be 2954 4cbe
00000210: 55f5 86be 7af2 10be da34 0e3e 75a8 743e
00000220: 06f2 903e a5ba 68be 95fc a8bd f036 863e
00000230: b715 bf3d c598 a93d ce53 5bbd 159e 87be
00000240: 13ae 6abd 0f0c d63e 2b86 873e 1455 c33e
00000250: 9d49 7e3e 4229 dbbd e19c 6d3d 64ec ef3d
00000260: 319e ec3d 25f6 abbe 2866 fdbd 4c38 003e
00000270: 5c31 863e 9958 a43e aca4 973e 7713 08be
00000280: e55c e23c 34d1 303e ac2d 8dbc 2b7c 8fbe
00000290: 9f68 1b3c eef9 183e 5107 a03d aefb 993e
000002a0: 2e71 31bd 6414 283e f6b6 493e 132e 3bbd
000002b0: 10db 413e 7135 2ebe 08c4 5fbd 6c46 85bd
000002c0: 387b 293d 7ae5 4c3e b19d 993e bde1 14be
000002d0: 8da5 923e 8991 db3d 8e76 d03d 2262 6a3d
000002e0: de92 de3b 35cb 6f3e 3070 aebb e225 05bd
000002f0: a8d0 82bc b90b 223f fb17 473c 4dc3 32be
00000300: e1b8 073e 3a6a a43d 7703 443c bf53 e63d
00000310: 22cc 173e 4dc2 7a3d f6a4 203e defa 2abd
00000320: 7c8a 3b3d 79b0 46bc f6ca e63d ef1b 6b3c
00000330: fd7e 1d3e c55b 3ebd c3a6 0f3e 7bce f03d
00000340: c8e8 893e aece 3abe d8ab 6b3e 1624 d93c
00000350: cd79 00bf 992e 703d a2c5 843e e787 c4bc
00000360: 768e 053e 6406 363e a7ca ea3c a422 d8bd
00000370: 92bc 33be 7e11 fe3d 8e09 15be 9d3f cbbd
00000380: e6b9 e1bd fc08 3c3e c037 8b3e 3799 cb3c
00000390: 95d3 663e 167a e7bd 32cf 3abe 72a9 a7bd
000003a0: 1c18 9abe d737 8cbe 1a3b 903d 9f92 fe3e
000003b0: ef8f 973d fedb 03be 98f2 e4bd c003 afbe
000003c0: f45a 28bf 05d5 00bd 2ba8 81be 2c53 febe
000003d0: 7878 a73e dac6 5b3e e36e 0bbc 7440 b1ba
000003e0: 56dd 553d 1d35 1a3e 9e4a 8fbe 43ee 82bd
000003f0: 9e07 a93c 6db6 40bd 43a2 2a3d 5f4d cabe

network_body._body_endoder.seq_layers.2.bias f4 [128]
-0.026345527 0.05353845 -0.08734571 -0.116352044 -0.009897298 -0.041876093 0.16444464 0.15248059
-0.20979828 0.058856014 -0.090114824 -0.42282018 -0.1315932 -0.1849146 -0.15258218 -0.13087846
-0.30016315 -0.15527637 -0.11940001 -0.046358697 -0.08141242 -0.17598493 0.1136644 0.031651013
-0.15009244 0.000383513 0.0677039 -0.04090367 -0.11841102 0.0946821 -0.093532495 -0.12835038
0.107242055 -0.122553594 -0.21271282 0.02872524 0.14243518 -0.13026823 -0.2091689 -0.06724303
-0.40483168 -3.617675e-05 -0.16969894 0.07200212 -0.1687473 -0.027546776 -0.056313284 0.07495601
0.05280521 -0.08495729 0.076742746 -0.18710259 -0.061088733 -0.15681696 0.045552373 0.024385858
0.17644782 -0.1401724 -0.1887916 -0.17687464 -0.044141527 -0.007299626 -0.1099681 -0.05539336
-0.0010412316 -0.11898961 -0.12431122 0.013348801 -0.11369565 0.18862766 0.03164901 0.01675466
0.11142917 0.075955994 0.060247995 0.07270051 -0.010219058 -0.0969678 0.026288005 -0.022886034
0.062800586 0.09385434 -0.05346348 -0.0316825 -0.21245782 -0.032407336 -0.18169692 -0.21126577
-0.20490769 0.026865022 0.08617499 -0.14707734 -0.11239582 -0.25414643 0.02489084 -0.13915281
-0.06842749 -0.041351732 -0.14358069 0.20856622 -0.19788325 -0.08448171 0.14944465 0.072513044
-0.2937236 -0.10448086 -0.16612415 0.09341059 -0.33873373 0.19653381 -0.1352019 -0.13368952
-0.19779766 -0.091830544 -0.29001316 0.20178165 -0.3228573 -0.06548398 0.017400358 -0.122655205
-0.010697829 0.087166004 -0.16934508 -0.14751121 -0.0059287036 0.008585495 0.15582854 -0.11227449
00000000: 93d2 d7bc 224b 5b3d 4fe2 b2bd fb49 eebd
00000010: 4728 22bc 4486 2bbd 2d64 283e df23 1c3e
00000020: 5cd5 56be 0113 713d 1f8e b8bd e37b d8be
00000030: 5ec0 06be 415a 3dbe 813e 1cbe 0105 06be
00000040: fcae 99be c500 1fbe fe87 f4bd 9ee2 3dbd
00000050: 8ebb a6bd 6535 34be e2c8 e83d 7ea4 013d
00000060: d5b1 19be 3e12 c939 58a8 8a3d 9b8a 27bd
00000070: 7a81 f2bd b0e8 c13d f78d bfbd 486e 03be
00000080: b9a1 db3d 61fd fabd 64d1 59be 3251 eb3c
00000090: 87da 113e 0965 05be 5f30 56be b7b6 89bd
000000a0: 1946 cfbe 7dbc 17b8 8fc5 2dbe d975 933d
000000b0: 18cc 2cbe c7a9 e1bc c2a8 66bd 8982 993d
000000c0: 474a 583d 16fe adbd 4d2b 9d3d d297 3fbe
000000d0: 2e38 7abd a094 20be 2095 3a3d dac4 c73c
000000e0: bdae 343e 5b89 0fbe 9652 41be a01e 35be
000000f0: bfcd 34bd b331 efbb f536 e1bd 26e4 62bd
00000100: ef79 88ba d3b0 f3bd e296 febd eeb4 5a3c
00000110: 44d9 e8bd 9c27 413e 64a2 013d 1241 893c
00000120: fa34 e43d d18e 9b3d 9ac6 763d 01e4 943d
00000130: d66d 27bc 0e97 c6bd f159 d73c 7e7b bbbc
00000140: 989d 803d b436 c03d 86fc 5abd 82c5 01bd
00000150: 8b8e 59be 8ebd 04bd c20e 3abe 0e56 58be
00000160: 52d3 51be 0914 dc3c 837c b03d 719b 16be
00000170: c82f e6bd 7b1f 82be e0e7 cb3c 137e 0ebe
00000180: b623 8cbd 6f60 29bd d106 13be 6292 553e
00000190: e8a1 4abe bf04 adbd 0508 193e b881 943d
000001a0: f162 96be 10fa d5bd 731c 2abe 0d4e bf3d
000001b0: 826e adbe 2940 493e 5e72 0abe e8e5 08be
000001c0: 788b 4abe a711 bcbd 9b7c 94be d99f 4e3e
000001d0: 8d4d a5be 771c 86bd 328b 8e3c a732 fbbd
000001e0: f245 2fbc 1784 b23d cc68 2dbe 2e0d 17be
000001f0: 9245 c2bb 2daa 0c3c 8491 1f3e 2bf0 e5bd

network_body._body_endoder.seq_layers.2.weight f4 [128, 128]
0.122290224 0.083842106 -0.022495605 0.052549813 0.21878919 0.21637157 0.25648016 -0.0032802355
-0.15033261 0.04657292 -0.24572952 -0.068832226 0.00043126143 0.47237474 0.18459605 -0.4022211
0.054269005 0.2336554 -0.043108247 0.008452532 0.10226298 0.13497321 0.40802822 -0.19590226
0.41974944 -0.13381402 0.18150152 0.311007 -0.025308995 0.14597572 -0.15195921 0.32017413
-0.14816281 -0.15061375 0.2668692 -0.066609204 0.2586956 0.13788241 0.20564555 -0.18312842
0.26747978 -0.15968536 -0.4951846 0.008836928 0.048255067 0.10834407 -0.16258301 0.36030212
0.55791557 0.3701509 0.16174677 0.1411605 0.24541536 -0.10956186 0.23208824 -0.17481476
-0.022821836 0.06952042 -0.0046866047 -0.014253507 -0.023122463 0.1075635 0.15205614 0.3555463
-0.12684357 0.10363896 0.22845545 -0.17897531 -0.17783198 0.20443381 0.09029218 -0.033496648
-0.056836445 0.16940235 0.20231108 0.30534625 -0.16812035 -0.37015295 0.10181678 0.43437013
0.29500568 0.17775816 -0.18515329 -0.17771168 -0.34030265 -0.026647482 -0.21995881 -0.13952233
-0.14272602 0.2762709 0.17762604 -0.14564802 -0.103360794 -0.12292365 -0.024901215 -0.045519274
0.45420185 -0.3163551 0.1019571 -0.012810686 -0.12797463 -0.070268914 -0.120634556 -0.31208217
0.08952708 -0.23446368 0.04482764 0.2173513 0.13767925 -0.061203305 -0.041142598 -0.100570925
-0.15869446 0.17478995 0.01744789 0.013073257 -0.23703687 0.109613545 -0.029446254 -0.4855531
-0.032277983 0.114860594 0.29454443 0.16113159 -0.30016622 -0.08373129 0.009850661 -0.14708723
0.00833712 -0.3315383 -0.19510062 -0.03381535 0.050646238 -0.04898766 -0.35293344 -0.3040559
-0.06939688 -0.43077275 0.0803406 0.3003385 -0.021740405 0.17049928 -0.016588472 0.12318642
-0.25353783 -0.2717975 -0.38817242 -0.2848668 -0.39449748 0.17678979 -0.26596823 -0.20316987
0.09645098 -0.15437984 -0.048204932 0.17292747 0.060460992 -0.10487939 0.24846292 -0.30060974
-0.23893726 0.166196 -0.33016336 0.13904904 -0.4709597 0.2826159 0.29984188 -0.17777129
-0.33961093 -0.69696265 0.013721014 -0.21948604 -0.4115908 -0.10722829 0.1876184 -0.65153664
-0.2272629 0.14411278 -0.15396732 -0.21522397 0.08074095 -0.006077467 0.042672504 0.13251238
-0.10745635 -0.056317113 -0.008199269 -0.4215511 0.126009 -0.092202544 -0.32443538 0.078537926
-0.13026603 -0.42875454 -0.24236414 0.027179547 0.13205284 -0.11706571 -0.004569224 -0.0385236
-0.45549026 0.3579562 -0.027460683 -0.22237036 -0.088683754 0.41218135 0.13172404 0.09943885
0.16141719 -0.3565298 -0.06395353 -0.04304511 -0.23368888 -0.24849984 -0.049113967 -0.24122013
-0.06859102 0.46938428 0.22545747 -0.40579346 -0.5008172 -0.12415804 -0.33923382 0.26385295
0.09428364 -0.24736334 0.16308124 -0.4017123 0.058397174 0.038961705 0.16558565 -0.16982374
0.09668915 -0.080856286 0.36951098 -0.44494918 0.3858853 0.0952998 -0.23136927 -0.06774784
0.15599921 -0.040502787 -0.4070702 -0.1465165 -0.12260393 0.046965588 -0.011102303 -0.103676915
0.054725096 -0.086567156 -0.29068652 -0.3186307 -0.15092431 -0.05859036 -0.07661723 0.2902516
00000000: 4c73 fa3d 69b5 ab3d b448 b8bc 793e 573d
00000010: 460a 603e 8290 5d3e 5e51 833e 38f9 56bb
00000020: cbf0 19be 3fc3 3e3d 85a0 7bbe e9f7 8cbd
00000030: ee1a e239 1adb f13e bf06 3d3e edef cdbe
00000040: 2d49 5e3d 5c43 6f3e 4692 30bd 7d7c 0a3c
00000050: 416f d13d 6b36 0a3e 13e9 d03e 9a9a 48be
00000060: 66e9 d63e 8b06 09be 89db 393e 4f3c 9f3e
00000070: cf54 cfbc a97a 153e 329b 1bbe dded a33e
00000080: feb7 17be 7e3a 1abe 14a3 883e 686a 88bd
00000090: c073 843e 0c31 0d3e bf94 523e 0486 3bbe
000000a0: 1cf3 883e 8f84 23be d688 fdbe c3c8 103c
000000b0: 1ba7 453d 7fe3 dd3d 297c 26be 8579 b83e
000000c0: 8ed3 0e3f 6b84 bd3e f2a0 253e 618c 103e
000000d0: 2a4e 7b3e f861 e0bd 8aa8 6d3e a402 33be
000000e0: dcf4 babc b960 8e3d 1792 99bb 8b87 69bc
000000f0: 526b bdbc 414a dc3d 9bb4 1b3e 2a0a b63e
00000100: 48e3 01be aa40 d43d 3af0 693e 4e45 37be
00000110: 9619 36be 1957 513e 1beb b83d c833 09bd
00000120: 55cd 68bd cf77 2d3e a32a 4f3e 5856 9c3e
00000130: be27 2cbe b084 bdbe 5185 d03d c365 de3e
00000140: fc0a 973e 3c06 363e d398 3dbe 0dfa 35be
00000150: 263c aebe d24b dabc e23c 61be f1de 0ebe
00000160: c526 12be 6173 8d3e 9ae3 353e c124 15be
00000170: d3ae d3bd 65bf fbbd a2fd cbbc 6b72 3abd
00000180: 258d e83e 4cf9 a1be e2ce d03d e9e3 51bc
00000190: c80b 03be 26e9 8fbd 400f f7bd 3cc9 9fbe
000001a0: f959 b73d 3f17 70be 309d 373d 5791 5e3e
000001b0: cafb 0c3e 51b0 7abd 2485 28bd 21f8 cdbd
000001c0: cd80 22be 23fc 323e e1ee 8e3c 3731 563c
000001d0: cbb9 72be 117d e03d 4539 f1bc 6a9a f8be
000001e0: eb35 04bd 083c eb3d 87ce 963e aeff 243e
000001f0: 63af 99be 507b abbd ab64 213c 099e 16be
00000200: 6a98 083c 63bf a9be 75c8 47be f781 0abd
00000210: 6e72 4f3d 49a7 48bd b1b3 b4be 37ad 9bbe
00000220: f41f 8ebd 3f8e dcbe 9d89 a43d f8c5 993e
00000230: ef18 b2bc 5d97 2e3e 8ce4 87bc 2949 fc3d
00000240: b6cf 81be 0b29 8bbe 89be c6be 10da 91be
00000250: 93fb c9be 6208 353e fd2c 88be c30b 50be
00000260: 1788 c53d c015 1ebe 8972 45bd e613 313e
00000270: f2a5 773d 01cb d6bd 106d 7e3e 85e9 99be
00000280: f8ab 74be 492f 2a3e 2c0b a9be df62 0e3e
00000290: a121 f1be 08b3 903e e084 993e ad09 36be
000002a0: 7ce1 adbe 256c 32bf 1bce 603c f3c0 60be
000002b0: 08bc d2be 819a dbbd 0a1f 403e 1bcb 26bf
000002c0: 9bb7 68be 4d92 133e 9ca9 1dbe ac63 5cbe
000002d0: 835b a53d 7d25 c7bb 5dc9 2e3d 53b1 073e
000002e0: 1312 dcbd c6ac 66bd 3a56 06bc 8cd5 d7be
000002f0: 8108 013e b0d4 bcbd 651c a6be 7ed8 a03d
00000300: 7564 05be b785 dbbe 4e2e 78be a4a7 de3c
00000310: dc38 073e 26c0 efbd 6eb9 95bb ecca 1dbd
00000320: 0536 e9be 0946 b73e 3af5 e0bc 0eb5 63be
00000330: d49f b5bd 6f09 d33e abe2 063e 99a6 cb3d
00000340: 8c4a 253e 138b b6be 11fa 82bd 1250 30bd
00000350: 234c 6fbe be76 7ebe ba2b 49bd 6902 77be
00000360: 7379 8cbd 2353 f03e 53de 663e 29c4 cfbe
00000370: 8e35 00bf 9246 febd 0eb0 adbe bc17 873e
00000380: c817 c13d d14c 7dbe c5fe 263e 3cad cdbe
00000390: e031 6f3d 4f96 1f3d 498f 293e 46e6 2dbe
000003a0: f604 c63d fb97 a5bd 8b30 bd3e 61d0 e3be
000003b0: c292 c53e 8b2c c33d 11ec 6cbe 61bf 8abd
000003c0: 42be 1f3e 40e6 25bd 816b d0be 6c08 16be
000003d0: c517 fbbd fd5e 403d 6fe6 35bc 9054 d4bd
000003e0: 6c27 603d 1f4a b1bd ddd4 94be 9023 a3be
000003f0: e78b 1abe 72fc 6fbd 7fe9 9cbd dc9b 943e

network_body.observation_encoder.processors.0.normalizer.running_mean f4 [35]
0.9270489 0.0005763799 0.0 0.00067198614 0.12330453 0.9018384 0.0006346032 0.0
0.0011952021 0.13152668 0.87948686 0.0005530143 0.0 0.0010590105 0.13326046 0.80059814
0.0008927718 0.0 0.007603589 0.16021694 0.6688301 0.0006522099 0.0 0.01177536
0.15866552 0.5927516 0.015836561 0.0 0.08974871 0.23233311 0.15222786 0.036409117
0.0 0.057834163 0.20190242
00000000: 1453 6d3f 3318 173a 0000 0000 3a28 303a
00000010: 1687 fc3d e2de 663f 805b 263a 0000 0000
00000020: 54a8 9c3a eeae 063e 0d26 613f 29f8 103a
00000030: 0000 0000 7fce 8a3a 6e75 083e 00f4 4c3f
00000040: e708 6a3a 0000 0000 8727 f93b e90f 243e
00000050: 7338 2b3f 11f9 2a3a 0000 0000 71ed 403c
00000060: 3779 223e 92be 173f adbb 813c 0000 0000
00000070: 2cce b73d bbe8 6d3e 9fe1 1b3e ba21 153d
00000080: 0000 0000 84e3 6c3d 82bf 4e3e

network_body.observation_encoder.processors.1.normalizer.running_mean f4 [45]
0.21059439 0.32636023 0.0 0.024562322 0.074411176 0.15952599 0.23276885 0.0
0.04448114 0.09358144 0.38221225 0.14802846 0.0 0.04061514 0.08946344 0.18793908
0.14203724 0.0 0.08529478 0.13573831 0.47978005 0.0714361 0.0 0.07361796
0.11396383 0.10621621 0.111176476 0.0 0.12231197 0.16508882 0.4736374 0.040194616
0.0 0.13770317 0.16894498 0.11973404 0.05613456 0.0 0.08235468 0.12494381
0.5164931 0.02316678 0.0 0.12861 0.15880379
00000000: 0ea6 573e b018 a73e 0000 0000 ec36 c93c
00000010: e364 983d c85a 233e f55a 6e3e 0000 0000
00000020: db31 363d a0a7 bf3d 53b1 c33e c694 173e
00000030: 0000 0000 105c 263d 9c38 b73d 1a73 403e
00000040: 3672 113e 0000 0000 08af ae3d fcfe 0a3e
00000050: bba5 f53e 174d 923d 0000 0000 03c5 963d
00000060: de65 e93d e287 d93d 7eb0 e33d 0000 0000
00000070: b37e fa3d 0b0d 293e 9a80 f23e 1ca3 243d
00000080: 0000 0000 0f02 0d3e eaff 2c3e 1f37 f53d
00000090: 5aed 653d 0000 0000 92a9 a83d 8ae2 ff3d
000000a0: e438 043f 42c8 bd3c 0000 0000 57b2 033e
000000b0: 769d 223e

network_body.observation_encoder.processors.2.normalizer.running_mean f4 [17]
7.3956 -0.9072775 20.026197 2.2960577 0.37125102 -2.830908 0.000112449154 0.36968213
-0.0014542543 -0.8588212 373.07416 10.407533 0.27341574 -0.15400566 0.6765965 -0.15824981
0.0
00000000: c1a8 ec40 5743 68bf a735 a041 9cf2 1240
00000010: 9d14 be3e 992d 35c0 aed2 eb38 fa46 bd3e
00000020: ad9c beba b5db 5bbf 7e89 ba43 4185 2641
00000030: 26fd 8b3e a9b3 1dbe 6e35 2d3f 3d0c 22be
00000040: 0000 0000
