Assets/Brains/run28/CarPractice_run28-6.onnx (onnx, 108914 bytes, 15 tensors)

85 f4 [25]
0	0x3e42c2b1	0.19019581
1	0x3cb49ae2	0.02204651
2	0x3a395ce2	0.00070710306
3	0x3b337958	0.002738556
4	0x3d94f52f	0.072733276
5	0x3e8a5ad8	0.27022433
6	0x3c612e6c	0.013743978
7	0x3a395ce2	0.00070710306
8	0x3d8ad624	0.06779125
9	0x3dd05206	0.10171895
10	0x3e72cde6	0.23711357
11	0x3cc015c4	0.023447879
12	0x3a395ce2	0.00070710306
13	0x3d98a7e3	0.07453897
14	0x3dd704e9	0.104989834
15	0x3ee60a08	0.44929528
16	0x3d1f653e	0.03891491
17	0x3a395ce2	0.00070710306
18	0x3e41f758	0.1894201
19	0x3e335867	0.17514192
20	0x3edfd3cd	0.4371628
21	0x3d6bf2e1	0.057604674
22	0x3a395ce2	0.00070710306
23	0x3e542c5b	0.20720045
24	0x3e3f30b8	0.18670928

88 f4 [25]
0	0x3ef8fd97	0.48630974
1	0x3ef01b6d	0.46895924
2	0x3a395ce2	0.00070710306
3	0x3c89ffa4	0.016845532
4	0x3d1eb1d9	0.038743827
5	0x3efbcc72	0.49179417
6	0x3ea6a04e	0.32544178
7	0x3a395ce2	0.00070710306
8	0x3e1a9803	0.1509705
9	0x3e16c56c	0.14723748
10	0x3efb6cb1	0.49106362
11	0x3ea3865a	0.3193844
12	0x3a395ce2	0.00070710306
13	0x3e11b491	0.14229037
14	0x3e0e49a1	0.13895275
15	0x3efe6b5e	0.4969129
16	0x3e529860	0.20565939
17	0x3a395ce2	0.00070710306
18	0x3e6d4ab3	0.23173027
19	0x3e63858b	0.22218911
20	0x3eff52be	0.49867815
21	0x3e57bc23	0.21067862
22	0x3a395ce2	0.00070710306
23	0x3e6619c6	0.2247077
24	0x3e5d2484	0.21595961

91 f4 [18]
0	0x41c54d6e	24.662807
1	0x3fa7398f	1.306444
2	0x4185d35a	16.728199
3	0x409c9dd1	4.8942647
4	0x3d053557	0.032521572
5	0x40cef568	6.467457
6	0x3d0a0d4f	0.0337041
7	0x3e90fea1	0.28319266
8	0x3cb905d7	0.022585792
9	0x3dbf8a76	0.09352581
10	0x43ca7b5d	404.96378
11	0x41de59d3	27.79386
12	0x3ef2d245	0.47426048
13	0x3e35cf64	0.17754894
14	0x3eabc14e	0.33545917
15	0x3f4c7bba	0.7987629
16	0x3a395ce2	0.00070710306
17	0x3ef60b07	0.48055288

action_model._discrete_distribution.branches.0.bias f4 [3]
0	0x3e847f29	0.25878266
1	0xbe4b8786	-0.19875917
2	0xbcaf26ee	-0.021380868

action_model._discrete_distribution.branches.0.weight f4 [3, 128]
0	0x3d8a96cc	0.067670435
1	0xbc4988f8	-0.012300722
2	0x3df13e75	0.11779491
3	0x3d8b996f	0.068163745
4	0x3c4b0585	0.012391453
5	0x3bfb3ac8	0.0076669194
6	0x3daabf4e	0.0833727
7	0xbda31321	-0.07962633
8	0x3e5f35a0	0.217978
9	0x3e3cb642	0.18428901
10	0x3ba5b724	0.0050572325
11	0xbcc3538d	-0.023843551
12	0x3e079d2c	0.1324355
13	0x3db4e305	0.08832363
14	0xbc8a3dd6	-0.016875189
15	0xbd1e16ff	-0.03859615
16	0xbb809b19	-0.003924739
17	0x3e292282	0.1651707
18	0x3dd05bbe	0.101737484
19	0x3e059c91	0.13048007
20	0x3d907206	0.07052998
21	0x3e259e68	0.16173708
22	0x3dd8e8df	0.10591292
23	0xbd8162dd	-0.06317685
24	0x3b532324	0.003221699
25	0x3c12af14	0.008952875
26	0xbdbd1195	-0.09231869
27	0x3e764139	0.24048318
28	0x3e1dc53e	0.15407273
29	0xbd30bb96	-0.043147646
30	0x3de8c86c	0.113663524
31	0x3be1f371	0.0068954756
32	0x3d16afe7	0.036788847
33	0xbca92b3c	-0.020650499
34	0x3e39fbe8	0.18162501
35	0x3cedfe0f	0.029051809
36	0x3db191fb	0.08670422
37	0xbc6b391c	-0.014356878
38	0x3df78b0c	0.12087068
39	0x3e3a2d5a	0.18181363
40	0xbda30a3d	-0.07960937
41	0x3e83ff7c	0.25780857
42	0xbd01f57c	-0.031728253
43	0xbcaacbf0	-0.020849198
44	0x3e33814a	0.17529789
45	0x3d56ef9f	0.052474614
46	0x3dd293d7	0.102821045
47	0xbd310b06	-0.043223403
48	0xbc6d03bd	-0.014466223
49	0x3e20995b	0.156835
50	0x3d291fd3	0.041290116
51	0x3d1943a1	0.03741801
52	0x3dc98a21	0.09840799
53	0x3d3a7da1	0.045529965
54	0x3d471fe7	0.04861441
55	0x3d8d3f5c	0.068968505
56	0xbd68a702	-0.056799896
57	0x3dc660d6	0.09686439
58	0x3e9b30f1	0.30310777
59	0x3d7cd73b	0.061728697
60	0xbd88c244	-0.06677678
61	0x3d31855f	0.043340083
62	0x3c6096c5	0.013707821
63	0x3e1bb60c	0.15206164
64	0x3d1eaea8	0.038740784
65	0x3de55e0f	0.11199581
66	0x3e1459d3	0.1448739
67	0x3e5648e5	0.20926245
68	0x3d1a1922	0.037621625
69	0x3de18a71	0.11012734
70	0xbdbe8c6f	-0.09304129
71	0x3e0d98d4	0.1382783
72	0xbb7c962e	-0.0038541663
73	0x3e010420	0.1259923
74	0x3e23f1a3	0.16010146
75	0xbd0dd568	-0.03462735
76	0x3e54f7cc	0.20797652
77	0xbd8e8969	-0.06959803
78	0xbdabdea1	-0.083920725
79	0xbd406a72	-0.046976514
80	0x3d9beba7	0.076133065
81	0x3cd1a145	0.025589595
82	0x3c2d0334	0.010559846
83	0x3e7ab406	0.24482736
84	0xbc1024f6	-0.008797875
85	0x3dac1f0b	0.084043585
86	0x3d78bdd9	0.060727928
87	0x3dbed006	0.09317021
88	0x3c16208d	0.009163034
89	0x3d881dc0	0.06646299
90	0x3d2e1d1c	0.04250823
91	0xbb36c26d	-0.0027886883
92	0x3df2274d	0.11823902
93	0xbdf666ba	-0.12031312
94	0xbe04f6b4	-0.12984735
95	0x3d837cf1	0.06420315
96	0x3c9c91a9	0.019112425
97	0xbd1c7748	-0.038199693
98	0x3da24b9c	0.079245776
99	0x3db3d8bb	0.087815724
100	0x3d50c653	0.050970387
101	0x3e9a62f2	0.30153614
102	0x3e08a257	0.13343178
103	0x3e31cc43	0.17363076
104	0x3d09d6ab	0.03365199
105	0x3dd13989	0.10216052
106	0x3e1704c4	0.14747912
107	0x3da45d10	0.08025563
108	0x3dd25ae7	0.102712445
109	0x3d8f5a08	0.06999594
110	0xbd09b36f	-0.033618387
111	0x3dde7877	0.108628206
112	0x3d71b50c	0.05901055
113	0x3dc25fe7	0.09490948
114	0x3e435607	0.19075786
115	0x3c1c34ab	0.009534041
116	0xbda84ac8	-0.082173884
117	0xbd29a6a6	-0.041418694
118	0x3bf81b3a	0.007571605
119	0x3e07446f	0.13209699
120	0xbd966be4	-0.07344797
121	0x3cf276b8	0.029597625
122	0x3e768530	0.24074244
123	0xbd040625	-0.032232422
124	0x3d580dca	0.052747525
125	0xbdaea53d	-0.085276105
126	0x3c893840	0.016750455
127	0x3db1f4e5	0.08689288
128	0xbd24792c	-0.04015462
129	0x3d35e886	0.044411205
130	0x3dea657d	0.114451386
131	0x3d49e8dd	0.04929434
132	0x3dcb236d	0.09918866
133	0x3d8b261d	0.06794379
134	0x3d72d85d	0.05928837
135	0xbd26ff45	-0.040770788
136	0xbd7951f3	-0.06086917
137	0xbe16cdea	-0.14726987
138	0x3c7e9354	0.015538055
139	0xbde6cf04	-0.11269954
140	0xbdd8456c	-0.10560116
141	0xbda20651	-0.07911361
142	0xbd9f577c	-0.07780358
143	0x3d93fd28	0.0722602
144	0xbdfac3fa	-0.12244411
145	0x3c1c5964	0.009542797
146	0x3d92d929	0.07170326
147	0xbe3f3f0e	-0.18676397
148	0x3d983fdc	0.07434055
149	0x3dd4eb05	0.10396389
150	0x3d542840	0.051796198
151	0x3c82d153	0.015968954
152	0x3e139a0e	0.14414236
153	0x3d9f95cc	0.07792243
154	0x3bc8f570	0.006132774
155	0xbd96889f	-0.07350277
156	0x3dd942e2	0.1060846
157	0x3e0c9ec7	0.13732444
158	0xbd8a9220	-0.067661524
159	0x3d28a10e	0.04116922
160	0x3bedefb4	0.007261241
161	0x3d52a67b	0.0514283
162	0xbd4b734a	-0.049670495
163	0x3d0d97be	0.03456854
164	0xbd15fea9	-0.036619816
165	0x3c559172	0.013035165
166	0xbd153a72	-0.03643269
167	0xbe04cb4c	-0.12968177
168	0x3e22da96	0.15903696
169	0x3d16e5d8	0.03684029
170	0x3d9546d2	0.072888985
171	0xbd420180	-0.04736471
172	0xbd4d5fd7	-0.050140228
173	0x3ae3a6f1	0.0017368478
174	0x3d756cbc	0.05991815
175	0x3e4b1279	0.19831266
176	0x3dda4d2f	0.10659253
177	0xbcc49fef	-0.024002044
178	0x3e1328be	0.1437101
179	0xbdd375f1	-0.1032523
180	0x3cc983fa	0.024599064
181	0x3db04d71	0.08608521
182	0xbd07177b	-0.032981377
183	0x3cda3151	0.026634844
184	0xbe02559c	-0.1272797
185	0xbe2af598	-0.16695249
186	0xbe0541c0	-0.13013363
187	0xbdbfcd9a	-0.09365387
188	0xbd8a6513	-0.067575596
189	0xbd69348b	-0.056934875
190	0xbdfbc707	-0.12293821
191	0xbe5d29fc	-0.21598047
192	0x3d09ed5f	0.03367364
193	0xbcbf9ea6	-0.02339108
194	0xbd1269c9	-0.035745416
195	0x3dd44b34	0.10365906
196	0x3bf587f0	0.0074930117
197	0x3dbbc048	0.09167534
198	0xbc742977	-0.014902464
199	0xbe29597d	-0.16538043
200	0xbb432e66	-0.0029782294
201	0x3dfab1ce	0.12240945
202	0x3d6f1969	0.058373842
203	0xbcef31a2	-0.029198471
204	0xbddb3686	-0.10703759
205	0x3d87a717	0.06623667
206	0x3dde74f3	0.1086215
207	0x3d554a9d	0.05207311
208	0xbceabaa7	-0.028653456
209	0x3d6952e6	0.056963824
210	0x3dc87d22	0.09789492
211	0xbe1cb881	-0.15304758
212	0x3d62d282	0.055376537
213	0x3d590f17	0.052992906
214	0x3d37690b	0.04477791
215	0x3d0b2aac	0.033976242
216	0x3e439dd4	0.19103175
217	0x3d4de0df	0.050263282
218	0xbc3f234a	-0.011666128
219	0xbe090734	-0.13381654
220	0xbda63540	-0.081156254
221	0x3ccce9dd	0.025013858
222	0x3e108020	0.14111376
223	0x3d7e744d	0.06212263
224	0xbda8d063	-0.082428716
225	0x3cb754e3	0.022379344
226	0xbd871681	-0.06596089
227	0xbd2dd11e	-0.042435758
228	0xbdcc143a	-0.099647954
229	0xbe573055	-0.21014531
230	0xbac41569	-0.0014959994
231	0xbdb04b0c	-0.08608064
232	0x3d94f7bd	0.07273815
233	0xbe01574a	-0.12630954
234	0xbe8fe276	-0.28102463
235	0xbda53e07	-0.080684714
236	0x3df043f8	0.11731714
237	0xbdc2dc15	-0.095146336
238	0x3dd12885	0.102128066
239	0xbe22b186	-0.15888032
240	0xbcc2ec2a	-0.023794252
241	0xbc10c44a	-0.008835861
242	0xbd35ea89	-0.044413123
243	0xbd6f411c	-0.058411703
244	0xbe0dd7ea	-0.13851896
245	0x3e634c7e	0.22197148
246	0xbe18bf22	-0.14916661
247	0xbe0c9bf8	-0.13731372
248	0xbdef66bc	-0.11689517
249	0x3d2c580b	0.04207615
250	0xbe0c9c3e	-0.13731477
251	0x3dbb4f23	0.091459535
252	0x3d3dbca6	0.046322487
253	0x3b8463cf	0.0040402184
254	0x3e08137f	0.13288687
255	0x3d3734e5	0.04472818

action_model._discrete_distribution.branches.1.bias f4 [3]
0	0x3dc20d32	0.09475173
1	0xbcaaf91a	-0.020870734
2	0xbd5c0e85	-0.053724784

action_model._discrete_distribution.branches.1.weight f4 [3, 128]
0	0x3dd7e46b	0.10541614
1	0x3c241efb	0.010017152
2	0x3dfa851b	0.12232419
3	0x3cda92f9	0.02668141
4	0x3da9c385	0.082892455
5	0x3dc8ea57	0.09810322
6	0x3e1fa3db	0.1558985
7	0x3de8c074	0.113648325
8	0x3d54a711	0.05191714
9	0xbe1e1008	-0.15435803
10	0xbdbda7d7	-0.092605285
11	0x39bfd9e6	0.00036592706
12	0xbec7d734	-0.39031374
13	0x3d27c87b	0.040962677
14	0xbe9a874f	-0.30181357
15	0xbcf508c3	-0.029911404
16	0x3e169ac6	0.14707479
17	0x3dc75bcd	0.097343065
18	0x3e48313d	0.19550033
19	0xbde009fd	-0.10939405
20	0x3e87bff9	0.2651365
21	0x3d6ddc27	0.05807128
22	0x3e20b900	0.15695572
23	0xbd3b843c	-0.045780405
24	0x3c5c6cbb	0.013453658
25	0xbda193f6	-0.078895494
26	0xbda37de0	-0.07982993
27	0xbe286c9b	-0.1644768
28	0x3e42b848	0.1901561
29	0x3c7beae6	0.015375828
30	0xbb94feff	-0.0045469995
31	0xbd9976f8	-0.074933946
32	0xbde87c2f	-0.11351811
33	0x3e095942	0.13412955
34	0xbc18a5c5	-0.009316866
35	0xbe1c11cf	-0.15241168
36	0xb8f7d5d1	-0.00011817704
37	0x3ddd6a39	0.10811276
38	0x3e6af74b	0.22945897
39	0x3d892f62	0.06698491
40	0x3e07a725	0.13247354
41	0x3d55daf2	0.052210756
42	0x3d296e0c	0.041364715
43	0xbec5f578	-0.3866384
44	0xbd48cb85	-0.049022216
45	0x3e0a8894	0.13528663
46	0x3d307894	0.043083742
47	0x3d67482b	0.05646531
48	0xbde8bb2c	-0.11363825
49	0x3d4c1cee	0.049832277
50	0xbc220a26	-0.009890115
51	0xbe47be38	-0.19506156
52	0x3db27ef5	0.087156214
53	0xbe02d8ea	-0.12778059
54	0x3d89f810	0.06736767
55	0xbc0c20a3	-0.008552703
56	0x3e5beddd	0.21477456
57	0xbe98aa09	-0.29817227
58	0x3cb50848	0.022098675
59	0xbeadaf55	-0.3392283
60	0xbe2e8207	-0.17041789
61	0x3bb8cb9c	0.0056395065
62	0xbe463623	-0.19356589
63	0xbe83f354	-0.25771582
64	0x3e396236	0.18103871
65	0xbb6f7b88	-0.0036542136
66	0xbe8ec6a4	-0.27885926
67	0x3e0f088e	0.13968107
68	0xbe3a24ae	-0.18178055
69	0x3c4ca679	0.012490862
70	0xbd842983	-0.0645323
71	0xbe5455f6	-0.20735916
72	0xbe2885a8	-0.16457236
73	0xbc172e35	-0.009227325
74	0x3d989eb1	0.07452143
75	0xbd334ea4	-0.04377617
76	0x3d7a1c8f	0.06106239
77	0x3d626088	0.05526784
78	0xbd8f9300	-0.0701046
79	0xbd1f28d9	-0.038857315
80	0xbe09e73d	-0.13467117
81	0x3d792ed2	0.060835667
82	0xbd4cd79a	-0.0500103
83	0x3de7e1a2	0.11322333
84	0x3c20820e	0.009796632
85	0x3dc2871c	0.09498426
86	0xbd3198a6	-0.043358468
87	0x3e39129d	0.18073507
88	0x3e4596c3	0.19295792
89	0x3dde188d	0.108445264
90	0xbe91fd0b	-0.2851337
91	0xbe28a143	-0.16467766
92	0x3d89f697	0.067364864
93	0xbe4ac5fd	-0.19802089
94	0x3d41789e	0.04723417
95	0x3e621ac6	0.22080526
96	0xbe81c729	-0.2534726
97	0xbcab958b	-0.020945331
98	0x3c6b3c07	0.014357573
99	0x3e4b39c4	0.19846255
100	0xbee84369	-0.4536393
101	0xbc407810	-0.011747375
102	0xbc97d41e	-0.018533763
103	0x3c8048d9	0.015659736
104	0x3e36d368	0.17854083
105	0x3e16e75a	0.14736691
106	0xbc7d9ec8	-0.015479751
107	0x3e38fcb6	0.18065152
108	0x3e08317c	0.13300127
109	0xbe4eabd9	-0.20182742
110	0x3dedeb6c	0.11617169
111	0xbaa43273	-0.0012527242
112	0x3d09e37c	0.03366421
113	0x3e61ef31	0.220639
114	0xbdad890f	-0.084734075
115	0x3dc80870	0.09767234
116	0x3e4b1e94	0.19835883
117	0x3dbfb70b	0.093610846
118	0xbe783e70	-0.24242568
119	0x3dcc02f0	0.09961498
120	0xbe89412e	-0.2680754
121	0x3da5641a	0.080757335
122	0x3c8a25c6	0.016863715
123	0xbc72f024	-0.014827762
124	0xbd05d50e	-0.032673888
125	0xbd7c5dc9	-0.061612878
126	0xbd343853	-0.043999027
127	0xbb6cad92	-0.0036114198
128	0xbdf019c1	-0.11723662
129	0xbceb47cf	-0.028720764
130	0xbde49084	-0.11160377
131	0x3d93ecbd	0.072228886
132	0xbdd667e6	-0.10469036
133	0xbd093f9f	-0.03350794
134	0xbde29de9	-0.11065275
135	0xbe91816d	-0.28419057
136	0xbd303c8d	-0.043026496
137	0x3d9a0de9	0.075221844
138	0x3ea16ff2	0.3153072
139	0x3c8199ca	0.015820403
140	0x3e65a8b4	0.22427636
141	0x3d19f9b7	0.037591662
142	0x3e2ca411	0.16859461
143	0x3d9015c3	0.07035401
144	0x3df332b0	0.11874902
145	0x3e08cd3a	0.13359538
146	0xbe6d35a7	-0.23164998
147	0x3d479adb	0.048731666
148	0xbe57ae94	-0.2106269
149	0xbcbdd5f6	-0.023173314
150	0xbc03a87c	-0.008035775
151	0x3e4590a8	0.19293463
152	0x3cff26dc	0.03114646
153	0xbcb4cc09	-0.022069948
154	0x3dedf576	0.116190836
155	0x3da80dff	0.082057945
156	0xbe4cfaab	-0.20017497
157	0xbd1e97da	-0.038719036
158	0xba9e6aac	-0.0012086234
159	0x3e411476	0.18855461
160	0xbe21903e	-0.1577768
161	0xbdd91f30	-0.10601652
162	0xbe09a904	-0.1344338
163	0x3eb692c8	0.3565886
164	0x3e323aa7	0.17405187
165	0xbde7ff33	-0.11327972
166	0xbe601526	-0.21883067
167	0xbcab15ce	-0.02088442
168	0xbec7b4a5	-0.39005008
169	0xbcec8aff	-0.028874872
170	0xbe42f882	-0.1904011
171	0x3e5fe1bc	0.21863455
172	0x3a9d2c3d	0.0011991333
173	0xbe3fc8a0	-0.18728876
174	0x3dbf0c0c	0.0932847
175	0xbe2c4927	-0.1682478
176	0xbd2c483c	-0.042061076
177	0xbc2286e0	-0.009919852
178	0xbd233dbd	-0.0398538
179	0x3e00574c	0.12533301
180	0x3c346377	0.011010042
181	0x3d991121	0.0747397
182	0xbec9924f	-0.39369437
183	0x3d9f0717	0.07765024
184	0xbeacf3d9	-0.3377979
185	0x3e1672c6	0.1469222
186	0xbc3ef7da	-0.011655772
187	0x3d98e920	0.0746634
188	0x3e89f51b	0.26944813
189	0x3e9cd217	0.30629036
190	0x3d1f33b2	0.03886766
191	0x3e274ec7	0.16338645
192	0xbe040b96	-0.12895045
193	0xbe33314f	-0.17499278
194	0x3e2fa339	0.17152108
195	0xbca57570	-0.0201976
196	0x3e84c111	0.25928548
197	0xbbb4bb44	-0.005515488
198	0x3d97205a	0.073792174
199	0x3dc00f4f	0.0937792
200	0x3e84ad24	0.25913346
201	0xbc88ffd0	-0.016723543
202	0xbcee915b	-0.029122045
203	0x3d15932d	0.03651731
204	0xbd815944	-0.06315854
205	0x3d808ef0	0.06277263
206	0xbe2ade56	-0.16686377
207	0x3c94734b	0.018121382
208	0x3eb10012	0.34570366
209	0xbe04e26f	-0.12977003
210	0x3c8f0dc5	0.01746262
211	0xbde06027	-0.109558396
212	0xbc95a761	-0.018268289
213	0x3d720dd7	0.05909523
214	0x3da7698b	0.081744276
215	0xbe3a5e75	-0.18200095
216	0xbcdf73b1	-0.027276846
217	0xbd2a0616	-0.04150971
218	0x3eab0591	0.33402684
219	0xbda60243	-0.081059
220	0xbdbb85e2	-0.091563955
221	0xbd1fc949	-0.03901032
222	0xbe76e3d1	-0.24110343
223	0xbe48cac9	-0.19608606
224	0x3e248146	0.16064939
225	0x3db9bbc6	0.09069018
226	0xbe4d9321	-0.20075656
227	0x3c697015	0.014247914
228	0x3e55e3f0	0.20887733
229	0xbbef6564	-0.007305788
230	0x3e81c547	0.25345823
231	0xbdb37049	-0.08761651
232	0xbe94ab87	-0.29037115
233	0x3d3699f8	0.04458043
234	0x3dbde3c1	0.09271956
235	0x3e75bea3	0.23998503
236	0xbdbeacda	-0.093103126
237	0x3e0f66a8	0.14004004
238	0xbe793d91	-0.24339892
239	0xbc7070ba	-0.014675314
240	0xbeb02e87	-0.34410498
241	0xbe88cded	-0.2671961
242	0xbdede423	-0.11615779
243	0x3d774682	0.060369976
244	0xbecacafe	-0.39607996
245	0xbe7984f3	-0.24367122
246	0x3e012751	0.12612654
247	0xbd6846f1	-0.05670828
248	0x3e4e3ca4	0.2014032
249	0x3dfb6545	0.12275175
250	0x3e440105	0.19141014
251	0xbdbacc4b	-0.09120997
252	0xbe01097e	-0.12601277
253	0xbdb78f80	-0.08962917
254	0xbdb17b48	-0.08666092
255	0x3cd8436a	0.026399333

discrete_action_output_shape f4 [1, 2]
0	0x40400000	3.0
1	0x40400000	3.0

network_body._body_endoder.seq_layers.0.bias f4 [128]
0	0xbd95299c	-0.07283327
1	0x3d374d40	0.044751406
2	0xbd269123	-0.040665757
3	0xbd9df60d	-0.07712946
4	0xbc62b89c	-0.01383796
5	0xbda55d74	-0.080744654
6	0x3ccdb191	0.025109084
7	0x3cea446b	0.028597077
8	0xbe07125a	-0.13190594
9	0xbd8f7845	-0.070053615
10	0xbd8204f0	-0.06348598
11	0x3d55e3fe	0.052219383
12	0x3d47d891	0.04879052
13	0x3deb2ed2	0.1148354
14	0x3d067fc8	0.032836705
15	0xbd957280	-0.0729723
16	0x3e5e030e	0.21680853
17	0x3c8adb53	0.016950285
18	0x3e22d32c	0.15900868
19	0x3b6760d8	0.0035305526
20	0x3d7cf74f	0.06175929
21	0x3d68fdca	0.056882657
22	0x3cf69d55	0.030104319
23	0xbb8b2bf8	-0.004247185
24	0x3d81c815	0.06336991
25	0xbc6d05ce	-0.014466716
26	0x3dae89bd	0.08522365
27	0xbe177bc0	-0.147933
28	0xbe045e89	-0.12926687
29	0xbdf82df3	-0.12118139
30	0x3d89ac4d	0.06722317
31	0x3d1efcf7	0.038815465
32	0x3e0c24ac	0.13685864
33	0x3d2fab2a	0.042887844
34	0x3c53a268	0.012917139
35	0xbd31604b	-0.043304723
36	0xbd48a964	-0.04898967
37	0x3d857b11	0.06517614
38	0x3e2470b3	0.16058616
39	0x3c9621d9	0.018326687
40	0x3d151bfb	0.036403637
41	0xbc784f38	-0.015155606
42	0x3c928ed4	0.017890371
43	0x3d86305f	0.06552195
44	0x3d844e60	0.06460261
45	0x3d0abe01	0.033872608
46	0x3deebe6f	0.11657416
47	0xbdc3111b	-0.09524747
48	0xbbf93a01	-0.0076057916
49	0x3d8bac42	0.06819965
50	0xbd1bf101	-0.038071636
51	0x3d6d7491	0.057972495
52	0xbd5a2439	-0.0532572
53	0xbd869c07	-0.065727286
54	0x3b447832	0.0029978869
55	0x3cbb1386	0.022836458
56	0x3dc5f471	0.09665764
57	0x3dc5d607	0.09659963
58	0xbca2d3f0	-0.01987645
59	0xbd2fd825	-0.04293074
60	0xbb6361a2	-0.0034695645
61	0x3dbfe4b5	0.09369794
62	0xbd466cc2	-0.048443563
63	0x3e011978	0.12607372
64	0x3ca6555b	0.020304373
65	0x3d57f23c	0.052721247
66	0xbd25f2d4	-0.040514782
67	0x3c8260ed	0.015915358
68	0x3dd3a2a8	0.103337586
69	0x3d69209e	0.05691587
70	0x3d2732a6	0.040819786
71	0x3d750aa8	0.059824616
72	0xbe6a960e	-0.22908804
73	0x3cc24c55	0.023718039
74	0xbc91052a	-0.017702658
75	0x3d104ea4	0.035231248
76	0xbe34827a	-0.17627898
77	0xbb06b1ef	-0.0020552834
78	0xbb7fb2eb	-0.0039016556
79	0x3deae790	0.11469948
80	0xbe0ef920	-0.13962221
81	0x3d1a82eb	0.03772251
82	0x3ccd4ca2	0.025060955
83	0xbe548c24	-0.20756584
84	0x3e00410c	0.12524813
85	0xbd25312d	-0.0403301
86	0xbdc10519	-0.094248004
87	0x3e02babb	0.12766545
88	0x3dc7ae38	0.097500265
89	0x3d1aa20c	0.037752196
90	0x3cd96644	0.026538022
91	0xbd19cccb	-0.03754882
92	0xbdb317d8	-0.08744782
93	0x3d9a0a37	0.075214796
94	0x3dbfaac1	0.093587406
95	0xbbcd66a8	-0.006268341
96	0xbd6f7fd6	-0.058471523
97	0xbcfd17a9	-0.030895071
98	0xbe417c76	-0.18895134
99	0x3cc9fa06	0.024655353
100	0xbc99dd9d	-0.018782431
101	0xbdb34275	-0.0875291
102	0x3d5f9768	0.05458775
103	0x3ce9d5ed	0.02854439
104	0xbe469a60	-0.19394827
105	0x3e203f6c	0.15649194
106	0x3d1b810b	0.03796486
107	0x3e2a802d	0.16650458
108	0xbd50316e	-0.05082839
109	0xbd9a180f	-0.0752412
110	0x3c94d0fd	0.01816606
111	0x3d3dee93	0.0463701
112	0xbd4887c5	-0.048957605
113	0x3d9066e7	0.07050877
114	0x3d3183be	0.04333853
115	0xbd78e8ac	-0.06076877
116	0x3d3fac9c	0.046795473
117	0xbbb480a2	-0.0055084983
118	0x3d1282a5	0.035769124
119	0x3d2f29e6	0.042764567
120	0x3d6edf22	0.058318265
121	0x3d8b4573	0.06800356
122	0x3dc02def	0.09383761
123	0x3c8b4218	0.01699929
124	0xbd41aceb	-0.047284048
125	0xbdd3b02c	-0.103363365
126	0x3d372957	0.04471716
127	0x3d2a32c3	0.041552316

network_body._body_endoder.seq_layers.0.weight f4 [128, 68]
0	0x3d27a2b7	0.04092666
1	0xbe0e0c78	-0.13871944
2	0xbd304772	-0.043036886
3	0x3e7270bb	0.23675816
4	0x3d0670a8	0.03282228
5	0xbc6c0799	-0.014406108
6	0x3e2dfb81	0.16990472
7	0xbe7c31b4	-0.24628335
8	0x3de7f994	0.113269
9	0xbf0a8ca2	-0.5412084
10	0xbd90cc07	-0.07070165
11	0x3e0fbdef	0.14037298
12	0x3e057395	0.13032372
13	0xbd9c161f	-0.07621407
14	0xbdebfa01	-0.11522294
15	0xbca749b1	-0.020420881
16	0x3c744a0e	0.014910234
17	0x3ea6ca28	0.32576108
18	0xbe58aee3	-0.21160464
19	0xbe12ccdd	-0.14335962
20	0x3ebc4b9a	0.3677643
21	0x3e04b5de	0.12960002
22	0xbe68b383	-0.22724728
23	0xbcf99e2c	-0.03047093
24	0x3e50e41f	0.20399521
25	0x3e02375f	0.12716435
26	0xbf0414ce	-0.51594245
27	0x3d742ecd	0.059614945
28	0x3e96f7f9	0.29486063
29	0x3e0c824a	0.13721576
30	0x3cc5aa46	0.024129044
31	0x3d73eac2	0.059550054
32	0x3d6dbfed	0.058044363
33	0xbe863bea	-0.26217586
34	0xbdb838ce	-0.0899521
35	0xbd61dc41	-0.05514169
36	0xbdaddd16	-0.084894344
37	0x3e886006	0.2663576
38	0x3e127297	0.14301525
39	0x3e2ac565	0.16676863
40	0x3e0ed3f8	0.13948047
41	0x3e7d176f	0.2471597
42	0xbdc3313c	-0.09530875
43	0x3d9b619b	0.07586976
44	0x3e713eba	0.23559085
45	0xbcdee502	-0.027208809
46	0xbd9d33c9	-0.07675893
47	0x3d543a5e	0.051813476
48	0xbdcab087	-0.09896951
49	0xb9f68a79	-0.00047023947
50	0xbd3d8b31	-0.04627532
51	0xbe4bc8b1	-0.19900776
52	0xbd93001e	-0.07177757
53	0xbc9ac01b	-0.018890431
54	0x3de4bd18	0.11168879
55	0xbcb0f1e4	-0.021599717
56	0x3dcde4af	0.100533836
57	0x3dae7062	0.08517529
58	0xbd54d07e	-0.051956646
59	0xbdc1879a	-0.09449692
60	0x3c158796	0.0091265645
61	0x3e620e34	0.2207573
62	0xbe3a68b5	-0.18204005
63	0x3e684b06	0.22684869
64	0xbe4b2036	-0.19836506
65	0x3e1dc590	0.15407395
66	0x3d6bbebf	0.057554957
67	0x3e8f5797	0.27996513
68	0x3d9e328e	0.07724486
69	0xbdb65ad5	-0.089040436
70	0xbda90286	-0.082524344
71	0x3cabff3a	0.020995725
72	0xbe671a6a	-0.2256867
73	0x3e8524c1	0.26004604
74	0x3e0600f3	0.130863
75	0xbe1a8984	-0.1509152
76	0xbd010c79	-0.031506035
77	0xbe7b6661	-0.24550773
78	0xbcb5c568	-0.022188857
79	0xbe124a24	-0.14286095
80	0xbdacf85c	-0.08445808
81	0x3d4d0855	0.050056774
82	0xbe88b405	-0.26699844
83	0x3d799001	0.06092835
84	0x3cf3e35a	0.029771496
85	0x3da82367	0.082098775
86	0xbe3579a9	-0.17722191
87	0xbf0672e0	-0.52519035
88	0xbe08548f	-0.13313507
89	0xbe1b4ab5	-0.15165217
90	0xbd553285	-0.052050132
91	0x3d859149	0.065218516
92	0x3d0622b2	0.03274793
93	0xbd3649c1	-0.04450393
94	0x3cf74abd	0.030187005
95	0x3dbff7b0	0.093734145
96	0xbde7576d	-0.11295972
97	0x3d653086	0.05595448
98	0xbe9f435f	-0.31106088
99	0xbe51d12d	-0.2048995
100	0xbdde1fb3	-0.1084589
101	0xbb27a556	-0.0025580726
102	0x3d85dfc4	0.065368205
103	0x3c96ce41	0.018408896
104	0xbe7fe71d	-0.24990506
105	0x3ce6c86b	0.028171739
106	0xbd3c2b33	-0.045939635
107	0x3dbb48b0	0.091447234
108	0xbd0e4175	-0.034730393
109	0x3e358b0d	0.17728825
110	0x3dfc7029	0.1232608
111	0x3e02279f	0.12710427
112	0x3e8f3714	0.2797171
113	0x3df2fb27	0.1186431
114	0xbdc2485e	-0.09486459
115	0xbc9dc584	-0.019259222
116	0x3e8a2fc4	0.26989567
117	0x3e74c067	0.2390152
118	0x3e1d08f4	0.15335447
119	0x3d6cd09f	0.057816144
120	0xbdbde47a	-0.09272094
121	0x3d184b9d	0.037181485
122	0xbcaca611	-0.02107528
123	0x3cb999e4	0.022656389
124	0xbd5b7f67	-0.053588297
125	0xbc8cfdad	-0.017210806
126	0xbd9b5960	-0.07585406
127	0x3e91acb5	0.28452078
128	0xbef0a11f	-0.46997926
129	0x3ed78913	0.42096767
130	0x3ec99a72	0.39375645
131	0x3eefac5d	0.4681119
132	0x3dbb642f	0.09149968
133	0x3cf90f9b	0.03040295
134	0xbd336061	-0.043793086
135	0x3cad2b9b	0.021138957
136	0xbe084d7b	-0.13310806
137	0x3dfed411	0.12442792
138	0xbd1d6035	-0.03842183
139	0x3e4c41dc	0.19946998
140	0x3e3398f3	0.17538814
141	0x3ded2b6b	0.11580547
142	0xbd47efd9	-0.04881272
143	0x3dd592b9	0.10428376
144	0x3b65f8b4	0.0035090866
145	0x3db05591	0.086100705
146	0x3ea870dc	0.32898605
147	0x3db67df8	0.089107454
148	0x3c4a323a	0.0123410765
149	0xbdeb6ee7	-0.11495762
150	0x3c8996a1	0.016795458
151	0xbe8b7cf1	-0.2724376
152	0x3cc0730b	0.023492357
153	0x3e2bad07	0.16765223
154	0x3e0e436c	0.13892907
155	0x3d69981b	0.057029825
156	0xbdcd6f49	-0.100309916
157	0x3ca64846	0.020298135
158	0x3e520b19	0.20512046
159	0x3d2b3239	0.041795943
160	0x3c1fe4f5	0.009759177
161	0x3dce1bd8	0.100639045
162	0xbebd2e2a	-0.36949283
163	0xbd4a0e9c	-0.04933034
164	0x3e040323	0.12891822
165	0x3e0f2c3f	0.13981722
166	0x3da218d0	0.07914889
167	0x3d78c326	0.060732983
168	0x3d632aed	0.05546086
169	0x3d486282	0.04892207
170	0x3e70f162	0.2352958
171	0x3de06515	0.1095678
172	0xbd71f8c4	-0.059075132
173	0xbe6241a8	-0.22095358
174	0xbd89b548	-0.0672403
175	0x3b2880d0	0.0025711544
176	0xbe1da120	-0.15393496
177	0x3eaf0c08	0.34188867
178	0xbdf3d847	-0.11906486
179	0xbe2d1ba6	-0.16905078
180	0xbe11bb24	-0.14231545
181	0xbd245a8a	-0.040125407
182	0xbd998909	-0.074968405
183	0xbd4e9f3b	-0.050444823
184	0x3d235f45	0.039885778
185	0x3e44cb65	0.19218214
186	0xbc72db64	-0.014822815
187	0x3d024991	0.03180844
188	0x3ded112b	0.1157554
189	0xbe4ae377	-0.19813333
190	0xbe215367	-0.15754472
191	0x3e381e64	0.17980343
192	0x3e52bd16	0.20579943
193	0x3dd0ef26	0.10201864
194	0x3e5029c4	0.20328432
195	0x3df67f02	0.120359436
196	0x3cf99d93	0.030470645
197	0xbe028a5d	-0.12748094
198	0x3f022ca6	0.5084938
199	0x3c9d3388	0.019189611
200	0x3e1d6abd	0.15372749
201	0x3db3c3ea	0.08777602
202	0xbc55d176	-0.013050428
203	0x3e60b8aa	0.21945444
204	0xbc5e065a	-0.013551319
205	0x3d81f780	0.06346035
206	0x3bbfced1	0.005853512
207	0x3e77c21e	0.24195144
208	0xbdd03fcd	-0.10168419
209	0xbe19d086	-0.15020952
210	0xbd0e3a28	-0.03472343
211	0x3dca19f2	0.0986823
212	0x3e426407	0.1898347
213	0x3e1994e5	0.14998205
214	0x3e24ca47	0.16092788
215	0xbd0f4e81	-0.034986977
216	0xbd661f8a	-0.05618242
217	0xbdc2f270	-0.095188975
218	0x3dbb76c1	0.0915351
219	0x3d4fda06	0.050745033
220	0x3d6291a0	0.05531466
221	0x3de733d5	0.11289183
222	0x3ec68cd6	0.38779324
223	0x3e1c6e37	0.15276419
224	0xbd9d4367	-0.076788716
225	0xbd7f16e0	-0.062277675
226	0x3a5e6892	0.000848421
227	0xbd869626	-0.06571607
228	0x3c297021	0.010341675
229	0x3c2640e5	0.010147308
230	0xbe4e6578	-0.20155895
231	0x3ec1c367	0.37844393
232	0xbdc8902d	-0.09793124
233	0xbdfb2b30	-0.12264097
234	0xbdaa648a	-0.083199576
235	0xbe7a7bb7	-0.24461256
236	0xbe9dfed7	-0.3085849
237	0x3d58eba2	0.052959092
238	0x3ead0c88	0.33798623
239	0x3db3997e	0.08769511
240	0x3dfdf479	0.12400145
241	0x3e5b214c	0.2139942
242	0x3e1a7810	0.15084863
243	0x3caae090	0.020859033
244	0x3ecfe5ab	0.4060491
245	0x3e2c64df	0.16835354
246	0xbe6ba95e	-0.23013827
247	0xbb424486	-0.0029642894
248	0xbd594a80	-0.053049564
249	0x3d03e138	0.032197207
250	0x3e87a739	0.26494768
251	0xbda1137b	-0.07865044
252	0x3df7078f	0.120619886
253	0x3e0fde8f	0.14049743
254	0x3d17d580	0.037068844
255	0x3e7fd140	0.24982166

network_body._body_endoder.seq_layers.2.bias f4 [128]
0	0x3d18607a	0.037201382
1	0x3c57afa5	0.0131644355
2	0x3d13ad5d	0.036054004
3	0xbdb19be2	-0.086723104
4	0xbd1cbf7e	-0.03826856
5	0xbd80bfbe	-0.06286572
6	0x3deb7c26	0.11498289
7	0x3dd77ba9	0.10521633
8	0x3de16348	0.110052645
9	0x3e0f867d	0.14016147
10	0x3d08bb03	0.033381473
11	0xbd2a5b78	-0.041591138
12	0x3dfc773c	0.1232743
13	0xbd1ccdf1	-0.03828234
14	0xbd4ab5ef	-0.04948991
15	0xbe273a47	-0.16330825
16	0x3d798d6d	0.06092589
17	0x3cadf3d4	0.02123443
18	0x3cfec89e	0.031101521
19	0x3d7139fe	0.058893196
20	0x3d9faf49	0.07797105
21	0x39cb6e06	0.0003880115
22	0x3d2ed248	0.04268101
23	0xbdd1f0de	-0.1025102
24	0xbe38f139	-0.18060769
25	0xbe3b13d9	-0.1826929
26	0xbdc929b4	-0.09822407
27	0x3d9b736d	0.07590375
28	0x3db0afaa	0.08627255
29	0xbe0543da	-0.13014165
30	0x3e0ad7b3	0.13558845
31	0xbdc1985b	-0.094528876
32	0x3cb8a8d7	0.022541447
33	0xbce916a2	-0.028453175
34	0x3d082dd8	0.033246845
35	0x3d4bf5ce	0.049794964
36	0x3dcbec40	0.099571705
37	0xbd449f92	-0.04800374
38	0x3dc02522	0.093820825
39	0x3ba8da87	0.0051530036
40	0xbd14dec2	-0.03634525
41	0x3e0514b5	0.1299618
42	0xbe1e6881	-0.15469553
43	0xbcab1263	-0.02088279
44	0x3d0206aa	0.031744637
45	0x3d9d660a	0.07685478
46	0xbbf504c7	-0.007477376
47	0xbdc692b1	-0.09695948
48	0xbe22fa90	-0.15915895
49	0x3dc3e1be	0.09564541
50	0x3bda7ac6	0.0066674678
51	0x3d98db40	0.074636936
52	0x3d99e4d9	0.07514352
53	0xbdc59805	-0.09648136
54	0x3d9d3872	0.07676782
55	0xbc2abae3	-0.010420534
56	0x3d950423	0.0727618
57	0xbc4a9b35	-0.012366106
58	0x3e0d96db	0.13827078
59	0x3d4f803d	0.050659407
60	0xbe195258	-0.14972818
61	0x3d56d135	0.05244561
62	0xbce83755	-0.028346697
63	0x3db8827e	0.090092644
64	0xbdccfb12	-0.10008825
65	0x3d0e7315	0.03477772
66	0x3e180ce9	0.14848675
67	0x3dea4b0d	0.11440096
68	0xbcd7034b	-0.026246687
69	0x3e117bc3	0.14207368
70	0xbe2ee125	-0.17078073
71	0x3e04d952	0.12973526
72	0xbd7dbfb5	-0.061950404
73	0x3d1c75b9	0.038198207
74	0x3de6db11	0.11272252
75	0xbd6e8fea	-0.058242716
76	0x3ddb3c62	0.107048765
77	0xbbd747ab	-0.006569823
78	0xbde4ff2b	-0.11181482
79	0xbdaab5f1	-0.08335484
80	0x3cef1a31	0.029187294
81	0xbc1f3d17	-0.009719155
82	0xbe1104e3	-0.1416202
83	0x3c828f5a	0.015937496
84	0xbe368731	-0.17825009
85	0xbbe1279d	-0.0068711773
86	0x3da52eef	0.080655925
87	0x3d44e05c	0.04806553
88	0xbde72be7	-0.112876706
89	0x3ba8c8ed	0.0051509053
90	0xbbe4bd4d	-0.006980574
91	0x3cf526d7	0.029925747
92	0x3da6c322	0.081426874
93	0xbd2d2a0d	-0.04227643
94	0xbdc49f72	-0.09600724
95	0x3c5c7522	0.013455661
96	0x3ca01218	0.019539878
97	0xbdb40716	-0.08790414
98	0x3d5f6442	0.054538973
99	0xbdba1000	-0.09085083
100	0x3df6bdb0	0.12047899
101	0x3ddb1333	0.10697021
102	0x3d334939	0.043771002
103	0x3e0bc559	0.13649501
104	0x3d1b96cb	0.037985604
105	0x3bed6732	0.007244968
106	0x3e3adf16	0.18249163
107	0x3e3fef15	0.18743546
108	0x3cf113db	0.029428413
109	0x3d9e4ddd	0.07729695
110	0xbc860abc	-0.01636254
111	0x3e0fd159	0.14044704
112	0x3d17fcf8	0.037106484
113	0x3de93098	0.11386222
114	0x3da1a38a	0.07892521
115	0x3d15f460	0.036610007
116	0x3e4a7a68	0.19773257
117	0xbd0111a6	-0.03151097
118	0x3d8f2ec5	0.069913425
119	0x3d927edf	0.07153105
120	0x3c2a301e	0.010387449
121	0xbe07b9e4	-0.13254505
122	0x3e893e2f	0.26805255
123	0xbe3a8ff5	-0.18218978
124	0xbc09c2a4	-0.008408222
125	0xbe29716b	-0.16547172
126	0xbe3c06b6	-0.18361935
127	0xbc4f151f	-0.012639313

network_body._body_endoder.seq_layers.2.weight f4 [128, 128]
0	0x3dc3b55f	0.09556078
1	0x3c8569c0	0.016285777
2	0xbdfe86df	-0.12428068
3	0x3e2bcb33	0.16776733
4	0x3dd988c7	0.10621791
5	0xbd0398af	-0.032128032
6	0x3e33124b	0.17487447
7	0xbe6c875e	-0.23098513
8	0xbd39ab9e	-0.045329683
9	0x3d80bfbc	0.062865704
10	0xbc80662b	-0.015673717
11	0x3bf27a65	0.0073998445
12	0xbe12a22b	-0.14319675
13	0xbe535e7c	-0.20641512
14	0x3e91a33d	0.28444853
15	0x3e06f0a3	0.13177733
16	0x3e577eab	0.21044414
17	0xbe3aa40f	-0.18226646
18	0x3e9f33b6	0.3109414
19	0xbe7420a7	-0.23840581
20	0xbdd0c0b1	-0.10193003
21	0x3e489872	0.19589403
22	0xbe4fc46e	-0.20289776
23	0x3e1f2262	0.1554046
24	0x3e6bf0e9	0.23041119
25	0x3e819cbd	0.25314894
26	0x3ceae2a3	0.028672522
27	0xbd7a332f	-0.06108397
28	0x3e37c3aa	0.17945734
29	0x3a86e9f3	0.0010293111
30	0xbdc592de	-0.09647153
31	0x3e138c91	0.1440909
32	0x3db0a7d0	0.08625758
33	0x3d67c098	0.056580156
34	0xbd5e4c40	-0.054271936
35	0xbe53a90b	-0.20669954
36	0xbe2f8a82	-0.1714268
37	0x3d6f0425	0.058353562
38	0x3e7842da	0.24244252
39	0xbe8624c7	-0.26199934
40	0xbe6341cf	-0.22193073
41	0x3e84e4c7	0.25955793
42	0x3e88f0e7	0.26746294
43	0x3e453a6f	0.19260572
44	0x3ddaf09c	0.10690424
45	0x3e9a7750	0.30169153
46	0xbda9a65b	-0.08283683
47	0xbd852a74	-0.06502238
48	0x3d9520e8	0.07281667
49	0x3e4e339a	0.20136872
50	0xbe1b1512	-0.15144756
51	0x3c5c01ac	0.013428133
52	0x3e0a6660	0.13515615
53	0x3d1000bb	0.035156947
54	0x3e0a9799	0.13534392
55	0xbdc68082	-0.0969248
56	0xbd971a15	-0.07378022
57	0x3e0b4665	0.13601072
58	0x3e9fe8e6	0.31232375
59	0x3e559b36	0.2085999
60	0x3dc4c4c7	0.09607845
61	0x3e396b9e	0.18107459
62	0xbc25d61f	-0.010121851
63	0xbe821072	-0.25403172
64	0x3e4b19ed	0.19834109
65	0xbcdcc694	-0.026950158
66	0x3e091e42	0.13390449
67	0x3e612cc6	0.21989736
68	0x3cfcbf7d	0.030853027
69	0xbdf67bcf	-0.12035333
70	0x3e1d1314	0.15339309
71	0x3e0445a0	0.12917185
72	0x3d90b6a3	0.07066085
73	0x3e528df9	0.20561971
74	0x3eb5987a	0.35467893
75	0x3e5cfcba	0.21580783
76	0x3c731343	0.014836135
77	0xbe51e0fa	-0.20495978
78	0xbe08ac2c	-0.13346928
79	0x3e2896b7	0.16463743
80	0xbd68d87b	-0.056847077
81	0x3d22c83e	0.039741747
82	0xbe0a16c9	-0.13485254
83	0xbcfa3638	-0.030543432
84	0x3dbf3e45	0.09338049
85	0x3ddf0689	0.10889918
86	0xbe8802e8	-0.26564717
87	0x3e2e8bd4	0.17045528
88	0x3d9251cf	0.0714451
89	0x39bd8139	0.00036145168
90	0x3ddff1c7	0.10934787
91	0xbd907dc4	-0.07055238
92	0xbe033a76	-0.1281527
93	0x3e20d098	0.15704572
94	0xbe4b8fd5	-0.19879086
95	0x3c27750e	0.010220779
96	0xbdaf2950	-0.085528016
97	0xbd69cd28	-0.057080418
98	0x3dc152c1	0.09439612
99	0xbe84aee0	-0.2591467
100	0xbb9e66b1	-0.004834019
101	0x3c807a1a	0.015683223
102	0xbe16a6fb	-0.14712135
103	0x3e9750f1	0.2955394
104	0x3d436bef	0.047710355
105	0x3e333924	0.17502266
106	0x3c2c9712	0.010534065
107	0x3ea6e68e	0.32597774
108	0x3e35897f	0.17728232
109	0xbde49e26	-0.11162977
110	0x3d12e9c3	0.035867464
111	0x3edfc28e	0.4370312
112	0xbcfdd2b9	-0.03098427
113	0x3dd58211	0.10425199
114	0x3d1de11e	0.038544767
115	0x3d03014a	0.03198365
116	0xbc60ff59	-0.013732755
117	0x3e8f0e0d	0.27940407
118	0xbe24ab21	-0.16080905
119	0xbddd0ac2	-0.107930675
120	0x3e879642	0.26481825
121	0xbe5820a9	-0.21106209
122	0x3dd64935	0.10463182
123	0xbb7eecf9	-0.003889857
124	0xbe26c038	-0.16284263
125	0x3d8c40af	0.06848275
126	0x3d39f6e0	0.045401454
127	0x3dab6792	0.08369364
128	0xbea65691	-0.3248792
129	0x3e3ce584	0.18446928
130	0xbd54196d	-0.05178206
131	0x3d4cd030	0.05000323
132	0xbdb9b1e3	-0.09067132
133	0xbeca60cd	-0.39526978
134	0x3e0895ce	0.13338396
135	0x3d967e28	0.07348281
136	0xbdffa454	-0.12482515
137	0xbd58de4f	-0.052946385
138	0xbe3f3b17	-0.18674885
139	0xbe134b76	-0.14384255
140	0x3db7bbb8	0.089713514
141	0xbbdb5a59	-0.00669412
142	0xbcad6770	-0.021167487
143	0x3da597e7	0.08085614
144	0xbe08c84e	-0.1335766
145	0x3daebf05	0.08532528
146	0xbe4c4a72	-0.19950274
147	0xbe956723	-0.2918025
148	0xbbc0a19f	-0.0058786417
149	0x3c846d56	0.016165417
150	0xbe55f2ad	-0.20893355
151	0xbde4e423	-0.11176326
152	0xbe4052a6	-0.18781528
153	0x3d9162b2	0.07098903
154	0xbd50f580	-0.051015377
155	0x3bbf0105	0.005828979
156	0x3e28c01b	0.16479532
157	0xbe5643c4	-0.20924288
158	0xbdb4956c	-0.088175625
159	0xbdbf7104	-0.09347728
160	0x3de24f38	0.11050266
161	0x3e7bdfea	0.24597135
162	0xbe45f4fd	-0.19331737
163	0xbd2e27b5	-0.042518336
164	0xbebf6c96	-0.37387532
165	0xbdc5bfa7	-0.096556954
166	0x3e8c531c	0.27407157
167	0x3dced96c	0.10100064
168	0x3e71ce5b	0.23613875
169	0x3d0f520a	0.034990348
170	0xbe0d0c38	-0.13774192
171	0x3e263979	0.16232862
172	0x3e8b00f9	0.2714918
173	0x3e944bd7	0.2896411
174	0xbda92deb	-0.08260711
175	0x3c124a73	0.008928883
176	0xbd3b6511	-0.04575068
177	0xbd480748	-0.04883507
178	0x3d12c296	0.035830103
179	0x3d158baf	0.036510166
180	0xbdb87acc	-0.09007797
181	0xbd6a9387	-0.0572696
182	0xbe02a694	-0.12758857
183	0xbd8999c3	-0.06718781
184	0x3ce786a8	0.028262451
185	0x3e1ed6b8	0.15511596
186	0xbe055f05	-0.13024528
187	0x3b1e4db5	0.0024155204
188	0x3d14d002	0.036331184
189	0x3e035e80	0.12829018
190	0x3cb273bd	0.021783704
191	0xbcf7829d	-0.030213648
192	0xbdc14650	-0.09437239
193	0xbdf72bbd	-0.12068889
194	0x3c0ca0fe	0.008583305
195	0x3d3f8ead	0.046766926
196	0x3ca4643e	0.02006733
197	0x3e8a3426	0.2699291
198	0x3d48a163	0.048982035
199	0x3d83a155	0.06427256
200	0x3dbb4fee	0.09146105
201	0x3e4becc0	0.19914532
202	0xbe2665fd	-0.16249843
203	0x3d16785e	0.036735885
204	0xbc064df3	-0.0081972955
205	0x3bacee8e	0.0052774614
206	0xbcd395e3	-0.025828307
207	0x3e40c39f	0.18824624
208	0x3d037445	0.032093305
209	0x3e70c4c6	0.23512563
210	0x3d4b08e8	0.04956904
211	0xbd859296	-0.065221
212	0x3da54191	0.080691464
213	0x3e5dba61	0.21653129
214	0xbe386f0e	-0.18011114
215	0xbdd3a483	-0.103341125
216	0xbcfc6f89	-0.030814903
217	0x3d8183b3	0.06323948
218	0x3d73174d	0.059348393
219	0x3d44de9d	0.048063863
220	0xbd542db1	-0.051801387
221	0xbdab0c34	-0.08351937
222	0x3e8c5082	0.27405173
223	0xbd0c56ef	-0.034262594
224	0x3cd5c20a	0.026093502
225	0xbde3f7ec	-0.11131272
226	0xbcc07c8b	-0.023496887
227	0xbe8a6936	-0.27033395
228	0xbcd539f0	-0.026028603
229	0x3d84872e	0.06471096
230	0xbc31f9c3	-0.0108627705
231	0x3e3e2d9e	0.18572089
232	0xbd9a6d5c	-0.0754039
233	0x3d873499	0.06601829
234	0x3e32f1a1	0.17474987
235	0x3df8be64	0.12145689
236	0x3d69b3d0	0.05705625
237	0x3e14e4eb	0.1454045
238	0x3e706d32	0.23479155
239	0x3c130e7b	0.00897562
240	0xbe39b81f	-0.18136643
241	0x3e561cd7	0.20909439
242	0x3c8ac7ad	0.016940916
243	0x3dda0014	0.10644546
244	0xbc756c87	-0.014979488
245	0xbe31c666	-0.17360839
246	0x3e579219	0.21051826
247	0x3e45ee30	0.19329143
248	0x3d87270c	0.065992445
249	0xbced268a	-0.02894904
250	0x3d29511e	0.041337125
251	0x3d688077	0.05676314
252	0xbed4baca	-0.4154876
253	0x3dea3ceb	0.114374004
254	0xbc5b9a2b	-0.013403456
255	0xbe496110	-0.19665933

network_body.observation_encoder.processors.0.normalizer.running_mean f4 [25]
0	0x3f76607a	0.9624096
1	0x39fecc9b	0.00048599098
2	0x00000000	0.0
3	0x36eae0c3	6.999909e-06
4	0x3e0334b7	0.12813078
5	0x3f6bb2fe	0.92069995
6	0x3945a766	0.00018849745
7	0x00000000	0.0
8	0x3b97354f	0.004614509
9	0x3e1bd8b0	0.15219378
10	0x3f70b211	0.9402171
11	0x3a102da9	0.0005499968
12	0x00000000	0.0
13	0x3bb70ef2	0.0055864984
14	0x3e1ff748	0.15621674
15	0x3f3829dc	0.7193887
16	0x3ac6d5a2	0.0015169869
17	0x00000000	0.0
18	0x3d18ab5d	0.0372728
19	0x3e697b31	0.228009
20	0x3f3e1f0e	0.74266136
21	0x3b5a19a9	0.0033279455
22	0x00000000	0.0
23	0x3d381ff6	0.044952355
24	0x3e7af196	0.2450622

network_body.observation_encoder.processors.1.normalizer.running_mean f4 [25]
0	0x3ec48655	0.38383737
1	0x3ea73598	0.32658076
2	0x00000000	0.0
3	0x3994a22f	0.00028349596
4	0x3d44ef0d	0.04807954
5	0x3ed1d8e0	0.40985775
6	0x3df697b4	0.12040654
7	0x00000000	0.0
8	0x3cbf30d6	0.023338716
9	0x3d871dc8	0.06597477
10	0x3ecfd5b8	0.40592742
11	0x3dec21d8	0.11529893
12	0x00000000	0.0
13	0x3ca952bb	0.020669332
14	0x3d807ca6	0.06273775
15	0x3f0e3314	0.5554669
16	0x3d354506	0.04425528
17	0x00000000	0.0
18	0x3d693b86	0.05694153
19	0x3dceaa43	0.100910686
20	0x3f09564f	0.5364732
21	0x3d3ea847	0.0465472
22	0x00000000	0.0
23	0x3d5a768c	0.05333571
24	0x3dc3a3e9	0.09552748

network_body.observation_encoder.processors.2.normalizer.running_mean f4 [18]
0	0xc0f089b1	-7.516808
1	0xbf5c37e0	-0.8602276
2	0x41a1acbf	20.209349
3	0xbe517347	-0.20454131
4	0x3ead3ef5	0.33837095
5	0xbf9233bd	-1.1422039
6	0x3adf1280	0.0017019063
7	0x3a501781	0.00079380727
8	0xba408a70	-0.00073448475
9	0x3f74218f	0.95363706
10	0x4411bf7b	582.9919
11	0xc09b4a42	-4.8528147
12	0xbbf1799a	-0.0073692324
13	0xbe14a303	-0.14515309
14	0x3f47ecf8	0.7809596
15	0xbbc9e61c	-0.0061614644
16	0x00000000	0.0
17	0x3eb94a9d	0.36189738
