Assets/Brains/run28/CarPractice_run28-3.onnx (onnx, 108914 bytes, 15 tensors)

85 f4 [25]
0	0x3da8e3e1	0.082465895
1	0x3b40edb0	0.0029438548
2	0x3a5609d4	0.00081649167
3	0x3a975915	0.0011546934
4	0x3d980397	0.0742256
5	0x3e16ebef	0.14738439
6	0x3c100e41	0.008792461
7	0x3a5609d4	0.00081649167
8	0x3b975812	0.004618653
9	0x3db497fd	0.08818052
10	0x3e342fda	0.17596379
11	0x3bd7b234	0.0065825228
12	0x3a5609d4	0.00081649167
13	0x3cbcfc47	0.023069514
14	0x3dbbf0f2	0.09176816
15	0x3ec58a11	0.385819
16	0x3d564fee	0.05232232
17	0x3a5609d4	0.00081649167
18	0x3dbe20aa	0.09283574
19	0x3ddbde47	0.107357554
20	0x3ecf3ead	0.40477505
21	0x3d1284be	0.035771124
22	0x3a5609d4	0.00081649167
23	0x3e3acc30	0.18241954
24	0x3e273916	0.1633037

88 f4 [25]
0	0x3ee5e123	0.44898328
1	0x3efc67a0	0.4929781
2	0x3a5609d4	0.00081649167
3	0x3b9287f1	0.004471772
4	0x3d120df5	0.03565784
5	0x3eff0df7	0.49815342
6	0x3e42e4d8	0.1903261
7	0x3a5609d4	0.00081649167
8	0x3e2e018c	0.16992778
9	0x3e272978	0.16324413
10	0x3efb45a9	0.49076584
11	0x3eb5c02a	0.35498172
12	0x3a5609d4	0.00081649167
13	0x3cbf8d4f	0.02338281
14	0x3d0a5e1e	0.033781163
15	0x3ef1d033	0.47229156
16	0x3dc90119	0.098146625
17	0x3a5609d4	0.00081649167
18	0x3e7b1237	0.24518667
19	0x3e6e5f51	0.23278548
20	0x3ef3cc31	0.47616723
21	0x3e361a8f	0.17783569
22	0x3a5609d4	0.00081649167
23	0x3dc3abab	0.095542274
24	0x3dbfc688	0.09364039

91 f4 [18]
0	0x41e6e1f4	28.860329
1	0x3ebd0f81	0.3692589
2	0x41021b9a	8.131739
3	0x4044f325	3.0773404
4	0x3cfe07f7	0.031009657
5	0x40e5aaab	7.1770835
6	0x3b31ef9d	0.0027150877
7	0x3e299429	0.16560425
8	0x3be789f1	0.0070660044
9	0x3d239cf3	0.0399446
10	0x43bc19f1	376.20267
11	0x41ba4c7d	23.287348
12	0x3ea4a39c	0.32156074
13	0x3e5e3572	0.21700075
14	0x3e9f685d	0.3113431
15	0x3ef166d8	0.47148776
16	0x3a5609d4	0.00081649167
17	0x3ef166e7	0.4714882

action_model._discrete_distribution.branches.0.bias f4 [3]
0	0x3cbdcb00	0.023168087
1	0xbb9ed475	-0.004847104
2	0x3d3c6e17	0.046003427

action_model._discrete_distribution.branches.0.weight f4 [3, 128]
0	0x3dd92761	0.10603214
1	0x3d9cc69c	0.07655069
2	0x3d829083	0.0637522
3	0x3e03676a	0.12832418
4	0xbcb8f40f	-0.022577314
5	0x3d0cea8f	0.03440338
6	0xbd952eb0	-0.072842956
7	0x3d60cbe5	0.05488195
8	0x3e30d4a1	0.17268611
9	0x3d94ef8b	0.07272252
10	0x3d1e9103	0.038712513
11	0x3dbde8e5	0.09272937
12	0x3ed715c4	0.42008793
13	0x3e0ca55a	0.13734952
14	0x3e84c370	0.25930357
15	0x3dd60729	0.104505844
16	0xbe5d2900	-0.21597672
17	0x3e4e71d7	0.20160614
18	0x3e1b5a73	0.15171222
19	0x3d92416c	0.071413845
20	0x3d2cb5fc	0.04216574
21	0xbc11c8dd	-0.008897987
22	0x3dbc8cbc	0.092065305
23	0x3e511040	0.20416355
24	0x3b172405	0.002306224
25	0x3ddeb93d	0.10875175
26	0x3c9805f4	0.018557526
27	0xbde66bf4	-0.11251059
28	0x3cd81818	0.026378676
29	0x3e300bba	0.17191973
30	0xbe5652d9	-0.20930041
31	0x3d2f1de1	0.042753104
32	0xbe0f2f74	-0.13982946
33	0x3d6a80ee	0.057251863
34	0xbe7ae4d7	-0.24501358
35	0x3dbe7d1a	0.09301205
36	0x3d86fe3f	0.06591462
37	0x3e2f3b22	0.17112401
38	0x3e6c218f	0.23059677
39	0x3dd00935	0.10158006
40	0x3d8c12b8	0.06839508
41	0x3de64e44	0.11245397
42	0x3d47a575	0.048741776
43	0x3c85ae0b	0.016318342
44	0x3d17b1ff	0.037034985
45	0x3e0c6261	0.13709404
46	0x3df0de1c	0.11761114
47	0x3d5cdf3d	0.053923834
48	0xbe1b1300	-0.15143967
49	0xbdb4fb36	-0.08836977
50	0x3d97fbb1	0.07421053
51	0x3e086208	0.13318646
52	0x3dcd7d7c	0.100337
53	0x3ba4a2cb	0.0050242892
54	0x3d3d2b55	0.046183903
55	0x3d736c0e	0.05942922
56	0xbdd6a958	-0.104815185
57	0x3c48efff	0.012264251
58	0xbe8b1c90	-0.2717023
59	0x3e43f4d7	0.19136368
60	0xbcd3bee2	-0.025847856
61	0x3bc49074	0.0059986655
62	0x3e27b6b7	0.16378294
63	0x3e393468	0.18086398
64	0x3de2552b	0.11051401
65	0x3db0651a	0.086130336
66	0x3d0161a3	0.031587254
67	0xbd7b0a70	-0.06128925
68	0x3d4e1002	0.050308235
69	0x3d55c6d2	0.052191563
70	0x3e0794d1	0.13240363
71	0x3e0b3257	0.13593422
72	0x3d0022bc	0.031283125
73	0x3c359569	0.011082985
74	0xbe4461da	-0.19177952
75	0x3eaa7981	0.33295825
76	0x3dbe8cfc	0.093042344
77	0x39f7acac	0.00047240162
78	0x3dba5819	0.090988345
79	0x3cf4011d	0.029785687
80	0x3dc82a81	0.09773732
81	0x3d9bc2a1	0.07605482
82	0x3ddd37c9	0.10801656
83	0x3dddd779	0.10832114
84	0xbdbb4fe7	-0.091460995
85	0x3b83b51a	0.0040193917
86	0xbb25c1dd	-0.0025292553
87	0xbdbea9af	-0.09309708
88	0xbd995fbc	-0.07488963
89	0x3d6e6d64	0.05820979
90	0x3e50803f	0.20361422
91	0x3e46f165	0.19428022
92	0x3db1e55d	0.08686326
93	0x3d108d28	0.035290867
94	0x3e2957ea	0.16537443
95	0x3b617f18	0.003440803
96	0x3e288070	0.16455245
97	0x3dd4a8e6	0.10383777
98	0xbe9daa01	-0.30793765
99	0x3e267812	0.1625674
100	0x3df8a9ee	0.121417865
101	0x3cdbd398	0.026834294
102	0x3e47481d	0.19461103
103	0x3dda5787	0.10661226
104	0xbd6c0450	-0.0576213
105	0x3d8d956e	0.06913267
106	0xbda71841	-0.08158923
107	0x3de17cd7	0.110101394
108	0x3dc7278c	0.0972434
109	0xbd024058	-0.031799644
110	0x3cab1abf	0.020886777
111	0x3e13b7f0	0.14425635
112	0xbc03a8f2	-0.008035885
113	0xbd228f53	-0.039687466
114	0xbd248050	-0.04016143
115	0x3d9970e3	0.074922346
116	0x3c0badff	0.008525371
117	0x3e49e9c5	0.19718082
118	0x3e7409ac	0.23831815
119	0xbe918b7f	-0.2842674
120	0x3df7b0af	0.120942466
121	0x3e180153	0.14844255
122	0x3dd6bbef	0.10485064
123	0x3df422db	0.11920711
124	0x3b8b3add	0.0042489604
125	0x3e3b7e60	0.18309927
126	0xbd9194d8	-0.07108468
127	0x3e24f756	0.16109976
128	0x3da17334	0.078833014
129	0x3d3bb743	0.04582907
130	0x3dc1328f	0.094334714
131	0x3d48e078	0.049042195
132	0xbde65434	-0.11246529
133	0x3c90eed1	0.017692002
134	0xbd495e72	-0.049162336
135	0xbd8f9f56	-0.07012813
136	0xbd935500	-0.07193947
137	0xbcdbd8b0	-0.026836723
138	0x3dc3cb14	0.095602185
139	0x3c9833df	0.018579422
140	0xbe3a4d1f	-0.18193482
141	0xbe5605c2	-0.20900634
142	0xbd9010b4	-0.07034436
143	0xbe518ea1	-0.20464565
144	0xbcf00465	-0.02929897
145	0xbddcac2e	-0.10775028
146	0xbd1bf54d	-0.038075734
147	0x3db9e9f0	0.09077823
148	0xbe00d272	-0.12580279
149	0xbc75fd9a	-0.015014077
150	0x3c6aee58	0.014339052
151	0xbe0f8a00	-0.14017487
152	0x3d3feea8	0.04685846
153	0xbe959757	-0.29217026
154	0xbe537d59	-0.20653285
155	0xbe21bf69	-0.15795673
156	0x3deff4b1	0.11716593
157	0xbe65c4e4	-0.22438389
158	0x3a0276db	0.0004976817
159	0xbcc8bc5c	-0.02450388
160	0x3d5312ba	0.05153153
161	0x3c5ac6f0	0.013353094
162	0x3e1fc7d8	0.15603578
163	0x3cf3217b	0.02967905
164	0xbe906ed8	-0.28209567
165	0xbe1d9aa9	-0.1539103
166	0xbdc1284d	-0.09431515
167	0xbe656ea5	-0.22405489
168	0x3c063b68	0.0081928745
169	0xbdb4c08a	-0.088257864
170	0x3d9b487a	0.07582183
171	0xbe40764c	-0.18795127
172	0x3e3e0a3f	0.18558596
173	0xbb3cd100	-0.0028811097
174	0xbda4c2d2	-0.080449715
175	0x3c219ce3	0.009864065
176	0x3e8eee1b	0.27916035
177	0xbdef89af	-0.11696183
178	0xbe5a926f	-0.21344922
179	0xbd1e0708	-0.038580924
180	0xbebbd100	-0.36682892
181	0xbdc2a90c	-0.095048994
182	0xbdb6e208	-0.08929831
183	0xbdf067e1	-0.11738563
184	0x3d854d05	0.06508831
185	0x3d025c6a	0.031826414
186	0x3e71309e	0.23553702
187	0xbe9251d8	-0.28578067
188	0xbde5f530	-0.112284064
189	0x3d5d2c1c	0.053997144
190	0xbe18d9af	-0.1492679
191	0xbe01115d	-0.1260428
192	0x3dd9f815	0.10643021
193	0xbe513d0e	-0.20433447
194	0x3945a8b1	0.00018850226
195	0x3d98eb88	0.07466799
196	0xbd7c17cf	-0.061546143
197	0xbe89255b	-0.26786312
198	0xbe576856	-0.21035895
199	0x3d28fde6	0.04125776
200	0x3d8ccf80	0.06875515
201	0x3e09c0f5	0.13452514
202	0x3de90606	0.11378102
203	0xbe0f8ef3	-0.14019375
204	0xbdc2ab8a	-0.09505375
205	0xbe45e036	-0.19323811
206	0x3d802113	0.062563084
207	0x3cf34918	0.02969794
208	0xbea09563	-0.31363973
209	0xbcb491b1	-0.022042127
210	0xbdd0903e	-0.10183762
211	0xbec6e1e4	-0.38844216
212	0x3e2bcdeb	0.1677777
213	0x3dd9e269	0.106388874
214	0x3e3ad971	0.1824701
215	0x3dbd3a43	0.09239628
216	0x3b6daf49	0.0036267808
217	0xbe51795c	-0.20456451
218	0x3de584f8	0.112070024
219	0xbdfa47a6	-0.12220697
220	0xbe6e918c	-0.23297709
221	0xbe20e8b2	-0.15713766
222	0x3cf97c61	0.030454816
223	0x3e25cfd8	0.16192567
224	0xbde82912	-0.113359585
225	0xbcf5c346	-0.03000034
226	0x3d900fad	0.0703424
227	0xbcbdec4d	-0.023183966
228	0xbe2f44ff	-0.17116164
229	0xbda691d5	-0.08133284
230	0xbd2f1f26	-0.042754315
231	0x3cd7ec09	0.026357668
232	0xbdb49b2f	-0.088186614
233	0xbe02c5e8	-0.12770808
234	0xbd84ffa5	-0.06494073
235	0xbd4dc12b	-0.050233047
236	0x3dcc2991	0.09968866
237	0xbd80cc8d	-0.06289015
238	0x3e088514	0.13332015
239	0xbb949aa0	-0.0045350343
240	0xbcc63c7a	-0.02419876
241	0xbc090561	-0.008363099
242	0xbe653c2f	-0.2238624
243	0x3e130ddc	0.14360756
244	0x3e293989	0.16525854
245	0xbe620f0a	-0.2207605
246	0x3d3d63b7	0.046237674
247	0x3e29b7d2	0.16574028
248	0xbe2968fe	-0.16543958
249	0xbd13bcf8	-0.036068887
250	0xbdec0659	-0.11524648
251	0xbd14bf27	-0.03631511
252	0xbe9353f6	-0.28774995
253	0xbd705244	-0.058672205
254	0xbe09e65e	-0.13466784
255	0xbe155714	-0.14583999

action_model._discrete_distribution.branches.1.bias f4 [3]
0	0xbd6b354e	-0.057423882
1	0x3d962746	0.073317096
2	0x3c9ce0e1	0.0191502

action_model._discrete_distribution.branches.1.weight f4 [3, 128]
0	0xbe4e5dc6	-0.20152959
1	0x3e176d5e	0.14787814
2	0xbee1e576	-0.44120377
3	0x3dc43860	0.09581065
4	0xbe004f9b	-0.12530367
5	0x3e3f9779	0.18710126
6	0x3e1bec47	0.15226851
7	0x3da94371	0.082648166
8	0xbe5cef8b	-0.21575753
9	0x3df02a8b	0.117268644
10	0x3d3492fb	0.044085484
11	0x3d8af5fe	0.067852005
12	0xbd12a897	-0.03580531
13	0xbd3580c5	-0.044312257
14	0xbd567086	-0.052353404
15	0xbe7650d6	-0.24054274
16	0xbd55977c	-0.05214642
17	0x3b44aade	0.0030009071
18	0xbe140389	-0.14454474
19	0x3e7f7d90	0.24950242
20	0x3db217a2	0.08695914
21	0x3b5d0bf0	0.003372904
22	0xbec17ab6	-0.37788934
23	0x3d427a8f	0.047480162
24	0x3dc14105	0.094362296
25	0xbd737dd9	-0.05944619
26	0x3d503167	0.050828364
27	0x3dc98b3d	0.09841011
28	0xbe91061c	-0.28324974
29	0xbe0bcf88	-0.13653386
30	0x3c8d2a38	0.017232046
31	0x3e3ecae8	0.1863209
32	0x3db38c85	0.08767036
33	0x3ddfd67e	0.10929583
34	0x3e13ee74	0.14446431
35	0x3e7c6bb6	0.24650463
36	0xbe80ebf0	-0.25180006
37	0x3de3bc99	0.111199565
38	0x3da32bef	0.07967364
39	0xbe8a7f9a	-0.27050477
40	0xbddaa178	-0.10675329
41	0x3e83e50c	0.25760686
42	0x3e68747e	0.22700688
43	0x3d94877f	0.07252406
44	0x3e649444	0.22322184
45	0x3da9b9a2	0.0828736
46	0xbcbdc1a4	-0.023163624
47	0x3dfef3dc	0.12448856
48	0x386ce215	5.647734e-05
49	0x3ddcfba8	0.10790187
50	0xbe2abc87	-0.1667348
51	0x3e36e61c	0.17861217
52	0xbe8342ae	-0.2563681
53	0x3cf1d044	0.029518254
54	0xbe9f9002	-0.31164557
55	0xbe88c334	-0.26711428
56	0x3dcb7f2b	0.09936365
57	0x3dcfd433	0.10147896
58	0x3d2b105a	0.04176364
59	0x3dafc8be	0.085832104
60	0x3d5f1bc6	0.054469846
61	0x3e229340	0.15876484
62	0x3d355254	0.044267967
63	0xbda3e7ac	-0.08003172
64	0x3d964666	0.07337646
65	0x3d8099bb	0.06279322
66	0x3d99c8ff	0.0750904
67	0xbd1644b2	-0.036686607
68	0x3dad9178	0.084750116
69	0x3cb718ac	0.022350632
70	0xbe8a03ba	-0.26955968
71	0xbe0fe55f	-0.14052342
72	0x3e4d4211	0.20044734
73	0xbe964c8e	-0.29355282
74	0xbc6ce1ea	-0.014458159
75	0xbd518cd3	-0.05115969
76	0xbe8ea15d	-0.27857485
77	0x3ddb5db9	0.107112356
78	0xbd709817	-0.058738794
79	0x3e161e36	0.14659962
80	0xbd38236c	-0.044955656
81	0xbd9a04c3	-0.075204395
82	0xbe9b2970	-0.30305052
83	0x3de3e5b1	0.111277945
84	0x3cfda762	0.030963603
85	0x3e2a91af	0.16657136
86	0x3e616674	0.22011739
87	0xbe047e54	-0.12938815
88	0x3db731ae	0.089450225
89	0xbef3cd40	-0.4761753
90	0x3d9834b8	0.0743193
91	0x3d845fea	0.06463607
92	0x3db0136d	0.08597455
93	0xbe7322c2	-0.23743728
94	0xbdef55e8	-0.11686307
95	0x3e093e56	0.13402686
96	0x3d916758	0.070997894
97	0xbeb629f9	-0.35578898
98	0x3d3db49d	0.046314824
99	0x3d0a0444	0.033695474
100	0xbec2e6a6	-0.38066596
101	0xbe5213fd	-0.20515437
102	0x3db25603	0.08707812
103	0x3dcdb384	0.100440055
104	0x3e408b33	0.188031
105	0x3de2ef3e	0.11080788
106	0xbc9d876c	-0.019229613
107	0x3d32a127	0.043610718
108	0x3e10f8bb	0.14157383
109	0x3e7d7583	0.24751858
110	0x3dfb768e	0.12278472
111	0x3db97262	0.0905502
112	0x3dc37bc3	0.0954509
113	0x3e2e21d5	0.17005093
114	0x3c9be3ce	0.019029524
115	0xbdacb5eb	-0.084331356
116	0x3e6502e5	0.22364385
117	0x3d905bd6	0.07048766
118	0x3d8e1cc9	0.06939084
119	0x3deb7764	0.11497381
120	0x3da04b7e	0.07826899
121	0x3d69d529	0.05708805
122	0x3daf1a51	0.08549941
123	0x3e28a048	0.16467392
124	0xbda05046	-0.07827811
125	0xbe2d585d	-0.16928239
126	0x3db1485b	0.08656379
127	0xbdb3a16c	-0.08771023
128	0x3d06815b	0.032838207
129	0x3d3336c8	0.043753415
130	0x3db5efb4	0.0888361
131	0xbdc0c522	-0.094126
132	0x3df61954	0.1201655
133	0xbe5e75de	-0.2172465
134	0xbdce2938	-0.100664556
135	0xbbb82cf8	-0.005620595
136	0x3d29556d	0.041341234
137	0x3c09b9fb	0.008406158
138	0xbdb8a692	-0.09016146
139	0xbe4e8e84	-0.20171553
140	0xbb396f73	-0.0028295189
141	0x3e06cd97	0.13164364
142	0x3da63152	0.08114876
143	0x3e00bfd4	0.12573177
144	0x3e1a4bba	0.1506795
145	0xbe18c7e9	-0.1492001
146	0xbd82acb1	-0.063805945
147	0xbd7e95d4	-0.062154606
148	0xbbaf26cc	-0.005345201
149	0xbdedb226	-0.11606245
150	0x3d95996b	0.07304653
151	0x3cf93c83	0.030424362
152	0xbe3c1064	-0.18365628
153	0x3d9bfea0	0.07616925
154	0x3e05ec76	0.13078484
155	0xbd48de15	-0.04903992
156	0x3b687e45	0.0035475653
157	0x3df86beb	0.12129959
158	0x3dfec995	0.124407925
159	0xbe0cee7d	-0.13762851
160	0xbe254a70	-0.16141677
161	0xbb8afd70	-0.004241638
162	0xbdab3caa	-0.0836118
163	0xbe0a7d31	-0.13524319
164	0x3ddc695d	0.10762284
165	0x3c819610	0.015818626
166	0xbd9fed6a	-0.07808955
167	0x3dcd9f8c	0.10040197
168	0xbe10a5d8	-0.14125764
169	0xbe579699	-0.21053542
170	0xbe5f5c12	-0.21812466
171	0x3d962c03	0.07332613
172	0xbeb8601c	-0.36010826
173	0xbe4a6cb7	-0.19768034
174	0x3dd80b0e	0.105489835
175	0xbe475a79	-0.19468106
176	0xbe0d77fc	-0.13815302
177	0x3b18a90e	0.0023294124
178	0x3e2fc4db	0.17164938
179	0xbd668728	-0.05628124
180	0x3e2d94dc	0.16951317
181	0x3c3cb211	0.011517064
182	0x3e3facd2	0.1871827
183	0xbdaad82f	-0.08342015
184	0xbdbecc6a	-0.09316333
185	0xbe28da43	-0.1648951
186	0xbd097de9	-0.033567343
187	0x3c5cbd27	0.013472832
188	0x3d966128	0.0734275
189	0xbd420eed	-0.047377516
190	0x3d9aa0f4	0.075502306
191	0xbabd7047	-0.0014453017
192	0xbd0bbe81	-0.034117226
193	0x3d6cac35	0.057781417
194	0x3c931ae0	0.017957151
195	0x3d35b593	0.044362616
196	0x3ce7e7c0	0.02830875
197	0xbdba7f7d	-0.09106348
198	0x3da68765	0.08131293
199	0xbd88cd61	-0.06679798
200	0xbe9ad472	-0.30240208
201	0xbd506800	-0.050880432
202	0x3e151fd0	0.14562917
203	0x3d92331a	0.07138653
204	0x3e04ec21	0.12980701
205	0x3d693957	0.05693945
206	0xbcf0e03d	-0.0294038
207	0xbe064023	-0.13110404
208	0x3d8ad03d	0.067779996
209	0x3e50513c	0.20343488
210	0x3e02e1ce	0.1278145
211	0x3d854f72	0.065092936
212	0xbc035bc1	-0.008017481
213	0xbe813257	-0.2523372
214	0xbe0af06b	-0.13568275
215	0x3e1027c9	0.14077677
216	0x3c63231e	0.013863353
217	0x3e49b9a3	0.19699721
218	0xbddf4ae1	-0.10902954
219	0xbddee58d	-0.10883627
220	0x3d788acb	0.06067924
221	0x3e16c8cc	0.14725035
222	0xbdaba0f3	-0.08380308
223	0xbe3f33f0	-0.18672156
224	0x3de05239	0.10953183
225	0x3d7806e1	0.060553435
226	0x3ad3606c	0.0016126758
227	0x3dcb7172	0.09933747
228	0x3e0db452	0.13838318
229	0xbd989e0d	-0.07452021
230	0x3c914807	0.01773454
231	0x3da872a9	0.08224995
232	0xbd9334da	-0.07187815
233	0xbd81e5a4	-0.063426286
234	0x3e359f30	0.17736506
235	0x3d278241	0.040895704
236	0x3b076d9c	0.0020664698
237	0xbe30b0a1	-0.17254879
238	0xbdaaf67f	-0.08347797
239	0xbdd9f9cc	-0.10643348
240	0xbe267932	-0.1625717
241	0xbce978d9	-0.028500007
242	0x3e0d0d2a	0.13774553
243	0xbb976eea	-0.0046213763
244	0xbe23b189	-0.15985693
245	0xbd0aa51e	-0.033848874
246	0xbe7b9738	-0.24569404
247	0xbdb76c1b	-0.08956166
248	0x3dc5b9fd	0.09654615
249	0x3c40794b	0.0117476685
250	0xbcb42201	-0.02198887
251	0x3b8ebb0a	0.004355793
252	0xbd726c6c	-0.05918543
253	0x3e06a0df	0.13147305
254	0x3ca95ebe	0.02067506
255	0x3dee0c88	0.11623484

discrete_action_output_shape f4 [1, 2]
0	0x40400000	3.0
1	0x40400000	3.0

network_body._body_endoder.seq_layers.0.bias f4 [128]
0	0x3c1ff5d3	0.009763199
1	0x3d2bfb3f	0.041987654
2	0x3cbfdd7b	0.02342104
3	0xb9d41bd4	-0.00040456525
4	0x3ce43f8a	0.027862329
5	0x3e11b5a3	0.14229445
6	0xbd4b5643	-0.049642812
7	0x3d971b8b	0.073783
8	0xbc5cd654	-0.013478834
9	0x3ce0ffa5	0.02746565
10	0x3e243485	0.1603566
11	0x3d73343d	0.05937599
12	0x3d8b0fd4	0.06790128
13	0x3d129776	0.035788976
14	0x3d9915a5	0.074748315
15	0x3d2ce505	0.042210598
16	0x3e125c09	0.14292921
17	0x3ca56e42	0.020194177
18	0xbd35781b	-0.044303995
19	0xbdd92f0f	-0.10604679
20	0x3d7f045f	0.062260028
21	0xbd1be348	-0.03805855
22	0x3db8940e	0.09012614
23	0x3c891d48	0.016737595
24	0xbe9be330	-0.30446768
25	0xbdd12895	-0.102128185
26	0xbdf47f8b	-0.119383894
27	0x3c653fc0	0.01399225
28	0xbd9ac4b9	-0.07557053
29	0x3dc799cc	0.09746131
30	0xbdd0405f	-0.10168528
31	0x3d6c64e9	0.057713423
32	0xbdb72006	-0.08941655
33	0xbcf84ff1	-0.030311557
34	0x3cebfb8c	0.02880647
35	0x3d84c986	0.0648375
36	0x3d914111	0.070924886
37	0xbc8009d2	-0.015629683
38	0xbcdd6f35	-0.027030567
39	0x3e1601ef	0.14649175
40	0xbd4802d5	-0.048830826
41	0xbc22d9fd	-0.009939668
42	0x3cf1fefc	0.029540531
43	0x3c16440d	0.009171498
44	0x3d599ce4	0.05312814
45	0xbc835dca	-0.016035933
46	0x3dca1a49	0.09868295
47	0x3d024e3e	0.0318129
48	0x3d790377	0.06079432
49	0x3d8effc9	0.06982381
50	0xbd9ffa9c	-0.07811472
51	0x3dbe3e99	0.09289283
52	0xbe4c4edc	-0.19951957
53	0x3e2fa4ee	0.1715276
54	0x3d52d9c5	0.051477212
55	0x3d50e378	0.05099818
56	0xbd8e9b96	-0.069632694
57	0x3d8e95d4	0.06962171
58	0xbd129a71	-0.035791818
59	0x3c8d5ed5	0.017257133
60	0x3d41f6b4	0.047354415
61	0xbda42fe9	-0.08016951
62	0x3e32c272	0.17456988
63	0x3d3399cd	0.043847848
64	0xbde22a18	-0.11043185
65	0xbbff474b	-0.007790481
66	0xbe12516e	-0.14288875
67	0xbd0e4241	-0.034731153
68	0xba8341bc	-0.0010014097
69	0x3e15215f	0.14563511
70	0xbd244f9f	-0.040114995
71	0xbdd29b90	-0.102835774
72	0x3d59d42e	0.053180866
73	0x3dd7861b	0.105236255
74	0xbde3453b	-0.11097189
75	0x3d57a6be	0.052649252
76	0x3e51d5dc	0.20491737
77	0xbd9d0a12	-0.076679364
78	0x3a436855	0.00074542064
79	0x3d966a07	0.07344442
80	0x3dbeedd2	0.093227044
81	0x3d9be8d6	0.07612769
82	0xbdfa69a0	-0.122271776
83	0xbde4c1e4	-0.11169794
84	0x3de3f755	0.11131159
85	0x3d2d0691	0.04224259
86	0x3db0f690	0.08640778
87	0xbe1be276	-0.15223107
88	0x3d40e446	0.0470927
89	0xbd9f7c8d	-0.07787428
90	0xbe54a8c3	-0.20767502
91	0x3dc3ddd5	0.095637955
92	0xbd063bda	-0.032771923
93	0x3d6b6bcc	0.05747585
94	0x3cee60f5	0.029098967
95	0xbcf449b8	-0.029820308
96	0xbe04cfc1	-0.12969877
97	0x3d99b968	0.075060666
98	0x3da456c4	0.08024362
99	0x3a8c9d81	0.0010728092
100	0xbc6068f6	-0.0136969
101	0x3e8cafb2	0.27477795
102	0x3c55a17d	0.01303899
103	0x3e2c46a2	0.1682382
104	0xbdee3b15	-0.11632363
105	0x3de18fe6	0.110137746
106	0x3c95128a	0.018197317
107	0xbd2d6334	-0.042330936
108	0x3e104bb6	0.14091381
109	0x3dcb564c	0.09928569
110	0xbe73aff3	-0.23797588
111	0x3da46fd6	0.080291435
112	0xbcc74b67	-0.024327947
113	0x3e056509	0.13026823
114	0x3d1d77d5	0.03844436
115	0xbdf05e85	-0.11736778
116	0x3d73c31f	0.059512254
117	0xbe20ae75	-0.1569155
118	0xbc611f37	-0.013740352
119	0x3d965762	0.07340886
120	0xbe1c452d	-0.15260763
121	0x3d85c96d	0.065325595
122	0x3cdca4d7	0.02693407
123	0x3e2e8958	0.1704458
124	0xbce552ed	-0.027993644
125	0xbabcd856	-0.0014407735
126	0x3b054997	0.0020338052
127	0xbd592c5d	-0.053020824

network_body._body_endoder.seq_layers.0.weight f4 [128, 68]
0	0x3ddf9b00	0.10918236
1	0x3e3502ee	0.17676899
2	0x3dfc3c7f	0.12316226
3	0xbcb3fc74	-0.021970965
4	0xbe104b22	-0.14091161
5	0xbd804435	-0.062630095
6	0x3df82b0c	0.121175855
7	0xbd6a7df0	-0.05724901
8	0x3e6611e6	0.22467765
9	0x3d608d6d	0.054822374
10	0xbda61eb0	-0.08111322
11	0x3d1b9c7f	0.037991043
12	0x3db5fa39	0.08885617
13	0xbd8309ae	-0.06398331
14	0xbe25f4c8	-0.16206658
15	0x3e9d56ec	0.3073038
16	0xbeba1422	-0.36343485
17	0xbe399e4b	-0.1812679
18	0x3e42db6e	0.19029018
19	0xbdda2ef8	-0.1065349
20	0x3cf14ffe	0.029457089
21	0x3b0fcdf0	0.0021942817
22	0xbc68d0ba	-0.014209921
23	0x3e2883e6	0.16456565
24	0x3d62cad8	0.055369228
25	0xbcfa7fa8	-0.03057845
26	0xbe931680	-0.28728104
27	0x3da299d7	0.07939499
28	0x3e62e983	0.2215939
29	0x3e527793	0.20553426
30	0x3afc4d9b	0.0019249202
31	0xbd921356	-0.07132594
32	0xbdbb300b	-0.09140023
33	0xbdc901e8	-0.09814817
34	0x3dee03f9	0.116218515
35	0x3e687b26	0.22703227
36	0xbd8e1024	-0.06936672
37	0xbd912c32	-0.07088508
38	0xbda152a3	-0.0787709
39	0x3e8a782e	0.27044815
40	0x3e2abc99	0.16673507
41	0xbd297ef2	-0.04138083
42	0xbd1ea328	-0.038729817
43	0x3e5af1c4	0.21381289
44	0xbcae93d6	-0.021310728
45	0xbd2e3435	-0.042530257
46	0xbd4afa6c	-0.049555227
47	0xbe31e683	-0.1737309
48	0x3e394738	0.18093574
49	0xbdff0096	-0.12451284
50	0x3e59bfd2	0.2126458
51	0xbd83c17e	-0.0643339
52	0xbe9aafb1	-0.30212167
53	0x3d06741c	0.032825574
54	0xbd162873	-0.03665967
55	0x3d1b9a22	0.03798879
56	0xbd6c5e12	-0.0577069
57	0x3e9d6df2	0.30747944
58	0xbd7b9ab6	-0.06142684
59	0x3ea032c1	0.31288722
60	0x3e42dfe8	0.19030726
61	0xbdac07bf	-0.08399915
62	0xbf1048ff	-0.56361383
63	0xbdda7c64	-0.10668257
64	0xbe852656	-0.2600581
65	0xbd670224	-0.056398526
66	0xbdba05c3	-0.0908313
67	0xbc61d23a	-0.013783032
68	0xbd3cde09	-0.046110187
69	0x3d2a5452	0.04158432
70	0xbd422b9d	-0.047404874
71	0x3de49148	0.11160523
72	0x3e509c2b	0.20372073
73	0x3e14fb0d	0.14548893
74	0xbd3a0fc7	-0.045425203
75	0xbdc4e6ca	-0.09614332
76	0x3dfd3ff3	0.12365713
77	0x3d4cccdb	0.050000053
78	0xbe1b1e42	-0.15148261
79	0x3b80b05f	0.003927275
80	0xbddb40ad	-0.10705695
81	0xbd7a555e	-0.06111657
82	0x3dd49d5c	0.103815764
83	0xbdf0c576	-0.11756413
84	0xbe91c678	-0.28471732
85	0x3c8e93ce	0.017404463
86	0xbcc1a598	-0.023638532
87	0x3e7027c4	0.2345267
88	0x3e0559b6	0.13022503
89	0x3e1102f1	0.14161278
90	0xbd2a6e26	-0.041608952
91	0x3daf386c	0.085556835
92	0x3d854013	0.06506362
93	0xbe502db0	-0.20329928
94	0xbf24f2c7	-0.6443295
95	0xbe5d4cf3	-0.21611385
96	0xbbb22144	-0.0054360945
97	0xbe5568d9	-0.20840777
98	0xbdbc77fd	-0.092025734
99	0x3ce84e55	0.028357664
100	0x3d1e34e5	0.038624663
101	0x3e0df6d3	0.13863687
102	0x3dcf71da	0.10129137
103	0x3c22a63e	0.009927331
104	0xbd944588	-0.072398245
105	0x3d82b68b	0.063824736
106	0x3e3f3169	0.18671192
107	0x3dc17b90	0.09447396
108	0x3dcd0403	0.10010531
109	0x3e489d89	0.19591345
110	0x3a6630de	0.00087810855
111	0xbca4856e	-0.020083155
112	0xbddf358b	-0.108988844
113	0x3db12b94	0.0865089
114	0xbe0726e1	-0.13198425
115	0xbcb15584	-0.021647222
116	0xbd46f9c0	-0.048578024
117	0x3cae9aa8	0.02131398
118	0xbda6ace7	-0.08138447
119	0x3e989048	0.29797578
120	0xbd19bf04	-0.037535682
121	0x3e4914e9	0.19636883
122	0xbe40572f	-0.18783258
123	0x3d729ef1	0.05923361
124	0x3c405bcc	0.011740636
125	0x3d08ead5	0.03342708
126	0x3e1b8a20	0.1518941
127	0xbe1e08d8	-0.15433061
128	0xbd8f38e0	-0.0699327
129	0xbe40a487	-0.18812762
130	0x3f0ac7f3	0.5421135
131	0x3e24d05b	0.16095106
132	0x3dd893b3	0.105750464
133	0x3ed0ac3a	0.40756398
134	0xbd532183	-0.05154563
135	0x3e4e291c	0.2013287
136	0xbd1506aa	-0.03638331
137	0x3e6e28a4	0.2325769
138	0xbc7ce8b8	-0.015436344
139	0x3e2abdbb	0.16673939
140	0xbdfdbe94	-0.123898655
141	0x3db53264	0.08847502
142	0xbed1beef	-0.40965983
143	0xbd94f97b	-0.07274147
144	0x3d85344e	0.06504117
145	0xbe0f75c4	-0.14009768
146	0x39a77dd7	0.0003194648
147	0x3e84ddd1	0.25950482
148	0xbe653485	-0.22383316
149	0x3d9d20cf	0.07672273
150	0xbe2f54fd	-0.17122264
151	0x3e0728aa	0.13199106
152	0xbc40f157	-0.01177629
153	0x3e0dc7f1	0.13845803
154	0x3dcef844	0.10105947
155	0x3e4aad09	0.1979257
156	0x3e4533b0	0.19257998
157	0xbc9546f8	-0.018222317
158	0x3d7f79a8	0.06237188
159	0xbd210a6d	-0.039316583
160	0x3d953ae6	0.072866246
161	0xbd40628c	-0.04696898
162	0xbdf417d8	-0.1191861
163	0xbdb45a76	-0.088063166
164	0x3caf43e1	0.021394672
165	0x3e61c16b	0.2204644
166	0x3e3f567f	0.1868534
167	0xbe94e469	-0.29080513
168	0xbd8defd8	-0.06930512
169	0xbd5aebb6	-0.053447448
170	0xbdbf7367	-0.09348183
171	0xbe4cdec1	-0.20006849
172	0xbd85b702	-0.065290466
173	0xbc8a59a9	-0.016888456
174	0xbc5e185a	-0.013555611
175	0x3e16316e	0.14667293
176	0x3d7cf0f4	0.06175323
177	0x3e8e2a80	0.277668
178	0xbca7027d	-0.020386929
179	0x3e60e6e7	0.21963082
180	0xbca1fd81	-0.0197742
181	0x3dfe2830	0.12410009
182	0x3d0ab17f	0.03386068
183	0x3d9c66e1	0.0763681
184	0xbc01a35e	-0.007912485
185	0xbba08dfd	-0.004899739
186	0xbd8e9479	-0.06961913
187	0x3ea12d3e	0.3147983
188	0xbdd7cc5a	-0.10537024
189	0x3e988d26	0.29795188
190	0xbdf4d8be	-0.11955403
191	0xbe41ea5e	-0.1893706
192	0xbdc310f5	-0.09524719
193	0x3ef6051f	0.48050782
194	0xbd9b1e14	-0.07574096
195	0x3dedc477	0.11609738
196	0x3e6f4840	0.23367405
197	0xbe511a51	-0.20420195
198	0xbee10820	-0.4395151
199	0x3e18d588	0.14925206
200	0xbde391b5	-0.11111776
201	0x3e897058	0.26843524
202	0xbd876238	-0.066105306
203	0x3c0ac48e	0.008469714
204	0x3e7205da	0.23635045
205	0x3e85519e	0.2603883
206	0xbe6c72df	-0.23090695
207	0x3d976d5a	0.07393904
208	0xbd36ef92	-0.044662066
209	0xbc21c2a5	-0.009873067
210	0xbe058af0	-0.13041282
211	0xbdf05cf5	-0.1173648
212	0x3e4d5b2d	0.20054312
213	0xbd990378	-0.07471365
214	0xbdb87ffc	-0.09008786
215	0x3e81f254	0.25380194
216	0x3d809cc2	0.06279899
217	0xbe9b0aab	-0.30281577
218	0xbe0d17de	-0.13778636
219	0x3de55f58	0.11199826
220	0xbd62c8c4	-0.055367246
221	0xbe08a16e	-0.1334283
222	0x3db2cd57	0.08730572
223	0x3e50f070	0.2040422
224	0x3e082020	0.13293505
225	0x3db3b867	0.08775406
226	0x3e16e1f6	0.14734635
227	0xb8c17e48	-9.226479e-05
228	0x3e8ac52a	0.2710355
229	0xbcfb0fa0	-0.030647099
230	0xbe26d186	-0.16290864
231	0x3e1aa5fe	0.15102383
232	0xbdd5b17e	-0.104342446
233	0x3e6c6c52	0.23088196
234	0xbdbaa414	-0.09113327
235	0xbea02679	-0.31279352
236	0xbc4fdea5	-0.01268736
237	0xbe89909a	-0.26868135
238	0x3dbefd82	0.093256965
239	0xbe1c3af0	-0.15256858
240	0x3f0a70b2	0.5407821
241	0xbe33cd78	-0.17558849
242	0x3d962bb3	0.07332554
243	0x3e2a9c39	0.16661157
244	0xbdf133de	-0.11777471
245	0xbe01ccb6	-0.12675747
246	0x3dad376c	0.084578365
247	0xbdd4f671	-0.103985675
248	0xbe9b744a	-0.3036216
249	0xbe27912f	-0.16363977
250	0xbd0ad449	-0.033893857
251	0xbe45db45	-0.19321926
252	0x3d95de89	0.07317836
253	0x3dab5967	0.083666615
254	0xbdeb05e9	-0.11475737
255	0xbd8559f8	-0.06511301

network_body._body_endoder.seq_layers.2.bias f4 [128]
0	0xbcdb42a0	-0.026765168
1	0xbd2e8a90	-0.042612612
2	0x3dcb389a	0.09922905
3	0xbd2a0100	-0.04150486
4	0x3cffe30a	0.03123619
5	0x3d077d9b	0.03307877
6	0xbd2d096e	-0.04224532
7	0xbda55e65	-0.08074645
8	0xbc7b223d	-0.015327987
9	0x3ce9055f	0.028444944
10	0xbc52f016	-0.012874624
11	0xbbed152f	-0.0072351913
12	0x3d88474f	0.06654226
13	0x3da44f02	0.08022882
14	0x3e2ce968	0.16885912
15	0x3e00cc2c	0.12577885
16	0x3bdd4fc5	0.006753894
17	0x3d96a192	0.07355036
18	0xbd39cc8a	-0.04536108
19	0x3d8dcadb	0.06923457
20	0x3b1f7802	0.0024333005
21	0xbd988eb5	-0.07449094
22	0x3e260495	0.16212685
23	0x3d80d271	0.062901385
24	0xbd8a3b45	-0.06749586
25	0x3dc6a87b	0.09700104
26	0xbd2a8b10	-0.041636527
27	0xbdb5c5ca	-0.08875616
28	0xbc6899b8	-0.014196806
29	0x3d4ca21b	0.049959283
30	0xbcfa2afb	-0.030538073
31	0xbd76e0b4	-0.060272887
32	0xbddeb686	-0.10874657
33	0xbe5b554b	-0.21419255
34	0xbd40328b	-0.0469232
35	0x3d5deff2	0.054183908
36	0x3d7022a7	0.058626797
37	0x3dd38c5c	0.10329506
38	0x3d9d8024	0.076904565
39	0x3d980154	0.07422128
40	0xb898cae0	-7.285713e-05
41	0x3c252fc6	0.010082191
42	0x3d79598e	0.06087642
43	0xbd2443bb	-0.040103655
44	0xbaacaf8b	-0.0013174874
45	0xbdd7fc19	-0.10546131
46	0xbbd27bbe	-0.0064234426
47	0xbaced377	-0.0015779574
48	0x3df50d0c	0.11965379
49	0xbccb144b	-0.02478995
50	0x3daad4ea	0.083413914
51	0x3dae7576	0.08518498
52	0x3dda16fb	0.106489144
53	0xba7b2fdb	-0.0009582021
54	0xbcff2a5c	-0.031148128
55	0x3d1a6d92	0.03770215
56	0xbdc500de	-0.09619306
57	0xbd191ee9	-0.037382994
58	0xbe0b9667	-0.13631593
59	0x3d715fce	0.058929257
60	0x3d440553	0.04785664
61	0xbe124730	-0.14284968
62	0x3c902519	0.017595815
63	0xbc7cd7f4	-0.015432347
64	0xbe06ec3d	-0.13176055
65	0x3b049a12	0.0020233435
66	0xbc9eac33	-0.01936922
67	0xbe64c3f0	-0.22340369
68	0xbd800fff	-0.06253051
69	0x3d384927	0.04499164
70	0x3de081b0	0.10962236
71	0xbd7d683a	-0.061866976
72	0xbc951e75	-0.018203
73	0x3cb79339	0.022409068
74	0xbd1d18c8	-0.03835371
75	0x3e05dca6	0.13072452
76	0x3d9100cb	0.07080229
77	0xbce172ea	-0.027520616
78	0xbdb16d9a	-0.08663483
79	0x3c8346d5	0.016024986
80	0x3d680562	0.05664576
81	0xbc194802	-0.009355547
82	0x3e1cce43	0.15313058
83	0x3cf28257	0.029603167
84	0xbd40b08e	-0.047043376
85	0xbd51a352	-0.051181145
86	0x3b89028d	0.0041812123
87	0xbcb8a659	-0.022540258
88	0x3da534c8	0.08066708
89	0x3e5cd7c4	0.21566683
90	0x3d85e498	0.065377414
91	0xbd5cf408	-0.053943664
92	0xbdb90045	-0.090332545
93	0x3dc1a79a	0.094557956
94	0xbd931c7c	-0.07183167
95	0x3d0f83f1	0.03503794
96	0x3da52861	0.08064342
97	0x3da9f6be	0.082990155
98	0xbd95f4ec	-0.07322106
99	0x3d1ab8ad	0.037773777
100	0x3de5bb97	0.112174205
101	0x3b915131	0.0044347276
102	0x3d9672af	0.07346093
103	0x3da44d8e	0.08022605
104	0x3d8d3cb1	0.068963416
105	0xbd8bcc35	-0.06826059
106	0x3b365270	0.0027820133
107	0x3d13f205	0.03611948
108	0x3c3e6ad8	0.011622153
109	0x3d753339	0.059863303
110	0xbdc85edd	-0.09783719
111	0x3ccc6bbb	0.024953714
112	0x3cb6a692	0.022296224
113	0xbd841f1b	-0.064512454
114	0xbcfbc2c2	-0.030732516
115	0xbcccfd76	-0.025023203
116	0x3d015ee9	0.031584654
117	0x3dec96d8	0.11552209
118	0xbc0b6a57	-0.00850924
119	0xbd34c69b	-0.044134717
120	0x3d87c86b	0.066300236
121	0x3db881d6	0.09009139
122	0xbd6c2db2	-0.057660766
123	0x3d5f176d	0.0544657
124	0x3c5c5889	0.013448843
125	0x3d7ce9db	0.06174646
126	0xbba739b3	-0.005103314
127	0x3d95bf8c	0.07311925

network_body._body_endoder.seq_layers.2.weight f4 [128, 128]
0	0xbe69d99e	-0.2283692
1	0xbe92b2e0	-0.28652096
2	0x3dd771ff	0.1051979
3	0x3e3dc805	0.18533333
4	0x3e701240	0.23444462
5	0x3e9c2271	0.30495027
6	0xbe0b3951	-0.13596083
7	0x3c7c6513	0.015404957
8	0xbe9f3a34	-0.31099093
9	0xbc88224d	-0.016617918
10	0xbd930b79	-0.071799226
11	0x3e947697	0.28996727
12	0x3e18c003	0.14916997
13	0x3d9504a2	0.07276274
14	0x3e7cc835	0.24685748
15	0x3da58cb8	0.080834806
16	0x3ed22755	0.41045633
17	0x3e37fc57	0.17967354
18	0xbda836db	-0.08213588
19	0xbe156ebb	-0.14593022
20	0xbcf52cb1	-0.029928537
21	0xbdc54051	-0.09631408
22	0xbe249e51	-0.16076018
23	0xbe8d4055	-0.27588144
24	0x3d6b4ae5	0.057444472
25	0xbc7be19f	-0.0153736165
26	0xbcbbdfd8	-0.022933885
27	0xbd95cdc3	-0.073146366
28	0x3e0d699f	0.13809822
29	0x3e70e705	0.23525627
30	0x3e3b7e97	0.18310009
31	0x3e98c652	0.29838806
32	0xbeba7082	-0.36413962
33	0xbe1cf745	-0.15328701
34	0xbdbe93b7	-0.09305518
35	0x3dc4a4f2	0.09601773
36	0xbdce8e7d	-0.10085771
37	0x3c1e9b22	0.009680541
38	0xbe2c487d	-0.16824527
39	0x3d782409	0.06058124
40	0x3db8c228	0.09021407
41	0x3dd9efca	0.10641439
42	0x3c189605	0.009313111
43	0xbe4243a4	-0.18971115
44	0x3e39f6ef	0.18160604
45	0xbe3d4064	-0.18481594
46	0xbd83bae6	-0.064321324
47	0x3e309f7e	0.17248341
48	0xbe82ea3e	-0.25569338
49	0x3e00cd1e	0.12578246
50	0xbdc36180	-0.09540081
51	0xbe70ec62	-0.23527673
52	0xbdba2d48	-0.09090668
53	0x3e596f40	0.21233845
54	0x3db882f2	0.09009351
55	0xbb95981b	-0.0045652515
56	0xbe4abdf0	-0.19799018
57	0x3ddddb72	0.108328715
58	0x3d872574	0.065989405
59	0x3e4bab4a	0.1988956
60	0x3de29622	0.11063792
61	0xbdade2a7	-0.08490496
62	0x3eecf101	0.4627762
63	0x3ec9bc5d	0.39401522
64	0xbdaec83a	-0.08534284
65	0x3e08d897	0.13363872
66	0xbc5dc90d	-0.013536704
67	0xbe0f7a7d	-0.1401157
68	0x3d673672	0.056448407
69	0x3eb32158	0.34986377
70	0xbe59437f	-0.21217154
71	0xbe3891b3	-0.1802433
72	0x3e51ad27	0.20476209
73	0x3d915c81	0.07097722
74	0xbe2b963c	-0.16756529
75	0x3ddeb006	0.108734176
76	0x3ea0d4a8	0.31412244
77	0x3daa0f67	0.08303719
78	0x3d349d06	0.04409506
79	0x3de431a4	0.11142281
80	0xbe9af98b	-0.3026851
81	0xbe4a22ad	-0.1973979
82	0xbe341d58	-0.17589319
83	0x3e383315	0.17988236
84	0x3bfc8c77	0.0077071744
85	0xbe7ab46c	-0.24482888
86	0xbbd56505	-0.0065122866
87	0xbcdf7170	-0.02727577
88	0x3cc8bfe0	0.024505556
89	0xbdc24d98	-0.09487456
90	0xbe3a71da	-0.18207493
91	0x3e99f95d	0.30073062
92	0x3de1c57d	0.11023996
93	0xbe676c20	-0.2259984
94	0xbe017c7a	-0.1264514
95	0x3dcb4d94	0.09926906
96	0xbdea182e	-0.11430393
97	0x3e475b67	0.19468461
98	0x3e75176b	0.23934714
99	0x3e0c63ed	0.13709994
100	0xbe126e80	-0.14299965
101	0x3cbc3a04	0.022976883
102	0x3e5024d8	0.20326555
103	0xbcea38c3	-0.02859152
104	0x3d92f1b0	0.071750045
105	0x3d92000a	0.07128914
106	0xbe4a9e0a	-0.1978685
107	0xbd24a2ce	-0.040194325
108	0x3e106578	0.14101207
109	0x3e237fd2	0.15966728
110	0xbd48b268	-0.048998266
111	0xbdda4ef2	-0.10659589
112	0xbe424a0b	-0.18973558
113	0xbc969db1	-0.01838574
114	0x3e8ef5df	0.2792196
115	0x3cb160d5	0.021652618
116	0x3da66749	0.08125169
117	0xbe8ebee1	-0.27880004
118	0xbe77fc33	-0.242173
119	0xbd6890e7	-0.056778815
120	0x3e3ee5d0	0.18642354
121	0x3d7d7294	0.06187685
122	0xbc5901a8	-0.013245024
123	0x3eacfb2a	0.33785373
124	0x3ccf6aac	0.02531942
125	0xbc7e1e18	-0.015510105
126	0x3edb4569	0.42826393
127	0xbe9cabff	-0.30599973
128	0x3e0a4858	0.1350416
129	0xbcb8a46b	-0.022539338
130	0xbe58ea13	-0.21183042
131	0x398682fe	0.00025656068
132	0xbdffe5e3	-0.12495019
133	0xbeb380f3	-0.35059318
134	0xbe0a4a5e	-0.13504931
135	0x3dd04e3b	0.10171171
136	0x3deb1b29	0.1147979
137	0xbc848687	-0.016177429
138	0x3eb7273a	0.35772115
139	0x3c4de583	0.012566927
140	0x3d703e79	0.05865333
141	0x3eabd550	0.33561182
142	0xbca72c09	-0.02040674
143	0xbdfb0d0c	-0.12258348
144	0x3df3cb0b	0.11903962
145	0x3dc713df	0.09720587
146	0x3e6fc338	0.23414314
147	0xbda95192	-0.082675114
148	0x3d752d82	0.059857853
149	0xbca71790	-0.020396978
150	0x3dba825e	0.09106897
151	0xbdacd2c7	-0.0843864
152	0x3e86773d	0.26262847
153	0xbd6a3bf9	-0.0571861
154	0x3dab683e	0.08369492
155	0xbe16828b	-0.14698236
156	0xbd870393	-0.065924786
157	0xbd0b9f13	-0.034087252
158	0xbddbb907	-0.107286505
159	0xbb7221f2	-0.0036946503
160	0x3cc3caac	0.023900352
161	0x3dea2077	0.114319734
162	0x3d847156	0.064669296
163	0x3e03d187	0.12872897
164	0xbd97b45c	-0.07407448
165	0x3dae3095	0.0850536
166	0xbe1d650f	-0.15370582
167	0x3d941a9f	0.0723164
168	0xbe940ca9	-0.2891591
169	0xbd9053ee	-0.07047258
170	0x3da75a48	0.08171517
171	0x3ed4774a	0.4149726
172	0x3d39b28c	0.04533629
173	0xbdb3e85e	-0.08784555
174	0x3e88dba4	0.26730072
175	0xbe0756c6	-0.13216695
176	0xbc9a6c4a	-0.018850464
177	0x3e190d43	0.14946465
178	0x3d161ddd	0.036649574
179	0xbd5c359f	-0.053762075
180	0x3df8003f	0.12109422
181	0x3cff0fa6	0.031135391
182	0xbdaece0a	-0.085353926
183	0xbd9e7bbb	-0.077384435
184	0xbccffe2f	-0.025389759
185	0xbe0ff57f	-0.14058493
186	0xbe2175ad	-0.15767546
187	0x3daa0d25	0.08303288
188	0x3da61352	0.08109154
189	0x3e5c7178	0.2152766
190	0xbe435459	-0.19075145
191	0xbea69237	-0.32533428
192	0x3df277fd	0.11839292
193	0x3e0d2c0f	0.13786338
194	0xbd9e17f8	-0.077194154
195	0x3de93a87	0.11388116
196	0x3e0b3286	0.13593492
197	0xbba9aeea	-0.005178322
198	0xbdf98d41	-0.12185145
199	0xbdb9c4fd	-0.09070776
200	0x3e04cbb1	0.12968327
201	0xbd9f9a9d	-0.07793162
202	0xbdafdcf6	-0.08587067
203	0xbd27fc5e	-0.04101216
204	0xbe9192a6	-0.28432196
205	0x3da5b536	0.08091204
206	0xbe982403	-0.29714975
207	0xbe14595c	-0.14487213
208	0x3d951bf7	0.072807245
209	0x3d238375	0.03992029
210	0xbdbc1488	-0.091836035
211	0xbd178e45	-0.037000913
212	0x3e6da1bf	0.23206232
213	0xbd1519bc	-0.036401495
214	0xbdaf0279	-0.085453935
215	0x3dfa70c9	0.12228543
216	0xbe664384	-0.22486693
217	0x3dd8a0ca	0.10577543
218	0x3dbbd955	0.09172312
219	0xbd9eb22b	-0.077488266
220	0xbbc0ca24	-0.005883472
221	0x3d532d0f	0.051556643
222	0x3d7f06eb	0.062262457
223	0x3df3750c	0.11887559
224	0xbca815a0	-0.020518124
225	0x3daf74d3	0.08567204
226	0x3c2bbaa8	0.010481514
227	0x3da1ae3f	0.07894563
228	0xbeaf1f03	-0.34203348
229	0xbbb37d30	-0.00547757
230	0x3cad8d52	0.02118555
231	0x3e2aa284	0.16663557
232	0x3e22829e	0.15870139
233	0xbe1fe4c6	-0.15614614
234	0xbe2c3deb	-0.16820495
235	0xbeb56d5c	-0.35434997
236	0x3ea9a13a	0.3313082
237	0xbca77a08	-0.020443931
238	0xbcfd9be4	-0.030958124
239	0xbe525324	-0.20539528
240	0xbe6742b1	-0.22584035
241	0x3dd1c1a1	0.1024201
242	0xbdca91ff	-0.09891128
243	0x3cff14e9	0.0311379
244	0x3cd2c9ee	0.025731053
245	0x3d3ac57c	0.045598492
246	0x3e30736c	0.1723153
247	0xbd928321	-0.07153917
248	0x3c0c262e	0.008554025
249	0x3e3c61ca	0.18396679
250	0x3ce3b240	0.027794957
251	0x3dbc0371	0.09180344
252	0xbe541a1f	-0.2071309
253	0xbe321b6f	-0.17393278
254	0x3cc2fc98	0.023802087
255	0x3d102aa2	0.035196908

network_body.observation_encoder.processors.0.normalizer.running_mean f4 [25]
0	0x3f7e3fd0	0.9931612
1	0x3706373b	7.999882e-06
2	0x00000000	0.0
3	0x3532f45f	6.6665774e-07
4	0x3dea1cbf	0.11431264
5	0x3f7a4f93	0.9777767
6	0x38a0c74c	7.6665165e-05
7	0x00000000	0.0
8	0x37ad5cb9	2.0666384e-05
9	0x3e088e43	0.13335519
10	0x3f77d077	0.9680247
11	0x3832f492	4.266628e-05
12	0x00000000	0.0
13	0x3a0b75a8	0.00053199613
14	0x3e15a25d	0.14612718
15	0x3f516934	0.8180115
16	0x3b33df5c	0.0027446365
17	0x00000000	0.0
18	0x3c0e6b56	0.008692583
19	0x3e4664ea	0.19374433
20	0x3f4b2619	0.7935501
21	0x3aa7db95	0.0012806529
22	0x00000000	0.0
23	0x3d0d2b12	0.034464903
24	0x3e79fc86	0.24412736

network_body.observation_encoder.processors.1.normalizer.running_mean f4 [25]
0	0x3e8f5737	0.27996227
1	0x3f155b06	0.58342016
2	0x00000000	0.0
3	0x37a22d97	1.9333134e-05
4	0x3d659e07	0.05605891
5	0x3f0af112	0.54274094
6	0x3d1a2552	0.037633248
7	0x00000000	0.0
8	0x3cf3cdd4	0.029761232
9	0x3daadf90	0.083434224
10	0x3ecf0360	0.40432262
11	0x3e176cb4	0.1478756
12	0x00000000	0.0
13	0x3a0f4da3	0.0005466586
14	0x3d405297	0.046953764
15	0x3f2a03c1	0.6641198
16	0x3c1f5c48	0.009726591
17	0x00000000	0.0
18	0x3d839061	0.064240225
19	0x3dec9ead	0.115537025
20	0x3f270b49	0.65251595
21	0x3d05e927	0.032693055
22	0x00000000	0.0
23	0x3c16f051	0.009212569
24	0x3d60b055	0.054855663

network_body.observation_encoder.processors.2.normalizer.running_mean f4 [18]
0	0xc105388f	-8.326308
1	0xbf6f58c7	-0.9349484
2	0x41c41326	24.50935
3	0xbfb357a6	-1.4011123
4	0x3eae1434	0.3399979
5	0xbfd8fd08	-1.6952219
6	0xba9215d0	-0.0011145417
7	0xbda43ab7	-0.080190115
8	0xba64ff53	-0.0008735556
9	0x3f7b6a6b	0.98209256
10	0x440ef671	571.85065
11	0xc0d5ad2e	-6.67739
12	0xbe1cac85	-0.15300186
13	0xbe21d982	-0.15805629
14	0x3f56d335	0.83916026
15	0xbeaaa9be	-0.33332628
16	0x00000000	0.0
17	0x3f2aab17	0.6666731
