Assets/Brains/run28/CarPractice_run28-2.onnx (onnx, 108914 bytes, 15 tensors)

85 f4 [25]
00000000: a075 4d3e c758 c23c 0c0a 563a 5bfa 7a3b
00000010: ed85 923d d0f1 963e 0206 683c 0c0a 563a
00000020: b19d 0a3d 9d74 b13d 7cbd 6b3e 0234 3c3c
00000030: 0c0a 563a 213e 793d 2889 cb3d ad76 ed3e
00000040: e683 5f3d 0c0a 563a c6fa 353e 3f91 2b3e
00000050: ab74 ed3e 77fc c43c 0c0a 563a 4b89 2e3e
00000060: 7d72 243e
0.20064402 0.023723973 0.0008164949 0.0038296196 0.071544506 0.29481363 0.014161589 0.0008164949
0.033841792 0.0866482 0.23021501 0.011487009 0.0008164949 0.060850266 0.0993827 0.46379605
0.054569148 0.0008164949 0.17771444 0.16754626 0.46378073 0.024046166 0.0008164949 0.1704456
0.16059299

88 f4 [25]
00000000: 2033 ee3e f36e df3e 0c0a 563a 145e 0c3d
00000010: a126 483d 4b0b df3e 52a4 ad3e 0c0a 563a
00000020: 0775 dd3d 731e db3d 23b0 e43e 5514 ac3e
00000030: 0c0a 563a d6c5 0a3e 64d3 073e bb4f fe3e
00000040: f6b0 483e 0c0a 563a e53b 533e 188d 4a3e
00000050: 27fd ff3e 4706 593e 0c0a 563a 1a46 513e
00000060: 24b2 493e
0.4652338 0.43639335 0.0008164949 0.034269407 0.048864964 0.43563303 0.3391443 0.0008164949
0.10813337 0.10699167 0.44665632 0.33609262 0.0008164949 0.13552031 0.13264233 0.49670205
0.19598755 0.0008164949 0.20628317 0.19780385 0.49997827 0.21193801 0.0008164949 0.20436898
0.19696862

91 f4 [18]
00000000: 15e9 c241 daf3 093f 4647 8141 f17e 8e40
00000010: a565 e03c 069c cd40 124b 1c3c 031f 873e
00000020: 8d80 353c 09dd 8a3d 6cd2 e543 6423 e341
00000030: 7ccf 003f 9a51 283e 2f97 943e 2a65 4b3f
00000040: 0c0a 563a 0161 f53e
24.36381 0.5388771 16.159801 4.452996 0.027392218 6.425296 0.0095393825 0.26390848
0.011078012 0.0678044 459.64392 28.39228 0.50316596 0.16437379 0.29021594 0.7945124
0.0008164949 0.4792557

action_model._discrete_distribution.branches.0.bias f4 [3]
00000000: f95d 283e 0541 8fbd 0a62 96bd
0.16442098 -0.06994823 -0.07342918

action_model._discrete_distribution.branches.0.weight f4 [3, 128]
00000000: 9087 1c3b 3d9f 1c3c b70a 44be 3bde 523e
00000010: a427 523e a4f1 87bd d8d6 5cbd 5093 d03d
00000020: 5872 c3bd 0a84 1abc 37b8 5a3e 701f a83d
00000030: e3e1 91bd ed94 f6bc f47f 183d 7769 70bc
00000040: 984b 673e 1b52 f03d 5258 373e 84d6 6bbd
00000050: 8430 af3d 45f9 e03d e442 273e 7aa8 0d3e
00000060: 21ec 9ebc 641c 053e 3dd6 25be 6104 96bd
00000070: 9102 353e 22a6 2abd ab71 1a3e 384d 9b3d
00000080: cc61 fc3d 3c82 f63d e3f4 ba3c a408 0f3e
00000090: 714c 1bbe 096f 523c 54fe 593e 4003 463c
000000a0: adf8 983c cb50 a8bd d62c a73d c7d5 443d
000000b0: 155b a6bd b3c9 0d3e ab69 6a3d dc95 293e
000000c0: 2852 043e b639 0abe 465f 183d 010e b0bc
000000d0: fa36 c53d 709b fa3d c40b acbd ede1 5b3e
000000e0: 2db9 a0bd c138 0a3e c820 903e 25f8 9cbc
000000f0: a77f 48be aa2b d13d 4176 243e 2c0a 1ebe
00000100: 62d3 55bd 8904 9dbd c1a6 8abd 7479 403e
00000110: 8439 8d3d 7e7f 013e 94e2 d7bd 9f58 013d
00000120: 6a03 233e 72d2 813c 5235 213e c153 75be
00000130: be64 743d 6717 45be 3c15 233e a4f8 9bbd
00000140: 7b52 77bd 97a8 52bd 46af 2b3e 96e6 27bd
00000150: d429 4c3c 4401 923e b38e 023d 88f7 61bd
00000160: 4817 e63c 71f8 c33d f774 5b3d 309e 02be
00000170: 38ea ea3d 93e3 4e3e ce4a 85bd 4fda 813d
00000180: 425f 143e 9ab1 ac3d ed67 2abe 789e babc
00000190: 8330 1abe 763a 04bd 6e0f 5a3e 8752 363c
000001a0: 2907 11bd 7881 063d 87fc 023c 3c25 7b3d
000001b0: 632c dbbd 70a1 103e 1bab cd3d 20dc 6639
000001c0: d8e1 6b3e 6187 c5bd 37b9 443e 5694 e23d
000001d0: 2d1c e73d 3109 2b3e ea6e 913d 7372 d4bd
000001e0: 0ba9 273b 641b 4e3d 4427 02bd d66c 81bb
000001f0: 3817 6bbd 77ae c7bd 6401 62bc 5f5c 07bd
00000200: 4e7e 0dbe 5f7c 0d3d 28b9 5d3e 7015 fabc
00000210: 66d6 f8bd 3a08 7e3c fea0 5fbc d26e e73d
00000220: 5559 ca3d 5e62 06be 185d a0be 0bf5 1fbe
00000230: aa2a 1f3b 127a 523d 1d89 a73d 7c1c 82ba
00000240: a8fe 2ebd 4c8b 0dbd e8cf 73be 947e d73d
00000250: f378 dd3c 2afb a2be 3117 20be a028 84bd
00000260: 8ad1 5abd cf18 9abd d681 883d 5c40 5dbe
00000270: 649a a9bb 0eb6 4abe 1e34 0cbe c092 61be
00000280: e636 b13c 26e8 8c3a e9d4 063e 84af 9abd
00000290: 71f0 393e 8714 d83d 2a0a 4fbe abc8 fa3d
000002a0: 961b 463e 7b0d 99bd c626 b4bc a32d f1bd
000002b0: b264 7ebc 50f6 233c d5c7 3abe 21c8 8cbe
000002c0: 66fe 86be 9c84 0fbe 547c 43bd fa61 c63d
000002d0: ae88 19bd 889f 8abe 2de2 483e 4f78 45be
000002e0: a614 eb3b abb3 fc3b ecfb 5fbe 6d33 e43d
000002f0: 4976 7b3e 6aa3 193e df37 a5bd 44ab c7bd
00000300: 38d5 5cbd 3dbb ecbd b068 0f3d 45dc 653c
00000310: c921 6ebd afc5 eebd 057d 2fbd b4b9 523e
00000320: 12a7 863c 3b8c ecbc bf1e 05be 2409 023b
00000330: c6a8 0dbe b864 363e 6977 5c3d 0f6f 743d
00000340: f7a1 ab3d 2516 0c3d 3393 b1bd 6c2f 5cbe
00000350: d6ec 2a3c 6824 f4bb 9ab9 a73c 2051 59bc
00000360: 3c80 113e 0ad2 803d 5148 d9bd 9f3d f23d
00000370: 973b 083d cf8e 06be 7d4b 21bd beb2 d63d
00000380: 0f38 a8bc 1914 fabd 4941 073e 399b 5b3d
00000390: e86d 11bd 120c 8e3d 8bd8 52bd 06fe f03d
000003a0: 141c 243e 79aa 2dbe 1ec4 b53d 9942 9ebd
000003b0: b47b 21be c043 e43c a188 66be b365 c13c
000003c0: e80d afbd 3888 013c 934a 60bd c91e 573d
000003d0: f8ff 9f3d eded a1be 485b b8bd 01d5 413e
000003e0: 6ba9 d83c ad44 df3d a6b0 f73c 02d3 b5bb
000003f0: ca7c abbd 9eb2 d03d e75a d03b 0346 993d
0.0023884512 0.00955945 -0.19144712 0.20592587 0.20522934 -0.06637886 -0.05391583 0.10184348
-0.09543294 -0.009430895 0.21359335 0.08209121 -0.071231626 -0.03010031 0.0372314 -0.014673582
0.2258743 0.117344104 0.17904785 -0.057577625 0.085541755 0.109850444 0.1633411 0.138338
-0.019399704 0.12999111 -0.16195007 -0.07325054 0.1767676 -0.041662343 0.15082423 0.07583088
0.12323341 0.12036559 0.02282185 0.1396814 -0.15165879 0.012843856 0.21288425 0.012085736
0.018673265 -0.08218535 0.08162849 0.048055436 -0.08122841 0.13846473 0.05722968 0.16561073
0.12921965 -0.13498577 0.037200235 -0.021491053 0.096296266 0.122366786 -0.084006816 0.21472903
-0.078478195 0.13498212 0.2815001 -0.019161293 -0.19579946 0.102134064 0.16060735 -0.15433568
-0.052203543 -0.07666881 -0.06770087 0.1879633 0.06895736 0.1264629 -0.10541263 0.031578656
0.15919271 0.015847418 0.15742996 -0.23957731 0.059666388 -0.19247209 0.15926069 -0.07615784
-0.060381394 -0.05143031 0.1676608 -0.04099139 0.0124611445 0.2851659 0.03187437 -0.055167705
0.028087273 0.09568871 0.053578343 -0.12755656 0.11470455 0.20204 -0.065084085 0.06340467
0.14489463 0.08432312 -0.16641207 -0.022780642 -0.15057568 -0.032282315 0.21294948 0.0111280745
-0.03540722 0.032838315 0.0079947775 0.061314806 -0.107018255 0.14124084 0.100424014 0.00022016512
0.23035371 -0.09644962 0.19211279 0.11063449 0.11284671 0.16702725 0.07101233 -0.10373392
0.0025582935 0.05031909 -0.031775728 -0.003949742 -0.05739519 -0.097500734 -0.013794277 -0.033047076
-0.13817713 0.034542438 0.21652663 -0.0305278 -0.12150268 0.015504891 -0.013649223 0.11300434
0.0988032 -0.13123462 -0.31321025 -0.1562082 0.0024286904 0.051385947 0.08180449 -0.0009926702
-0.042723328 -0.034556672 -0.23809779 0.1052219 0.027035212 -0.31832248 -0.15633847 -0.06453061
-0.05342249 -0.07524263 0.06665389 -0.21606582 -0.0051758755 -0.19796011 -0.13691756 -0.22028637
0.021632623 0.0010750338 0.13167156 -0.07553008 0.18158127 0.1055079 -0.20218721 0.12245306
0.1934646 -0.07473274 -0.021991145 -0.11776283 -0.015526937 0.010007456 -0.18240292 -0.27496436
-0.26365966 -0.1401543 -0.04772599 0.09686656 -0.037483864 -0.27074838 0.19617529 -0.19284175
0.0071740923 0.007711848 -0.21873444 0.11142621 0.24556841 0.15003744 -0.08067297 -0.09749463
-0.05391428 -0.1155915 0.035011947 0.014029567 -0.05813769 -0.11658799 -0.042843837 0.20578653
0.016437087 -0.02887546 -0.1300001 0.0019841874 -0.13833913 0.17811859 0.053824816 0.059676226
0.08380502 0.034200806 -0.08670654 -0.21502465 0.010432443 -0.007450629 0.020474244 -0.013263971
0.14209074 0.06290062 -0.106094964 0.118281595 0.033259954 -0.13140415 -0.03937863 0.10483311
-0.020534543 -0.122108646 0.13208498 0.05361483 -0.035505205 0.06935896 -0.051476043 0.11767201
0.16026336 -0.16959561 0.08875297 -0.07727546 -0.15769845 0.027864337 -0.22513057 0.023608064
-0.08547574 0.007906012 -0.05475862 0.052519593 0.07812494 -0.31626835 -0.090017855 0.18928911
0.026447972 0.10901771 0.0302356 -0.0055488357 -0.08373411 0.101903185 0.0063584927 0.07484057

action_model._discrete_distribution.branches.1.bias f4 [3]
00000000: 925d 4e3c 7f12 6b3d d162 13bd
0.012595551 0.057390686 -0.03598291

action_model._discrete_distribution.branches.1.weight f4 [3, 128]
00000000: a9ed dbbe 8b7e ed3d 7c0b e0bd 6014 e33d
00000010: f0e5 973d e276 83bc a25e 213e 6684 823d
00000020: 7395 59be 4e52 0ebe cacc 3b3e a112 fdbd
00000030: 536b 97bd 84b5 183e 0749 053e 1da2 033e
00000040: 2a86 a83c f67b 913e 04e8 c03c 2756 d6bd
00000050: ef57 313e 9954 a33c efc3 0abd fd18 4abe
00000060: 2505 873e 0e68 bb3d f383 1fbd b8dd 4c3d
00000070: bfb3 393d 0400 20bd b610 a4be b5ed 9b3e
00000080: 5c25 4d3d ff43 08be 145e 14be 6a01 453e
00000090: 45b0 113e 1f46 97bc 1552 823d cab0 0e3e
000000a0: 7c3d 4abd b9fb 92be 56fd 3cbe c6ce 7bbe
000000b0: 5eaa d9bd 0fcc 07be 0c01 983c f0a5 523d
000000c0: 79e0 fdbd 6aa5 3ebd 54a6 393e 9b8b e7bd
000000d0: 2451 113e d2e2 b23d 72e9 873d 3a31 3fbc
000000e0: 4b8d 8a3d 9478 d33d 821e 663d 43bc 7bbc
000000f0: 53f5 9ebd 5f78 3a3e 6d53 e7bd 33ea 5fbd
00000100: 9468 b53d 2318 0fbe 6cf1 8a3d 6314 72ba
00000110: ea3e 003e 7f26 853d e1d9 f8bb efca 5f3d
00000120: 7f1a 2e3d 68e3 5dbe b79b 4abb 58e4 343d
00000130: 0a87 9ebe a758 8d3c 40e8 053e 7933 3f3e
00000140: 591f 843e bd4d f9be a3dc 46be adf3 a7bd
00000150: 9005 7f3c 8cb4 a73d 9b77 0dbe 9ed5 953d
00000160: 4ecd 8ebd 87dc 7a3d 4c7e d4bc 41e0 813d
00000170: a8d6 10bd a32f f43d 7d0a 573e 04e0 b2bd
00000180: 7854 793d 3119 5f3e a969 113e 53e8 5d3e
00000190: a13d cdbd 73ab e8be ff97 3d3d 98eb 393d
000001a0: e92c 5fbe a699 2c3e e928 55bc 5af2 f73d
000001b0: e26b 63be 169e 23be 092b 673e 7116 6dbe
000001c0: adbd 8f3d 90ff 0f3e 4c5c 293d accc 0e3c
000001d0: b0ce 393e dc33 2c3e af6b 37bb 24c2 77be
000001e0: be32 d8bc 0160 82be 6db0 d9be ee34 91be
000001f0: ab00 8abe 9862 8cbe dccc 81bc 7a58 58bd
00000200: d127 3e3e 2ee0 b9be dcd6 9fb9 ba39 8ebe
00000210: 5717 09bd 1fdf 20bd 87a7 b7bb 85bc 30bd
00000220: f6ae 533e 47cf f5bb 5047 87be 9046 183e
00000230: dbbb 093b 79e6 87bd e9b5 2abe 4f9b 813c
00000240: 831f 02be 83f8 92be 70c2 b0bd 3481 883e
00000250: 8d12 abbe f0cf b73c 607a b53d 82ae 33bc
00000260: c412 953a af26 12bd 7e34 383d b2da 303d
00000270: ab31 8b3c 4956 ac3b 8a8b 553e 0c1c 81be
00000280: f7b5 083e 50cd 11be 1fc2 a33b d14c 1ebd
00000290: 5ae8 17be 2dbf c23d a0fe 0abe 1a1f 85be
000002a0: 979f 52be 04c3 ac3d e31c b23e 526d 403e
000002b0: b224 2a3c 4744 b33d 9677 e5bd 86ca c4bd
000002c0: 3f75 6c3e ba8b 1b3e 8cbf 23be 898e 18be
000002d0: 600f 213c d287 cd3d ab36 57bd aeb2 6d3b
000002e0: 42f1 86be 8506 ecbc 31e8 1ebe a5f5 1d3d
000002f0: 04a2 1dbe 3144 22be 464a 793e 6aca 13bd
00000300: 5d4b 2fbe 52c9 4a3d 5499 2ebe 7d13 0a3e
00000310: 2e0e d0bd c127 b6be 4350 d43d 109a 88bd
00000320: fbbe 323e f2b0 84bd 9555 75be 43b0 9abd
00000330: dd01 cf3c a321 1abe d67a 2ebe 776d 89be
00000340: dadf d9be 1410 223e b664 ad3d 0634 6cbd
00000350: ec12 ff3d d47e c73d d174 7a3e 92b2 843d
00000360: 5d74 e93d 74ad bebc 844f 373d 4684 8ebe
00000370: f056 353e d3f3 34be 2c3f 7cbd f464 55bd
00000380: 53d4 403d d0d3 d2bc 9920 553c 6ffc 77be
00000390: 7a09 66bc 2b99 9c3e 6e26 cabd c497 89be
000003a0: 73cb 683e 3f70 bbbc 0777 363d d4f5 053d
000003b0: 38ed c9bd 2ec1 f13d c53e 04be f19f 1cbe
000003c0: 6983 0c3d 3e8e aebc 927f 20be ca0c 5b3e
000003d0: 30e7 6cbe 3958 b5bc fd5f 21bd c4db 56bd
000003e0: d082 02be c1c2 c03e 2738 083e d3ce 0b3b
000003f0: 0cef d43d 2be0 833e 628c c4bc f57b fbbd
-0.42954758 0.11596402 -0.109396905 0.110878706 0.07416904 -0.016047899 0.15758756 0.06372909
-0.21248417 -0.13898584 0.1833984 -0.12357069 -0.07393517 0.14912993 0.13016139 0.1285481
0.020571787 0.28414887 0.023548134 -0.10465651 0.173187 0.0199378 -0.033878263 -0.19736095
0.26371112 0.09150706 -0.038944196 0.050016135 0.045337435 -0.039062515 -0.32044 0.30454794
0.050084457 -0.13307188 -0.14489013 0.1923882 0.14227398 -0.018466054 0.06363312 0.13934627
-0.049375042 -0.28707674 -0.18456015 -0.24590597 -0.10628198 -0.13261436 0.018555187 0.05142778
-0.123963304 -0.04654447 0.18129855 -0.113059245 0.14191109 0.08734669 0.06636323 -0.011669451
0.06765231 0.10325733 0.05618144 -0.015364709 -0.07761636 0.1820998 -0.11295209 -0.05466671
0.08857837 -0.13974051 0.06784329 -0.0009234605 0.12524 0.06501483 -0.0075943326 0.054636892
0.042505737 -0.2166878 -0.0030915567 0.044163078 -0.30962402 0.017254187 0.13076878 0.18671979
0.25805166 -0.48692122 -0.19420104 -0.08200774 0.015565291 0.081887335 -0.13815157 0.07316135
-0.069727525 0.061245468 -0.02593913 0.06341601 -0.035360962 0.119231485 0.21000095 -0.08734134
0.06087157 0.21786954 0.14200462 0.21670656 -0.100215204 -0.45443305 0.046287533 0.045390695
-0.21794476 0.16855487 -0.013010242 0.12106772 -0.22209123 -0.15978274 0.2257501 -0.23153092
0.070186 0.14062333 0.041347787 0.00871579 0.18145251 0.16816658 -0.0027987768 -0.24195153
-0.026391383 -0.2546387 -0.42517415 -0.28360695 -0.26953635 -0.2741897 -0.015844755 -0.052818753
0.18569876 -0.36303848 -0.00030486926 -0.27778417 -0.033469524 -0.039275285 -0.0056046876 -0.043148536
0.20672211 -0.007501516 -0.26421595 0.14870667 0.0021016512 -0.06635756 -0.16670956 0.015821127
-0.12707333 -0.28705224 -0.08630836 0.26661074 -0.3341259 0.02243802 0.08861232 -0.010966899
0.001137339 -0.035681423 0.044971935 0.043177314 0.016991457 0.0052593094 0.20854011 -0.2521671
0.13350664 -0.14238477 0.0049975063 -0.038647477 -0.14834729 0.0950912 -0.13573694 -0.2600029
-0.20568691 0.08435634 0.34787664 0.18791702 0.010384725 0.08753257 -0.1120445 -0.09608941
0.23091601 0.1519002 -0.15991038 -0.14898123 0.009830326 0.10035671 -0.05254237 0.0036269831
-0.2635594 -0.028811703 -0.15518261 0.038564343 -0.15393835 -0.15846325 0.2434474 -0.03608171
-0.17118593 0.0495084 -0.17050678 0.13483997 -0.101589546 -0.35577205 0.10366871 -0.0667001
0.17455666 -0.06479062 -0.23958428 -0.075531505 0.025269443 -0.15051894 -0.17039046 -0.26841328
-0.42553598 0.15826446 0.08466475 -0.0576668 0.12454781 0.097409874 0.24458624 0.06479372
0.11399148 -0.023276068 0.044753566 -0.27835292 0.17708945 -0.17671137 -0.061583683 -0.05209823
0.04707749 -0.025735766 0.01300826 -0.2421739 -0.014040345 0.30585608 -0.09870611 -0.268736
0.2273386 -0.022880672 0.044547107 0.032705143 -0.09859699 0.11804424 -0.1291457 -0.15295388
0.03430501 -0.02130806 -0.15673664 0.21391597 -0.23135066 -0.022136794 -0.039398182 -0.05245568
-0.12745214 0.37648585 0.1330267 0.0021332994 0.10397157 0.25756964 -0.023992721 -0.12279502

discrete_action_output_shape f4 [1, 2]
00000000: 0000 4040 0000 4040
3.0 3.0

network_body._body_endoder.seq_layers.0.bias f4 [128]
00000000: 1ae3 d03d cf74 3abe f5f5 74bd 065d 113e
00000010: 03de 56bb 6f45 63bd f87d 11bc 0ac0 683d
00000020: f3c2 783d 02eb e33d 3a6e ac3d 6229 ae3d
00000030: 5b97 213d 74d6 30bd ce40 663e 8f2a 6f3c
00000040: ef80 86bd e79e dbbd cabd 2c3d eab1 183e
00000050: 51c0 13bd fea6 343e c364 1d3e e86f 613d
00000060: c8bf f9bd 4109 e63d bc19 c9bd 1322 a43d
00000070: 274f b8bd 298e de3d 9625 ad3c b4e6 c43b
00000080: f07f 32bd 5c60 f0bb 7d15 43bc 9fa2 363e
00000090: 6418 6fbd 49de 823d 6dc9 a3bd 6975 293c
000000a0: 80f4 fc3d 307b 3ebc 30eb 383c 4c70 f8bd
000000b0: c929 e13c 486e 143e 80fb 65bd cb58 0d3e
000000c0: e67a b13c 425d 33bb afe6 2a3e 6fae bcbd
000000d0: 53d0 29bd 4fec 5b3c a841 32bd 5acd aa3d
000000e0: 17ef 953b 8f83 a6bc d0b6 a1bb 35e7 453d
000000f0: 98d7 b43d 6a01 cdbc f1e4 bebd 8101 71bd
00000100: 8f5a cabc d69d 91bd d5b2 40bc f791 26bd
00000110: 3a01 373e 0faa b53d e2e1 4c3d 2bc4 84bd
00000120: c58e 063e cb31 443e 9493 2bbc 69f7 16bd
00000130: 99f2 60bb b4e7 0f3e be1d 0c3d d957 3c3e
00000140: 80ff c63c d314 a6bc a9a1 183d a557 33bd
00000150: 5f7a 36bd 9806 f2bc 7ab2 e3bd 6344 133e
00000160: c9fc 0a3c 439b e03d cc66 8b3d 3540 74bd
00000170: 7954 ce3d 25c5 ffbd 938b 24bd 5264 46bd
00000180: b1dc c23d 93b9 3b3d e289 eb3c 96dd 173e
00000190: 27b1 8e3d f421 e8bd 0cd1 493d 3c65 c33d
000001a0: 46e5 0dbd de6f 4fbc 39f2 023e f6c0 793d
000001b0: a6dc 9e3d 8edb 24bd 66ff 0cbd 1e99 95bd
000001c0: 4620 763d e4ed c03b 8e20 8b3e fd1d db3c
000001d0: 09c8 0b3d 3592 853d 4cab a6bc 103a b23c
000001e0: 3003 e9bd bf6e a9bd a097 33be 3760 3c3d
000001f0: 72b2 18be 3d13 ffbc 9150 123e c579 043d
0.10199566 -0.18208621 -0.059804875 0.14195642 -0.0032786138 -0.05548614 -0.008880131 0.056823768
0.060732793 0.111288086 0.084194615 0.08503987 0.039450984 -0.04317327 0.22485659 0.014597549
-0.06567561 -0.107236676 0.042173184 0.14911619 -0.03607208 0.17641827 0.15370469 0.055038363
-0.121947825 0.11232234 -0.098193616 0.08014312 -0.08999472 0.10866959 0.021136086 0.0060089473
-0.043579042 -0.0073357057 -0.011906979 0.17835473 -0.05837287 0.06390054 -0.07997403 0.010342934
0.12351322 -0.01162605 0.011286542 -0.12130794 0.027485745 0.14495194 -0.056148052 0.13803403
0.021665048 -0.0027368818 0.16689561 -0.09212958 -0.04145844 0.01342304 -0.043519646 0.08339949
0.004575621 -0.020326404 -0.004935123 0.0483162 0.08830184 -0.025025088 -0.09321011 -0.058839325
-0.024701385 -0.07110183 -0.011761387 -0.040666547 0.17871562 0.08870327 0.050020106 -0.064827286
0.131404 0.1915962 -0.010472197 -0.036857042 -0.0034324287 0.14053231 0.03420805 0.18392886
0.024291754 -0.020273602 0.037263546 -0.043784756 -0.044550296 -0.02954416 -0.11118026 0.14381556
0.00848312 0.10967114 0.06806716 -0.059631545 0.10074706 -0.12488774 -0.04017217 -0.048435517
0.0951475 0.045831274 0.028752271 0.14830622 0.06967383 -0.11334601 0.04927163 0.09540793
-0.03464248 -0.012660949 0.12787713 0.060975038 0.07756929 -0.040248446 -0.034423254 -0.073045954
0.060089372 0.005887734 0.27173275 0.026747698 0.034126315 0.065220274 -0.020345353 0.021756202
-0.11377561 -0.08273076 -0.17538309 0.045990195 -0.14911821 -0.031137103 0.14288546 0.03234269

network_body._body_endoder.seq_layers.0.weight f4 [128, 68]
00000000: b814 363e d6f0 63be 4dc6 dd3c 30c9 303e
00000010: b120 84bd 74d2 c6bd ff08 2abe 3adc 863d
00000020: 79e4 52be 2dde d93d 5d2a 343d 913d 9bbd
00000030: 84f9 cbbd 9d8d 0cbd 1895 813d 95ad 723e
00000040: 9538 abbe f205 66be 47ff 3c3e 9390 b83e
00000050: cc71 0f3e 40ef 35be 252b fc3b 5ae1 3ebe
00000060: e12a 50b9 f39d c7bc 9e8d bd3c 6f7a 233d
00000070: 3fb6 56bc 87de 6d3e 0696 db3d d48f 92bd
00000080: dd5b 75be eb81 96bd 1e19 033e 9241 2ebe
00000090: 0312 cd3e ae75 d13d 6660 8f3e 5091 abbd
000000a0: 8a5c 243c 1b3c 40be c713 0a3e fbbb fabd
000000b0: 1406 d2be cc18 aebe 20a2 cf3d bb0a 40bd
000000c0: a34a 58be 1c55 10be 970d 343d c3bb 9a3d
000000d0: 96af 283e 103e c7bd 88fb b6bd 543a 98bd
000000e0: cbee 173e 749a a3be d1b4 7b3e 23a3 833e
000000f0: 32c5 9a3c b779 b63e 3f33 9a3c 1571 53be
00000100: 7354 0b3e 5f1c 0dbe a8f2 0dbd 6bf8 413e
00000110: c6ab 313d 9636 dc3e e6a0 fdbb 623d 5a3e
00000120: 4992 543e 1440 83bd fa39 703e c6bf abbc
00000130: e8fe 873e 7c79 36be 78e7 76bd 9a92 013d
00000140: 40ba e73d 8df2 983d d963 ecbd 67a9 343e
00000150: 5718 9e3e a7db 1c3e c634 313e f20a 2e3d
00000160: a7fe a0be 8688 343e cb88 983c 5214 7ebe
00000170: 8bca 15be cdbc 313c af9c 00bd 09c2 5b3b
00000180: 73be c33e 951f 88bc a172 af3c 5407 fd3c
00000190: ea40 a6bd 781e 333e a419 40bd 46a2 df3d
000001a0: 3402 bebd 9816 c5bd 1bdb 223d dfcf 2bbe
000001b0: 59b5 c7bd 2d5f 953e 178e 423e 7dbf 473e
000001c0: ff23 4f3d a2fe a33e 253a 1f3c 8a46 973d
000001d0: bf41 79bc 3700 05bd 242d 86bc a297 05ba
000001e0: 9e03 24bd 5d50 92bd f69c b93c 8e28 103b
000001f0: 8684 1a3d 03aa cbbd 144c a63d ddf5 1e3d
00000200: 900c 443e 4a27 c93d c180 253e 5618 8bbd
00000210: ca2a 4dbd e510 dd3d 9cdb a9bc d8a0 d1bd
00000220: 96f9 0c3e 30a2 ba3d f97b 25be b67b 603d
00000230: 71c7 da3d b774 943e 8ace a23e 7466 453e
00000240: 0d72 673e 9cfc 8c3c 021e 863d dc7a f03c
00000250: cfad 2a3b 1db2 c1bd ee6c 24bc 3ff9 943e
00000260: 8d35 1cbe c842 833d 7f88 cdbe 0aaa 823e
00000270: eba8 a33e 51ff 883e 3d6e 17be 5d75 67be
00000280: 502b 453e a5e6 743d 2f85 46be 7d94 293e
00000290: 25df 6c3e 200a da3d 3e0a cf3d b956 d43c
000002a0: d656 633c 8589 203d 73d0 173e e912 1dbd
000002b0: 4805 a7bd 603c 45bd ca15 af3d 6741 19bd
000002c0: 8ed2 ff3d 090c 75bd eed1 dcbd e481 b1bd
000002d0: 6e06 d13c 8e56 223e 6ef7 323e d1d7 a1bd
000002e0: 9e78 b53c 0958 973d 581e f93d 73f0 813e
000002f0: 82bb 9cbc 35aa d8be 263b afbd fc39 1cbd
00000300: 3b9f 9b3e 0ff2 3bbd 2909 8cbc f6e8 d7ba
00000310: ecfa b8bd edd2 b73e 03ac 8c3e 1379 b13e
00000320: d599 3a3e 7b6c afbe fa71 623d 0904 dc3c
00000330: 61f2 933d cb41 11be 5159 113d a40c b4bd
00000340: 2dd1 8a3e fa52 13be e1b0 13be e006 983d
00000350: 7a43 89be 3e8b 32be 6531 a6bd 93b8 fcbc
00000360: fe2d b83d 8973 483e c98a 4c3e 41d9 363e
00000370: 1f77 2bbe fce0 bfbd 4235 56bd e053 1b3e
00000380: e4bd 1f3c 7280 803d b56e e33d 45ca 7f3b
00000390: 8731 953c 3443 493d 9d84 d23d 76e6 9f3d
000003a0: 4c63 52be bb79 183e b7c7 9abd 787f cf3e
000003b0: 8d04 71bb bcf5 133e 9809 9dbd 4a19 22bd
000003c0: c90c c9be e577 b7bd 7212 50bd 62bc 4fbe
000003d0: 3116 61be acfc 9bbe 6bc0 883d 4889 e53d
000003e0: 61c2 303e b709 92be 30ff 46bd 7433 17bd
000003f0: 84d9 0cbe 7bc3 58be 19e3 2a3e 0b9b 23bc
0.17781341 -0.2225984 0.027072096 0.17264247 -0.06451548 -0.097081095 -0.16604994 0.06584974
-0.20594968 0.1063808 0.043985713 -0.07580102 -0.09959701 -0.03431474 0.063272655 0.23699029
-0.33441606 -0.22463205 0.18456756 0.360478 0.14008254 -0.17767048 0.007695573 -0.18640652
-0.000198524 -0.024367308 0.023138817 0.039911684 -0.013104974 0.23229419 0.10721974 -0.07156339
-0.23960824 -0.07348999 0.1280255 -0.170172 0.40052804 0.10227524 0.28003234 -0.083773255
0.010031829 -0.18772928 0.13484107 -0.12242886 -0.41020262 -0.34003294 0.10138345 -0.046885233
-0.21122222 -0.14094967 0.043958273 0.07555344 0.1647323 -0.09728634 -0.089346945 -0.07433
0.14837186 -0.31953776 0.24580695 0.257104 0.018892858 0.35639736 0.018823264 -0.20648606
0.13606434 -0.13780354 -0.034655243 0.1894242 0.043376707 0.43010396 -0.007740128 0.21312478
0.20758928 -0.06408706 0.23459616 -0.020965468 0.26561666 -0.1781978 -0.06027934 0.03163395
0.11314821 0.07468138 -0.11542482 0.17642747 0.30877945 0.15318166 0.17305288 0.042490907
-0.31444284 0.17630205 0.018619915 -0.24812439 -0.14628045 0.010848236 -0.031399425 0.0033532402
0.3823124 -0.016616622 0.021416964 0.030887283 -0.0811785 0.17492092 -0.046899453 0.10919623
-0.09277764 -0.0962345 0.039759737 -0.16778515 -0.09751386 0.29174176 0.18999515 0.1950664
0.050571438 0.32030207 0.009718453 0.07386501 -0.015213429 -0.032470908 -0.016378947 -0.00050961424
-0.040042512 -0.07144234 0.022657853 0.0021996829 0.03772404 -0.099445365 0.081199795 0.038808692
0.19145417 0.09821947 0.16162397 -0.06791751 -0.050089635 0.10794238 -0.0207346 -0.10235757
0.13767084 0.09112966 -0.16160573 0.05480548 0.10682572 0.28995296 0.31798202 0.19277364
0.226021 0.017210297 0.06548692 0.029355459 0.002604354 -0.094578005 -0.0100357365 0.2909641
-0.15254803 0.06409222 -0.401432 0.25520355 0.31964812 0.2675729 -0.14788146 -0.22603364
0.19254804 0.059790272 -0.19386743 0.1656055 0.23131998 0.106464624 0.101093754 0.025920259
0.013875684 0.03919365 0.14825611 -0.038348112 -0.08155304 -0.04815328 0.08549078 -0.03741589
0.12491332 -0.05982593 -0.107822284 -0.08667353 0.025515761 0.1585333 0.174772 -0.07902492
0.022152241 0.07389838 0.12163991 0.2537876 -0.01913238 -0.42317358 -0.085562035 -0.038141236
0.3039492 -0.045885142 -0.017094212 -0.0016472626 -0.090322345 0.3590311 0.27474985 0.34662685
0.18222745 -0.34262452 0.055284478 0.026857393 0.072239645 -0.14185254 0.03548557 -0.087914735
0.27112713 -0.14387122 -0.14422943 0.07423186 -0.26809293 -0.17435929 -0.0811489 -0.03084973
0.08993147 0.19575323 0.19974817 0.17856313 -0.1674466 -0.09369084 -0.052296884 0.15168715
0.009749863 0.06274499 0.111051 0.0039030474 0.018212093 0.049136356 0.102792 0.07807629
-0.20545691 0.14890186 -0.07557624 0.40526938 -0.0036776394 0.14449209 -0.076678455 -0.0395749
-0.39267567 -0.08958415 -0.05079884 -0.20286706 -0.21981122 -0.3046621 0.06677326 0.11207825
0.1726165 -0.28523037 -0.04858321 -0.036914304 -0.1375485 -0.2116832 0.16688193 -0.009985696

network_body._body_endoder.seq_layers.2.bias f4 [128]
00000000: 3b10 103e 2896 b43d beeb c9bd 66ca 423d
00000010: 2f4c c43d f88d 26be 0a38 56bd bf78 643d
00000020: 6e09 f639 31f8 11bb 5833 913d 115e 7fbc
00000030: d93a 28be 4c3b 53bb 02a4 3a3d 734b 1cbd
00000040: 30fc 213e 8965 1d3c 16a1 9a3d 496d ecbd
00000050: a39a 333d b832 0b3e 389d a83d 9766 bd3d
00000060: ee4e cd3d 0907 b13d f787 27bd 98c7 85bd
00000070: 6938 b83d ea7d 8dbd ec98 243e a8e3 e03d
00000080: 6532 603d 560f 2a3d be44 80bb 9657 a63d
00000090: 196c 02be 8d43 0f3d 8312 0cbd 8e76 5f3d
000000a0: feab 183c b736 6dbc f4f3 333d 70ab 883a
000000b0: 049d 11be 3439 3a3e db76 853d 1d52 8a3d
000000c0: 3b2f 693c f1cd 9ebd cf1b 33ba 150e efbd
000000d0: 3317 263d c862 733d fe33 b4bc d356 0b3e
000000e0: 5def 293d da7c 29bb f562 ad3d 4c88 75bd
000000f0: 5ac8 fcbc 95be 0f3e 3c13 d13c 1cc1 a6bd
00000100: c170 19bd 9dc1 4abd bff5 53bd 32d2 013e
00000110: 94cc bc3d 85c7 ac3c 8bf4 d9bd f8f6 cf3d
00000120: f23b 6f3d 1a1a b9bb 6b54 c43d 0341 febd
00000130: 5b76 033d 8662 a1bd ef7c c33d b23b 813c
00000140: 32f3 e93d bb03 163e cb6c 043d 06f3 acbd
00000150: ce4d 05ba e22c 973d efd7 123e 360f e0bd
00000160: 84c6 ca3d c0b1 25be c791 17be f75d a33c
00000170: 56b1 1c3d 744b 193d dc0c 7fbd 58b7 76bd
00000180: d3ed 963c 9a1c 023d 4edb 09be 9662 423b
00000190: 8da5 ffbd 2461 de3d 44e7 0f3e f266 473d
000001a0: be7b febc 091e 55bd 240e 0e3d 70d7 c6bd
000001b0: 734e cb3c 4c18 a93d 2ff5 9d3d 7249 443d
000001c0: ff1a 0c3d 825a c4bd 99f4 233d 9a15 653c
000001d0: 5979 e03d 4caa 963d d7e8 d63b a755 8cbd
000001e0: 463c 8a3c 61aa 593d 7502 223d 0bb3 ce3d
000001f0: 95bd a53c b699 8fbd ebf3 53be fc15 9abd
0.14068691 0.088177025 -0.098594174 0.047556303 0.09584843 -0.16265094 -0.052299537 0.055779215
0.00046927802 -0.0022273178 0.07089871 -0.015586392 -0.16428699 -0.0032231389 0.045566566 -0.03815789
0.15818858 0.009606727 0.07550256 -0.11544282 0.043848645 0.13593566 0.08233112 0.09248083
0.1002482 0.0864392 -0.04090115 -0.0653221 0.089951344 -0.06908782 0.1607396 0.10980922
0.05473556 0.04151853 -0.0039144447 0.081221744 -0.12736548 0.03497653 -0.03419734 0.054556422
0.00931835 -0.014478377 0.043933824 0.0010427069 -0.14220053 0.18185884 0.065168105 0.06753943
0.014232452 -0.07754124 -0.0006832452 -0.11672608 0.04054947 0.059420377 -0.021997448 0.1360734
0.04148804 -0.002586177 0.0846614 -0.059944436 -0.030857254 0.14037545 0.025521867 -0.081423014
-0.037461046 -0.04950105 -0.051748034 0.1267784 0.09218708 0.021091232 -0.10642346 0.101545274
0.058406778 -0.0056488635 0.09586414 -0.12414744 0.032095294 -0.0788012 0.095453136 0.015775535
0.11423339 0.1464986 0.032330316 -0.084447905 -0.0005085141 0.073816076 0.14340185 -0.10940401
0.09901145 -0.16181087 -0.14801703 0.019942267 0.03825506 0.037425473 -0.062268123 -0.060233444
0.01842395 0.031765558 -0.13462564 0.0029660813 -0.12482748 0.10858372 0.14053065 0.04868216
-0.031064864 -0.052030597 0.034681454 -0.0970906 0.024817681 0.082565874 0.07712781 0.047921605
0.034205433 -0.095875755 0.04002819 0.013982201 0.10960645 0.073567 0.0065585184 -0.068522744
0.016874444 0.053141 0.039553124 0.100927435 0.020232001 -0.0701174 -0.20698516 -0.075237244

network_body._body_endoder.seq_layers.2.weight f4 [128, 128]
00000000: b813 eabd 56e2 d1bc 1438 d93d 10b6 ef3d
00000010: f577 e1bd 739c 92be 4126 e2bc bce6 2dbe
00000020: b015 5f3c 395a 6e3d f891 debd ac34 b93e
00000030: 11be 433e 8153 ec3d 9da3 8dbe bc3d 62bd
00000040: d350 d53d f630 2fbd 0636 b7bd 4fa1 87bc
00000050: 9114 fdbc 31b0 2c3e ad61 063e d3fc c0be
00000060: 689b acbe a467 10bc 142a 7abd 8acf 433e
00000070: 524c 2bbe a2e2 c83d 47c5 11be 000a 2bbd
00000080: 3fd6 12be ddf5 47be 75f0 9dbb 8823 92bd
00000090: c2cc e1bd 05c2 023e 4931 88be 8fe9 46bd
000000a0: 04fc 943e 9f18 13be 46cd 2cbc 8d7b f2be
000000b0: beb8 bb3e 375d a93e 5362 4dbe bec2 653e
000000c0: 5006 6abe 0463 4d3d 27d4 03be 8cab 4bbe
000000d0: 03d0 42bd b0d3 2cbe 9293 fc3d 27f8 b13e
000000e0: 0d86 28be 27fe 593e 31be 82be e653 bf3b
000000f0: 4bb1 7abe cd46 ee3c e07e c0bd 388e 0abe
00000100: 163c 83bc 66b0 633e 0fab 7b3d 25fc 0cbe
00000110: feda b4be ab8a 06bf dbf0 a23d ecd9 4cbe
00000120: b1b8 523e 79ac 4b3d 75db 323e 3554 1abe
00000130: c50b 0ebe 4071 45be 5fed 423e b4bd 01bf
00000140: 4886 553d bb92 f2bd 336d bfbd 77ea 8b3d
00000150: 0482 5f3c a2d7 d5bd ef14 eabd 8495 cc3d
00000160: 6ca0 b13d 52dc 5bbd aedb 6abe 81fa d2bc
00000170: 9fd0 abbd 8dff 31bc 2547 91be 0bb1 5f3c
00000180: 8423 d4bc f8ef b5bc ef17 303e f327 a23e
00000190: 8f57 8ebc 6f72 b93d e137 d43c 2407 51be
000001a0: 9efb 5b3d 2310 49be 20d4 2cbd eade 1dbe
000001b0: 0b6a 10be 8ba4 6dbe fd09 c7bc 673d 5bbe
000001c0: 9d03 36be def2 913d 6a73 2e3e d934 623d
000001d0: ea58 783e 5565 e83c 5a85 19bd 6931 343d
000001e0: 61cd dd3c 6d4e 763e 9bb6 24be e45d b0bd
000001f0: af24 eb3c 6e81 0f3e 0d6e 2ebe b6fe 943e
00000200: 5a71 0dbd 222a 96bd 7014 38be 9cc7 0bbe
00000210: 634b 3fbe 2ad7 f5bd 5b4b 82be 36b9 5fbe
00000220: c9fe 76be 7026 8cbb 09ba 4dbe 62d3 6a3e
00000230: 315e 65be 3942 85bd ecfe 4ebe 2e6a a3bd
00000240: e489 183d bf16 243e 09f6 0f3d 6caf ee3d
00000250: 7f96 dcbd 9fd9 78be ceff 92bc 594c 3d3e
00000260: 99d8 75be 6f54 4d3d 64e6 8ebe a0c3 06be
00000270: f9b4 79bd 7cf0 1abd f9dd 5c3d 064e 143e
00000280: 2344 923e 8ae7 0f3e 7029 58be 35f9 803e
00000290: 7489 533d 5aa8 62be 176a 48be afb5 83be
000002a0: 9cbb 6a3c 5ef5 d13d e277 94be 1270 063e
000002b0: 9f9a b5be 46d9 87be a15e 35be 0010 e3bb
000002c0: 9b2a 8aba 351d 623c 9ddb b93d 4188 253e
000002d0: 5a77 423e 697e 6cbe db39 e9bd f2f3 38be
000002e0: 9f4d 54be 9f2a 16bd d7ce a83e dc4b fc3b
000002f0: 353b 60bd 8410 b5bd 0d17 8bbe aa00 833a
00000300: 5768 aebb aab1 79bd 0683 9eba ea01 1b3e
00000310: f13c 4b3e 7fe4 fdbd a111 babd fdbe db3b
00000320: a482 3bbd bc26 8a3d f161 c63d 3b03 a7be
00000330: 6e92 cbbc d44c 8ebe 5241 1b3e 4d7d 803e
00000340: 49f0 f3bd 99b9 c33c 2ef1 1b3e b1f3 67bc
00000350: 4ba7 35be 76f3 13bd b225 e7bd 7e5c 3a3d
00000360: 7ef8 453e 5cfe 89be e0d1 c13e 2006 1d3e
00000370: 9471 23be ed1c 20bd b9c2 90bd 3def 5cbc
00000380: 7930 bd3d 3593 8b3c 77f9 42be 3ca1 23bc
00000390: 6a74 7b3c 3647 503d f293 d4bd b0cd 853d
000003a0: 085a 913e 8a18 5e3c 0465 0bbd a999 20be
000003b0: 1a4e 4d3e d1e6 a3bc 229f ddbe 80f0 06be
000003c0: b235 be3c 034c 173e 12da 8b3e 9cd1 43be
000003d0: f35e 093d a9b9 bcbe a320 4b3d 08cf 1bbe
000003e0: 00e6 aebd a886 04be 2fc5 2cbe 9aac c63d
000003f0: 3516 40bd e221 cbbc 79fa 233e 3cfe 5f3d
-0.11429542 -0.02562062 0.10606399 0.117046475 -0.11009208 -0.28634986 -0.027606132 -0.1698255
0.013616011 0.05819151 -0.10867685 0.36172998 0.19115473 0.115393646 -0.2766389 -0.055234656
0.104158066 -0.042771302 -0.08945851 -0.01655641 -0.030893596 0.16864087 0.13123198 -0.3769289
-0.33712316 -0.008813772 -0.061075285 0.19122139 -0.16728333 0.09808852 -0.14235412 -0.041757584
-0.14339541 -0.19527383 -0.0048199245 -0.07135683 -0.110253826 0.12769325 -0.26600102 -0.048562583
0.29098523 -0.14364861 -0.010546988 -0.47359887 0.36664385 0.3307893 -0.20057039 0.2243757
-0.2285397 0.050143257 -0.12873898 -0.19889659 -0.047561657 -0.16877627 0.12332834 0.34759638
-0.16457386 0.21288358 -0.2553573 0.005838859 -0.24481694 0.029086495 -0.093991995 -0.13530815
-0.016019862 0.2223526 0.06144243 -0.1376806 -0.35323328 -0.5255534 0.07956096 -0.20005006
0.20578267 0.04972503 0.17466529 -0.15071185 -0.13871677 -0.19281483 0.19035862 -0.5068009
0.052130014 -0.11844393 -0.09347 0.0683183 0.013641838 -0.10441519 -0.11429774 0.09989455
0.08673176 -0.05367691 -0.22935364 -0.025754215 -0.08389401 -0.010864151 -0.2837459 0.01365305
-0.025895841 -0.022209153 0.1719663 0.31671104 -0.017375736 0.090550296 0.025905551 -0.2041288
0.053706758 -0.19635062 -0.042194486 -0.15417066 -0.14102952 -0.232073 -0.024296755 -0.21410142
-0.17774816 0.07126401 0.17036214 0.05522618 0.24252668 0.028368631 -0.03748069 0.043992434
0.027075471 0.24053355 -0.16085283 -0.08611658 0.028704016 0.14014217 -0.17034169 0.2910058
-0.03453193 -0.07332255 -0.17976546 -0.13650364 -0.18681102 -0.1200393 -0.25448117 -0.21847996
-0.2412063 -0.004277043 -0.20090498 0.22932199 -0.22399212 -0.065067716 -0.20214432 -0.079792365
0.037240878 0.16024302 0.035146747 0.11654553 -0.10770892 -0.24301766 -0.017944243 0.18486156
-0.24008407 0.05012935 -0.2791015 -0.13160563 -0.060963605 -0.037827 0.053922627 0.14482889
0.2856761 0.14053169 -0.21109557 0.2519013 0.051644757 -0.22134534 -0.1957172 -0.2572455
0.014326956 0.10251878 -0.28997713 0.13128689 -0.3546953 -0.26532954 -0.1771188 -0.0069293976
-0.0010541262 0.013800909 0.09075091 0.16165258 0.18990842 -0.23095097 -0.11387988 -0.18061808
-0.20732735 -0.03666174 0.32970306 0.007699473 -0.054743964 -0.08841041 -0.27166024 0.0009994705
-0.005322497 -0.06096045 -0.0012093491 0.15137449 0.19847466 -0.12397098 -0.09085394 0.006706117
-0.045778885 0.06745669 0.096866496 -0.32619652 -0.024850097 -0.2779299 0.15161636 0.25095597
-0.11911065 0.02389221 0.15228721 -0.014157222 -0.17739598 -0.036120854 -0.11286487 0.045498364
0.19333073 -0.26951873 0.37855434 0.15334368 -0.15961295 -0.039090086 -0.070683904 -0.013484773
0.09237761 0.017037967 -0.19040476 -0.009987172 0.0153475795 0.050849162 -0.10379781 0.065333724
0.28389 0.013555655 -0.034031883 -0.15683617 0.20049325 -0.020007523 -0.4328547 -0.13177681
0.023218963 0.1477509 0.27314812 -0.19122928 0.033537816 -0.36860397 0.04959167 -0.15215695
-0.08539963 -0.12941992 -0.16872095 0.0970089 -0.04689618 -0.02479643 0.16013516 0.054685816

network_body.observation_encoder.processors.0.normalizer.running_mean f4 [25]
00000000: de3e 753f af7f 133a 0000 0000 14e1 6a37
00000010: 1334 f43d c662 673f acb6 5139 0000 0000
00000020: 7835 963a 3811 0b3e ada0 713f a5b6 0939
00000030: 0000 0000 1988 733b 87a1 193e 5dd0 2f3f
00000040: 8aa5 433b 0000 0000 afba 053d 6d4f 4f3e
00000050: 6ed3 2f3f d884 173a 0000 0000 5d55 f53c
00000060: b597 6b3e
0.9579905 0.00056266313 0.0 1.3999892e-05 0.11923995 0.9038509 0.00019999844 0.0
0.0011460027 0.13580787 0.94385797 0.00013133379 0.0 0.0037159978 0.15003024 0.6867731
0.0029853308 0.0 0.03264874 0.20245142 0.6868199 0.0005779988 0.0 0.029947931
0.2300709

network_body.observation_encoder.processors.1.normalizer.running_mean f4 [25]
00000000: 3538 a23e 680c 833e 0000 0000 730d 9a3a
00000010: 3cf4 513d a25a 823e 59ca 073e 0000 0000
00000020: 14db 413c 8f5e 673d 06f0 8c3e f2eb 043e
00000030: 0000 0000 3952 993c f180 6c3d bea6 e23e
00000040: c9e3 233d 0000 0000 6f6a 363d 09ab b83d
00000050: c719 013f b315 413d 0000 0000 05e1 323d
00000060: 9309 ac3d
0.31683508 0.25595403 0.0 0.0011753276 0.05125831 0.25459772 0.13260783 0.0
0.011832017 0.056486662 0.27526873 0.12980631 0.0 0.018715965 0.057740156 0.4426784
0.040012155 0.0 0.044535097 0.09016997 0.5042996 0.047139835 0.0 0.043671627
0.08400264

network_body.observation_encoder.processors.2.normalizer.running_mean f4 [18]
00000000: c188 26c1 2c66 59bf 15b1 ab41 8309 1abf
00000010: e45a ac3e 2fab e0bf 0c9a 8a39 c363 4fbc
00000020: 7b8b bab9 7843 763f 66b8 e943 4cab 56c0
00000030: 8c2d a9bc 69c3 07be 0d2e 493f 367e d9bd
00000040: 0000 0000 7a05 b73e
-10.408387 -0.84921527 21.461466 -0.60170764 0.33663094 -1.7552241 0.00026436185 -0.012658062
-0.00035580606 0.961967 467.4406 -3.3542051 -0.020651601 -0.13258137 0.7858589 -0.10619776
0.0 0.35746366
