Assets/CarPractice_run12.onnx (onnx, 108245 bytes, 8 tensors)

action_model._continuous_distribution.log_sigma f4 [1, 2]
0	0xbfaa4bb8	-1.3304358
1	0xbf6ec666	-0.9327148

action_model._continuous_distribution.mu.bias f4 [2]
0	0xbcd9b22c	-0.026574217
1	0x3e532004	0.20617682

action_model._continuous_distribution.mu.weight f4 [2, 128]
0	0x3a31d9c4	0.0006784464
1	0x3d520e49	0.051283155
2	0xbb1eda42	-0.0024238979
3	0xbd6b3d03	-0.057431232
4	0xbba359ef	-0.004985086
5	0x3ca927a7	0.02064879
6	0x3d239677	0.039938416
7	0x3d659ddf	0.05605876
8	0x3c86724d	0.016411925
9	0x3d92d0c3	0.071687244
10	0x3c3370c3	0.010952177
11	0xbd892706	-0.06696896
12	0x3cf166af	0.029467909
13	0xbc99e0f8	-0.018784031
14	0xbbcfe8dd	-0.006344898
15	0x3b0c58cb	0.002141523
16	0x3d5dffe8	0.05419913
17	0xbb6ef43b	-0.003646149
18	0xbb7d48ab	-0.003864805
19	0x3d8c1fde	0.06842016
20	0xbd63dffd	-0.055633534
21	0xbda568a3	-0.080765985
22	0x3d360944	0.04444243
23	0x3da93538	0.08262104
24	0xbd4a6021	-0.049408082
25	0xbcf9d4a9	-0.030496912
26	0x3e026d26	0.1273695
27	0xbd1384c8	-0.036015302
28	0xba0bdc98	-0.00053353
29	0xbdbc7ef6	-0.092039034
30	0xbcf0fef7	-0.029418452
31	0x3cc41231	0.023934456
32	0x3ce2250a	0.027605552
33	0xbcc72156	-0.024307888
34	0xbc55f2bf	-0.013058363
35	0xbda81d58	-0.08208722
36	0xbd13e4c3	-0.036106836
37	0x3d279492	0.040913172
38	0xbd896c50	-0.06710112
39	0x3d84fea5	0.06493882
40	0x3d8218b6	0.063523695
41	0x3d637b87	0.055537727
42	0x3c13bb03	0.009016755
43	0x3d270a90	0.040781558
44	0x3daee3dc	0.085395545
45	0x3c5ba2d5	0.013405521
46	0x3d264665	0.040594477
47	0x3c8cab40	0.017171502
48	0x3b0086ae	0.0019611525
49	0xbb824960	-0.003976032
50	0x3d3466c4	0.044043317
51	0x3b8147f9	0.0039453474
52	0x3d261de2	0.040555842
53	0x3c81bd8c	0.015837453
54	0xbd29ee41	-0.041486982
55	0xbd801593	-0.06254115
56	0xbdaefd67	-0.085444264
57	0xbd88b218	-0.06674594
58	0xbc604307	-0.013687856
59	0x3d3ce3a6	0.04611554
60	0x3cab1cee	0.020887818
61	0x3cec3abd	0.028836602
62	0x3deeaa05	0.116535224
63	0xbdaa9b95	-0.08330456
64	0xbb0ff9ab	-0.0021968882
65	0x3d9db192	0.076998845
66	0xbc97e59a	-0.0185421
67	0x3d1470e5	0.036240477
68	0x3e139f47	0.14416228
69	0xbd372f09	-0.04472259
70	0x3d782e9d	0.06059133
71	0xbccd2de3	-0.025046295
72	0x3d028b2a	0.031871
73	0xbd0bc992	-0.03412778
74	0x3be09028	0.0068531223
75	0xbdaff1ef	-0.08591067
76	0x3d7f83f8	0.062381715
77	0xbc29d6de	-0.01036617
78	0x3ca74c73	0.020422196
79	0x3d5fc510	0.054631293
80	0xbd20d0b9	-0.039261553
81	0x3d81c879	0.06337065
82	0xbcd657e4	-0.026164956
83	0x3d0201c2	0.031739958
84	0x3ca83bd3	0.020536339
85	0x3ca56412	0.020189319
86	0x3da201ed	0.079105236
87	0xbd801ad1	-0.06255115
88	0xbc4b7052	-0.012416916
89	0x3d091aaf	0.033472713
90	0xbd3ae86d	-0.045631815
91	0xbcb749f8	-0.022374138
92	0x3ce64faa	0.028114159
93	0x3d92f67b	0.07175919
94	0xbb96c5eb	-0.0046012304
95	0xbda993f9	-0.08280177
96	0x3d0dea24	0.034647122
97	0x3d1b3047	0.037887838
98	0x3db24ec0	0.087064266
99	0xbda10055	-0.078613915
100	0x3ab7c4b6	0.0014020416
101	0xbd6ecd76	-0.05830141
102	0x3d5113e8	0.051044375
103	0xbd6d6c11	-0.05796439
104	0xbd9727b1	-0.073806174
105	0xbd03205a	-0.032013275
106	0x3cd0de17	0.025496526
107	0x3dc61427	0.096718125
108	0x3dd32125	0.10309056
109	0xbdf10758	-0.11768979
110	0xbd1f69ad	-0.03891914
111	0x3e28f9d3	0.1650155
112	0x3c86c318	0.01645045
113	0x3cf94c5d	0.03043192
114	0x3dc29b65	0.095022954
115	0x3d7070b6	0.05870124
116	0xbb9b86be	-0.004746287
117	0x3d7bd916	0.061486326
118	0xbddbe661	-0.10737301
119	0x3d83554f	0.06412756
120	0x3c20110b	0.009769688
121	0x3d368dcd	0.044568826
122	0xbc610ebd	-0.013736424
123	0x3d7a0a53	0.061045002
124	0xbd86b9f2	-0.06578435
125	0xbc2026a9	-0.009774842
126	0xbd64dd8f	-0.055875357
127	0xbbc74411	-0.006081112
128	0x3dcfa515	0.10138909
129	0xbdac24e4	-0.08405474
130	0xbda28a13	-0.07936492
131	0x3dc5fe28	0.09667617
132	0xbdb64f8d	-0.08901892
133	0xbe018b8d	-0.1265089
134	0xbd86cfbd	-0.06582592
135	0xbe0c8295	-0.13721688
136	0xbd18c745	-0.037299413
137	0x3bd86af7	0.006604548
138	0xbd4f0cb0	-0.05054921
139	0x3d45d5c8	0.04829958
140	0xbdfc05e6	-0.123058125
141	0x3d3155b6	0.04329463
142	0xbd1357cc	-0.0359724
143	0xbdb4077d	-0.08790491
144	0xbcdbfa52	-0.02685276
145	0xbdc72c67	-0.09725266
146	0xbd4bdacb	-0.049769204
147	0xbdf50eef	-0.11965739
148	0xbc135094	-0.008991379
149	0xbb27dc73	-0.0025613576
150	0xbddf2b8a	-0.10896976
151	0x3d3f00c8	0.046631604
152	0xbd3b2a39	-0.045694564
153	0x3dc5296d	0.09627042
154	0x3cfc0880	0.030765772
155	0x3d40a619	0.047033403
156	0x3d85e74a	0.065382555
157	0xbd8af188	-0.0678435
158	0x3e10f824	0.14157158
159	0xbc2200a3	-0.009887847
160	0xbdf11786	-0.11772065
161	0xbde2f317	-0.11081522
162	0xbdc888f6	-0.09791748
163	0x3bb3f23a	0.005491522
164	0x3d34fdfc	0.04418753
165	0xbda7103c	-0.08157393
166	0xbe0cff11	-0.13769175
167	0xbd8d3242	-0.068943515
168	0xbdd2d8b2	-0.102952376
169	0xbdb80dc8	-0.089870036
170	0xbd7d8ded	-0.06190293
171	0xbc2611f5	-0.010136117
172	0x3cd9aa72	0.026570532
173	0xbdefbee4	-0.11706331
174	0xbd6be9dc	-0.057596073
175	0xbdd7e9a8	-0.10542613
176	0xbcb49619	-0.022044228
177	0xbd2de2cc	-0.04245262
178	0x3c0eba61	0.008711428
179	0xbca414b7	-0.020029409
180	0xbe15e2ba	-0.1463727
181	0xbe063c63	-0.13108973
182	0xbd861391	-0.06546701
183	0x3d157c22	0.036495335
184	0xbcbc381c	-0.022975974
185	0x3d708e5d	0.05872952
186	0xbdaa24e0	-0.083078146
187	0xbddd3d1c	-0.10802671
188	0xbcdd2048	-0.026992932
189	0xbdf8337e	-0.12119196
190	0xbe01470a	-0.12624756
191	0x3d5c59ff	0.053796764
192	0xbde8c963	-0.113665365
193	0x3ce17be6	0.0275249
194	0xbbcb0bf0	-0.0061964914
195	0x3de8641f	0.113472216
196	0x3d81b278	0.06332868
197	0xbd778043	-0.060425054
198	0xbdc02344	-0.093817264
199	0xbd9c4f14	-0.076322705
200	0xbd79252d	-0.06082647
201	0x3d2ab32e	0.041674785
202	0x3dc8daa0	0.098073244
203	0xbcd2810b	-0.025696298
204	0xbd49cee8	-0.049269587
205	0xbcfa1a35	-0.030530075
206	0xbe00c6aa	-0.12575784
207	0xbcc68ba2	-0.024236504
208	0xbdac5225	-0.08414105
209	0xbe02fa2b	-0.12790744
210	0xbdb0c2d4	-0.086309105
211	0xbdd7f815	-0.10545365
212	0x3d40ab94	0.04703863
213	0xbe088055	-0.13330205
214	0x3dce9d2c	0.10088572
215	0xbc9ebfa9	-0.0193785
216	0x3da17cf2	0.078851596
217	0xbd9bcc98	-0.076073825
218	0x3d269942	0.0406735
219	0x3d83a69b	0.06428262
220	0xbe0f4edb	-0.13994925
221	0xbd7d040c	-0.061771438
222	0xbdc36ee8	-0.09542638
223	0xbd0711ef	-0.032976087
224	0xbdbd9b1f	-0.092581026
225	0xbdc22707	-0.094801
226	0x3cbcd00d	0.023048425
227	0x3d6e649c	0.058201417
228	0xbd49a07e	-0.049225323
229	0x3d578b8e	0.052623324
230	0xbdc74742	-0.09730388
231	0x3d8390ce	0.06424104
232	0x3d8f669f	0.07001995
233	0xbe256447	-0.16151534
234	0xbdbbe8f5	-0.091752924
235	0x3ca9e6a5	0.020739863
236	0x3cb0fda8	0.021605328
237	0xbcc2e1f9	-0.023789393
238	0xbdb76ab7	-0.08955901
239	0x3d896ada	0.067098334
240	0xbde77cfb	-0.11303135
241	0x3d6c9d7b	0.057767373
242	0x3cc20650	0.02368465
243	0xbdfc2693	-0.12312045
244	0xbc8c12a5	-0.017098734
245	0xbdab4de9	-0.083644696
246	0xbc60b3dd	-0.013714758
247	0xbe16dd5a	-0.14732876
248	0xbdd22d0d	-0.10262499
249	0xbd5dd18d	-0.05415492
250	0xbda7fcef	-0.0820254
251	0xbccabc27	-0.024747921
252	0xbbbdcaa4	-0.005791979
253	0x3d6488cd	0.055794526
254	0x3df74c6b	0.120751224
255	0xbd0c2deb	-0.03422348

action_model._discrete_distribution.branches.0.weight f4 [1, 128]
0	0xbb4fbe1a	-0.0031699003
1	0xbad955a5	-0.001658131
2	0xbc04cdcb	-0.0081057055
3	0x3c33f955	0.010984738
4	0x3b8b176c	0.0042447355
5	0xbc1e4f7f	-0.009662508
6	0xbc2b95c7	-0.010472721
7	0x3ccdfd87	0.025145305
8	0xbc74b295	-0.014935155
9	0x3a8bf50b	0.0010677887
10	0x3c3dba1d	0.011580017
11	0xbbcec21f	-0.006309762
12	0xbb39b21b	-0.002833492
13	0x3bfa6cd2	0.007642367
14	0x3b87c5ab	0.004143437
15	0x3b0a2033	0.002107632
16	0x3b698965	0.0035634872
17	0xbb08569e	-0.002080358
18	0x3b2e7c41	0.0026624354
19	0x3abe7b87	0.0014532664
20	0xbbc77c22	-0.006087796
21	0xbbc222ed	-0.0059245736
22	0xbc0d919b	-0.008640672
23	0xbb20bb6c	-0.0024525775
24	0xbcc90e08	-0.024542823
25	0x3aee18eb	0.0018165385
26	0x3b9da8c4	0.004811378
27	0xbab71246	-0.0013967238
28	0x3c0cafb7	0.008586816
29	0x3bcd2f10	0.006261714
30	0x3b8e9a11	0.0043518622
31	0x3b391c88	0.0028245766
32	0xb982e50a	-0.0002496618
33	0xbbb8205c	-0.005619092
34	0xbbc95c8e	-0.0061450666
35	0xbc8e8c98	-0.017401025
36	0xbc0a832b	-0.008454124
37	0x3ba1187b	0.0049162484
38	0xbb83931b	-0.004015339
39	0xbbb5ca85	-0.005547824
40	0x3cadb93f	0.021206496
41	0xbbaf4f1d	-0.005350007
42	0x3c6bc3ad	0.014389914
43	0xbbbc96a6	-0.0057552634
44	0xbb8c35ec	-0.004278889
45	0xbb6bea10	-0.0035997666
46	0x3c02fd24	0.007994924
47	0x3bade239	0.005306509
48	0xbb964b73	-0.004586631
49	0xbbcb5ca8	-0.006206114
50	0xbb64dc82	-0.0034921472
51	0x3cafe893	0.021473205
52	0xba565398	-0.00081759086
53	0x390c2a07	0.00013367097
54	0xbc293c48	-0.010329314
55	0x3c3c93d4	0.011509854
56	0x3cb19075	0.021675328
57	0xbc4b3d99	-0.012404823
58	0x3c14dc70	0.0090857595
59	0xbaf2fb5f	-0.0018538049
60	0x39a87692	0.000321318
61	0x3bf2bfa7	0.0074081006
62	0xbc093c2c	-0.0083761625
63	0x3c802243	0.015641337
64	0x39e21392	0.0004312066
65	0x3c27f014	0.01025011
66	0x3b46e6e2	0.003035002
67	0x3c2095ad	0.0098013105
68	0xbc45e9d3	-0.012079674
69	0xbc4f919f	-0.012668996
70	0x3a8bfd6d	0.0010680385
71	0x37b43e1b	2.1486592e-05
72	0x3be7ecca	0.007077788
73	0x3b9cb8c7	0.0047827694
74	0xbb4cb527	-0.0031235905
75	0xbbc794ff	-0.0060907598
76	0xbc19eeb4	-0.00939529
77	0xbbd3496a	-0.0064479606
78	0xbbfc607f	-0.007701933
79	0xbb299fd7	-0.0025882625
80	0xbc048ebe	-0.008090673
81	0xbb8ced2c	-0.004300734
82	0x3b82c120	0.0039903075
83	0x3b8169ba	0.003949371
84	0x3c36a617	0.011147997
85	0xba357531	-0.0006922065
86	0x3baceaab	0.005276998
87	0xba2ae6a4	-0.00065193535
88	0xbb822371	-0.00397151
89	0xbc32da5f	-0.010916322
90	0xbc817478	-0.015802607
91	0xbbbfd1b2	-0.005853855
92	0x3c833d13	0.016020333
93	0xbb9c4c4b	-0.004769837
94	0xbb256f18	-0.002524322
95	0xbb68b8d2	-0.0035510552
96	0x3bbb9d8f	0.0057255696
97	0x3bc2caa7	0.005944568
98	0xbb9dcfb2	-0.004816019
99	0x3c5b76ff	0.01339507
100	0xbc81265b	-0.01576536
101	0xbb212dd7	-0.0024593973
102	0x3b1aa099	0.0023594259
103	0x3b9a986f	0.0047178785
104	0xbbb1ab2a	-0.0054220157
105	0x3aa11973	0.001229091
106	0xbbfd3e82	-0.007728399
107	0x3ad11143	0.0015950579
108	0xbb22f6a3	-0.0024866245
109	0x3bef55b5	0.0073039182
110	0x3c1a3378	0.009411685
111	0xba1c6b7e	-0.00059669453
112	0xbc17c668	-0.009263612
113	0xbbbf4612	-0.0058372105
114	0x3c75cdbf	0.015002667
115	0x3b32e465	0.0027296778
116	0xba143936	-0.0005654277
117	0x3b3b37dc	0.002856723
118	0xbc00b6b7	-0.007856063
119	0x3c9ff5bb	0.019526353
120	0xbaf1f1ef	-0.0018458943
121	0x3bfdde4d	0.0077474476
122	0xbc1729df	-0.009226291
123	0xbb5086db	-0.0031818661
124	0x3cc94fa8	0.024574116
125	0x3c5d4cb0	0.013507053
126	0x3c2ba5c9	0.010476538
127	0xbbc65e03	-0.0060536875

network_body._body_endoder.seq_layers.0.bias f4 [128]
0	0xbdfac06b	-0.12243732
1	0x3c2f8cb0	0.010714695
2	0xbe1241a0	-0.14282846
3	0xbd0c298f	-0.03421932
4	0xbdf02d15	-0.11727349
5	0x3d05e69d	0.032690633
6	0xbd92a69f	-0.07160687
7	0x3cb21ad2	0.021741305
8	0xbdd84193	-0.10559382
9	0x3d9b619a	0.075869754
10	0xbd3ffb9e	-0.04687082
11	0xbe174cf3	-0.14775448
12	0xbc35f91d	-0.0111067565
13	0x3c7b986c	0.015356164
14	0x3cfc5124	0.03080041
15	0x3c381991	0.011236564
16	0x3b1cfb8a	0.002395364
17	0xbc83d310	-0.016091853
18	0xbcbc0983	-0.022953754
19	0xbd96a496	-0.07355611
20	0xbc06c771	-0.0082262615
21	0xbd938e88	-0.0720492
22	0xbd034ef4	-0.032057717
23	0xbdd466e3	-0.103711866
24	0xbd998dac	-0.07497725
25	0xbdef6d72	-0.11690797
26	0x3d44a2a0	0.048006654
27	0x3d5363ea	0.051608957
28	0xbd870c71	-0.0659417
29	0x3cd50638	0.026003942
30	0xbdc993fa	-0.098426774
31	0xbd098a7e	-0.033579342
32	0x3d75d708	0.060019523
33	0xbd2e899b	-0.0426117
34	0x3d7dbe2f	0.06194895
35	0xbcb0e9ad	-0.0215958
36	0xbc779cb0	-0.015113041
37	0xbd8f7c8b	-0.070061766
38	0xbdb455d0	-0.0880543
39	0xbd631c4d	-0.05544691
40	0xbbbadbba	-0.005702463
41	0xbb88ffe8	-0.004180897
42	0x3b88d8cb	0.0041762344
43	0x3ce8103c	0.028328054
44	0xbaa8306e	-0.0012831816
45	0x3c5ee943	0.013605419
46	0x3dc0f5c8	0.09421879
47	0x3cdd712c	0.027031504
48	0xbdcb12e9	-0.09915716
49	0x3be33430	0.0069337115
50	0x3c62d21a	0.013844037
51	0x3ddbd397	0.10733717
52	0xbcf29a9a	-0.029614735
53	0x3ca6017d	0.020264382
54	0x3b6fa69b	0.003656781
55	0xbc8845ae	-0.016634788
56	0xbd8da25f	-0.069157355
57	0x3dc85edc	0.09783718
58	0xbdd7113a	-0.105013326
59	0xbcfc39f1	-0.030789347
60	0x3bda0b3b	0.006654171
61	0xbe20094a	-0.15628543
62	0x3d327b5e	0.043574683
63	0xbcb3afd6	-0.021934431
64	0xbe27b17d	-0.163763
65	0xbb7e44f9	-0.0038798435
66	0xbe842d1f	-0.25815675
67	0xbda4558d	-0.0802413
68	0xbd8e32e6	-0.06943302
69	0xbc3266bf	-0.010888754
70	0x3c8f6bdf	0.017507492
71	0x3d7cbcf6	0.061703645
72	0xbd254280	-0.040346622
73	0x3cbb0c2b	0.02283295
74	0xbdbd508b	-0.09243878
75	0xbd3c3568	-0.04594937
76	0xbdb48ccd	-0.08815918
77	0xbd450c4c	-0.04810743
78	0xbe0cfaab	-0.13767497
79	0xbd60f3de	-0.05492007
80	0x3c5290e6	0.012851929
81	0xbd86abfe	-0.06575774
82	0xbd01f14d	-0.031724263
83	0xbd262633	-0.040563773
84	0x3d3cb896	0.046074472
85	0x3d2b19fa	0.04177282
86	0xbd2f075c	-0.042731628
87	0xbdefaf94	-0.11703411
88	0x3e049273	0.12946491
89	0x3d722cab	0.05912463
90	0x3c624e65	0.013812636
91	0xbde5013e	-0.111818776
92	0xbd338816	-0.043830954
93	0x3be96953	0.0071231513
94	0x3de039ce	0.10948525
95	0xbd0137d3	-0.03154738
96	0xbbb14edb	-0.0054110116
97	0xbe23a837	-0.15982138
98	0xbe1bee87	-0.1522771
99	0x3d350238	0.04419157
100	0x3d13122f	0.035906013
101	0x3c15c1b1	0.009140418
102	0x3d31deec	0.043425485
103	0xbd8bdfa0	-0.068297625
104	0xbdb81942	-0.089891925
105	0x3d5cb878	0.05388686
106	0x3cb2a262	0.021805946
107	0xbd8b3dac	-0.06798872
108	0xbd6a67df	-0.057227965
109	0xbe1f75e4	-0.15572315
110	0xbdc913c0	-0.0981822
111	0xbd8caa52	-0.068684235
112	0x3d28fa8b	0.04125456
113	0xbcd463e8	-0.025926545
114	0xbdea0475	-0.11426631
115	0xbb34e118	-0.0027599987
116	0xbdbd819f	-0.09253239
117	0xbd338f3c	-0.04383777
118	0x3c6fad11	0.014628665
119	0x3d54998c	0.051904246
120	0x3b2eb3fd	0.0026657574
121	0xbb88d9ea	-0.004176368
122	0xbc0a5f53	-0.008445579
123	0xbe32efd6	-0.17474303
124	0x3b017724	0.0019754851
125	0xbc47e3d0	-0.012200311
126	0xbdfedb19	-0.12444133
127	0xbc0c862c	-0.008576911

network_body._body_endoder.seq_layers.0.weight f4 [128, 72]
0	0xbe5ac5da	-0.21364537
1	0xbe128acf	-0.14310764
2	0xbb23aaea	-0.00249737
3	0x3d026e4c	0.03184347
4	0x3d10656d	0.035252977
5	0xbe737b5f	-0.23777531
6	0x3e2cfbf6	0.1689299
7	0xbca7ec4e	-0.020498421
8	0x3d957bb8	0.07298988
9	0xbe79365c	-0.24337143
10	0xbc5c0492	-0.013428824
11	0xbd809cac	-0.06279883
12	0xbdcc41c0	-0.09973478
13	0xba02d503	-0.00049908477
14	0xbe8664c6	-0.2624876
15	0xbe2d9307	-0.16950618
16	0xbe56d7a8	-0.20980704
17	0x3dcbecce	0.09957276
18	0x3db99261	0.09061123
19	0xbea536df	-0.32268426
20	0xbe0c0d2f	-0.13676904
21	0x3e00a4eb	0.12562911
22	0xbe001a79	-0.12510099
23	0xbd1dc3ff	-0.038516995
24	0xbe4194a6	-0.18904361
25	0x3dc6e684	0.09711936
26	0xbcbeaa0a	-0.02327444
27	0xbd9c72ef	-0.07639109
28	0x3e905984	0.28193295
29	0xbe624847	-0.22097884
30	0xbdb0a759	-0.08625669
31	0xbe4914a6	-0.19636783
32	0xbda6d232	-0.0814556
33	0x3e28dd59	0.16490687
34	0xbd442f27	-0.04789653
35	0xbe05414c	-0.1301319
36	0xbd76a12c	-0.0602123
37	0xbdc3fa8d	-0.09569273
38	0xbc235ade	-0.009970395
39	0xbe8b3ef0	-0.27196455
40	0xbcbcc573	-0.02304337
41	0x3cbfc777	0.023410542
42	0x3e111534	0.14168245
43	0xbcbc099b	-0.022953799
44	0xbd4c9ff0	-0.049957216
45	0xbe8ab9b8	-0.27094817
46	0xbe6d867a	-0.2319583
47	0x3dd5cff2	0.10440053
48	0x3da1ecc0	0.079064846
49	0xbe6ca176	-0.23108467
50	0xbe6c9861	-0.23105003
51	0x3e8c1441	0.27359203
52	0xbe87fca8	-0.2655995
53	0x3e81b247	0.25331327
54	0x3e197c08	0.1498872
55	0x3db7e255	0.08978716
56	0x3e7d24a7	0.24721013
57	0xbc396b3e	-0.011317072
58	0xbbc38ef6	-0.00596797
59	0xbd485bb4	-0.04891558
60	0x3cfd889b	0.030948928
61	0x3e0c2e92	0.1368964
62	0x3c7e1abb	0.015509303
63	0xbce93654	-0.028468288
64	0xbd24cecc	-0.04023628
65	0x3d709b9b	0.058742147
66	0xbe17730d	-0.14789982
67	0xbd813e4c	-0.0631071
68	0xbd13fadb	-0.036127906
69	0x3e501830	0.20321727
70	0x3d6329ff	0.055459972
71	0x3d727a50	0.059198678
72	0x3c9f4870	0.01944372
73	0x3d8021b3	0.062564276
74	0xbceb7851	-0.028743895
75	0xbdee21de	-0.116275534
76	0x3df57409	0.119850226
77	0xbdaf447b	-0.085579835
78	0xbc3d5c4b	-0.011557649
79	0xbd8bb9e0	-0.06822562
80	0xbdf691bf	-0.120395176
81	0xbe6fc3dd	-0.2341456
82	0x3de66a17	0.11250704
83	0xbddfe7c3	-0.10932877
84	0xbdd65f53	-0.104674004
85	0xbd63c6b2	-0.055609412
86	0x3d2b32d3	0.041796517
87	0x3dc201f7	0.09473031
88	0x3db554b7	0.08854049
89	0x3ead4892	0.3384443
90	0x3cc552a3	0.024087256
91	0x3e03b476	0.12861809
92	0xbe8d0b00	-0.27547455
93	0x3cfaed24	0.030630656
94	0xbdd6ade7	-0.10482388
95	0x3e6d8522	0.23195317
96	0xbd72a59d	-0.059239972
97	0xbe780db8	-0.24223983
98	0x3df20122	0.11816622
99	0x3bf4f792	0.0074758017
100	0xbd698b8c	-0.057017848
101	0xbe8789fc	-0.2647246
102	0xbdd0a931	-0.10188521
103	0xbe3bb43a	-0.1833047
104	0x3c29b374	0.010357726
105	0xbcd75b65	-0.026288697
106	0xbcbdf96c	-0.023190223
107	0xbe226ba3	-0.15861373
108	0xbe619cb3	-0.22032432
109	0x3d77cc8c	0.060497805
110	0x3dde7ee6	0.10864048
111	0x3e45d5a3	0.19319777
112	0xbcbb5002	-0.0228653
113	0x3a73ee6a	0.0009305241
114	0x3e1fc073	0.15600757
115	0xbdb6112d	-0.08889995
116	0x3dedde5d	0.11614678
117	0x3e835cd0	0.25656748
118	0xbda211ea	-0.07913573
119	0xbe853c67	-0.26022646
120	0xbc3be6bf	-0.011468588
121	0x3df87222	0.12131144
122	0xbe61bc73	-0.22044544
123	0xbd9c39a1	-0.07628179
124	0xbe39e6a7	-0.18154393
125	0xbe8e176e	-0.2775225
126	0x3e01ab17	0.12662922
127	0x3e359b54	0.17735034
128	0xbdb196e5	-0.08671359
129	0xbcc9c920	-0.024632037
130	0x3e209db5	0.1568516
131	0x3d304146	0.043031
132	0x3c886f8c	0.016654752
133	0xbe1796a1	-0.14803554
134	0x3c423658	0.011853777
135	0x3dd7d7a6	0.105391786
136	0x3dd62d19	0.104578204
137	0xbc63bf0d	-0.0139005305
138	0xbe5dc652	-0.21657684
139	0xbd174778	-0.036933392
140	0xbde7abaa	-0.11312039
141	0x3e627957	0.221166
142	0x3be5da28	0.0070145316
143	0xbdd90bcd	-0.10597954
144	0xbc5689aa	-0.013094345
145	0x3dbf966b	0.09354862
146	0x3daf0b1b	0.0854704
147	0xbe8f7b9f	-0.28024003
148	0xbde511d7	-0.11185043
149	0xbdd40114	-0.10351768
150	0xbd020807	-0.031745937
151	0xbca8b5f3	-0.020594573
152	0xbe117bf5	-0.14207442
153	0xbe4676fe	-0.1938133
154	0xbd877a97	-0.06615179
155	0x3dd8ddaf	0.10589158
156	0xbe918efc	-0.284294
157	0xbe4e105f	-0.20123433
158	0xbe9ab960	-0.30219555
159	0xbe4278d0	-0.18991399
160	0xbe8bc124	-0.27295792
161	0xbc636a75	-0.013880362
162	0x3d9a1058	0.075226486
163	0xbe82951f	-0.25504395
164	0xbd9a1033	-0.07522621
165	0xbd855e0b	-0.06512078
166	0xbbe2c82e	-0.006920836
167	0x3e9f0cb7	0.31064388
168	0xbe5da44d	-0.21644707
169	0xbe160726	-0.14651164
170	0x3d9a1e31	0.0752529
171	0xbdf64763	-0.12025335
172	0x3d7839e1	0.060602073
173	0xbe7dbd66	-0.24779281
174	0xbed8569d	-0.4225358
175	0xbe849dd8	-0.25901675
176	0x3e5c33d4	0.21504146
177	0xbda15ac8	-0.07878643
178	0xbeaeb31d	-0.34121028
179	0xbd822a97	-0.063557796
180	0xbeaf5107	-0.34241506
181	0x3e3d2579	0.18471326
182	0xbd3f7a7e	-0.046747677
183	0xbeca284f	-0.39483878
184	0xbde3745c	-0.11106178
185	0xbd789b3a	-0.06069491
186	0x3cf187d9	0.029483723
187	0x3df17519	0.11789913
188	0xbdb69fde	-0.08917211
189	0xbe2e3f4d	-0.17016335
190	0xbde3abc5	-0.11116747
191	0x3e288c8a	0.16459861
192	0x3d68fbd0	0.056880772
193	0xbe4e931a	-0.20173302
194	0xbdf6f846	-0.12059073
195	0x3e82277c	0.2542075
196	0xbcb0ebfc	-0.021596901
197	0xbea2a95e	-0.31769842
198	0x3d896baa	0.067099884
199	0x3e0460b3	0.12927513
200	0xbed710af	-0.42004916
201	0x3e7e3eb5	0.24828608
202	0xbde8c885	-0.11366371
203	0xbe15bc10	-0.14622521
204	0xbdf41ff8	-0.1192016
205	0x3d7b16e2	0.06130112
206	0xbddfcda3	-0.10927894
207	0x3d1c09a8	0.038095146
208	0x3ce235d9	0.027613567
209	0xbe0e9412	-0.13923672
210	0xbe29684d	-0.16543694
211	0xbd3a9176	-0.04554888
212	0x3e421f2d	0.18957205
213	0xbd918fd1	-0.07107509
214	0xbc28d888	-0.010305531
215	0x3c954c0c	0.018224739
216	0x3d7aeab1	0.061258975
217	0x3e130be5	0.14360006
218	0x3e4506da	0.19240895
219	0x3d99e98f	0.07515251
220	0x3e1ce1eb	0.15320556
221	0xbbc045ae	-0.0058676815
222	0x3dc44c68	0.09584886
223	0x3d728602	0.05920983
224	0x3e207b3a	0.15672007
225	0xbd93bf6c	-0.07214245
226	0xbe013180	-0.12616539
227	0xbd1de5c7	-0.03854921
228	0x3e343bba	0.17600909
229	0xbdbdf828	-0.09275848
230	0xbe729c37	-0.23692404
231	0x3d23c3e5	0.03998174
232	0x3d2ab83b	0.041679602
233	0x3dfc5d39	0.12322468
234	0x3d125c94	0.03573282
235	0x3e0962c0	0.13416576
236	0xbc170ad9	-0.009218895
237	0xbc9da054	-0.01924149
238	0x3d90e977	0.0707578
239	0xbcc8c306	-0.024507057
240	0xbdee0cf5	-0.11623565
241	0x3ce4431d	0.027864033
242	0xbe1b909e	-0.15191886
243	0xbde0ce43	-0.10976841
244	0x3d3e69c9	0.046487603
245	0xbd9e045b	-0.077156745
246	0x3e8ed618	0.27897716
247	0x3d4661fb	0.048433285
248	0xbdfdffa9	-0.12402279
249	0xbe5cb3db	-0.21552984
250	0xbcc4f30c	-0.024041675
251	0xbd4e5d0a	-0.050381698
252	0xbe7a10b5	-0.24420436
253	0x3e12dc3b	0.14341824
254	0xbcf4a8b3	-0.029865598
255	0xbe0af046	-0.1356822

network_body._body_endoder.seq_layers.2.bias f4 [128]
0	0x3db753ec	0.08951554
1	0xbd9f383f	-0.077744
2	0xbd976672	-0.07392587
3	0x3e1f7012	0.15570095
4	0xbdd319cf	-0.10307657
5	0xbb36f84b	-0.002791899
6	0xbd7bf9ef	-0.061517652
7	0xbd522e1f	-0.051313516
8	0x3c8f2b48	0.017476693
9	0x3cc9868a	0.024600286
10	0xbd992390	-0.07477486
11	0xbc89846e	-0.01678678
12	0xbc4d6aed	-0.0125377
13	0xbcc3c0df	-0.023895679
14	0xbe07d9b3	-0.1326664
15	0xbcfd7321	-0.030938687
16	0xbda35543	-0.07975247
17	0xbda4c642	-0.08045627
18	0xbe25d777	-0.16195475
19	0xbd5d9478	-0.05409667
20	0x3c16eb78	0.009211414
21	0x3c667696	0.014066359
22	0xbd5b1f9f	-0.053496953
23	0x3d545bb8	0.051845282
24	0xbcc9cbd3	-0.024633324
25	0x3dfae4a2	0.122506395
26	0x3d8604dc	0.065438956
27	0x3d9cee3e	0.076626286
28	0x3df022c5	0.11725382
29	0xbd2acb31	-0.041697685
30	0x3e38d73b	0.18050854
31	0xbcd84df3	-0.026404357
32	0xbd00f570	-0.031484067
33	0xbd801f44	-0.062559634
34	0xbd69a209	-0.057039294
35	0xbd0c7f93	-0.03430135
36	0xbd252cdb	-0.04032598
37	0xbdf1ee20	-0.11812997
38	0x39e66b83	0.0004394912
39	0xbdba415d	-0.09094498
40	0xbcac3138	-0.021019563
41	0xbdd6e8fd	-0.10493658
42	0xbdabc039	-0.08386273
43	0x3d4a9283	0.04945613
44	0x3d538614	0.05164154
45	0x3c998ce8	0.018743947
46	0xbd91f700	-0.0712719
47	0xbd35fb35	-0.044429023
48	0xbdedea88	-0.11616999
49	0xbda1db0e	-0.079031095
50	0x3c834947	0.016026152
51	0xbde45528	-0.11149055
52	0x3a86af42	0.001027562
53	0xbcd1abe7	-0.025594665
54	0xbd638858	-0.05554995
55	0x3bbe4de9	0.0058076275
56	0xbd27bcf0	-0.04095167
57	0xbba671a3	-0.0050794645
58	0xbc8ee8c7	-0.017444981
59	0xbd833ff2	-0.06408681
60	0xbcca9024	-0.024726935
61	0xbd439c3d	-0.047756422
62	0xbd818919	-0.063249774
63	0xbd27a754	-0.04093106
64	0xbc68dbb9	-0.014212542
65	0x3d64eeb8	0.055891722
66	0xbdac2eee	-0.08407389
67	0x3cfa7b92	0.030576501
68	0x3dbd783b	0.09251448
69	0xbd948f1d	-0.07253859
70	0xbdcc3748	-0.099714816
71	0xbd475ecb	-0.048674386
72	0xbda9962c	-0.08280596
73	0x3cb5c188	0.02218701
74	0x3c20eca9	0.009822049
75	0xba993de1	-0.0011691415
76	0xbdac2058	-0.084046066
77	0xbda4a3d8	-0.08039063
78	0xbd901ca4	-0.07036713
79	0x3d300f0c	0.0429831
80	0xbcd55eb3	-0.026046133
81	0xbcf49b2b	-0.029859146
82	0xbca24b69	-0.019811349
83	0xbce1f5e9	-0.02758308
84	0x3cc75871	0.024334164
85	0xbc64a804	-0.013956074
86	0x3daab7dc	0.0833585
87	0xbb3e036e	-0.0028993743
88	0x3cca2432	0.024675462
89	0xbd9f92a2	-0.0779164
90	0xbd461469	-0.04835931
91	0xbc7dca2f	-0.015490099
92	0xbd63fd32	-0.055661388
93	0xbca59358	-0.02021186
94	0xbd976f77	-0.07394307
95	0xbc092b00	-0.008372068
96	0xbd8951a9	-0.067050286
97	0xbdda7a5c	-0.106678694
98	0x3da75d26	0.081720635
99	0x3d349e48	0.04409626
100	0xbd4cb6a2	-0.04997886
101	0xbc4c5d6c	-0.012473445
102	0xbdb39018	-0.08767718
103	0x3ca39084	0.019966371
104	0x3daa12c4	0.083043605
105	0xbcc76722	-0.02434117
106	0xbda2eecc	-0.07955703
107	0x3d89104b	0.06692561
108	0x3d0e4c2b	0.03474061
109	0x3cbf581b	0.023357442
110	0xbd4ea60c	-0.050451323
111	0x3d81f2ce	0.063451394
112	0xbd791f43	-0.06082083
113	0x3d076d25	0.033063073
114	0x3d84030c	0.06445894
115	0xbd68b8f3	-0.056817006
116	0xbe0029bf	-0.12515925
117	0xbd4a14ac	-0.04933612
118	0x3b128e79	0.0022362752
119	0xbd70ddfd	-0.058805455
120	0x3c8399b3	0.0160645
121	0xbdae31b7	-0.08505576
122	0xbd68e4d8	-0.056858867
123	0xbce62e2e	-0.028098192
124	0x3bf0a4e4	0.0073438752
125	0x3c713a7e	0.014723418
126	0x3e20f718	0.15719259
127	0xbde4ad32	-0.11165847

network_body._body_endoder.seq_layers.2.weight f4 [128, 128]
0	0xbd45b079	-0.048264
1	0xbe045ed3	-0.12926798
2	0xbdbfc4b4	-0.0936369
3	0xbd65064f	-0.05591422
4	0x3c07b0d4	0.008281905
5	0x3da962fa	0.082708314
6	0xbcd044f7	-0.02542351
7	0xbdece2ee	-0.11566721
8	0x3d52167f	0.051290985
9	0xbdcc6c57	-0.09981602
10	0xbdac5e10	-0.084163785
11	0xbd905733	-0.07047882
12	0xbe833002	-0.25622565
13	0xbe4fbafd	-0.20286174
14	0xbcd61d41	-0.026136996
15	0x3de6a3fb	0.112617455
16	0xbcc9fe69	-0.024657445
17	0xbcc46034	-0.023971654
18	0x3d0c4dce	0.034253888
19	0x3deedadd	0.116628386
20	0xbcd77cc9	-0.02630462
21	0xbe25c05c	-0.1618666
22	0xbe0de107	-0.13855372
23	0xbd09bd0e	-0.033627562
24	0xbda0a1c1	-0.07843352
25	0x3e204a07	0.15653239
26	0x3cf49e73	0.02986071
27	0x3ebeb8fa	0.372505
28	0x3e267c28	0.162583
29	0xbd2a0d92	-0.041516848
30	0xbcf9d7a3	-0.030498331
31	0x3e32bc0b	0.17454545
32	0xbdcf7694	-0.10130039
33	0xbcdd6bea	-0.027028996
34	0x3e19bc40	0.15013218
35	0x3e718760	0.23586798
36	0x3d7a8c4a	0.061168946
37	0xbe051fc2	-0.13000396
38	0x3d16e3d8	0.036838382
39	0x3e2fd1fd	0.17169948
40	0x3e5d3e85	0.2160588
41	0x3e0200e1	0.12695648
42	0x3d8e023f	0.06934022
43	0x3a5f9a6f	0.00085297873
44	0xbc42b3b9	-0.0118836695
45	0xbe25e2d2	-0.16199806
46	0xbd88de57	-0.06683033
47	0xbdef4dbe	-0.1168475
48	0xbcf8069d	-0.030276591
49	0x3e230803	0.15921025
50	0xbb270452	-0.0025484753
51	0x3e624dfa	0.22100058
52	0x3dc9fc39	0.09862561
53	0xbce629a7	-0.028096033
54	0xbdc77d1d	-0.0974066
55	0xbcf06a3c	-0.029347531
56	0x3def8c32	0.11696662
57	0x3db92793	0.09040751
58	0xbea1ef49	-0.31627873
59	0x3d80653a	0.062693074
60	0xbe6f64cf	-0.23378299
61	0xbda50368	-0.0805729
62	0x3d70d217	0.058794107
63	0xbd4057fd	-0.046958912
64	0x3c2f48d3	0.010698515
65	0x3b676884	0.00353101
66	0x3d64e63f	0.055883642
67	0x3e2915bd	0.16512199
68	0x3e20e65c	0.15712875
69	0xbd4bd2b2	-0.04976148
70	0x3dc01668	0.09379274
71	0x3c215aa9	0.009848275
72	0xbba4a900	-0.005025029
73	0xbe0bdf6e	-0.1365945
74	0xbdc421dd	-0.095767714
75	0x3e5f7de1	0.21825363
76	0x3d49bd40	0.04925275
77	0x3da401d7	0.080081634
78	0xbdfef021	-0.12448145
79	0xbd76c826	-0.06024947
80	0xbe54359b	-0.20723574
81	0x3d367c3d	0.044552077
82	0x3d1d3db4	0.038388923
83	0x3d0078b2	0.031365104
84	0x3e2b6d08	0.16740811
85	0x3d956126	0.0729392
86	0xbd0a5027	-0.033767845
87	0x3dc74e75	0.09731761
88	0x3e334d33	0.17509918
89	0x3e0eacf0	0.13933158
90	0xbd3d042e	-0.046146564
91	0x3cae7b9e	0.02129918
92	0xbdb975b4	-0.09055653
93	0x3df14672	0.117810145
94	0x3e39b628	0.18135893
95	0x3e34b0e6	0.17645606
96	0x3e0c540c	0.13703936
97	0xbd89e7da	-0.06733675
98	0x3dd77356	0.105200455
99	0x3da6d1aa	0.08145459
100	0x3e2b2095	0.16711648
101	0xbb6deb72	-0.0036303666
102	0x3e8ddaba	0.27705938
103	0xbc8b3155	-0.016991297
104	0xbd1f64dc	-0.038914546
105	0xbdaa945b	-0.08329078
106	0x3d90df00	0.07073784
107	0xbbc3c14d	-0.005973971
108	0x3d183a9c	0.03716527
109	0xbe2d115d	-0.16901155
110	0xbe2078d0	-0.15671086
111	0x3ccc1891	0.024914058
112	0x3dd10af4	0.10207167
113	0x3e150cb8	0.14555633
114	0xbda29c4d	-0.07939968
115	0x3d313337	0.043261733
116	0x3d4d5db9	0.05013821
117	0x3e4c035f	0.19923161
118	0xbd24c91c	-0.040230855
119	0x3dc2abf2	0.09505452
120	0xbe2aa159	-0.16663112
121	0xbdc6f7f2	-0.097152606
122	0xbd98eb35	-0.07466737
123	0xbdd7d82f	-0.105392806
124	0xbe2d88e0	-0.16946745
125	0xbdceb6cf	-0.10093462
126	0x3ce4cc41	0.027929427
127	0x3e0d14e2	0.13777497
128	0xbcc7ec87	-0.024404777
129	0x3dc969b8	0.098346174
130	0x3e032d1a	0.12810174
131	0x3b91cbb9	0.0044493345
132	0x3d61eef4	0.055159524
133	0xbe636cfa	-0.2220954
134	0xbe050326	-0.12989482
135	0x3e108dd3	0.14116602
136	0xbdc6713a	-0.09689565
137	0x3ca02d79	0.019552933
138	0x3e00b76d	0.12569971
139	0x3cf51c76	0.029920798
140	0x3d97e094	0.07415882
141	0x3c95870c	0.018252872
142	0x3db33f36	0.08752291
143	0xbe28cd98	-0.16484678
144	0x3e02e185	0.12781341
145	0x3e44e70d	0.19228764
146	0x3db3a478	0.08771604
147	0x3da3fc5e	0.080071196
148	0x3e15708e	0.14593717
149	0x3d1e3e98	0.038633913
150	0xbe01b8b5	-0.12668116
151	0x3d94a5e3	0.07258203
152	0x3cfbdcb7	0.030744893
153	0xbc300e28	-0.010745563
154	0xbd967fa3	-0.073485635
155	0xbcf4c7bb	-0.029880395
156	0xbd8da9bd	-0.06917141
157	0x3a234f3f	0.0006229765
158	0xbd91b091	-0.071137555
159	0x3db69de9	0.08916838
160	0xba61fbf4	-0.0008620613
161	0x3d9b0b53	0.07570519
162	0x3da83d18	0.08214778
163	0xbc926b06	-0.017873298
164	0xbd091c80	-0.033474445
165	0x3e85f1a7	0.2616093
166	0x3d92b3f6	0.07163231
167	0x3d9bf9f1	0.07616032
168	0x3d404c19	0.046947572
169	0x3e3b81f7	0.18311296
170	0x3df141cd	0.11780129
171	0x3e08c19a	0.13355103
172	0xbb7c20d7	-0.0038471723
173	0x3e21de79	0.15807523
174	0xbdb48d1b	-0.08815976
175	0x3d92e073	0.071717165
176	0xbc85472e	-0.016269293
177	0x3da442bc	0.08020541
178	0x3d558b65	0.05213489
179	0xbd89b198	-0.067233264
180	0xbbcd5862	-0.0062666396
181	0xbdbeab8a	-0.09310062
182	0x3e5bb19f	0.21454476
183	0xbd48f12a	-0.049058117
184	0x3a271776	0.00063740404
185	0x3d7d8644	0.061895624
186	0x3dc5388e	0.096299276
187	0x3e20f63f	0.15718935
188	0x3d4d5d7a	0.050137974
189	0x3dd1f6ea	0.10252173
190	0x3dc1700a	0.09445198
191	0x3e85ae00	0.26109314
192	0x3d245d16	0.040127836
193	0x3e4d40ad	0.20044203
194	0x3d1d80b0	0.038452804
195	0xbced87b6	-0.028995376
196	0xbdb79ef7	-0.08965867
197	0xbd4bd137	-0.04976007
198	0xbda3d5f7	-0.07999795
199	0x3ce6f84a	0.028194565
200	0x3dd741d7	0.10510605
201	0x3e1979bc	0.14987844
202	0x3dcd64b5	0.10028974
203	0xbbf30f23	-0.007417576
204	0xbd1c0f47	-0.038100507
205	0xbca5b63f	-0.020228503
206	0xbb9395d5	-0.0045039454
207	0x3ded4737	0.11585849
208	0xbe2e4be7	-0.17021142
209	0x3c3a5c5a	0.011374557
210	0xbd0d5077	-0.034500565
211	0x3dad75e8	0.084697545
212	0xbc83768d	-0.01604774
213	0xbcec45ec	-0.028841935
214	0xbbab7e94	-0.005233595
215	0x3e46f448	0.19429123
216	0xbd976f73	-0.07394304
217	0x3dd662c1	0.104680546
218	0x3e029920	0.12753725
219	0x3c3fb591	0.011701004
220	0x3c91dd51	0.017805727
221	0xbe8db17f	-0.2767448
222	0xbd433a01	-0.04766274
223	0xbdd460b3	-0.103700064
224	0xbda4f7c1	-0.08055068
225	0xbc928b71	-0.017888756
226	0x3c6be00e	0.0143966805
227	0xbe8b9ad1	-0.27266553
228	0xbcf72e4c	-0.030173443
229	0xbd369b88	-0.04458192
230	0xbe1c5ad5	-0.15269025
231	0x3d34684b	0.044044774
232	0xbe1cac2c	-0.15300053
233	0xbe1bd277	-0.15217005
234	0xbd8631fb	-0.06552502
235	0xbd89874c	-0.06715259
236	0x3d8c2d09	0.06844527
237	0xbd03ad6d	-0.032147814
238	0x3e8e26fa	0.27764112
239	0xbd9bfc00	-0.076164246
240	0xbcaaf9b5	-0.020871023
241	0x3cb7a1d4	0.022416033
242	0xbc93ef6d	-0.018058503
243	0xbddbaf20	-0.10726762
244	0x3b3e7f4f	0.002906758
245	0x3d15f211	0.036607806
246	0xbd07b621	-0.033132676
247	0x3d573331	0.052539054
248	0x3e0f871d	0.14016385
249	0x3e47734f	0.1947758
250	0x3cd58858	0.02606599
251	0x3d58a02d	0.05288713
252	0xbdfe738c	-0.124243826
253	0x3d0536e3	0.032523047
254	0xbdb064cb	-0.08612975
255	0xbe4ccd4c	-0.2000019
