Assets/CarPractice_run21.onnx (onnx, 103637 bytes, 8 tensors)

action_model._continuous_distribution.log_sigma f4 [1, 2]
0	0xbf5d4718	-0.86436605
1	0xbf54d5be	-0.83138645

action_model._continuous_distribution.mu.bias f4 [2]
0	0xbc9acd94	-0.018896855
1	0x3d90bcea	0.070672825

action_model._continuous_distribution.mu.weight f4 [2, 128]
0	0x3dc68acc	0.09694442
1	0x3d69a99f	0.05704653
2	0x3cfa3a7d	0.030545468
3	0xbd562ba6	-0.05228772
4	0x3dd669dc	0.1046941
5	0x3c68844c	0.014191698
6	0x3d990dc8	0.07473332
7	0x3d01d0a6	0.031693123
8	0xbd31602f	-0.04330462
9	0xbcc8727c	-0.024468653
10	0xbcf42b9e	-0.029805955
11	0x3b51c042	0.0032005464
12	0x3d3538c3	0.044243585
13	0x3d9d15a9	0.07670147
14	0xbc14d832	-0.009084748
15	0x3ddedf28	0.108824074
16	0x3e0ceed6	0.13762984
17	0xbde3962d	-0.11112628
18	0xbbf3342d	-0.0074219913
19	0x3c4926a9	0.012277284
20	0xbda14736	-0.078749105
21	0xbd4358f8	-0.04769227
22	0xbce36c2c	-0.027761541
23	0xbd04b380	-0.032397747
24	0xbd3406d0	-0.04395181
25	0x3d1fad77	0.03898379
26	0x3e08e317	0.13367878
27	0xbe24b4f0	-0.16084647
28	0x3db3b30d	0.087743856
29	0xbcd0fbc7	-0.025510682
30	0xbdbb9821	-0.09159876
31	0xbcb43483	-0.021997696
32	0x3d4ac3e9	0.04950324
33	0x3d222222	0.039583333
34	0xb9965b1e	-0.00028678117
35	0xbaf88afa	-0.0018962317
36	0x3cbd1d85	0.023085365
37	0x3d4e219e	0.05032503
38	0x3c0de5dc	0.00866076
39	0x3c8ffe5d	0.017577345
40	0x3df59f83	0.11993315
41	0x3c2b92e4	0.010472033
42	0x3decf192	0.115695134
43	0x3dfe9c46	0.124321505
44	0xbd0b0e67	-0.033949282
45	0xbd83c8fc	-0.06434819
46	0x3d635061	0.055496577
47	0xbd102085	-0.035187263
48	0xbc00c69c	-0.007859852
49	0xbd84b0b1	-0.06479014
50	0xbb521c6b	-0.0032060395
51	0xbc3a1644	-0.011357848
52	0xbe0727f9	-0.13198842
53	0xbcd1017f	-0.025513409
54	0xbd03632f	-0.03207701
55	0xbd207b00	-0.039179802
56	0x3d9a0bd3	0.075217865
57	0x3d1bd674	0.038046315
58	0xbc8ca4ce	-0.017168429
59	0x3d686488	0.0567365
60	0xbcfff10a	-0.031242866
61	0xbd716638	-0.058935374
62	0x3d836dfc	0.06417462
63	0x3c966b65	0.018361757
64	0xbcb594ca	-0.022165675
65	0x3cac886c	0.021061145
66	0xbd9f8702	-0.077894226
67	0xbd2bd6eb	-0.04195301
68	0xbd0da702	-0.0345831
69	0xbcf49b93	-0.02985934
70	0xbcfa5cd2	-0.030561838
71	0xbd461893	-0.04836328
72	0x3d20c6eb	0.039252203
73	0x3d1c73b3	0.038196277
74	0xbdbdc381	-0.09265805
75	0x3d9d6cb1	0.07686747
76	0xbd4fdfd2	-0.05075056
77	0x3d0df99a	0.034661867
78	0x3dd290ea	0.102815464
79	0xbae2a6f4	-0.0017292188
80	0x3c8b7811	0.017025026
81	0x3e01b78f	0.12667678
82	0xbde768c3	-0.112992786
83	0xbd0fd6c5	-0.03511693
84	0x3d0e8125	0.03479113
85	0xbddbaa5d	-0.107258536
86	0x3de5cf39	0.11221165
87	0xbd6f955f	-0.05849206
88	0xbdf03c51	-0.117302544
89	0x3b789658	0.0037931409
90	0xbcd43b95	-0.025907317
91	0xbca0ef93	-0.019645488
92	0xbc90e2cf	-0.017686276
93	0xbcd9b2bd	-0.026574487
94	0xbd8dcce5	-0.06923846
95	0xbd85395b	-0.0650508
96	0x3d94d239	0.07266659
97	0x3dce2ab7	0.10066741
98	0xbda25dab	-0.07928022
99	0xbcdd9b88	-0.027051702
100	0xbd95cc75	-0.07314388
101	0xbb5b04fe	-0.0033419724
102	0xbd2492c4	-0.04017903
103	0x3cf87469	0.030328946
104	0x3db4356c	0.08799252
105	0xbe0ac7a1	-0.13552715
106	0x3db2cf08	0.08730894
107	0xbd5d2572	-0.05399079
108	0x3cca78b2	0.024715755
109	0xbcccd50a	-0.025003929
110	0xbd9a8be4	-0.07546213
111	0x3c368f0e	0.011142505
112	0xbcb38301	-0.021913053
113	0x3d821d30	0.06353223
114	0x3d4a3ce0	0.04937446
115	0x3d099719	0.033591364
116	0xbc81050b	-0.015749475
117	0xbdc554f6	-0.09635346
118	0x3ccd8e72	0.025092337
119	0x3d0a74a0	0.03380263
120	0x3c59252f	0.013253494
121	0xbd2e6d77	-0.042584863
122	0xbcf829e0	-0.030293405
123	0xbd5271d5	-0.05137809
124	0x3ccea57c	0.025225393
125	0x3d369f26	0.04458537
126	0x3c1b0d80	0.009463668
127	0xbbb95ed3	-0.005657056
128	0xbc923729	-0.017848568
129	0xbdb0e869	-0.08638079
130	0xbd368395	-0.04455908
131	0x3d1754c8	0.036946088
132	0xbd99ac71	-0.07503594
133	0xbce14a7c	-0.027501337
134	0x3d953eaf	0.072873466
135	0x3d89ac83	0.06722357
136	0xbceefdb9	-0.029173719
137	0x3db72978	0.089434564
138	0x3cf7a1b4	0.030228473
139	0xbd14076f	-0.0361399
140	0xba938f1f	-0.0011257863
141	0xbc776a23	-0.015100989
142	0x3cedbd5b	0.029020956
143	0xbc101773	-0.008794653
144	0x3c80c620	0.015719473
145	0xbccf6b72	-0.025319789
146	0xbd97be1d	-0.07409308
147	0x3d80b1a4	0.06283882
148	0xbd2d5f70	-0.042327344
149	0xbc5037e3	-0.012708637
150	0xbe00a538	-0.12563026
151	0xbd336a39	-0.043802474
152	0xbca88e01	-0.020575525
153	0xbd2a2265	-0.041536707
154	0xbd260408	-0.04053119
155	0x3aabc869	0.0013105992
156	0x3d58ec38	0.05295965
157	0xbdddfcfd	-0.10839269
158	0xbd4b1fdf	-0.04959094
159	0x3e202f05	0.15642937
160	0xbd2dcb52	-0.04243023
161	0x3dd4a38d	0.10382757
162	0xbe40c652	-0.18825653
163	0x3de0e32b	0.10980829
164	0xbcfcbf24	-0.030852862
165	0xbd525f35	-0.051360328
166	0xbe0ff1a5	-0.14057024
167	0xbd884eac	-0.066556305
168	0xbdfdeb9d	-0.12398455
169	0xbd8140e0	-0.06311202
170	0x3d2496f9	0.04018304
171	0xbd9bef68	-0.076140225
172	0x3dbbcc0e	0.0916978
173	0xbcf06e86	-0.029349577
174	0xbd8c1508	-0.06839949
175	0x3dd519b0	0.1040529
176	0x3c30b8d1	0.010786251
177	0xbd294c15	-0.041332323
178	0x3cca52c7	0.024697674
179	0x3cbfff29	0.0234371
180	0xbcf57a19	-0.029965447
181	0xbd237a18	-0.03991136
182	0xbc6f38c8	-0.01460094
183	0x3d84c9dc	0.06483814
184	0xbdb345b4	-0.08753529
185	0x3dc8f740	0.09812784
186	0xbd75c8e8	-0.060006052
187	0xbd643d62	-0.0557226
188	0xbcc510ca	-0.024055857
189	0x3d4d9a95	0.05019625
190	0xbdd2afa8	-0.1028741
191	0xbda9e109	-0.08294875
192	0xbd2983af	-0.04138535
193	0xbd16565a	-0.036703445
194	0xbd77b23d	-0.060472716
195	0x3db2dd1f	0.08733582
196	0xbd01089c	-0.03150235
197	0x3dba6a52	0.0910231
198	0xbd4425f0	-0.047887743
199	0xbca0236b	-0.019548139
200	0xbe09f1bc	-0.1347112
201	0x3d44ce10	0.04804808
202	0xbdc4216d	-0.09576688
203	0xbdaf1dd4	-0.08550611
204	0x3d5a1575	0.05324312
205	0xbd7e6d2f	-0.062115844
206	0xbdc03509	-0.09385116
207	0xbd965049	-0.07339532
208	0xbd82ecfa	-0.06392856
209	0x3beba54a	0.007191335
210	0xbccce741	-0.025012614
211	0x3de09dc7	0.10967594
212	0xbe1adad7	-0.15122543
213	0xbc6805e4	-0.014161561
214	0x3d995f7c	0.07488915
215	0x3dc8fead	0.098142006
216	0xbd2708bb	-0.04077981
217	0xbe031fbd	-0.12805076
218	0x3d7bf251	0.061510388
219	0xbdf09eea	-0.117490605
220	0x3c4de8a5	0.012567674
221	0x3e07544a	0.13215747
222	0x3d98c30c	0.07459077
223	0xbcd59ccb	-0.026075741
224	0x3db18b20	0.08669114
225	0xbd7c868c	-0.06165175
226	0x3cc10d37	0.023565872
227	0xbd925073	-0.07144251
228	0x3abe312c	0.0014510504
229	0x3d3b1545	0.04567458
230	0x3d36e933	0.04465599
231	0xbe066df7	-0.13127886
232	0x3c563466	0.013074016
233	0xbcf1be8e	-0.029509809
234	0xbbd6b487	-0.0065522823
235	0xbd8f48a7	-0.06996279
236	0xbdf7c88e	-0.120988
237	0x3da59ef2	0.08086957
238	0xbcb93a48	-0.022610798
239	0xbd37d56b	-0.044881266
240	0x3d39d86b	0.045372408
241	0xbdcdb6d7	-0.100446396
242	0x3df31d49	0.1187082
243	0xbccba8b9	-0.024860727
244	0xbcfbba1c	-0.030728392
245	0xbd1a1403	-0.03761674
246	0xbdb1f125	-0.08688573
247	0xbda7229b	-0.08160897
248	0xbd433c99	-0.047665212
249	0x3dd0d748	0.10197312
250	0xbd0afdc0	-0.0339334
251	0x3cbab280	0.022790194
252	0xbd21e722	-0.039527066
253	0xbd0409a6	-0.032235764
254	0xbdff1923	-0.12455966
255	0x3d4afe1b	0.04955874

action_model._discrete_distribution.branches.0.weight f4 [1, 128]
0	0xbc436d38	-0.011927895
1	0xb9985821	-0.0002905736
2	0xbbafb557	-0.0053621936
3	0x3c0bdb74	0.008536208
4	0xb915188a	-0.00014218889
5	0x3c151337	0.009098819
6	0x3b62e802	0.003462315
7	0xbbde8a85	-0.006791415
8	0xbaeeecd3	-0.0018228538
9	0x3be1288b	0.006871288
10	0xbc4cb7d1	-0.012494997
11	0x3bf0b1c8	0.007345412
12	0xbb52f580	-0.0032189786
13	0xbb8a99ce	-0.0042297607
14	0xbc24b487	-0.010052807
15	0x3cb6929a	0.022286702
16	0xbb77ec3b	-0.0037830013
17	0xbb74f24f	-0.0037375872
18	0xba80241b	-0.0009776385
19	0x3bb94585	0.0056540393
20	0x3bf4c81f	0.0074701454
21	0x3b2a4383	0.0025980182
22	0xbb5cd912	-0.003369872
23	0x3c896741	0.016772868
24	0x3c8364b8	0.016039237
25	0xbc86fdbb	-0.01647841
26	0xbc468671	-0.012117014
27	0xbabcb9d6	-0.0014398645
28	0x3ab27e21	0.0013617912
29	0xbc89b858	-0.016811535
30	0xbc2df6e5	-0.010617946
31	0x382f6d8f	4.1825286e-05
32	0x3af37168	0.0018573226
33	0x3c017231	0.0079007605
34	0x3ba8edbb	0.005155293
35	0x3c3c5d21	0.011496813
36	0xbbd06ea7	-0.006360847
37	0x3c85ce93	0.016333854
38	0xbbf741b0	-0.0075456724
39	0x3c1341f4	0.008987892
40	0x3aefdd8a	0.0018300277
41	0xbc0c3f47	-0.008560008
42	0xbc26ea74	-0.010187734
43	0x3bf09bf3	0.0073428093
44	0xbc0febbe	-0.008784233
45	0x3b767d6f	0.0037611385
46	0x3bb6809b	0.00556953
47	0xbc14fd84	-0.009093646
48	0x3ba8544b	0.0051370016
49	0xbc0be225	-0.008537804
50	0xbc0c0666	-0.008546447
51	0x3bd2d393	0.006433913
52	0x39ebdd9f	0.00044987813
53	0xbc08f6f4	-0.008359659
54	0xba84fff6	-0.0010147083
55	0xbb22f8d6	-0.0024867556
56	0xbc31111a	-0.0108073
57	0x3a6d543a	0.0009053383
58	0xba84e28f	-0.001013832
59	0x3c55e1a5	0.013054286
60	0x3c5c2f6a	0.013439039
61	0x3c883e97	0.016631408
62	0x3c0c9bfb	0.0085821105
63	0x3b199f43	0.0023440875
64	0xbc1d4463	-0.009598824
65	0x3bcdd12d	0.006281039
66	0xb9fcd0ab	-0.00048220655
67	0xbbb07a0e	-0.005385644
68	0xbbbc24b9	-0.0057416824
69	0xbca49839	-0.020092117
70	0xbbbe7e37	-0.005813386
71	0xbbc31fb6	-0.005954708
72	0xba692678	-0.0008893977
73	0xbb5fc0ca	-0.003414201
74	0xbac4d26c	-0.0015016324
75	0xbce66bef	-0.028127639
76	0xba5e4778	-0.00084792776
77	0x394a8613	0.00019314168
78	0xbcb53d05	-0.022123823
79	0xbb853a33	-0.004065776
80	0xbb330783	-0.002731771
81	0x3bde14f7	0.0067774015
82	0xbc6971c3	-0.014248314
83	0x3c353ab4	0.011061359
84	0x3bcd2b08	0.0062612332
85	0x3bd81f87	0.006595555
86	0xbb554428	-0.0032541845
87	0x3bc45516	0.0059915883
88	0x3a37b30b	0.00070075755
89	0x3c8da9df	0.017292915
90	0xbc6f1f2a	-0.014594832
91	0x38d69f48	0.000102339836
92	0x3bc4368f	0.005987949
93	0xbc34b43c	-0.011029299
94	0x3b26e94b	0.0025468643
95	0x3a95bb42	0.0011423605
96	0x3bc2edd2	0.0059487605
97	0xbabf9b47	-0.001461842
98	0x3bbacef5	0.0057009407
99	0xbc55b5c8	-0.013043828
100	0xbb56ae7a	-0.0032757805
101	0xbc4a1d18	-0.012336038
102	0xbc0a7fe8	-0.008453347
103	0x3c6d0085	0.014465456
104	0xbadffa05	-0.0017088061
105	0x3b82d34e	0.0039924746
106	0xbc94a1a7	-0.018143488
107	0x3ba83823	0.005133645
108	0xbbb10989	-0.005402748
109	0xbc7a32d0	-0.015270904
110	0xbb0ab726	-0.0021166294
111	0xbbea7bf7	-0.007155891
112	0x3c08e3b7	0.008355073
113	0xbaf1c61f	-0.0018445886
114	0xbae7d5bf	-0.0017687603
115	0x3b622ea0	0.0034512654
116	0xbc1cf65f	-0.009580224
117	0xbb935877	-0.00449663
118	0xbb2a8f23	-0.0026025258
119	0xbbbf303b	-0.005834607
120	0xbbc2cb32	-0.005944633
121	0x3c3d05f8	0.011537068
122	0xbcbb1c26	-0.02284057
123	0x3a3fcbb4	0.0007316426
124	0xbb8aedda	-0.00423978
125	0xbc5fa232	-0.01364951
126	0x3bcd7818	0.00627042
127	0xbb798e2b	-0.0038079123

network_body._body_endoder.seq_layers.0.bias f4 [128]
0	0xbc61c7e5	-0.013780569
1	0x3ce61e4e	0.028090622
2	0xbd49af8c	-0.04923968
3	0xbd84be6d	-0.06481633
4	0xbd203e02	-0.039121635
5	0xbdeca445	-0.115547694
6	0xbb166b36	-0.0022952086
7	0xbd4b349a	-0.04961071
8	0xbd304258	-0.04303202
9	0xbdf5d5f3	-0.12003698
10	0x3c3f5023	0.011676821
11	0xbe1394fc	-0.14412302
12	0xbd617eb2	-0.055052467
13	0xbc217836	-0.009855321
14	0xbde63727	-0.11240988
15	0x3c12e6d3	0.008966166
16	0x3cf35f36	0.029708486
17	0xbe6e8a70	-0.23294997
18	0xbcec6ce3	-0.028860515
19	0xbc20bd58	-0.009810768
20	0xbe191291	-0.14948489
21	0xbda0b51b	-0.07847043
22	0x3bebd204	0.0071966667
23	0xbdbc857d	-0.09205148
24	0xbd81b6ba	-0.063336805
25	0x3d49ba59	0.04924998
26	0xbcb15298	-0.02164583
27	0xbe1867ce	-0.14883348
28	0xbd9241a8	-0.07141429
29	0xbe824f8f	-0.25451323
30	0xbcf319eb	-0.029675445
31	0xbdc02362	-0.09381749
32	0xbd7a1b4b	-0.061061185
33	0xbd86e8a8	-0.065873444
34	0xbd5a3cb6	-0.053280555
35	0xbc7a4ba6	-0.015276825
36	0xbc92951d	-0.017893368
37	0xbd8267b3	-0.06367435
38	0xbd80a067	-0.06280594
39	0xbdc3bfa4	-0.09558037
40	0xbdea167a	-0.11430068
41	0x3d48d5f8	0.04903218
42	0x3be11dee	0.006870023
43	0x3d3ac67f	0.045599457
44	0xbcd0fa81	-0.025510075
45	0xbd2db867	-0.042412188
46	0xbdf04f3e	-0.11733864
47	0xbdc9842e	-0.098396644
48	0xbdcfb7e6	-0.10142498
49	0x3d088159	0.03332648
50	0xbcb09caa	-0.021559078
51	0xbd23cc1b	-0.039989572
52	0xbda27bf8	-0.079338014
53	0xbd3a07f2	-0.045417733
54	0x3c844ebe	0.016150828
55	0xbc43e39c	-0.011956122
56	0xbda5c4af	-0.08094155
57	0xbd54e456	-0.05197557
58	0xbcef3a42	-0.029202584
59	0xbd87c852	-0.06630005
60	0x3c29fd53	0.010375339
61	0xbb11904c	-0.0022211252
62	0xbd559998	-0.05214843
63	0xbcab917c	-0.020943396
64	0xbe77139c	-0.24128574
65	0xbda6812f	-0.081301086
66	0xbd38d925	-0.04512896
67	0xbda7ff87	-0.08203035
68	0xbd726815	-0.05918129
69	0x3ca052d1	0.01957074
70	0xbd5040a5	-0.0508429
71	0xbe620c02	-0.22074893
72	0x3bfc9b84	0.0077089686
73	0xbde610af	-0.11233651
74	0x3c0b3c57	0.008498273
75	0x3bcd730b	0.0062698177
76	0xbc6cdec1	-0.014457406
77	0x3c695208	0.014240749
78	0x3cd641b5	0.026154378
79	0xbd99e995	-0.07515255
80	0x3ca7ace1	0.020468177
81	0x3d5906a0	0.052984834
82	0xbd52f141	-0.05149961
83	0xbd7bf6de	-0.061514728
84	0x3d27af77	0.04093882
85	0xbd6e1982	-0.058129795
86	0x3c826d46	0.015921246
87	0xbda08650	-0.07838118
88	0xbcd61700	-0.026134014
89	0x3d4f6add	0.050639022
90	0x3b276a11	0.0025545398
91	0xbce292fe	-0.027657982
92	0xbdec874d	-0.11549244
93	0xbe442ece	-0.1915848
94	0xbdb90785	-0.09034637
95	0xbe42d9c8	-0.1902839
96	0x3cb31e83	0.021865135
97	0xbd617082	-0.055038936
98	0xbcc39e34	-0.023879148
99	0xbb1ffc7b	-0.0024411965
100	0xbdf16c4e	-0.117882356
101	0xbcdb0f0a	-0.02674057
102	0x3aed8f08	0.0018124292
103	0x3d54b747	0.0519326
104	0xbd749c8a	-0.0597196
105	0xbd8c72b1	-0.06857813
106	0xbd3ac672	-0.04559941
107	0x3d056234	0.032564357
108	0x3cf8727f	0.030328033
109	0xbcb681c7	-0.02227868
110	0xbd639fbb	-0.055572253
111	0xbe60d146	-0.21954831
112	0xbe0e6aab	-0.13907878
113	0xbc4305ba	-0.011903221
114	0x3cdc1f79	0.026870476
115	0x3d180246	0.037111543
116	0xbb4c9c22	-0.0031220992
117	0xbe1f44dc	-0.15553612
118	0x3d608d74	0.0548224
119	0xbb1f4157	-0.002430042
120	0xbbae86da	-0.005326134
121	0xbd8caeea	-0.068693
122	0xbbe1410d	-0.0068742097
123	0xbcc076e3	-0.02349419
124	0xbd1d72bf	-0.03843951
125	0xbcaca4a9	-0.02107461
126	0x3c1ec0eb	0.00968955
127	0xbdb3065b	-0.087414466

network_body._body_endoder.seq_layers.0.weight f4 [128, 63]
0	0x3cc21b09	0.023694532
1	0xbdbc16a8	-0.09184009
2	0x3db4ff90	0.08837807
3	0x3ca338cb	0.019924542
4	0xbda0f345	-0.078589
5	0x3dad0650	0.0844847
6	0x3e63e15e	0.2225394
7	0x3dc5aa92	0.09651674
8	0x3ddaa6fb	0.1067638
9	0x3e2163b0	0.15760684
10	0x3c836ed5	0.01604406
11	0x3e4615f7	0.19344316
12	0xbbb7fb47	-0.0056146714
13	0xbddd8c20	-0.10817742
14	0x3dc59d7e	0.0964918
15	0x3d9aaa6e	0.07552038
16	0x3d2d73e2	0.042346843
17	0x3e594e07	0.21221171
18	0xbd2b7bbb	-0.041866045
19	0xbd0688c9	-0.032845292
20	0x3dafb03f	0.08578538
21	0x3dfe120d	0.12405787
22	0x3e198d05	0.14995201
23	0x3d219b83	0.03945495
24	0x3e5b8bf0	0.214401
25	0xbe6e980c	-0.23300189
26	0x3df47815	0.11936966
27	0x3d8a5774	0.067549616
28	0xbd451c45	-0.048122663
29	0x3dbc76f0	0.09202373
30	0xbcfe0c9a	-0.031011868
31	0x3ea41552	0.32047516
32	0xbd90b4df	-0.070657484
33	0x3d80f04d	0.06295834
34	0xbd0ce014	-0.034393385
35	0xbd941f0a	-0.07232483
36	0x3dd506be	0.104016766
37	0x3e943f57	0.28954574
38	0xbcb6b060	-0.022300899
39	0xbda053ae	-0.07828461
40	0xbebac02c	-0.3647474
41	0xbdf9f826	-0.12205534
42	0x3bf83780	0.0075749755
43	0xbdb7bb62	-0.08971287
44	0xbe8ca0df	-0.27466485
45	0xbe0207a0	-0.12698221
46	0x3e92dfa4	0.2868625
47	0x3e5ca5af	0.21547578
48	0x3e90ea9d	0.28303996
49	0xbe25de97	-0.16198193
50	0xbdb8b64e	-0.09019147
51	0x3db31af8	0.08745378
52	0xbc6273bd	-0.0138215395
53	0x3de56ba3	0.11202171
54	0xbe254f80	-0.16143608
55	0xbd3de609	-0.046361957
56	0xbde5712f	-0.11203229
57	0x3ddda634	0.10822716
58	0xbdd58ca2	-0.10427214
59	0xbe17ec4f	-0.14836238
60	0xbe63f7e8	-0.22262537
61	0xbeb3b8f8	-0.35102057
62	0x3e31f759	0.17379512
63	0xbb83cb08	-0.004022006
64	0x3c860699	0.016360568
65	0xbd6a2d8c	-0.057172343
66	0xbe371e87	-0.17882739
67	0x3dc7d17c	0.09756753
68	0x3b8dd24a	0.004328047
69	0xbe5e50b6	-0.21710476
70	0x3da0e3dd	0.078559615
71	0x3e4c1977	0.19931589
72	0x3e0d09a9	0.13773216
73	0x3d3c83ef	0.04602426
74	0xbde60e5f	-0.1123321
75	0xbda527c7	-0.080642276
76	0xbdf69678	-0.120404184
77	0x3ca28a5d	0.019841367
78	0x3d22b569	0.039723787
79	0xbe20e70b	-0.15713136
80	0xbcc489e8	-0.02399154
81	0x3d86c26d	0.065800525
82	0x3dd9f9da	0.106433585
83	0xbd01a7c6	-0.03165414
84	0x3d8b858c	0.068125814
85	0xbdbca5b0	-0.0921129
86	0x3c2b0c66	0.010439968
87	0x3d6671c4	0.05626084
88	0xbc9de5ca	-0.019274611
89	0xbd3e8224	-0.04651083
90	0xbdb96df8	-0.09054178
91	0xbbb27dd5	-0.0054471293
92	0xbda025a3	-0.07819679
93	0xbe1979b6	-0.14987835
94	0x3dae523e	0.0851178
95	0xbec4b1fd	-0.38417044
96	0x3e200a42	0.15628913
97	0xbe9e2268	-0.30885625
98	0xbd8667e4	-0.06562784
99	0x3ecb2aed	0.39681187
100	0x3dbbc8c5	0.09169153
101	0x3df3e8a9	0.11909611
102	0xbe422cef	-0.18962453
103	0x3daa5724	0.08317402
104	0x3d3f29a8	0.046670586
105	0xbd951358	-0.0727908
106	0x3e64ec58	0.22355783
107	0x3daf0fc2	0.085479274
108	0xbe196447	-0.14979659
109	0x3e273931	0.1633041
110	0x3b8d4ba0	0.0043119937
111	0xbe42d38b	-0.1902601
112	0xbe9460f9	-0.28980234
113	0xbe7f4650	-0.24929166
114	0xbdc9d319	-0.09854717
115	0xbce6734e	-0.028131153
116	0x3dfb71d4	0.1227757
117	0x3ea6d2f8	0.3258283
118	0x3d2b7f7c	0.041869625
119	0xbcfdbd72	-0.030974124
120	0x3e96b401	0.29434207
121	0xbd172a72	-0.036905713
122	0xbd2a13ec	-0.041522905
123	0x3e69e84e	0.22842523
124	0x3d47ba95	0.048761923
125	0xbe1c4124	-0.15259224
126	0xbd1f5a0f	-0.038904246
127	0x3db1d83e	0.08683823
128	0xbbd2f8b7	-0.0064383405
129	0x3e163468	0.14668429
130	0x3d534740	0.05158162
131	0x3e0cc37c	0.13746446
132	0xbd0c86a9	-0.03430811
133	0x3e21a420	0.15785265
134	0xbd78b24a	-0.060716905
135	0x3cd6cd2c	0.02622088
136	0xbd0dec82	-0.03464938
137	0xbe0077c2	-0.12545684
138	0x3e700a50	0.23441434
139	0xbe88ffee	-0.2675776
140	0x3e0a6227	0.13514005
141	0xbeb58e2a	-0.35460025
142	0x3dce855b	0.10084029
143	0x3d9432e0	0.07236266
144	0xbd8766b7	-0.06611388
145	0x3d0ebd01	0.034848217
146	0xbd51e18b	-0.051240485
147	0x3c3f3322	0.011669906
148	0xbe0616b3	-0.13094597
149	0xbdf2aa58	-0.11848897
150	0xbd57acce	-0.052655034
151	0xbe8b0a0b	-0.271561
152	0xbdc6f3de	-0.09714483
153	0x3d901ff3	0.07037344
154	0xbe2cbb31	-0.16868283
155	0xbde995d4	-0.114055306
156	0x3dd2c91a	0.10292263
157	0x3e241d4a	0.16026798
158	0x3e8085a5	0.25101963
159	0xbc7b4a76	-0.015337577
160	0xbd9cc024	-0.076538354
161	0xbe73e448	-0.23817551
162	0x3e5d2a70	0.2159822
163	0x3de577b7	0.112044744
164	0xbe2728c3	-0.16324143
165	0xbcf7d1d7	-0.030251427
166	0xbce77ab5	-0.028256753
167	0x3e452927	0.1925398
168	0xbe34a989	-0.17642798
169	0x3d393cb9	0.045223925
170	0xbd4a139c	-0.049335107
171	0xbde10760	-0.10987735
172	0x3ec03d97	0.3754699
173	0xbbed19e9	-0.0072357547
174	0x3e08c147	0.1335498
175	0xbd9227c6	-0.071364924
176	0xbe6c957a	-0.23103896
177	0x3d868cb6	0.06569807
178	0xbe9b7c4f	-0.30368277
179	0xbe0ed6e9	-0.13949169
180	0x3e38672b	0.18008105
181	0x3e83347c	0.2562598
182	0xbd472c18	-0.048626035
183	0xbda9f53d	-0.082987286
184	0xbdc411e6	-0.09573726
185	0xbd971b3f	-0.07378244
186	0xbcfdd4c9	-0.030985253
187	0x3e479d69	0.19493641
188	0xb9055332	-0.00012714861
189	0x3e22c5d1	0.15895773
190	0x3e442086	0.19153032
191	0xbdb41f5a	-0.08795042
192	0xbe1db723	-0.15401892
193	0x3e119b21	0.14219333
194	0xbe30e673	-0.1727541
195	0xbd76efb8	-0.060287207
196	0xbd9ef1a5	-0.07760934
197	0x3c4b456c	0.012406688
198	0xbe382734	-0.17983705
199	0xbe28b61c	-0.16475719
200	0xbd24446b	-0.04010431
201	0x3d4bf7fd	0.049797047
202	0xbe90a19b	-0.28248295
203	0x3e5ac1d6	0.21363005
204	0xbd720b75	-0.059092958
205	0x3e0f6533	0.14003448
206	0x3e673175	0.2257746
207	0xbe52fada	-0.20603505
208	0xbe5f88a7	-0.21829472
209	0xbdd94fe3	-0.1061094
210	0x3d824be3	0.063621305
211	0xbd96ccfe	-0.07363318
212	0x3e5d1f68	0.21594012
213	0xbe807045	-0.25085655
214	0x3da70468	0.08155137
215	0xbeaf6a32	-0.34260708
216	0x3dd9e119	0.10638637
217	0x3db45e1e	0.08807014
218	0xbe969a8f	-0.29414794
219	0xbe065676	-0.1311892
220	0xbe599ca2	-0.21251157
221	0x3e0d6ae2	0.13810304
222	0xbe3b7bf1	-0.18308999
223	0xbdc30d29	-0.095239945
224	0xbdc8bc36	-0.098015234
225	0xbe057e85	-0.13036545
226	0xbe190322	-0.14942601
227	0xbde2e2da	-0.11078425
228	0xbe98ac75	-0.29819074
229	0xbe810e43	-0.25206193
230	0x3ddcf02e	0.10787998
231	0xbe1d61e1	-0.15369369
232	0xbd9953fc	-0.07486722
233	0xbe7117b9	-0.23544206
234	0x3d12971b	0.035788637
235	0xbdd6e0c9	-0.10492093
236	0x3df2336c	0.11826214
237	0x3dd1dec8	0.1024757
238	0xbdff9217	-0.12479036
239	0x3e05c93c	0.13065046
240	0x3e4bd1d0	0.19904256
241	0x3be1b9a8	0.006888587
242	0xbe546848	-0.20742905
243	0x3e15817b	0.14600174
244	0x3e63cd61	0.22246315
245	0xbde01fdf	-0.10943579
246	0xbe8ab5e3	-0.27091894
247	0xbe62308a	-0.22088829
248	0x3d6c223b	0.057649832
249	0xbe8145c9	-0.25248554
250	0x3de0f1b3	0.109836005
251	0x3d889ae5	0.06670169
252	0xbbe84edd	-0.0070894794
253	0x3dbbb121	0.09164644
254	0xbd85502b	-0.065094315
255	0xbe7100c8	-0.23535454

network_body._body_endoder.seq_layers.2.bias f4 [128]
0	0x3b8d6734	0.0043152813
1	0xbc456103	-0.012047055
2	0xbe2fa66d	-0.1715333
3	0xbd66e39a	-0.0563694
4	0xbc8598c0	-0.016308188
5	0xbe6bbe63	-0.23021846
6	0xbe0c531c	-0.13703579
7	0x3d03d2e6	0.03218355
8	0x3c894464	0.016756244
9	0x3d9daa6c	0.07698521
10	0xbc31e265	-0.010857199
11	0xbe220201	-0.15821077
12	0xbe13d696	-0.14437327
13	0xbd3cc4a9	-0.046085987
14	0xbd17babe	-0.037043326
15	0xbd2f21cb	-0.042756837
16	0xbe443190	-0.19159532
17	0xbb709a83	-0.003671319
18	0xbd6b269d	-0.05740987
19	0x3d7e7293	0.062120985
20	0xbaab8a55	-0.0013087491
21	0xbd91720e	-0.07101832
22	0xbdf42864	-0.119217664
23	0xbd39e092	-0.045380183
24	0xbcc886aa	-0.024478275
25	0xbd81a428	-0.063301384
26	0x3bf85cdd	0.0075794295
27	0x3cbb7dbb	0.022887101
28	0xbbd931d3	-0.006628254
29	0xbe2b2461	-0.16713096
30	0xbcbe7f60	-0.023254097
31	0x3ce5788f	0.028011588
32	0xbe181936	-0.14853367
33	0x3d5c09bb	0.053720217
34	0xbd7f9642	-0.062399156
35	0x3d8388ad	0.06422553
36	0xbd3d636e	-0.0462374
37	0xbe15248a	-0.1456472
38	0x3c82fd51	0.015989931
39	0xbd70eaef	-0.0588178
40	0x3c9a5243	0.018838054
41	0xbdabcb13	-0.08388343
42	0x3c0d854a	0.008637736
43	0xbc68e206	-0.014214044
44	0x3c213e5b	0.009841527
45	0xbdc7f4d1	-0.09763492
46	0xbd4214e2	-0.047383197
47	0x3db91287	0.09036737
48	0xbd296def	-0.041364606
49	0x3c860589	0.016360061
50	0xbabf32cc	-0.0014587282
51	0x3d64ce86	0.05586102
52	0x3b1a91bc	0.00235854
53	0xbdac6bef	-0.08419024
54	0xbd5e7223	-0.054308068
55	0x3bb810d1	0.005617239
56	0xbce4e4e2	-0.027941171
57	0x3cdf87a5	0.02728636
58	0xbdf24097	-0.11828726
59	0xbdba0d83	-0.090846084
60	0xbd01dcf1	-0.031704847
61	0x3cef5d97	0.029219432
62	0x3bf433ca	0.007452463
63	0xbce40d6c	-0.027838431
64	0xbe1bd7d9	-0.15219058
65	0xbde3f12d	-0.11129985
66	0x3c826f39	0.015922176
67	0x3dbe5e25	0.092953004
68	0xbc6b42af	-0.01435916
69	0x3d2c5fa8	0.042083412
70	0xbcb8212d	-0.022476757
71	0xbc4cf7db	-0.012510265
72	0x3ccbdb8c	0.024884962
73	0xbe1e82f9	-0.1547965
74	0x3d1d640c	0.03842549
75	0x3c941e46	0.018080842
76	0x3d1e9e58	0.038725227
77	0xbd316de0	-0.043317676
78	0x3c9754e6	0.0184731
79	0xbd991dbb	-0.07476374
80	0xbe301100	-0.17193985
81	0xbe51dfcc	-0.20495528
82	0xbc4476da	-0.011991227
83	0x3d5ca332	0.053866573
84	0x3d3c865f	0.046026584
85	0xbdf3cba3	-0.11904075
86	0xbe074f30	-0.13213801
87	0x3db6ac0d	0.08919535
88	0xbc671e17	-0.014106295
89	0x3ca36e05	0.019949922
90	0x3cd3a52d	0.025835598
91	0x3d2336fa	0.03984735
92	0xbd924f42	-0.071440235
93	0x3dae806d	0.08520589
94	0x3b683487	0.00354317
95	0xbcb05a6f	-0.021527497
96	0x3c893677	0.016749604
97	0xbc98d247	-0.018654956
98	0xbc224718	-0.009904645
99	0xbdad77db	-0.08470126
100	0x3d226179	0.03964374
101	0xbd11fac1	-0.03563953
102	0x3cd358b5	0.025799135
103	0xbdcb9258	-0.09940022
104	0xbd030f90	-0.031997263
105	0x3ca93826	0.020656656
106	0xbda62afc	-0.08113667
107	0xbbc51a00	-0.0060150623
108	0xbdd30d29	-0.103052445
109	0x3d70eaba	0.058817603
110	0x3a5ebc43	0.0008496681
111	0xbd0fa4dd	-0.035069335
112	0x3d016bc8	0.03159693
113	0xbc3f31c3	-0.011669579
114	0xbdfa0dc7	-0.12209659
115	0xbe0ceda2	-0.13762525
116	0xbcfacfc5	-0.03061665
117	0xbd00e778	-0.031470746
118	0xbd45ae39	-0.048261855
119	0xbc324019	-0.01087954
120	0xbe64c36a	-0.2234017
121	0x3da56ad1	0.08077014
122	0xbbe0eb8d	-0.0068640173
123	0xbbd1061a	-0.006378901
124	0xbe4325e7	-0.19057427
125	0xbdd03e3f	-0.101681225
126	0xbe1a8466	-0.15089568
127	0x3d4a3ce8	0.04937449

network_body._body_endoder.seq_layers.2.weight f4 [128, 128]
0	0x3ea3c4b9	0.31986025
1	0xbcf41b02	-0.029798035
2	0xbe485de4	-0.19567066
3	0xbdf1eb9e	-0.118125185
4	0x3e169c5f	0.14708088
5	0x3dc3be97	0.095578365
6	0xbec65a62	-0.38740832
7	0xbd4830d2	-0.048874684
8	0xbe0178b4	-0.12643701
9	0xbd643893	-0.055718016
10	0xbe5b0cd0	-0.21391606
11	0xbe0b9d34	-0.13634187
12	0xbd43adf8	-0.04777333
13	0x3d04486b	0.032295626
14	0x3d9ce17a	0.07660194
15	0x3d37798c	0.04479365
16	0x3d0325da	0.03201852
17	0xbe534cb4	-0.20634729
18	0xbe6ec5d1	-0.23317648
19	0xbec4fc0f	-0.38473555
20	0xbd566569	-0.052342806
21	0xbd438090	-0.04773003
22	0xbe4f1570	-0.20223022
23	0x3ce84e24	0.028357573
24	0x3d97c5f4	0.074108034
25	0x3de916d2	0.11381306
26	0x3ccd9efa	0.02510022
27	0xbd6a44e8	-0.05719462
28	0xbdf83b7c	-0.12120721
29	0xbd1c1f93	-0.03811605
30	0xbc8fb6b3	-0.017543172
31	0xbbac008b	-0.005249088
32	0x3d4876f4	0.048941568
33	0x3e3b0200	0.18262482
34	0x3d208b0e	0.039195113
35	0xbc3abfdb	-0.011398281
36	0xbe6090a7	-0.2193018
37	0xbe1e2108	-0.15442288
38	0xbd53e1a1	-0.05172885
39	0x3c1dc2fd	0.009629008
40	0x3e411c14	0.18858367
41	0xbe3e28fb	-0.1857032
42	0xbe19cbb5	-0.15019114
43	0xbeb3a0b7	-0.35083553
44	0xbdbf1c9f	-0.09331631
45	0x3d3f156f	0.0466513
46	0xbe8f0d18	-0.27939677
47	0xbe29f659	-0.1659788
48	0x3bd5b2a2	0.006521539
49	0xbc7fbbfc	-0.015608784
50	0x3dd031ee	0.10165773
51	0x3cb19a21	0.02167994
52	0xbe04c03b	-0.12963955
53	0xbca5d9d4	-0.02024547
54	0x3d82d288	0.06387812
55	0x3ea4f3a7	0.32217142
56	0x3da2ab19	0.079427905
57	0x3d228463	0.039677035
58	0xbd98f253	-0.07468095
59	0x3cc47eb8	0.023986205
60	0xbe98c11d	-0.29834834
61	0x3e2ab1a6	0.1666933
62	0xbe8d2a30	-0.2757125
63	0x3bdf5354	0.0068153534
64	0xbd27c8b6	-0.040962897
65	0x3dd12b1c	0.102133006
66	0xbe2b24ba	-0.16713229
67	0x3d841081	0.0644846
68	0xbe1ee454	-0.15516788
69	0x3e5562a7	0.20838414
70	0xbe000f18	-0.12505758
71	0xbe09ee5d	-0.13469835
72	0x3d998315	0.07495705
73	0xbe081e65	-0.13292845
74	0xbe8573dd	-0.2606496
75	0x3d97fe3e	0.0742154
76	0xbd1e1cf1	-0.03860182
77	0xbda20d61	-0.07912708
78	0xbe15c2b4	-0.14625055
79	0xbdfeb7d8	-0.12437409
80	0x3d8688e4	0.065690786
81	0x3c681dc0	0.014167249
82	0xbe1aca35	-0.15116198
83	0x3daf269b	0.08552285
84	0xbcd99767	-0.026561452
85	0x3b9e5f18	0.0048331134
86	0xbd52426f	-0.051332887
87	0x3db750ba	0.08950944
88	0x3dbb24c6	0.09137873
89	0xbe377497	-0.17915569
90	0x3d805256	0.06265704
91	0x3d822dc9	0.06356389
92	0xbdec23ef	-0.11530291
93	0xbc8b0a27	-0.016972614
94	0x3d0d79f3	0.034540128
95	0xbcafc4f9	-0.021456229
96	0xbe7e440d	-0.24830647
97	0xbe76a70e	-0.24087164
98	0xbdf463b0	-0.119330764
99	0xbda23db7	-0.079219274
100	0x3d86adcb	0.06576117
101	0x3dfde4b7	0.123971395
102	0x3db12f13	0.08651557
103	0xbe5a0e4e	-0.2129452
104	0x3e276fd4	0.16351253
105	0x3de8f02f	0.113739364
106	0x3c76de63	0.01506767
107	0xbca8ecbe	-0.0206207
108	0x3e35e744	0.17764002
109	0x3e1a2ef2	0.1505697
110	0xbca135e4	-0.019679017
111	0x3a9c032a	0.0011902798
112	0xbe7fb233	-0.24970321
113	0x3de57fe3	0.11206033
114	0xbe0551e3	-0.13019519
115	0xbd8823c4	-0.06647447
116	0x3d8ba527	0.0681861
117	0x3b81633c	0.0039485972
118	0xbde73a52	-0.112904206
119	0x3d7aec80	0.0612607
120	0xbd29885b	-0.041389804
121	0xbbd54cd5	-0.006509403
122	0x3e0097dd	0.12557931
123	0xbc8c4f1f	-0.017127572
124	0x3e0a1e60	0.1348815
125	0xbe8f40af	-0.27979037
126	0x3df49324	0.11942127
127	0xbd359a84	-0.04433681
128	0xbd5a8437	-0.053348746
129	0xbeae4d42	-0.34043318
130	0xbc998008	-0.018737808
131	0x3dda2596	0.106517
132	0xbd85f387	-0.0654059
133	0xbd84ddfd	-0.064876534
134	0xbd2f3160	-0.042771697
135	0xbd999592	-0.074992314
136	0xbd89d674	-0.06730357
137	0xbe422a82	-0.18961528
138	0xbcf2e485	-0.029649982
139	0xbd914d08	-0.07094771
140	0x3db90dc7	0.09035831
141	0x3c1ba92b	0.009500782
142	0xbe1b9e8e	-0.15197203
143	0xbda17ec3	-0.07885506
144	0xbdb41668	-0.08793336
145	0xbdf85e4e	-0.12127362
146	0x3e087ad2	0.13328102
147	0x3db18f36	0.086698934
148	0xbb817074	-0.003950173
149	0xbe052d62	-0.13005593
150	0x3e595922	0.21225408
151	0x3dcf8d39	0.10134358
152	0x3ddd4600	0.10804367
153	0xbd256db6	-0.04038783
154	0xbdf90cf6	-0.12160675
155	0x3d8a96ab	0.06767019
156	0xbe0287a7	-0.1274706
157	0x3b8c0000	0.004272461
158	0x3de2eee0	0.11080718
159	0xbd25d077	-0.04048201
160	0xbde33cc1	-0.11095572
161	0xbd8b958a	-0.06815632
162	0xbde865f2	-0.113475695
163	0xbbad2987	-0.0052844915
164	0x3cf63f5c	0.030059509
165	0x3da41a5b	0.080128394
166	0xbdda3cbd	-0.10656116
167	0x3e12d22c	0.14337987
168	0xbcea4ed1	-0.028602036
169	0xbdf3992e	-0.11894451
170	0xbe27f870	-0.16403365
171	0xbdab81f4	-0.08374396
172	0xbdb56a1f	-0.088581316
173	0xbd7d09a4	-0.061776772
174	0x3e422b56	0.18961844
175	0xbd95dd89	-0.07317645
176	0x3d804739	0.06263585
177	0xbe801b65	-0.250209
178	0xbe474a7a	-0.19462004
179	0xbdf00c8e	-0.117211446
180	0xbdc91ec4	-0.09820321
181	0xbd05d767	-0.032676127
182	0xbe164424	-0.14674431
183	0xbd3f5aa4	-0.0467173
184	0xbe0b3d52	-0.1359761
185	0x3e3c868d	0.18410702
186	0xbd3d25bc	-0.046178564
187	0xbd120af5	-0.03565498
188	0xbec2fef7	-0.38085148
189	0x3db16a1d	0.086628176
190	0x3dd117e4	0.10209635
191	0x3cf8a51b	0.030352166
192	0x3e14b72c	0.14523
193	0xbd84c9eb	-0.06483825
194	0xbe512c0a	-0.20426956
195	0xbd5e70b4	-0.0543067
196	0xbd54e19f	-0.05197298
197	0x3ba0fee8	0.0049131997
198	0xbe84bfda	-0.2592762
199	0x3d5c5b28	0.05379787
200	0xbe04d37f	-0.12971304
201	0xbe05db93	-0.13072042
202	0x3de047f7	0.10951226
203	0xbdb5220a	-0.08844383
204	0xbe58f610	-0.21187615
205	0x3d0d5e74	0.034513906
206	0xbe055800	-0.1302185
207	0xbc85f849	-0.016353743
208	0xbd56425f	-0.05230939
209	0xbe7e2cf0	-0.2482183
210	0xbdbcc127	-0.092165284
211	0xbe018a84	-0.12650496
212	0x3b612d45	0.0034359258
213	0xbc9210a4	-0.0178302
214	0xbd41a408	-0.047275573
215	0x3d38ac1f	0.045086022
216	0x3bb12c61	0.0054069017
217	0x3df4ce26	0.11953382
218	0x3e366aec	0.17814225
219	0xbe08144d	-0.13288994
220	0xbe8771d1	-0.26454023
221	0x3cba20fd	0.022720808
222	0x3c72fe1c	0.014831092
223	0x3cf1825b	0.029481104
224	0xbdcfc16e	-0.10144316
225	0xbc8b3846	-0.016994607
226	0xbe3b67ce	-0.18301317
227	0xbd1fb58b	-0.038991492
228	0xbbbebaa7	-0.0058205905
229	0x3dc84b15	0.09779946
230	0xbded6739	-0.11591954
231	0xbdb6505a	-0.089020446
232	0xbdddacb1	-0.10823954
233	0x3cb02275	0.021500805
234	0xbe4d5d1d	-0.20055051
235	0xbe433c73	-0.19066028
236	0xbe5cce5c	-0.21563095
237	0xbddc75a0	-0.10764623
238	0xbd61240f	-0.05496603
239	0x3d0c10b1	0.034195606
240	0xbc1c02b5	-0.00952213
241	0x3e6ef322	0.23334935
242	0xbda21313	-0.07913794
243	0xbe2681df	-0.1626048
244	0x3dbf823e	0.093510136
245	0x3d318a00	0.043344498
246	0x3e0a5b93	0.13511495
247	0xbe6d045d	-0.23146196
248	0x3c753475	0.01496612
249	0xbd74beee	-0.059752397
250	0x3e0195c9	0.12654795
251	0xbdc597da	-0.09648104
252	0x3d800a88	0.06252009
253	0xbd99c18f	-0.075076215
254	0xbe0c7ea7	-0.13720189
255	0x3e16cd9c	0.14726871
