Assets/CarPractice_run19-1.onnx (onnx, 103637 bytes, 8 tensors)

action_model._continuous_distribution.log_sigma f4 [1, 2]
-1.5647523 -1.6304752
00000000: ce49 c8bf 69b3 d0bf

action_model._continuous_distribution.mu.bias f4 [2]
0.007322748 0.022307051
00000000: aaf3 ef3b 47bd b63c

action_model._continuous_distribution.mu.weight f4 [2, 128]
-0.01916643 0.048903964 0.0046703806 -0.022300208 -0.0036494536 -0.020701483 -0.01012798 0.012023819
-0.014115908 0.0066309334 -0.021245085 0.00080938294 -0.01213872 -0.032552525 -0.07570766 0.10725319
0.010499469 -0.0063208034 -0.09864148 -0.01118604 -0.008073625 -0.060020417 -0.029201929 -0.0094936285
-0.00426503 -0.0010346514 -0.036822908 0.015473728 -0.03524425 -0.02027464 -0.017802645 0.0025701714
-0.021454904 -0.012885879 -0.012617655 -0.0084409155 0.017029667 -0.008531184 -0.0151433395 -0.0068125683
0.00015172329 0.0058095525 -0.023026247 -0.016385417 0.01520883 -0.0071166684 0.029743697 0.04943605
0.1029962 -0.026488956 -0.008689388 -0.014111314 -0.04181722 -0.020297194 -0.001894057 -0.00973192
-0.0032706866 -0.015761854 -0.02492462 -0.02552768 0.0040788366 0.0041180453 0.004909506 0.022597037
0.018645909 -0.00072558783 -0.020369494 -0.029827451 -0.013475739 0.09647606 0.0028280849 0.013883458
-0.021688709 0.01761616 -0.008666889 -0.016826725 0.027088206 0.0060955486 0.005335851 -0.013333012
-0.008040647 -0.017045654 0.013534507 -0.012333252 -0.017087253 -0.0019012882 -0.0032614039 0.007759268
0.0011240504 0.051631823 0.0033751728 -0.015686544 0.017803172 -0.0010592527 -0.0040134345 -0.0016781883
-0.01215469 -0.013111237 0.03409983 0.0050901985 -0.009635742 0.0022237697 0.03387743 0.004875624
-0.021438334 -0.0054611186 -0.011788567 -0.010538731 0.0010638525 -0.030788008 -0.0018613103 -0.012898128
0.05992808 0.0035721129 0.0061426447 0.025380684 0.0076693273 0.0070790583 0.008747723 -0.01690062
0.0074817534 -0.008232677 -0.014491132 -0.014774664 -0.0062540565 -0.0021653313 0.022237891 -0.022653842
-0.005690276 0.0058348556 0.009762595 -0.028475909 -0.0072174007 -0.038879175 -0.024547439 0.011957122
-0.06586477 -0.06587521 -0.009730555 -0.01777553 0.007673493 0.03684228 0.078870475 0.026040664
0.011567547 -0.03197009 0.017169913 -0.022144873 -0.0016100346 0.04133273 -0.01034235 -0.017571023
-0.012954496 -0.009289434 0.0068505676 0.013431104 -0.009499733 0.012838333 -0.01619382 -0.0350974
-0.03683113 -0.036061294 -0.084072016 -0.040255982 0.012102587 -0.074323565 0.0023812358 -0.00873222
0.004411823 0.0025801575 0.0067791124 -0.013462645 -0.015252968 -0.004696036 -0.006144988 -0.040540174
-0.012202267 -0.01990762 -0.0060839397 0.030083876 -0.0057640295 0.0071954057 0.0029009131 -0.066722445
0.08772162 -0.050408658 -0.00433926 -0.032317176 0.006962636 -0.030451458 0.01737578 -0.031416055
0.016104301 -0.007813136 -0.023049692 0.0012747698 -0.016856443 0.0040661306 0.10143679 0.05512459
-0.011877074 -0.0020231856 -0.07890296 0.009722617 -0.015130537 -0.021851964 0.006147617 -0.0051352405
-0.0074140644 -0.047602963 0.004839892 -0.072048955 0.020478625 -0.013408166 -0.0054513765 0.0064960904
0.006861914 0.06753565 0.004724684 0.012256901 -0.042627737 -0.002870634 -0.030087624 -0.041653376
-0.039191805 0.0026893825 0.035211056 0.10241848 -0.021022623 0.050859287 0.07113016 -0.0051940796
-0.025728533 -0.020057617 -0.021376742 -0.062400464 -0.041019723 0.022842675 -0.058039743 -0.014922792
0.0030860696 0.006571017 -0.07159323 0.03674433 -0.033103332 -0.037512597 0.008296955 -0.021375693
-0.004674371 -0.007157431 -0.060959764 0.05089858 -0.0032870537 -0.017316675 0.005764483 0.014182573
00000000: eb02 9dbc 864f 483d fe09 993b edae b6bc
00000010: ac2b 6fbb 2896 a9bc d4ef 25bc 8dff 443c
00000020: 6946 67bc 4d48 d93b 2c0a aebc c52c 543a
00000030: 7be1 46bc cc55 05bd 9e0c 9bbd 8fa7 db3d
00000040: f705 2c3c be1e cfbb 8b04 cabd a745 37bc
00000050: 3d47 04bc f8d7 75bd e238 efbc 2a8b 1bbc
00000060: aac1 8bbb 249d 87ba 9ed3 16bd 8585 7d3c
00000070: 465c 10bd 0017 a6bc dad6 91bc 5270 283b
00000080: 32c2 afbc 4b1f 53bc 48ba 4ebc c44b 0abc
00000090: cd81 8b3c 61c6 0bbc c51b 78bc f73b dfbb
000000a0: e917 1f39 0f5e be3b 8aa1 bcbc b63a 86bc
000000b0: 752e 793c f132 e9bb 0ea9 f33c 757d 4a3d
000000c0: acef d23d 5eff d8bc ef5d 0ebc 2433 67bc
000000d0: 8948 2bbd 4d46 a6bc 0242 f8ba a272 1fbc
000000e0: 0459 56bb 011f 81bc b72e ccbc 6d1f d1bc
000000f0: c3a7 853b abf0 863b ecdf a03b 6c1d b93c
00000100: 4ebf 983c 6035 3eba eddd a6bc b358 f4bc
00000110: 59c9 5cbc 3e95 c53d 6457 393b 7277 633c
00000120: 85ac b1bc c44f 903c 91ff 0dbc 33d8 89bc
00000130: 16e8 dd3c 2bbd c73b 5dd8 ae3b b572 5abc
00000140: ebbc 03bc 54a3 8bbc d6bf 5d3c 6811 4abc
00000150: 91fa 8bbc a534 f9ba 47bd 55bb 7541 fe3b
00000160: df54 933a e47b 533d 0132 5d3b 1181 80bc
00000170: f5d7 913c 9fd6 8aba 2183 83bb a8f6 dbba
00000180: 7724 47bc 84d0 56bc 43ac 0b3d aecb a63b
00000190: 3bdf 1dbc aabc 113b 0fc3 0a3d b3c3 9f3b
000001a0: 729f afbc 2ff3 b2bb d524 41bc a4aa 2cbc
000001b0: f770 8b3a 2237 fcbc 36f7 f3ba ab52 53bc
000001c0: 2577 753d 1c1a 6a3b 3d48 c93b 27eb cf3c
000001d0: fb4e fb3b 72f7 e73b 9c52 0f3c 2b73 8abc
000001e0: 7f29 f53b 5ae2 06bc 376c 6dbc 6f11 72bc
000001f0: d4ee ccbb 3be8 0dbb 3d2c b63c 8d94 b9bc
00000200: 7f75 babb 5132 bf3b 4bf3 1f3c 4f46 e9bc
00000210: f27f ecbb c53f 1fbd b617 c9bc cee7 433c
00000220: 1ce4 86bd 95e9 86bd e86c 1fbc fd9d 91bc
00000230: ed71 fb3b eee7 163d d886 a13d 3b53 d53c
00000240: cf85 3d3c 12f3 02bd eba7 8c3c 2a69 b5bc
00000250: cc07 d3ba 824c 293d f672 29bc 1bf1 8fbc
00000260: 183f 54bc b632 18bc ba7a e03b 220e 5c3c
00000270: c5a4 1bbc df57 523c e7a8 84bc 4bc2 0fbd
00000280: 3ddc 16bd 02b5 13bd f32d acbd 75e3 24bd
00000290: ee49 463c f436 98bd 820e 1c3b 9611 0fbc
000002a0: 0e91 903b dc17 293b 5123 de3b 6d92 5cbc
000002b0: 96e7 79bc 35e1 99bb e55b c9bb 740d 26bd
000002c0: 04ec 47bc 4e15 a3bc c95b c7bb 7672 f63c
000002d0: 2fe0 bcbb 70c7 eb3b 3f1d 3e3b c7a5 88bd
000002e0: 65a7 b33d 4f79 4ebd 5a30 8ebb 045f 04bd
000002f0: d326 e43b 5675 f9bc a757 8e3c 1fae 00bd
00000300: 2bed 833c ab02 00bc b5d2 bcbc 2d16 a73a
00000310: 8616 8abc 2d3d 853b 17be cf3d 52ca 613d
00000320: 0f98 42bc 6c97 04bb e097 a1bd 9d4b 1f3c
00000330: 12e6 77bc e402 b3bc f371 c93b 8545 a8bb
00000340: aef1 f2bb 53fb 42bd f597 9e3b 678e 93bd
00000350: cac2 a73c edad 5bbc 76a1 b2bb 28dd d43b
00000360: e8d9 e03b 2250 8a3d 86d1 9a3b 2bd1 483c
00000370: 6c9a 2ebd 3f21 3cbb 527a f6bc bb9c 2abd
00000380: 9687 20bd 5a40 303b 7839 103d c8c0 d13d
00000390: a337 acbc d451 503d b0ac 913d 1933 aabb
000003a0: a5c4 d2bc df4f a4bc 471e afbc a197 7fbd
000003b0: 4c04 28bd 9020 bb3c 15bb 6dbd ba7e 74bc
000003c0: a83f 4a3b b051 d73b 799f 92bd 3981 163d
000003d0: 5c97 07bd cfa6 19bd f4ef 073c 141c afbc
000003e0: 772b 99bb e288 eabb f2b0 79bd 087b 503d
000003f0: 9c6b 57bb b3db 8dbc fde3 bc3b 065e 683c

action_model._discrete_distribution.branches.0.weight f4 [1, 128]
-0.011051449 0.003698141 -0.0032543836 -0.004770252 -0.008225082 -0.004498214 -8.957393e-05 0.0074191364
-0.021188049 0.0049876296 -0.0019850563 -0.0015429906 0.00023454959 -0.00018400006 -0.016773483 -0.0045862566
-0.00018955772 0.00823351 0.0017366188 -0.017537948 0.0023592534 -3.662088e-05 -0.0021860981 -0.009979538
-0.020002982 -0.0071774716 0.0038396262 0.0030176835 0.007462824 -0.0069743097 0.007932304 -0.016835539
-0.003263967 0.0059330757 0.008412103 0.0014989885 -0.007646435 0.011338594 0.014896685 -0.00754651
-0.011054334 -0.0012764143 0.0024437539 0.0044276784 -0.0002721643 0.013637624 -0.006246686 0.004508027
0.010210035 -0.008197867 -8.225255e-05 -0.0049371696 -0.0050007557 0.0018443888 -0.0026835338 -0.012790494
0.0010566377 0.015355639 -0.011047119 0.0012327868 0.0066257627 0.0034382243 -0.00048947387 -0.009810251
-0.0019130446 -0.0011827005 0.007404519 -0.0033113917 -0.013994862 0.0052445116 -0.0017500243 -0.010326988
0.0019942904 -0.0070494153 -0.01572728 0.0035121955 0.002505499 -0.00556854 -0.008852009 -0.008626033
0.0060064495 -0.00062472187 -0.004026856 0.0020990907 -0.0025450815 -0.0005275123 -0.009631601 -0.0059098355
0.0054115877 -0.0075023994 0.0047708815 -0.0028604227 -0.017794343 0.006012702 0.004570503 -0.015897138
0.008223258 -0.012735203 -0.0033729027 -0.0009840457 0.006061152 0.000906279 -0.005736128 0.007532326
0.0017232754 -0.002084141 -0.008774689 -0.01421974 -0.005970981 -0.010003489 0.0017710365 0.0035996803
-0.0016510197 -0.00047521802 -0.0038367677 0.010301354 0.0057583163 0.016569031 0.001138507 0.0021586248
2.9821802e-05 -0.010448624 -0.0067607784 0.008295032 0.011568293 -0.0010851837 0.004969563 -0.013970296
00000000: 2311 35bc 835c 723b 7f47 55bb c64f 9cbb
00000010: 7fc2 06bc c165 93bb a3d9 bbb8 3a1c f33b
00000020: 8f92 adbc 456f a33b b817 02bb 2c3e caba
00000030: 6df1 7539 24f0 40b9 8b68 89bc 4f48 96bb
00000040: 03c4 46b9 d8e5 063c 429f e33a beab 8fbc
00000050: b49d 1a3b 5f99 19b8 a444 0fbb 3781 23bc
00000060: 4bdd a3bc ff30 ebbb 3da2 7b3b 54c4 453b
00000070: b58a f43b c088 e4bb 7ff6 013c afea 89bc
00000080: 48e8 55bb 3f6a c23b ebd2 093c b579 c43a
00000090: f28e fabb 83c5 393c 3a11 743c b748 f7bb
000000a0: 3d1d 35bc 5b4d a7ba 6327 203b 0f16 913b
000000b0: 46b1 8eb9 5770 5f3c 00b1 ccbb 12b8 933b
000000c0: fe47 273c 5950 06bc 007f acb8 fbc7 a1bb
000000d0: 61dd a3bb 6bbf f13a 3ade 2fbb 388f 51bc
000000e0: e17e 8a3a 3896 7b3c fafe 34bc 7695 a13a
000000f0: ed1c d93b d553 613b 0950 00ba 2dbb 20bc
00000100: 20bf faba d804 9bba 9ba1 f23b ef03 59bb
00000110: b54a 65bc 27da ab3b 1261 e5ba 8732 29bc
00000120: a4b2 023b c8fe e6bb 7fd6 80bc dd2c 663b
00000130: 4c33 243b 4d78 b6bb 0408 11bc 3454 0dbc
00000140: c0d1 c43b 60c4 23ba b7f3 83bb e690 093b
00000150: 62cb 26bb c048 0aba ddcd 1dbc 4ba7 c1bb
00000160: b053 b13b b0d6 f5bb 0e55 9c3b ee75 3bbb
00000170: 71c5 91bc 3306 c53b 28c4 953b b73a 82bc
00000180: d8ba 063c 50a7 50bc eb0b 5dbb 18fb 80ba
00000190: a19c c63b 5b93 6d3a 21f6 bbbb bbd1 f63b
000001a0: 87df e13a 1596 08bb b7c3 0fbc eaf9 68bc
000001b0: 38a8 c3bb ade5 23bc 2022 e83a 9de8 6b3b
000001c0: 0767 d8ba af26 f9b9 4872 7bbb 03c7 283c
000001d0: 42b0 bc3b c7bb 873c f539 953a b777 0d3b
000001e0: d529 fa37 b530 2bbc 8589 ddbb e3e7 073c
000001f0: f088 3d3c b93c 8eba b7d7 a23b abe3 64bc

network_body._body_endoder.seq_layers.0.bias f4 [128]
-0.02948071 -0.045034096 -0.03307152 0.017625943 -0.10256612 -0.0043224706 -0.0713415 0.03622621
-0.08646003 0.060933664 -0.011469485 -0.04770365 0.027809983 0.045386877 -0.10909273 -0.032561433
-0.13949728 -0.0054026777 -0.105371736 0.0037034797 -0.016372025 0.03481204 0.056487687 -0.04296693
-0.02049679 -0.024926325 -0.0424352 -0.082814105 -0.09325953 0.025033224 -0.0035148656 -0.010330601
0.010019214 -0.08000512 -0.045762163 -0.03564463 0.05075333 -0.049888182 -0.023251602 -0.16320884
0.023453554 -0.00919162 -0.087613694 0.0047993516 -0.042161554 -0.240145 -0.09560707 -0.03579116
-0.032482915 -0.118428975 0.057833213 -0.018131545 -0.12802963 0.019842418 -0.107639275 -0.013329668
-0.12507524 0.004369446 -0.0569759 0.060397655 -0.016038299 0.055850998 -0.31517425 -0.12578575
-0.020531852 -0.0077781403 -0.13980225 -0.09224714 -0.076524675 0.020735038 -0.18606001 -0.010702662
0.0013060023 0.04409693 -0.04877694 0.00039807605 -0.21518299 -0.1077459 -0.22978431 0.026112743
-0.19455595 0.039309226 -0.06884775 -0.0053971345 0.023467403 -0.34193337 -0.01739125 -0.063178815
-0.14171882 0.024626508 -0.06052095 0.003700944 -0.1940055 -0.08989943 -0.055102076 0.015120789
-0.01621746 -0.007543961 0.016336309 -0.020026581 -0.062078156 -0.1878753 -0.163768 0.0042712493
-0.007307466 -0.0045024185 -0.06420604 0.01758303 -0.14439562 0.0011170065 0.04395749 -0.0027981969
0.018499523 -0.03114676 0.05813416 -0.006007899 -0.07162843 -0.11647647 -0.02184635 -0.0045386166
-0.05212145 0.056101717 -0.10500699 -0.04613091 -0.0733763 -0.020626865 0.03666084 0.02018619
00000000: 8881 f1bc ac75 38bd 0176 07bd 4864 903c
00000010: 300e d2bd 83a3 8dbb 7e1b 92bd ef61 143d
00000020: f511 b1bd 9495 793d 82ea 3bbc e764 43bd
00000030: c3d1 e33c 97e7 393d 026c dfbd 235f 05bd
00000040: 60d8 0ebe f208 b1bb 23cd d7bd 14b6 723b
00000050: a01e 86bc 1297 0e3d a25f 673d 17fe 2fbd
00000060: e2e8 a7bc 4b32 ccbc 88d0 2dbd 719a a9bd
00000070: dafe bebd 7a12 cd3c a959 66bb ae41 29bc
00000080: a127 243c b9d9 a3bd 1b71 3bbd 1b00 12bd
00000090: b9e2 4f3d 8d57 4cbd 257a bebc 3820 27be
000000a0: ab21 c03c 7398 16bc cf6e b3bd e143 9d3b
000000b0: 98b1 2cbd 92e8 75be a4cd c3bd c099 12bd
000000c0: ce0c 05bd e48a f2bd 85e2 6c3d 9b88 94bc
000000d0: 331a 03be 918c a23c fb71 dcbd ae64 5abc
000000e0: b913 00be 922d 8f3b 905f 69bd 8863 773d
000000f0: c062 83bc 04c4 643d 855e a1be fbcd 00be
00000100: 6a32 a8bc c5df febb 5228 0fbe 12ec bcbd
00000110: f8b8 9cbd 87dc a93c 8486 3ebe 385a 2fbc
00000120: 2a2e ab3a fc9e 343d 54ca 47bd ddb4 d039
00000130: ee58 5cbe e2a9 dcbd 944c 6bbe 64ea d53c
00000140: ad39 47be b602 213d 0d00 8dbd 72da b0bb
00000150: b63e c03c e411 afbe 1878 8ebc e563 81bd
00000160: bd1e 11be 88bd c93c d1e4 77bd 898b 723b
00000170: 61a9 46be 311d b8bd b7b2 61bd 30bd 773c
00000180: 7bda 84bc 5533 f7bb b9d3 853c c90e a4bc
00000190: aa45 7ebd 6262 40be ccb2 27be d6f5 8b3b
000001a0: 7873 efbb 0689 93bb 757e 83bd 490a 903c
000001b0: 72dc 13be 8568 923a c50c 343d f461 37bb
000001c0: 508c 973c 7d27 ffbc 161e 6e3d e9dd c4bb
000001d0: edb1 92bd 378b eebd 1ef7 b2bc adb8 94bb
000001e0: 4d7d 55bd eaca 653d e80d d7bd c4f3 3cbd
000001f0: 5046 96bd acf9 a8bc ad29 163d 825d a53c

network_body._body_endoder.seq_layers.0.weight f4 [128, 63]
-0.11014484 0.05856577 0.1896172 -0.18186545 -0.13185188 -0.043555405 -0.11955467 0.001167499
-0.09724147 0.011781952 -0.105552934 0.15740497 -0.29824138 -0.026740365 0.109344505 0.056891862
-0.26073352 -0.10904252 0.011578527 0.116189376 -0.2357065 0.041186657 0.04602712 -0.009383567
-0.18287337 -0.03113553 0.18908297 -0.39923608 -0.11221847 0.049135327 0.01496143 0.05133417
0.11709883 -0.1616637 0.12486726 0.07061383 0.00922841 0.09992511 0.0063573723 0.040741257
-0.3655976 0.15266986 -0.0795186 0.0032109763 -0.18658099 0.25415808 -0.30872735 0.21939978
-0.013092076 -0.17177534 -0.028185938 0.08030969 0.13314088 0.12935214 0.07837938 -0.098738246
0.2743249 -0.12218043 0.12096536 0.12832548 0.24731089 -0.08304208 0.22145453 -0.011068621
0.05479332 0.044902805 -5.7918813e-05 0.10513779 -0.16827707 -0.10223833 0.029412376 -0.01000797
0.12177001 0.08491768 0.262171 0.13459764 0.04426057 -0.06905929 -0.04624794 -0.221368
-0.15263787 0.048932426 -0.0043214997 -0.016390856 -0.03163735 0.010669338 -0.018639928 0.31197724
-0.032179225 -0.25593033 -0.037367553 -0.02397474 0.24173872 -0.10156143 -0.037028253 0.088134706
-0.14446901 -0.08250699 -0.027343715 -0.054881826 -0.14585307 -0.09112242 -0.15283388 -0.118906096
-0.19522099 -0.23365226 -0.19436835 -0.08969077 0.30831757 -0.02668781 0.06728907 -0.24864681
-0.0080706235 -0.12673141 -0.09828844 -0.12528539 -0.23361643 -0.09742269 -0.008174996 -0.26133218
0.18199734 0.21131654 -0.17653768 -0.37491906 -0.16664745 0.1801477 -0.13525094 -0.12506814
0.2146123 0.12036547 0.06698286 -0.19060475 -0.15703212 0.18224534 -0.1721308 0.09505008
-0.12854713 0.04565846 -0.096396446 -0.10209182 -0.056760143 -0.11878312 0.07015691 -0.15294623
-0.016266825 0.12358999 -0.0791262 -0.077115476 -0.06625082 0.031989176 -0.06586572 0.03519399
0.17938547 -0.3055792 0.0006819145 -0.17260475 -0.0071312124 -0.027295314 -0.008802566 -0.058290888
-0.10783091 -0.13427544 0.064287804 0.1018269 0.18567538 -0.048588645 -0.085966595 0.068393745
0.0756089 0.21135202 -0.34321567 -0.20164773 0.03936492 0.07361794 0.052805927 -0.052068263
-0.038286153 -0.07807389 -0.0756115 0.11083255 0.3485683 0.20756322 0.03819865 0.05190432
0.23652217 0.047909386 -0.0403322 -0.12905517 0.18823393 0.25758633 -0.07823551 -0.2135089
-0.036235195 -0.15332992 0.24204998 -0.00026252758 0.054809496 0.017132554 -0.23313625 -0.17688961
-0.043850373 0.03231809 -0.0069891163 -0.11860268 -0.20399769 -0.15065324 -0.07490247 -0.13228205
-0.03887405 -0.022261906 -0.20800124 0.007256587 0.051550083 0.20538746 0.036931608 -0.047311872
0.1034182 -0.041720208 0.06407309 0.06851054 0.08014803 0.1377118 -0.07919985 0.187534
-0.036899954 -0.016563335 0.08531912 0.119984 -0.01484277 0.11833063 -0.23327996 -0.11664974
-0.044851054 0.112582326 0.13924155 -0.071523756 -0.19710052 -0.054342225 0.085904405 0.12522143
-0.14048184 -0.09603996 -0.44927955 -0.0673958 0.123715304 0.014987083 0.12915231 0.109217845
0.16096085 0.42446348 -0.25283402 -0.03369187 -0.14946383 -0.057620246 -0.027902022 0.31087404
00000000: 9e93 e1bd a9e2 6f3d 032b 423e f03a 3abe
00000010: 2e04 07be 2767 32bd 14d9 f4bd c406 993a
00000020: 8926 c7bd 1709 413c 232c d8bd c52e 213e
00000030: 18b3 98be 9c0e dbbc 03f0 df3d 7107 693d
00000040: dd7e 85be af51 dfbd ddb3 3d3c b2f4 ed3d
00000050: 0b5d 71be 57b3 283d ef86 3c3d 88bd 19bc
00000060: 2843 3bbe f00f ffbc f79e 413e ac68 ccbe
00000070: ccd2 e5bd 2042 493d c920 753c c743 523d
00000080: 83d1 ef3d 2b8b 25be 68ba ff3d fc9d 903d
00000090: c232 173c 89a5 cc3d 8151 d03b 4ee0 263d
000000a0: 9c2f bbbe 7d55 1c3e a6da a2bd 3e6f 523b
000000b0: 160f 3fbe 0221 823e 8311 9ebe 56aa 603e
000000c0: 2680 56bc e0e5 2fbe 32e6 e6bc 6879 a43d
000000d0: 1556 083e e374 043e 5e85 a03d 4737 cabd
000000e0: 5074 8c3e bc39 fabd b0bc f73d c167 033e
000000f0: 113f 7d3e f711 aabd fac4 623e 2959 35bc
00000100: f66e 603d 01ec 373d daed 72b8 7b52 d73d
00000110: d350 2cbe 5462 d1bd 39f2 f03c 78f8 23bc
00000120: 8e62 f93d 52e9 ad3d 473b 863e f7d3 093e
00000130: 924a 353d f56e 8dbd 7b6e 3dbd 4bae 62be
00000140: 1a4d 1cbe 5e6d 483d 5e9b 8dbb 1e46 86bc
00000150: 2a96 01bd 72ce 2e3c c3b2 98bc 7bbb 9f3e
00000160: 5dce 03bd 4d09 83be b80e 19bd ad66 c4bc
00000170: 5b8a 773e 70ff cfbd f0aa 17bd f87f b43d
00000180: afef 13be 6df9 a8bd edff dfbc c4cb 60bd
00000190: 825a 15be 649e babd 7c80 1cbe 0a85 f3bd
000001a0: 03e8 47be 8a42 6fbe 7f08 47be cbaf b7bd
000001b0: cddb 9d3e 65a0 dabc dace 893d 459d 7ebe
000001c0: a63a 04bc e1c5 01be 734b c9bd d04a 00be
000001d0: 2539 6fbe 8c85 c7bd 6bf0 05bc 55cd 85be
000001e0: 835d 3a3e 5d63 583e 4bc6 34be 64f5 bfbe
000001f0: a1a5 2abe a378 383e 397f 0abe dd11 00be
00000200: 54c3 5b3e 2c82 f63d 4f2e 893d e42d 43be
00000210: 07cd 20be 869e 3a3e 0e43 30be 9ea9 c23d
00000220: dca1 03be 5e04 3b3d 806b c5bd 8415 d1bd
00000230: 537d 68bd 9044 f3bd 6dae 8f3d f09d 1cbe
00000240: 0142 85bc c01c fd3d eb0c a2bd b8ee 9dbd
00000250: 83ae 87bd 1507 033d 9be4 86bd 9327 103d
00000260: d3b0 373e e074 9cbe 82c2 323a 4dbf 30be
00000270: f2ac e9bb 6c9a dfbc a338 10bc 6dc2 6ebd
00000280: 74d6 dcbd 807f 09be 53a9 833d 9f8a d03d
00000290: b021 3e3e e304 47bd 410f b0bd 0512 8c3d
000002a0: d7d8 9a3d aa6c 583e f7b9 afbe be7c 4ebe
000002b0: 1c3d 213d 01c5 963d 074b 583d 8845 55bd
000002c0: f1d1 1cbd 34e5 9fbd 34da 9abd 2dfc e23d
000002d0: 8b77 b23e 748b 543e 3076 1c3d a099 543d
000002e0: de32 723e a23c 443d 6033 25bd 0a27 04be
000002f0: 65c0 403e 5be2 833e f039 a0bd 14a2 5abe
00000300: 5b6b 14bd 8502 1dbe f3db 773e dba3 89b9
00000310: ec7f 603d 9259 8c3c 45bb 6ebe 8d22 35be
00000320: 739c 33bd f95f 043d f504 e5bb f6e5 f2bd
00000330: c5e4 50be d844 1abe 7766 99bd f274 07be
00000340: 653a 1fbd 9a5e b6bc 47fe 54be aac8 ed3b
00000350: 2e26 533d 1751 523e 9945 173d 18ca 41bd
00000360: eccc d33d cfe2 2abd c138 833d 414f 8c3d
00000370: a624 a43d 5204 0d3e 8833 a2bd ea08 403e
00000380: 6824 17bd d5af 87bc cabb ae3d 2cba f53d
00000390: 172f 73bc 5457 f23d f1e0 6ebe 0fe6 eebd
000003a0: bdb5 37bd 9091 e63d 5695 0e3e 0c7b 92bd
000003b0: b8d4 49be f495 5ebd a6ee af3d 0c3a 003e
000003c0: 79da 0fbe 99b0 c4bd f807 e6be cf06 8abd
000003d0: 735e fd3d 628c 753c 8140 043e 9bad df3d
000003e0: ecd2 243e 4753 d93e 7673 81be 7c00 0abd
000003f0: 0c0d 19be 3503 6cbd c892 e4bc e22a 9f3e

network_body._body_endoder.seq_layers.2.bias f4 [128]
-0.02534109 -0.04183129 0.017472263 -0.055324737 -0.03703787 0.008220136 -0.071614504 0.010518044
-0.28287184 -0.3529564 -0.0054906155 -0.028718086 -0.02455919 0.010808299 0.0033925788 -0.13239115
-0.0066611683 -0.0480202 0.017439097 -0.054309126 -0.04195828 -0.006886138 -0.014329498 -0.037714142
0.0140352165 0.0020841153 -0.00019208182 0.02012924 -0.03052762 -0.032961722 0.027777603 -0.047486283
-0.2561738 -0.045126896 -0.03408098 -0.42539126 0.028666737 -0.24045719 -0.02483852 -0.01709846
0.010739071 0.0069641154 -0.051896714 -0.046132114 0.017835101 -0.022699589 0.00401283 -0.022870317
-0.011428881 -0.014927368 -0.005905536 0.025239596 -0.03859811 0.0028385315 0.0045373985 -0.35416016
0.007439248 -0.07692882 -0.034199115 -0.2353868 -0.017996073 -0.3355679 -0.011042803 -0.07365264
0.00661986 -0.029316876 -0.042947136 -0.03052799 -0.046422776 -0.115365736 0.005324763 0.006872228
-0.02197713 -0.040802523 -0.22403322 0.028553698 -0.021964846 0.026570618 -0.012407754 -0.063128404
-0.0018057526 -0.24178931 0.017781327 -0.056471854 0.021644885 -0.03209032 -0.013130206 0.028734324
-0.032649122 -0.03249007 -0.009242368 0.03822068 -0.15622881 -0.0075687105 -0.051998097 -0.5825151
-0.52189076 0.010287446 -0.1357143 -0.015273765 -0.024618762 -0.022768116 -0.001454206 -0.013733862
-0.037958566 -0.017594252 -0.057123475 -0.18995926 -0.049274255 -0.0055392245 -0.1955634 -0.023359986
-0.016467012 0.01787667 -0.30045968 -0.12426074 -0.2558912 -0.19127335 -0.0011414421 -0.06279131
0.015554524 -0.055780806 -0.24368167 0.012960393 0.0070823054 -0.05534726 0.0068970798 -0.008393069
00000000: 1e98 cfbc 4957 2bbd fe21 8f3c 319c 62bd
00000010: 06b5 17bd c0ad 063c a0aa 92bd e053 2c3c
00000020: 94d4 90be b4b6 b4be 9fea b3bb 3142 ebbc
00000030: 5b30 c9bc 4b15 313c 0756 5e3b 8c91 07be
00000040: ee45 dabb d4b0 44bd 70dc 8e3c 3f73 5ebd
00000050: 72dc 2bbd 1da5 e1bb 45c6 6abc 257a 1abd
00000060: f7f3 653c a795 083b 9269 49b9 13e6 a43c
00000070: 0f15 fabc df02 07bd db8d e33c fa80 42bd
00000080: 3629 83be fbd6 38bd 7f98 0bbd e2cc d9be
00000090: 81d6 ea3c 693a 76be 277a cbbc 1212 8cbc
000000a0: eef2 2f3c 3c33 e43b a691 54bd 07f5 3cbd
000000b0: eb1a 923c 7df4 b9bc 0f7e 833b 885a bbbc
000000c0: 3440 3bbc eb91 74bc 3a83 c1bb 45c3 ce3c
000000d0: 0d19 1ebd a806 3a3b 75ae 943b 7b54 b5be
000000e0: efc4 f33b db8c 9dbd 5f14 0cbd 3d09 71be
000000f0: 806c 93bc 8ecf abbe dfec 34bc 32d7 96bd
00000100: 69eb d83b f229 f0bc 56e9 2fbd d615 fabc
00000110: cf25 3ebd df44 ecbd 597b ae3b 6d30 e13b
00000120: 6209 b4bc 8c20 27bd f768 65be 72e9 e93c
00000130: 9fef b3bc a0aa d93c e449 4bbc 7749 81bd
00000140: 01af ecba 9e97 77be 25aa 913c 084f 67bd
00000150: 9d50 b13c 2471 03bd 1320 57bc 3f64 eb3c
00000160: 16bb 05bd 4f14 05bd 4d6d 17bc 4a8d 1c3d
00000170: 72fa 1fbe f202 f8bb f5fb 54bd b61f 15bf
00000180: a29a 05bf ad8c 283c b1f8 0abe d03e 7abc
00000190: 49ad c9bc 3384 babc 0e9b beba fe03 61bc
000001a0: 717a 1bbd d221 90bc 4efa 69bd ae84 42be
000001b0: cdd3 49bd 6282 b5bb c641 48be 715d bfbc
000001c0: d4e5 86bc 1872 923c dad5 99be 6a7c febd
000001d0: 2c04 83be 29dd 43be 719c 95ba bb98 80bd
000001e0: 67d8 7e3c 6a7a 64bd b087 79be d457 543c
000001f0: af12 e83b cfb3 62bd e600 e23b 1583 09bc

network_body._body_endoder.seq_layers.2.weight f4 [128, 128]
-0.024597881 0.045671444 -0.023155488 -0.058143012 -0.0632419 -0.037565414 -0.13425997 0.09869458
0.07242968 -0.2736715 0.03905409 0.021598386 -0.0024227947 0.0130464975 -0.018533919 0.13827547
0.029258654 0.04689381 0.1358836 0.1836019 0.06555693 -0.07687694 0.04902757 0.12242611
-0.018035334 -0.20715329 0.032496188 0.1800334 -0.06518315 0.0881422 0.13427125 0.061099973
0.13512363 0.11142053 -0.048391156 -0.020692373 0.12485042 0.022176648 -0.08372708 0.079617806
0.100771666 0.09039198 -0.25447047 -0.15189704 -0.026588604 -0.15030548 0.03296636 -0.13018404
-0.032271933 0.046450265 0.13763353 0.11655937 -0.075766765 -0.052469973 -0.079513386 -0.036772177
0.06903644 0.007319969 0.09496291 -0.028005742 -0.01953191 -0.18933013 0.09856617 0.026627496
-0.010501136 -0.07158516 0.13788512 0.024301602 0.015087661 -0.0835563 -0.004903637 -0.0022751791
-0.023270197 -0.14535777 0.066898406 -0.009580943 -0.15826927 -0.06871728 0.19745935 0.05845272
0.027345458 0.0029675802 0.05410491 -0.043335434 0.08558914 0.06753429 -0.20762406 -0.15185899
0.011069137 -0.09930279 -0.15955533 -0.20135556 -0.07910962 0.067197576 -0.090213194 -0.008395709
-0.007297514 0.0803382 -0.11933897 0.09093243 0.028197797 0.21918981 0.010211007 -0.017318401
0.0016778245 -0.051484704 0.051291216 0.014409071 0.11414054 0.07169025 -0.23743099 0.023602841
-0.17166188 -0.051097278 0.15412311 0.006102848 -0.0010972705 0.042756423 0.05003037 -0.18434677
0.16445301 -0.15951918 0.07799438 -0.04053015 0.054759126 -0.12181628 -0.021300975 0.09604141
-0.01654194 0.10928435 0.113793425 0.31226993 -0.016323194 -0.34844697 -0.06908817 0.19568007
-0.016210016 0.0012995545 -0.17289771 0.008225521 0.07087465 -0.032663587 0.08108177 0.115594134
0.12119406 0.052235916 0.254356 0.038092017 0.039724063 -0.039304666 0.06705987 -0.01398533
-0.15576099 -0.082873695 -0.0049281353 -0.13920929 -0.0035565721 0.13664037 0.19300488 -0.026627665
-0.06770619 -0.0022934752 0.002449889 -0.10664809 0.20238316 -0.11780075 0.052209426 0.061338168
-0.094491236 0.09815979 0.19459525 -0.041567832 -0.13487476 0.10490273 0.034772616 0.012496018
-0.10264672 -0.07541579 -0.14846762 -0.11642104 0.043427747 -0.10937663 -0.05098946 0.090162605
0.012991901 -0.002445344 -0.016254837 -0.001168818 -0.04036348 -0.013719134 0.03399486 0.085284844
-0.09792952 0.14577162 0.16577604 -0.021506147 0.15191615 0.05630091 0.10289622 0.138782
0.20807919 -0.1422156 -0.03034776 0.046495978 0.17011535 -0.031075036 0.17482999 0.092505105
0.19940667 0.020500476 -0.074813694 0.025370885 -0.06171941 -0.047059562 0.16827948 -0.12693045
-0.012551659 0.0091703655 0.11188299 0.038856383 0.03472309 -0.24316938 0.0018702237 -0.009126985
-0.01734927 -0.101953186 0.0077702096 -0.25704053 0.0099873105 0.0877156 -0.0044552856 0.077289194
0.010071762 -0.023219137 0.068278 -0.023597475 0.003729297 -0.13987617 0.0067691593 0.12203683
0.0080288835 -0.06779094 0.16862614 -0.19042921 -0.106326595 0.17883568 0.024073264 0.18797699
0.06239922 -0.009802482 0.05650691 0.08050343 0.13493747 0.04616956 -0.11816106 -0.0054265694
00000000: 7f81 c9bc fb11 3b3d 94b0 bdbc 5e27 6ebd
00000010: f884 81bd 31de 19bd 727b 09be 6220 ca3d
00000020: 0356 943d ac1e 8cbe 2ef7 1f3d 19ef b03c
00000030: c0c7 1ebb fac0 553c 72d4 97bc 1698 0d3e
00000040: d8af ef3c b913 403d 1225 0b3e 2302 3c3e
00000050: b642 863d a871 9dbd 22d1 483d 8aba fa3d
00000060: d6be 93bc fe1f 54be b91a 053d ad5a 383e
00000070: be7e 85bd e683 b43d 677e 093e f743 7a3d
00000080: d95d 0a3e 7230 e43d ce35 46bd 0d83 a9bc
00000090: 94b1 ff3d cdab b53c 1a79 abbd a90e a33d
000000a0: 6061 ce3d 6e1f b93d f449 82be e68a 1bbe
000000b0: 58d0 d9bc aee9 19be bc07 073d f74e 05be
000000c0: 932f 04bd a242 3e3d ceef 0c3e aeb6 ee3d
000000d0: 9b2b 9bbd c1ea 56bd ead7 a2bd 6c9e 16bd
000000e0: fa62 8d3d 5adc ef3b ea7b c23d 4c6c e5bc
000000f0: 6201 a0bc c2df 41be 0fdd c93d e821 da3c
00000100: f50c 2cbc 3e9b 92bd c231 0d3e 2714 c73c
00000110: 3d32 773c 911f abbd b0ae a0bb 2c1b 15bb
00000120: 24a1 bebc abd8 14be 0802 893d 63f9 1cbc
00000130: 5711 22be a5bb 8cbd c932 4a3e 1f6c 6f3d
00000140: 9503 e03c bc7b 423b 1c9d 5d3d 7f80 31bd
00000150: 5c49 af3d 6b4f 8a3d 679b 54be ec80 1bbe
00000160: 535b 353c 435f cbbd 7962 23be 2730 4ebe
00000170: 3904 a2bd e29e 893d b2c1 b8bd 288e 09bc
00000180: fc1f efbb 5b88 a43d fd67 f4bd c83a ba3d
00000190: 11ff e63c 4b73 603e 114c 273c 52df 8dbc
000001a0: 73ea db3a a0e1 52bd bd16 523d 0614 6c3c
000001b0: 84c2 e93d 56d2 923d 1c21 73be bf5a c13c
000001c0: 22c8 2fbe 614b 51bd 73d2 1d3e 66fa c73b
000001d0: 4ad2 8fba 5c21 2f3d a5ec 4c3d 66c5 3cbe
000001e0: 5f66 283e ff58 23be 84bb 9f3d f102 26bd
000001f0: 1b4b 603d d07a f9bd 627f aebc 5cb1 c43d
00000200: f682 87bc 79d0 df3d 870c e93d d8e1 9f3e
00000210: 38b8 85bc a467 b2be 197e 8dbd 5b60 483e
00000220: deca 84bc d055 aa3a 190c 31be 56c4 063c
00000230: ba26 913d 41ca 05bd 330e a63d 9ebc ec3d
00000240: 9734 f83d 54f5 553d f33a 823e 6006 1c3d
00000250: b3b5 223d eefd 20bd af56 893d ba22 65bc
00000260: cf7f 1fbe afb9 a9bd 327c a1bb e18c 0ebe
00000270: 6115 69bb 74eb 0b3e 12a3 453e 4322 dabc
00000280: 8ba9 8abd 214e 16bb 518e 203b 506a dabd
00000290: 883d 4f3e 8541 f1bd 8dd9 553d bb3d 7b3d
000002a0: 9f84 c1bd 0008 c93d fa43 473e 0843 2abd
000002b0: 9c1c 0abe 3ed7 d63d bb6d 0e3d 19bc 4c3c
000002c0: 7238 d2bd 9873 9abd e507 18be 276e eebd
000002d0: 4be1 313d db00 e0bd 53da 50bd 2ca7 b83d
000002e0: fbdb 543c 1142 20bb dd28 85bc 0633 99ba
000002f0: 2d54 25bd 38c6 60bc 323e 0b3d d2a9 ae3d
00000300: 468f c8bd 2845 153e 32c1 293e a92d b0bc
00000310: e88f 1b3e c89b 663d 41bb d23d de1c 0e3e
00000320: b612 553e f7a0 11be de9b f8bc 9172 3e3d
00000330: b832 2e3e 1391 febc a206 333e 5173 bd3d
00000340: 4331 4c3e 9df0 a73c ec37 99bd 9ad6 cf3c
00000350: 7ecd 7cbd 87c1 40bd 7551 2c3e 0efa 01be
00000360: 79a5 4dbc 4d3f 163c e922 e53d df27 1f3d
00000370: cc39 0e3d 6501 79be 4b22 f53a 5a89 15bc
00000380: 0e20 8ebc d5cc d0bd 3e9d fe3b d19a 83be
00000390: d1a1 233c 3da4 b33d a5fd 91bb cc49 9e3d
000003a0: 0804 253c 0f36 bebc 56d5 8b3d 7e4f c1bc
000003b0: 3967 743b b33b 0fbe d3cf dd3b 72ee f93d
000003c0: 948b 033c fad5 8abd 55ac 2c3e e0ff 42be
000003d0: c2c1 d9bd b320 373e 4b35 c53c 0a7d 403e
000003e0: 5396 7f3d 979a 20bc ca73 673d fbde a43d
000003f0: 0c2d 0a3e 4b1c 3d3d 6dfe f1bd 5dd1 b1bb
