Assets/RollerBall 2.onnx (onnx, 75401 bytes, 8 tensors)

action_model._continuous_distribution.log_sigma f4 [1, 2]
00000000: 5577 b7be 2cb7 acbe
-0.3583323 -0.337335

action_model._continuous_distribution.mu.bias f4 [2]
00000000: 5dcb 4dbd 4fc7 e73c
-0.05024277 0.02829328

action_model._continuous_distribution.mu.weight f4 [2, 128]
00000000: 0dd9 aebb 061c 9d3d 6166 b63d f70e 1cbd
00000010: 404e e4bb 7545 37bd 524f 463c ddaf ffbd
00000020: 36b5 d1bc c270 323c 3002 9f3c ee74 f5bd
00000030: 00b1 49bc d18e 5c3d f72c ba3c 22f5 e23d
00000040: 30a2 15bd fc95 5f3c 513f c63d a3d4 ed3c
00000050: fdd4 1abd d893 cb3d ade0 643d 3099 3b3d
00000060: 8705 58bc 9024 3f3c 2496 b53d 1aab 3f3c
00000070: 3765 703d 21f7 bc3c 5e51 0d3d d7e6 633c
00000080: c7ec f83c 9b4d 3d3d f4dc 723d fd06 143d
00000090: 9fef cdbb a0dd 4b3d b982 ad3d 4bc0 023d
000000a0: b3cc 953c 7d14 c03d 1690 a53c cf30 323d
000000b0: 2b6b 8d3d 56f7 ea3c def6 a03b 9d66 a1bc
000000c0: f034 743c 925e 503d f97a f7bc 754c 9fbd
000000d0: 9a3c 35bc ede0 da3a 476d 60bd 43e3 fe3c
000000e0: b0ad 3c3c 8ab5 353c 7705 12bd 24e3 213d
000000f0: faca 87b9 954f 3fbc 7255 01bd 5527 e5bb
00000100: a39c 663b daf3 9a3a 4dce 11bc 3540 003e
00000110: eb28 bdba 2497 3bbc a4cb 63ba 198b 1c3c
00000120: a909 143d 9248 3e3d ef2f e4bc eae6 0abc
00000130: 6057 76bc 963c 06bd 2c67 81bb e91a 373d
00000140: b1d3 26bd 4400 573d 5265 0f3b f443 cebd
00000150: cf78 4e3d 362e e33b 4561 9abd 1a67 9fbd
00000160: 60a1 43bc e9fb a43c 12c4 273d 35bf 2fbc
00000170: 6933 5c3d a0c9 893d feaf eabc 92b0 7f3c
00000180: d15e 2abc 915d 0b3d 4493 d83c 0f37 833c
00000190: bdb8 5d3c 9835 babd b1c2 443d b9c5 8f3c
000001a0: 5dfc 763c 2c91 babc 370c 9cba b607 8f3d
000001b0: dd45 31bd c1e7 4f3b ea83 76bd 321a 743c
000001c0: a55d b83c 0594 8bbb 7359 693d fc71 c33c
000001d0: bd7c c03c 634b 853c 869f a83c ab4f 073d
000001e0: 86be 49bc e4d5 06bd 5f4d 6f3d 6161 71bd
000001f0: 73db 413d a183 c43b f95f ba3c 581c 1c3d
00000200: 2b1c ef3d 6ee2 e8bc be69 9e3d 14f1 11bc
00000210: 6359 abbd f259 403d da07 97bd ae7b 01bd
00000220: d30b dabd 3cbd e43c 5099 843d dab9 53bd
00000230: aaf8 6e3b 88b0 a63e 0c4c 713d 4ef6 ef3c
00000240: 66be 9a3d bdb1 87bd 3bb7 413b 3783 1dbd
00000250: a789 783d aa42 b83b b2cc 903d 6466 12bc
00000260: df57 843c a0f0 d9bd 306e a7bd 7140 e13d
00000270: 44b6 87bd 3277 93bc 1fc8 f6bd 2760 333d
00000280: d0cc 493d 3f43 5b3e 3371 453d 6f58 f7bb
00000290: bba7 233d 09eb e5bb 227f 4a3d 3f8c e0ba
000002a0: 72fc a8bd d493 03bc 261a 17bd 1765 a6bd
000002b0: 4ba1 463e efba 4c3e ba5e 863c 4caa 293d
000002c0: 362a a63b eead 9d3c f228 d3bc 1d92 d3bc
000002d0: 1623 b7bd 7643 73bd c30f 63bc 192d 813d
000002e0: 1e97 82bc fb88 a1ba 4bef afbc c9bf a43c
000002f0: 6372 cb3c b27d f2bc ae1e 9b3d 14ba babc
00000300: 3085 ff3a c516 013d 0ddf fc3c 83d6 863c
00000310: 9dbc 79bd 3cc1 e93c ecc7 15be 8f60 80bd
00000320: e1b7 443d dec0 69bd 6383 e2bb 279d 9a3d
00000330: d9f0 b23a c180 6a3d 3f43 7a3d c68b 613b
00000340: 3249 9b3d ab48 8cbc 9aec d23d 7711 61bd
00000350: cbd3 b4bd b1e2 2c3d ec69 84bd 6d70 c4bd
00000360: 568b 41bb a7e7 e43d 111a 9c3d 2e74 7ebd
00000370: 43ff 7a3d 58d2 a6bc a1e2 5cbc 9704 52bd
00000380: c804 8d3c f231 09be ae10 103d ae30 37bd
00000390: afea 2cbc 1cb5 8ebd 1bbf 8c3c 3852 8f3b
000003a0: 9a11 41be b105 803d 51ff f63c fcfd 91bc
000003b0: 1113 8c3d 0ed9 c1ba 6564 053d a97a 113d
000003c0: 64b1 64bb 9b86 113c ac42 ad3c 8c1a 9cbb
000003d0: bba8 bcbc 47d5 f3bd 88f8 d0bd cdef 943d
000003e0: c28a 1e3c 4741 5b3d 2df0 8a3b 435f bfbb
000003f0: b4ab 803d e4a9 0d3d 8a5e cd3d 0c3b 4d3d
-0.005335933 0.07671361 0.08906246 -0.03810021 -0.006967336 -0.044743974 0.012103872 -0.12484715
-0.025599103 0.010891141 0.019410223 -0.11985193 -0.0123102665 0.053847138 0.022726519 0.110819116
-0.036531627 0.013646599 0.096800454 0.029032057 -0.037800778 0.09940308 0.05587833 0.045800388
-0.013184912 0.011666432 0.08866528 0.011698509 0.058690276 0.023067059 0.034501426 0.013910017
0.030386342 0.04621659 0.05929275 0.036139477 -0.0062846686 0.049771905 0.08472199 0.031921666
0.018286085 0.09378908 0.020210307 0.04350358 0.06905206 0.028682392 0.0049122414 -0.01970225
0.014905199 0.05087144 -0.030210005 -0.07778255 -0.011061812 0.0016699113 -0.054791715 0.031114226
0.01151602 0.011090646 -0.035649743 0.03952326 -0.00025900436 -0.011676689 -0.031575628 -0.006993214
0.0035188578 0.0011821941 -0.008899284 0.12524493 -0.001443175 -0.011449609 -0.00086897076 0.009554648
0.036142025 0.046455927 -0.027854888 -0.008477906 -0.01503548 -0.032772623 -0.0039490666 0.044703398
-0.04072923 0.052490488 0.002188046 -0.10071555 0.05040818 0.006932999 -0.07538084 -0.07783337
-0.01194033 0.020139651 0.04095847 -0.01072674 0.053759966 0.0672791 -0.028648373 0.0156060625
-0.010398583 0.03402478 0.02643741 0.016017465 0.013532815 -0.090922534 0.048037235 0.017550336
0.0150748165 -0.022774301 -0.0011905496 0.069838926 -0.043279517 0.003172383 -0.060184397 0.014898824
0.02250559 -0.0042595887 0.05697007 0.023858063 0.02349698 0.016271299 0.02058388 0.03303496
-0.012313491 -0.032918826 0.058423396 -0.05893076 0.047328424 0.0059971367 0.022750841 0.03811297
0.116752945 -0.028428283 0.077350125 -0.008907575 -0.083666585 0.04696078 -0.073745444 -0.03161209
-0.106467865 0.027922265 0.064745545 -0.051690914 0.0036464133 0.32556558 0.058910415 0.029292252
0.07555847 -0.06625698 0.0029558677 -0.038455214 0.06067815 0.0056231814 0.070702925 -0.008935545
0.016155181 -0.10641599 -0.081753135 0.10998619 -0.06626561 -0.018001173 -0.12049889 0.04379287
0.04926759 0.21412371 0.04820366 -0.007548384 0.039954882 -0.0070165438 0.04943765 -0.001713164
-0.08251275 -0.00803085 -0.03689017 -0.0812475 0.19397466 0.19993185 0.016402591 0.041422173
0.00507095 0.019247975 -0.02577636 -0.025826508 -0.08942239 -0.059390508 -0.013858738 0.0630743
-0.015941199 -0.0012324149 -0.021476408 0.020110982 0.024834817 -0.029600952 0.07574211 -0.022793807
0.0019494649 0.031515855 0.030868078 0.016459709 -0.06097089 0.028534524 -0.14627045 -0.06268417
0.048026923 -0.057068698 -0.006912635 0.07549506 0.00136521 0.057251696 0.061099287 0.0034415587
0.0758232 -0.017124495 0.102990344 -0.054948296 -0.08829459 0.042208377 -0.064655155 -0.09591756
-0.0029532514 0.11176997 0.07622159 -0.062122516 0.061278593 -0.020363972 -0.013481767 -0.05127391
0.017214194 -0.13397959 0.035172157 -0.04472416 -0.010554 -0.069681376 0.01718097 0.004373815
-0.1885437 0.062510855 0.030151041 -0.017821305 0.06839574 -0.0014789419 0.032566447 0.03551737
-0.0034895772 0.00888219 0.021149956 -0.004763907 -0.023029676 -0.11905914 -0.102036536 0.07272301
0.009676637 0.05352905 0.004240057 -0.0058402135 0.0628275 0.03458585 0.100277975 0.05010514

action_model._discrete_distribution.branches.0.weight f4 [1, 128]
00000000: c3af b2bb cf46 12ba 8747 4e3c d34d fdba
00000010: 9534 853c a7fd 923c a6a0 0fbb c27a c53a
00000020: b001 cb3a 5556 223c 2306 103c b1d7 83bc
00000030: 25b9 67bc 1298 13bc 7bfd eabb b83b 34bc
00000040: a32a e03a 7b92 89bc 350e fb39 78e4 d1bb
00000050: f07c 5b3c 8b94 bc39 97f2 fbbb 5215 69bc
00000060: fffb 5d3c c684 273c 3852 2e3b 9fc4 c5b9
00000070: 3791 6a3c cfe3 903b 750b 48bc e27c 4bbc
00000080: f533 613b 80f7 463a 0f1b 863c 50c4 86bc
00000090: 71d4 17bc 2e77 95bb 127c 0b3a 4f4a 6fb9
000000a0: f7d4 8c3b 0287 11bc 5b17 b7bb 0352 07bc
000000b0: c74a bc3b e3ff 6d3c 0f8a 7a3c efcc 78ba
000000c0: 75af f13a 30e1 e73b 6e46 0b3b 0c4d 023c
000000d0: 3d1d 3bbc 9d30 ccbb a9fe 273c 8a01 ea3b
000000e0: 8081 55ba d891 543a 4720 6639 f6fc 1abc
000000f0: 82ca 763c 99ee 123c dde8 34ba 010a 263a
00000100: 3bd4 4d3c 8ad1 01bc 2ff4 a8bc 163f 923b
00000110: cb36 c3bb faa0 223b 985d 53bb 78c3 21bc
00000120: a78d 9d3a 0011 4f3c cd99 b8bb 28eb ec3b
00000130: 1f7b 8f3b 37c4 edb9 565f b23a 3bdc 16bb
00000140: 71fa 19bb 2d8f e13b 8b0d dc3b fb68 c93b
00000150: d344 39ba 4bc9 2f3b 8729 afbb bc9a ad3b
00000160: 5277 783b 3b1c 49bc ef2c a5ba ec84 01bc
00000170: 288b 123c eb8c d63c a5fd f8bb 8566 893c
00000180: 62dd 3cbb 2dbf 2abc 433d 6c3b c623 0f3b
00000190: b8dd cf3a 3551 f2ba b729 9ebc ae2c 43bb
000001a0: f049 a0bc 64ef a03a f0c0 72ba d24e 6fbb
000001b0: 68aa 73bc 5392 49bc 96e4 41bc 436e 81bb
000001c0: 1477 b93a 4095 8abc 200b 9c3a 3bb4 03bc
000001d0: 6a56 4fbb 0f2f 18bb 0c61 14bc b668 013c
000001e0: 2fde d03a 12a1 0dbc f752 6fbc 99f1 32bb
000001f0: c190 c9bb 3641 1ebc 03d6 e93b e682 9bbb
-0.0054530813 -0.00055800093 0.012590296 -0.0019325562 0.016260425 0.017943216 -0.0021915822 0.0015066492
0.0015488174 0.0099082785 0.008790526 -0.01609406 -0.014143263 -0.009008424 -0.0071713305 -0.011000566
0.001710255 -0.01679348 0.00047885036 -0.0064054094 0.013396487 0.00035968827 -0.007688831 -0.014226275
0.01354885 0.010224527 0.00265993 -0.00037721262 0.0143168485 0.004421688 -0.012209763 -0.012419911
0.0034363244 0.0007589981 0.016370324 -0.016451031 -0.009266959 -0.0045613265 0.0005320917 -0.00022820498
0.0042978483 -0.008882286 -0.005587501 -0.008259299 0.005746219 0.01452634 0.015291705 -0.00094909867
0.0018439131 0.007076405 0.0021251696 0.00795294 -0.011420545 -0.006231381 0.010253587 0.0071412968
-0.0008144602 0.00081088906 0.00021946534 -0.009459725 0.01506293 0.008968019 -0.00069011544 0.0006333888
0.012562807 -0.007923493 -0.020624248 0.004463087 -0.0059574596 0.0024815188 -0.003225183 -0.009873264
0.0012020365 0.01263833 -0.005633569 0.0072301812 0.004378691 -0.00045350354 0.0013608735 -0.0023019451
-0.0023495222 0.006883523 0.0067154816 0.006146548 -0.00070674455 0.002682286 -0.0053455266 0.005297987
0.0037912917 -0.012274797 -0.0012601892 -0.007905226 0.00894431 0.026190242 -0.007598596 0.016772518
-0.0028818478 -0.010421556 0.0036047257 0.002184139 0.0015858924 -0.0018487336 -0.019307 -0.002978127
-0.019566506 0.0012278375 -0.00092603173 -0.0036515486 -0.014872171 -0.012302953 -0.011834284 -0.003949912
0.0014149868 -0.016916871 0.0011905171 -0.008038576 -0.00316372 -0.0023221408 -0.009056341 0.0078985
0.0015935356 -0.008644359 -0.014607183 -0.0027304648 -0.006151289 -0.009659102 0.007136108 -0.004745829

network_body._body_endoder.seq_layers.0.bias f4 [128]
00000000: 8d94 213d 8e40 a8bc fd52 4fbd f117 1ebd
00000010: f511 333b 4316 33bb cfc5 723c d727 2dbb
00000020: 9627 d63d 533a bcbd d448 afbc 7b4e d6bd
00000030: 74dc 17bd fd5d 943d ba16 c7bc 2a62 883d
00000040: f2b0 ad3d b0fc 86bb 7136 8c3d 6ad6 d63c
00000050: 8d87 f43b 62e8 a83d e279 2bbd bcdf b6bd
00000060: 998f cabc eb84 a33d 8c89 2d3d 737f 233a
00000070: 0112 a03c 82ae b83b 1ab8 863d ed7e 5a3b
00000080: 79da 3bbd 42de c0bc 7e20 4cbc df08 83bd
00000090: 9913 63bd 8af2 15bd 15d3 93bd 2a5e 4b3d
000000a0: b86d 7f3c c239 49bd 8042 a2bc 0057 c5bc
000000b0: b614 37bd 2e9a 4a3d cd71 99bc 8e08 b03c
000000c0: 5c08 c83c 8f93 67bd df44 03bd 1610 bcbc
000000d0: 4895 84bc 8d24 9dbc 3398 373c b102 ef3c
000000e0: 9714 553d df73 3dbd 0573 d0bb aaee cc3d
000000f0: 855a b9bc 0cb2 f5bc 16e8 02bc aeee 8f3d
00000100: f938 a1bd 2850 83bc 837a 273d c675 963d
00000110: a930 04bd 2ac2 5bbc f363 c0bc 1054 253c
00000120: cea7 fabb 6267 0ebd 1527 803c 112a 17bd
00000130: f610 8a3c 09eb 9f3d e23e 24bc 7c99 04bb
00000140: 4342 343c b752 10bc a934 de3b 0eb7 febc
00000150: 9489 b03a f1cc 99bd ad99 98bc 21af 803d
00000160: 6b7f b53c 646c 253d b7b9 99bc 5463 0d3d
00000170: 6799 b93b d922 c2ba a8d3 763d b227 c9b9
00000180: fb57 7f3d 4d63 73bc c4a4 a43d e559 6abb
00000190: f153 8ebb a087 33bc 6980 ba3d 9a31 0e3d
000001a0: 4444 12bc 6dec 19bc 7d96 16bd 4755 103d
000001b0: 6dc0 cbbd 84eb e8bd 4411 f9bc 3de1 c8bc
000001c0: 4e02 2fbd 870a de3a e15b 133c 10a3 af3c
000001d0: 0510 883d 74c5 753d b483 e03c 37f8 de3b
000001e0: 3076 463d 0b74 ce3c 38c0 863c 82dc 07bd
000001f0: 47ea a9bd 58f2 fa3c 0492 23bc 2dae c6bd
0.03944831 -0.020538595 -0.050616253 -0.03859705 0.0027323936 -0.0027326501 0.014817669 -0.0026421451
0.10456769 -0.09190812 -0.021397032 -0.10464188 -0.037075475 0.07244489 -0.024302829 0.06659348
0.08481015 -0.004119478 0.068463214 0.026225287 0.007462448 0.082474485 -0.041864283 -0.08929393
-0.024726676 0.079843365 0.042367503 0.0006236948 0.019539835 0.0056360373 0.06578083 0.0033339814
-0.04586265 -0.02354348 -0.012458919 -0.063981764 -0.05543861 -0.036608256 -0.07217995 0.04965035
0.015590124 -0.049127348 -0.0198071 -0.024089336 -0.044697486 0.049463443 -0.018731022 0.021488454
0.024418049 -0.056537207 -0.032048102 -0.02295689 -0.016184464 -0.019182468 0.011205721 0.029176088
0.05202159 -0.04625308 -0.0063613676 0.10006459 -0.02262617 -0.029992126 -0.007989904 0.070279464
-0.07872195 -0.016029432 0.04088832 0.07346682 -0.03227297 -0.013412992 -0.02348516 0.010090843
-0.0076493984 -0.034766562 0.015643636 -0.036905352 0.01685379 0.07808501 -0.010024758 -0.0020233085
0.011002126 -0.008808783 0.00678118 -0.031093147 0.0013468736 -0.075097926 -0.018627966 0.06283403
0.022155484 0.040386572 -0.018765314 0.034518555 0.005664039 -0.0014811411 0.060260445 -0.00038367283
0.062339764 -0.014855218 0.08039239 -0.0035759148 -0.0043435027 -0.0109576285 0.091065235 0.034715272
-0.008927409 -0.009394747 -0.03676461 0.035237577 -0.09948812 -0.11373046 -0.03040374 -0.024521464
-0.042726807 0.0016940393 0.008994074 0.021440059 0.066436805 0.06000276 0.027406551 0.006804492
0.048452556 0.025201818 0.016449079 -0.033169277 -0.08296638 0.030633137 -0.009983543 -0.0970119

network_body._body_endoder.seq_layers.0.weight f4 [128, 8]
00000000: 393f 673d fcc9 1b3d 6189 21bf 9a78 c5be
00000010: f107 813d dd94 713e 1842 0e3e 96b6 92be
00000020: 604a 3a3e 0161 12bf 32d8 1f3e 399e ef3e
00000030: 198f 0abf cf3a 2bbe 7ebc 003b be17 7c3d
00000040: 8f55 543d 10fc 183e 9959 b43e c5b4 d5be
00000050: 14ca d1be 5df0 42bf b748 443f c4df e63d
00000060: 7499 91bd b26c 153e 4ad7 8cbd 5597 99be
00000070: 7772 6abe b490 873e 25fd 9d3b c469 843e
00000080: cc70 a83d 215b 1ebf 89b7 8abe fc74 50bf
00000090: f953 1abf b182 40be fe16 acbc 46a8 9ebe
000000a0: dbe6 873d d934 e33e 9b9f 0ebe c904 bb3e
000000b0: 4340 01bc b07e 833d 5b20 b43e 0747 8d3d
000000c0: cbfd 0d3f c8c8 15be 53e6 e6bd 8376 263f
000000d0: 50ca 013e 8919 853e aae4 063e 497e 333f
000000e0: d17c 233e 2b06 843d 5841 6b3e 3e51 66bd
000000f0: bbcd babd d679 bf3d 0261 b23e 2a0b 5dbd
00000100: e57d 633e 2500 85be 0dbe d0be c3bd 353f
00000110: fca5 a73e 8ed8 13be b988 e33d b00b 0abe
00000120: aab0 a53d 665f 6ebe 68d5 aabc 4e96 2e3e
00000130: a9e2 9fbe a09c bd3e 0dc7 113e d609 87be
00000140: a947 c93a 40e8 56bf 1d75 5c3d 8a6e d53e
00000150: da38 e0be 883b 3d3f 7f74 ac3e 50b7 22bf
00000160: 08f4 3abe eb6e 0d3e c7a2 b8bd 0b33 f6bd
00000170: cbe2 a0be a52d 0c3f 63d0 b63e fa37 f3bd
00000180: c239 ca3d 5322 2a3f 4ded 093f 72a0 253d
00000190: 82af 923d 59fb 6a3e 7d61 2b3d b1b3 fabb
000001a0: a4c8 9abc 3758 83bd ac82 c43d a2b8 3a3f
000001b0: 232a 4dbe 57b2 42bf 7b82 9e3e 1641 233e
000001c0: 20c6 3fbd 124c afbe a767 92be 934c a9be
000001d0: 0325 f43c dd93 cdbd 0276 93bd 61cb 9fbe
000001e0: f072 473e 946d 7f3e 41c3 d2bc 4419 dbbd
000001f0: 230a 153f 22f1 62be b712 61be ad02 4dbe
00000200: a5a2 31be b914 babc 1398 12bd cf9f 813f
00000210: fcde 953e 6e87 b93e 6f13 293f 3423 19bf
00000220: 4713 8bbe 90f4 063e f270 48bd e379 523e
00000230: fa52 03be 58d8 743e 3968 d3be 3bde e43d
00000240: 5cac 833e 1391 9dbc 9693 05bf 5275 12bf
00000250: 1e74 b93e 6b18 debe c87e d8be bbfb 183e
00000260: 1677 a23f 3bf5 26be b31b abbe 1d02 23bf
00000270: ad4d e23e 7b82 4f3e efb8 1d3e 6d1b 0abe
00000280: cc61 8b3d 86f1 94bf fafc 7b3e df53 92bd
00000290: aa7f dd3e 80d0 933c c135 88be 11e1 02bf
000002a0: 01df 9dbe 9888 f13e 2b35 483e 85b1 edbd
000002b0: f1c1 823d d382 8f3e 29a3 8cbc 9f52 dbbe
000002c0: ebe6 e93c 5301 13bf f112 11be d7a8 9b3d
000002d0: 0060 2f3f 117f 163d c721 0a3f 21f5 95be
000002e0: d934 3f3d 1443 02bf 0175 9a3e 6795 323e
000002f0: 2f32 51bf 8511 17be 7a7a 87be f594 1fbe
00000300: a906 09bf 6d99 fd3e 7825 bebe a5d6 aabe
00000310: a888 a2be 7220 a6bf 803c 6dbe a1e1 0e3f
00000320: 958b ccbc 6a48 9fbe c44d ffbc 7276 8cbe
00000330: 7426 3ebe 627a 14be 5b11 04bf 474f cf3d
00000340: 3ca2 1c3e 5855 21bf 0013 cd3e 9f38 bdbd
00000350: 9bc2 113e dddf 2fbe 977d 8d3e d824 cabe
00000360: c82f 0b3f cf3f 413e 3b8b 073e 5cba 483f
00000370: 36b0 89bc e046 b03d 6ed6 293e 2542 5a3e
00000380: 59e4 f93d 06f7 583d 8b34 cdbe 76ae afbe
00000390: 710d 4a3d 127c e2be 5479 5b3e 447c 14bf
000003a0: 4528 543e 1aa2 9dbb 97c6 f7bd e52f 8f3f
000003b0: 885b 8fbd 9c56 4ebf 127e 0c3d efe6 1a3f
000003c0: 58e3 aebe b110 203f 11d2 f43c de5a 83be
000003d0: cd34 debd 5823 1bbe d11b 47bf acb0 15bf
000003e0: dc0b a8be 3e50 08bf fe8f c5bd 68ab 14bf
000003f0: e8c6 0cbf fc97 8abe cd29 a33d 95e0 2dbf
0.05645678 0.038034424 -0.6310025 -0.38568574 0.06300343 0.23591943 0.138924 -0.28654927
0.18192434 -0.57179266 0.15609816 0.46800402 -0.541246 -0.16721652 0.00196436 0.06154608
0.051839408 0.14939904 0.35224608 -0.4173948 -0.40974486 -0.76148015 0.76673454 0.11273149
-0.07109347 0.14592245 -0.06877001 -0.2999827 -0.22895227 0.26477587 0.004821437 0.25861943
0.08224639 -0.618578 -0.2709315 -0.81428504 -0.6028438 -0.18799855 -0.021007057 -0.30987757
0.06635829 0.44376257 -0.13928072 0.36527088 -0.007888856 0.06420648 0.35180935 0.06898313
0.5546538 -0.14627373 -0.112743996 0.65024585 0.12674832 0.25996044 0.13173166 0.7011457
0.15965582 0.06446489 0.22974145 -0.056229822 -0.09121271 0.0934941 0.34839636 -0.053965725
0.22215994 -0.25976673 -0.40769997 0.7099268 0.32743824 -0.14438078 0.11110062 -0.13481021
0.080903366 -0.23278579 -0.020853713 0.17049524 -0.31227615 0.37033558 0.14236088 -0.26374692
0.0015356439 -0.83948135 0.053822625 0.41685897 -0.43793374 0.7391896 0.3368263 -0.6356096
-0.18257153 0.13811843 -0.09015422 -0.120214544 -0.3142303 0.5475715 0.3570586 -0.11875911
0.09874298 0.66458625 0.5387772 0.040436216 0.07162382 0.22947444 0.04184102 -0.0076508154
-0.018894501 -0.0641331 0.09595236 0.7293798 -0.20035605 -0.76053375 0.30958924 0.15942797
-0.046819806 -0.34237725 -0.28594705 -0.33066234 0.029802805 -0.10037968 -0.072002426 -0.31209853
0.19477439 0.24944144 -0.02572787 -0.106981784 0.5821859 -0.22162297 -0.21979795 -0.20020552
-0.173472 -0.02271496 -0.03578956 1.0126895 0.29271686 0.36236137 0.6604528 -0.5981934
-0.27163145 0.1317923 -0.048935838 0.20554309 -0.12824622 0.23910654 -0.41290453 0.111751996
0.25717437 -0.019234216 -0.52178323 -0.57210267 0.36221403 -0.43378004 -0.42284226 0.14939778
1.2692592 -0.16304485 -0.3341957 -0.636751 0.44199887 0.20264618 0.15402578 -0.13487025
0.06805763 -1.1636207 0.24608222 -0.071449034 0.43261462 0.018043756 -0.2660351 -0.51124674
-0.308342 0.47174525 0.19551532 -0.11606125 0.06384648 0.28029498 -0.017167645 -0.42836472
0.028552493 -0.57423896 -0.14167382 0.07600563 0.6850586 0.036742274 0.5395779 -0.2928858
0.04668126 -0.50883603 0.30167392 0.17439805 -0.817172 -0.14752777 -0.2646063 -0.15584166
-0.5352579 0.49531117 -0.3713796 -0.33366886 -0.31744885 -1.2978652 -0.2316761 0.5581303
-0.024968902 -0.31109935 -0.031165011 -0.27434117 -0.18569356 -0.1449981 -0.5158898 0.10122543
0.15296263 -0.6302085 0.40053558 -0.09239315 0.14234392 -0.17175241 0.2763488 -0.39481235
0.54369783 0.18871997 0.13236706 0.7840936 -0.016807657 0.08607268 0.16585705 0.21314295
0.12201757 0.052969955 -0.4007915 -0.3431279 0.049329225 -0.44235283 0.21433002 -0.58002114
0.20718487 -0.004810584 -0.12098425 1.1186491 -0.0699988 -0.80600905 0.034299918 0.60508627
-0.34157825 0.6252547 0.029885324 -0.25655264 -0.10849915 -0.15150201 -0.7777682 -0.58472705
-0.32821548 -0.5324744 -0.09646605 -0.58074045 -0.54991007 -0.2706908 0.07966957 -0.6792081

network_body._body_endoder.seq_layers.2.bias f4 [128]
00000000: 357f a53b fb48 f3bc bdd0 a73c 795b e43c
00000010: e439 24bb d83d 20bc a0c2 89bc 926a 403d
00000020: 6beb 3f3c 1d15 69bd 5680 8f3c 47ef 6c3d
00000030: 2de7 e53b b4ea 17bc 3564 633b 8d0d 283c
00000040: ea85 81bc 62fb 02bd 2076 053c 00a2 4fbd
00000050: 5c2d 8b3c 70d2 6fbc 38e1 fe3c 89e2 87bd
00000060: 8d6b c0bd 6639 1dbd 12b0 703c fe6e ffbc
00000070: a600 b2bc 386d acbd d307 acbc f717 8cbc
00000080: 3781 193c 3535 3f3c 87d1 743c 3bdf 99bd
00000090: f36c c1bc cc81 fb3b 89da ca3b 04ec 82bc
000000a0: 40f2 8ebc 82f8 86bc 9050 23bd f229 91bc
000000b0: 43ca ef3b f200 653a 14cf 61bd 1f25 d03c
000000c0: f7be 08bd 750d cdbc 6dc0 0fbb cec2 373d
000000d0: d5ac d83a e40c faba 36b5 d13c b94b 72bd
000000e0: 503c 85bd bccd aebd 73d7 42bd cb5d 04bd
000000f0: 4612 6ebd 9dd0 9fbc 2c9c ca3c 332f 2ebd
00000100: 0dc2 b5bd 2b53 48bc 6ca4 07bd 4922 173c
00000110: d69a 2dbc 5d34 8cbc 23f4 b43c e84c 2abd
00000120: 23b0 adbb 3c5f 503d a702 7ebd 6573 d13c
00000130: 0df2 94bd 24b8 8e3b 52b8 ddbc 458b d6bc
00000140: aa8b 1e3d a3e9 70bd f876 31bb 9cd2 e73c
00000150: 7f3a 0ebc dd52 7ebc 5489 093d 9e86 f7bc
00000160: 14d0 a4bd 95b3 d5bc bd4d af3c 1056 d6bc
00000170: 0726 b9bc ef73 c0bc ce3d 26bd 6174 85bc
00000180: a875 a5bd 0eab 4fbb fc4c aebc 14fb 70bb
00000190: 0259 93bd 647d de3c fe2b 59bc 52b7 88bd
000001a0: 763c c0bc cb4d 9a3c 7ea8 52bd 13ea 57bd
000001b0: 762a 8a3c 65bb 8fbd d65c 213d 7976 5a3c
000001c0: d9a1 6dbd 8cae 95bd 7c3f f93b 917e a6bd
000001d0: b049 48bd 3903 2abc 4d7e 263d eabb c93c
000001e0: 8f9f b8bd 0ec2 de3b a5f5 02bc 5da1 413d
000001f0: 6833 4fbc 64c1 513a ce5e 2b3d abf0 823a
0.0050505647 -0.029697886 0.020485276 0.027875649 -0.002505892 -0.00978037 -0.016816437 0.046976633
0.011713843 -0.0569049 0.01751725 0.05784538 0.0070160837 -0.009272266 0.003469718 0.010257137
-0.015810926 -0.03197802 0.008145839 -0.050691605 0.016989402 -0.014637575 0.031113252 -0.06635005
-0.09395514 -0.038384818 0.014690416 -0.031180855 -0.021728825 -0.08419269 -0.020999825 -0.017101271
0.009369186 0.0116704 0.014942533 -0.07513281 -0.023611521 0.007675385 0.006190602 -0.015981682
-0.017449498 -0.01647592 -0.039871752 -0.017720196 0.0073178126 0.00087357976 -0.055129126 0.025408326
-0.033385243 -0.02503083 -0.0021934763 0.044863515 0.0016531 -0.0019077328 0.025599103 -0.059154246
-0.06505644 -0.085353345 -0.04756875 -0.03231601 -0.058122896 -0.019508654 0.024732672 -0.04252548
-0.08874903 -0.01222686 -0.03311579 0.009224483 -0.010595998 -0.017114813 0.02208907 -0.04157725
-0.005300538 0.050872073 -0.06201425 0.02556772 -0.0727273 0.0043554474 -0.02706543 -0.026189456
0.038707413 -0.058816563 -0.0027078968 0.028298669 -0.008680939 -0.015522686 0.033578232 -0.030215558
-0.080475 -0.026086608 0.021399373 -0.026164085 -0.02260114 -0.023492781 -0.040586285 -0.016290845
-0.08079082 -0.003168765 -0.021276943 -0.0036770748 -0.07194711 0.0271594 -0.013255117 -0.066755906
-0.02346633 0.018835923 -0.051430218 -0.052713465 0.01686595 -0.070181645 0.039395176 0.01333391
-0.058015678 -0.07308683 0.007606445 -0.081296094 -0.0488984 -0.010376745 0.040647794 0.024625737
-0.090148084 0.0067980355 -0.0079931365 0.04727303 -0.012646534 0.0008001535 0.04183846 0.0009989938

network_body._body_endoder.seq_layers.2.weight f4 [128, 128]
00000000: e86e f83c dee3 44bc ac4d 4abd 0b91 8f3c
00000010: dfbc 29bd eb36 11be 5d0e 28be 256a c9bd
00000020: 7950 2bbe 9200 f4bd 68be 44be 4c59 bcbd
00000030: 72ab f43d 3b56 0d3e f795 4cbd abca 833d
00000040: 15d7 37be f51f afbd 6c55 e03d 0e10 1d3d
00000050: df60 8e3d a0b8 823d 1d1d 58bd b0bb a43d
00000060: 7bcc 02be 73fc a9bd a96f af3d 424d 0e3d
00000070: b2a2 d1bb 6f3c 95bd 8f93 3cbd a65c 2dbd
00000080: fdf6 53be ba96 6cbc dea5 a33b 3586 553d
00000090: 136e e8bd 7d4e 31bd 1838 363e d2f6 2d3e
000000a0: b137 d13d 2df3 7bbd 7957 a1bc a39a 54be
000000b0: 3157 ddbd b838 3e3d 5b2b a0bd 5bb8 9dbd
000000c0: 97ea 2e3e be1e 8ebd e920 34bd 1f82 763e
000000d0: 7674 74bd 56f5 acbd 5f29 673e d412 cdbd
000000e0: b3c1 3e3e 5dd9 6abe 7059 4fbc 0ccd 2dbd
000000f0: 1ec6 6bbd f061 74bd df4e b73d 3166 543d
00000100: 15ce 61bd 3c41 773c 697b a7bd 102b ac3d
00000110: e5c4 2c3e 0360 163e 09b2 21be 508f c73c
00000120: 29c2 723d 92b9 e2bd b1ff 2abd dde9 dabc
00000130: 9d69 813d 4749 faba bbcd a9bd db5a 4fbe
00000140: 9f18 1dbe 1178 84bb a9b6 19be 5ecd 6fbd
00000150: 9f7c eebd 8d34 333e ac33 daba 4726 83be
00000160: ed95 b1bd 57c4 c0bd 8918 eabd 0b8f 9e3d
00000170: c269 d1bd 178c babd 0a63 c6bd b463 bfbb
00000180: 1fba 8c3c 1be8 84bc 2f3f 0fbe b335 193b
00000190: 4825 76bb 234d a33d 4453 e23d 2eb8 45bd
000001a0: 8223 82be 3469 e63d 528b 88be 58ee 4cbd
000001b0: db73 2abd ace3 80bd c211 c1bd 142b a5bd
000001c0: b354 0d3e 4765 a3bd 54a6 0fbe 64c3 cbbd
000001d0: dc09 84be 6ae9 053e 4326 1a3e 3249 673e
000001e0: 3b4a 44bd 9542 d0bd 8c0f b4bd 1e6a 42be
000001f0: 2973 0bbd 4e71 013e 3606 0fbe 6521 afbd
00000200: 372f b93d a732 d4bb b0be b9bd 95b8 473d
00000210: 855c b3bc f0d5 0dbd bd3d f63d c961 933d
00000220: 009e 2b3d e148 623d 1868 12bc 3f2b 1a3e
00000230: 5e11 5bbd 6fea 8d3c 860b 0a3e a99c 873d
00000240: ec38 41bc fad8 893d c4e4 9e3c 5ab4 823c
00000250: a793 6ebd 9bba 1dbe 7afd 953d 12a2 83be
00000260: 9fed 623d b739 76bd ba08 2cbe 5b3f 02be
00000270: f8ac 4bbd 3682 88bd 65dc d53d 210f c23d
00000280: 59c4 bc3c 7f65 0b3e 6ea2 7e3d 127a ee3d
00000290: 4e8f 6ebd 5865 e93d 7d4d e6bd e3da f2bd
000002a0: bae0 c3bc 597d da3d 588c 86bd 7fe3 f13b
000002b0: a11d 433d 43fc e13d c644 70bd a488 47be
000002c0: 49c6 b6bd 83df 873e e2b4 cdbd b0dc 003c
000002d0: fb0d b6bb be78 5b3c 7d0e 3a3e 6983 cbbd
000002e0: d709 6f3d a85e d73d 49d5 0ebe 201c da3d
000002f0: eab8 d63c ed33 c7be f18e 67be 5c65 9ebd
00000300: ea03 1cbb 0469 43b9 15d4 053e 1d21 48be
00000310: a266 c13d 4c81 69bd 1326 173d b86a 2abc
00000320: a6b5 c13d e754 6c3d 929f 3bbd 8019 853d
00000330: a432 983d 471b bd3d d4d6 333e 35da 59bd
00000340: 39f6 003e 4112 45bc b45f 183e 108c f4bc
00000350: 177b 98bd 0672 0c3e cc84 e1bd 70be 243e
00000360: d5bf 98bc 6995 b83d 8e81 153e 6f9b 47bd
00000370: 5cc2 4d3e df61 233e 4809 183d 39aa 23bd
00000380: 0f29 74bc 4430 963d 9e48 a83c ac54 8bbd
00000390: 6c33 dcbc e21f 18be 481f 05ba a4ba 0f3e
000003a0: 6798 ec3c 2e5e bd3c a046 b5bd 1493 b6bd
000003b0: 5cac d0bc ebe4 883c 67ce 8f3d f7b9 0ebe
000003c0: 77a9 b7bc 1c00 96bd 5cb1 80bd bbcc 5fbe
000003d0: 8108 863d c9f2 2d3e 1bbb 1abd 8106 eb3d
000003e0: eb12 c9bc 610d 1b3d c107 f83c bc97 1a3d
000003f0: 9e11 0d3d 65dc ac3c 05a2 24bd 02ff a63c
0.030326322 -0.012017218 -0.04939048 0.017525217 -0.041439887 -0.14181106 -0.16411729 -0.098346986
-0.16729917 -0.11914171 -0.19213259 -0.091967195 0.11946763 0.13802426 -0.049947705 0.0643514
-0.17953141 -0.08551017 0.10953793 0.03834539 0.069520704 0.06382871 -0.05276214 0.08043611
-0.12773316 -0.08300104 0.08566219 0.034741648 -0.0063975686 -0.072869174 -0.04603916 -0.042324685
-0.20699687 -0.014440233 0.004994138 0.052129943 -0.1134912 -0.043287743 0.17794836 0.16988686
0.102157004 -0.061511207 -0.01969503 -0.20762114 -0.10807646 0.04644081 -0.078207694 -0.07701179
0.17081676 -0.06939457 -0.043976698 0.24073075 -0.05968138 -0.084452316 0.22574376 -0.10013357
0.18628578 -0.2293448 -0.012655601 -0.042431876 -0.057561986 -0.059663713 0.0895059 0.05185527
-0.055128176 0.015091237 -0.081778355 0.08406651 0.16871984 0.14685063 -0.15790571 0.024360329
0.059267197 -0.11070551 -0.041747753 -0.026722843 0.06318972 -0.0019095325 -0.08291193 -0.20249502
-0.15341423 -0.0040426333 -0.15011086 -0.058545463 -0.11644863 0.17500515 -0.001664748 -0.2561514
-0.08671174 -0.09412449 -0.11430461 0.07742127 -0.1022525 -0.09108751 -0.09686859 -0.005840743
0.017178593 -0.016223958 -0.13988946 0.0023377954 -0.0037558842 0.07973697 0.11051038 -0.04827135
-0.25417715 0.11250535 -0.26668793 -0.05003199 -0.041614395 -0.06293425 -0.09427215 -0.08064857
0.13801841 -0.079783015 -0.14028293 -0.09949377 -0.25788772 0.13077322 0.15053658 0.22586516
-0.047922354 -0.101689495 -0.08792028 -0.18985793 -0.034045372 0.12640879 -0.13967213 -0.085512914
0.09042209 -0.006475765 -0.09069574 0.048760016 -0.021894703 -0.034627855 0.120234944 0.071963854
0.041898727 0.055245284 -0.008935951 0.1505556 -0.05348336 0.0173237 0.13480958 0.066216774
-0.011793356 0.06730838 0.019396193 0.015955139 -0.05824628 -0.15403216 0.073237374 -0.25709587
0.055402394 -0.060113635 -0.16800204 -0.1271948 -0.049725503 -0.06665461 0.104424275 0.09475542
0.023042845 0.13612936 0.062166624 0.11644377 -0.058242135 0.11396283 -0.112452485 -0.118581556
-0.023910869 0.106684394 -0.06569737 0.007381856 0.04763568 0.11034443 -0.058659337 -0.19485718
-0.08924539 0.26537713 -0.10044266 0.007865116 -0.005555866 0.013395486 0.1816959 -0.09937174
0.058358993 0.10516101 -0.1394855 0.10649896 0.02621122 -0.38906804 -0.22613122 -0.077341765
-0.0023806044 -0.0001863577 0.13069184 -0.19543882 0.09443404 -0.057008073 0.036901545 -0.01040142
0.09458475 0.057698157 -0.045806475 0.06499004 0.07431534 0.09233718 0.17562419 -0.053186614
0.12593926 -0.012028278 0.14880258 -0.029851943 -0.074453525 0.13715371 -0.11011657 0.16088271
-0.01864616 0.09012873 0.14600202 -0.048732217 0.20093673 0.15955304 0.037118226 -0.03995726
-0.014902367 0.07333425 0.02054244 -0.06803259 -0.026879989 -0.14855912 -0.00050782086 0.14036041
0.028881265 0.023116197 -0.08851361 -0.08914772 -0.025472812 0.01671072 0.0702179 -0.13938127
-0.022419674 -0.073242396 -0.062838286 -0.21855442 0.06544591 0.16987146 -0.037776094 0.1147585
-0.024545154 0.037854556 0.030277135 0.03774236 0.03444063 0.021101186 -0.040193576 0.02038527
