Assets/Brains/Old/CarPractice_run30-4.onnx (onnx, 113292 bytes, 13 tensors)

75 f4 [63]
000000 5b f5 c4 3e 71 92 49 3e 62 5a b9 3a 62 5a b9 3a
       0.3846844 0.19684769 0.0014141316 0.0014141316
000010 62 5a b9 3a 62 5a b9 3a 82 26 c1 3c 9b 76 c8 3e
       0.0014141316 0.0014141316 0.023577932 0.3915299
000020 15 ac a8 3e 62 5a b9 3a 62 5a b9 3a 62 5a b9 3a
       0.32943788 0.0014141316 0.0014141316 0.0014141316
000030 62 5a b9 3a b9 32 ae 3c 52 01 ba 3e 26 69 6f 3e
       0.0014141316 0.02126442 0.36329132 0.23379955
000040 62 5a b9 3a 62 5a b9 3a 62 5a b9 3a 62 5a b9 3a
       0.0014141316 0.0014141316 0.0014141316 0.0014141316
000050 70 a2 cc 3c bf 4d d2 3e 3d 99 c2 3e 62 5a b9 3a
       0.0249798 0.4107494 0.38007537 0.0014141316
000060 62 5a b9 3a 62 5a b9 3a 62 5a b9 3a 2f c6 84 3c
       0.0014141316 0.0014141316 0.0014141316 0.016207783
000070 04 8c cc 3e dc cc 8d 3e 62 5a b9 3a 62 5a b9 3a
       0.39950573 0.27695358 0.0014141316 0.0014141316
000080 62 5a b9 3a 62 5a b9 3a 67 1f c4 3c fa 78 f9 3e
       0.0014141316 0.0014141316 0.023940755 0.4872511
000090 b1 8a 43 3e 62 5a b9 3a 62 5a b9 3a 62 5a b9 3a
       0.19095875 0.0014141316 0.0014141316 0.0014141316
0000a0 62 5a b9 3a fb 76 5a 3c 88 49 d2 3e 45 de 84 3e
       0.0014141316 0.013334031 0.41071725 0.25950828
0000b0 62 5a b9 3a 62 5a b9 3a 62 5a b9 3a 62 5a b9 3a
       0.0014141316 0.0014141316 0.0014141316 0.0014141316
0000c0 db aa 9e 3c e2 77 f4 3e b9 a5 80 3d 62 5a b9 3a
       0.01936858 0.47747713 0.06281609 0.0014141316
0000d0 62 5a b9 3a 62 5a b9 3a 62 5a b9 3a 30 89 2c 3c
       0.0014141316 0.0014141316 0.0014141316 0.010530755
0000e0 12 8e f9 3e 4a 45 b5 3e 62 5a b9 3a 62 5a b9 3a
       0.48741204 0.35404426 0.0014141316 0.0014141316
0000f0 62 5a b9 3a 3e 5a 39 3b b5 ad 99 3c
       0.0014141316 0.0028282548 0.018759588

78 f4 [14]
000000 5f 6c d3 40 dc 3a cf 3a 73 7d 81 40 62 5a b9 3a
       6.606979 0.0015810388 4.0465636 0.0014141316
000010 47 3d af 3e 62 5a b9 3a 00 88 53 3f 6f 63 1c 40
       0.34226438 0.0014141316 0.82629395 2.443569
000020 b9 5f f6 3b 89 b8 8b 40 ac a3 04 3b a3 7c 31 3e
       0.0075187352 4.3662763 0.0020239158 0.17332701
000030 e8 1e 85 3b 3b eb 2c 3d
       0.004062522 0.04221652

action_model._discrete_distribution.branches.0.bias f4 [3]
000000 38 a7 a8 3d cd 36 67 bc 1c 80 81 bd
       0.082350194 -0.014112187 -0.06323263

action_model._discrete_distribution.branches.0.weight f4 [3, 128]
000000 12 9a d6 bc ab 4c 8b 3c 2f 70 87 bc 8a 89 85 bc
       -0.026196513 0.017004332 -0.016532985 -0.016300935
000010 2f 2b 37 bd 4d 5d fa 3c 52 cd 37 bb 55 be ba 3c
       -0.044718917 0.030562067 -0.0028045964 0.022795836
000020 e0 91 c3 3d 63 a6 82 bd d2 2b 0c 3e fd 3e 93 3d
       0.09549308 -0.06379392 0.13688591 0.071897484
000030 89 66 82 bd 6b a9 06 bd 9a c4 bf 3d 6c 23 5e bc
       -0.06367213 -0.032876413 0.09363671 -0.01355825
000040 0a de 9e 3d 9d c1 59 bd 50 3b 0c bc 40 2c b5 3c
       0.07757194 -0.05316316 -0.008559063 0.022115827
000050 93 f8 b9 3c 29 e6 0a be 90 99 8e 3d 98 87 e1 3d
       0.022701537 -0.13564362 0.069628835 0.110121906
000060 94 44 55 3d b0 4e e6 bd 5c 67 a9 bc 27 02 89 bd
       0.052067354 -0.11245477 -0.020679168 -0.06689864
000070 30 3b a3 3c f2 a9 aa ba b9 56 d9 3d ea 56 51 3d
       0.019925684 -0.0013020618 0.10612244 0.05110828
000080 af db da bd fa 86 b2 3d a5 b5 9c 3d 06 ed 29 3c
       -0.106864326 0.08717151 0.076518334 0.010371452
000090 ef f1 7d 3d 59 43 84 bc dd 51 81 3b ee b8 55 3d
       0.061998304 -0.016145395 0.0039465264 0.052178316
0000a0 6e 34 86 3d d3 ae 18 3d 95 c1 3b bd 01 22 74 3d
       0.06552969 0.0372761 -0.04583891 0.05960274
0000b0 f4 86 76 3d 77 ec be 3c 58 66 55 bb 36 ec 11 bc
       0.060187295 0.023306115 -0.0032562222 -0.008906415
0000c0 9f 90 46 bd f8 4f ba bd 58 74 5c 3d 67 3a b9 bc
       -0.048477765 -0.09097284 0.05382189 -0.022610856
0000d0 af cb 1f 3a bc 7e 1f 3d 4a 7c 85 bd 7a e0 5d bd
       0.000609572 0.038939223 -0.06517847 -0.054169156
0000e0 89 65 23 bd 21 04 a7 3d 63 7a e2 3d 5e 6a b7 bc
       -0.039891753 0.081550844 0.110585 -0.022389587
0000f0 fd 25 fe bc e4 03 59 3d 09 53 a4 bc 5b e2 da 3c
       -0.031023974 0.052982226 -0.020059125 0.026719263
000100 00 cf a6 bd e7 c3 7c 3d 48 42 c6 3d 94 db f7 3d
       -0.08144951 0.061710265 0.09680611 0.12102428
000110 19 91 91 bc 4d e4 d6 bd 35 4d 60 3b 66 2c 28 bd
       -0.017769383 -0.10492764 0.0034225706 -0.041057967
000120 2e d1 28 be 56 97 95 bc da 93 01 3c d9 91 c1 bc
       -0.16486046 -0.01826064 0.007908786 -0.023629116
000130 b0 e3 3f 3d af 36 da bb ff 42 1c 3c 13 23 5a bc
       0.046848 -0.006659351 0.0095374575 -0.013314026
000140 52 9a 0b 3d db ba ea 3d a8 eb 78 3d 25 88 41 bd
       0.03408272 0.11461421 0.060771614 -0.04724898
000150 0a f5 6b bc bf 8f a5 3d 65 c2 07 bd 88 ac 10 bd
       -0.014401684 0.08084058 -0.033144373 -0.03532079
000160 a8 c5 11 3e e5 b9 0e 3d ae a1 0b 3d d7 b6 6c bd
       0.14235556 0.03484525 0.034089737 -0.057791557
000170 29 f2 8a bd 1b 14 a5 3d 29 f8 7c 3d 7d 30 0c 3d
       -0.0678447 0.080604754 0.0617601 0.03422593
000180 a1 eb 5b bd f0 77 17 3d 4a e0 7f bd d5 d8 c9 bd
       -0.05369151 0.036979616 -0.062469758 -0.098558106
000190 cc 7f a1 bd 29 c2 22 3d cb bc ae bd 5e 2a b3 3b
       -0.078857034 0.039735947 -0.08532103 0.005467697
0001a0 c8 30 2c bd 46 c0 26 3a a9 7e 8a 3d d9 f9 f9 bd
       -0.04203871 0.00063610484 0.0676244 -0.12205858
0001b0 dd 6c 9c bd 0f 2b 55 bc 32 54 93 bc d3 13 78 bd
       -0.076379515 -0.013010754 -0.017984483 -0.06056578
0001c0 08 5d f9 3b 72 de 4b 3d 81 31 8d 3d 39 0e 53 bd
       0.007609967 0.049772687 0.06894208 -0.051527236
0001d0 46 d0 86 bd db 57 10 3d d2 c4 f8 3a d9 5c d2 3d
       -0.06582694 0.035240036 0.0018979555 0.102716155
0001e0 9a 4e a1 bc f0 48 2d bd 2a 32 52 bc 01 66 d3 3c
       -0.0196908 -0.042305887 -0.012829343 0.025805475
0001f0 3a 91 93 3d 6a d6 95 bd d6 84 07 bc 61 e1 2c 3d
       0.07205434 -0.07316287 -0.008271417 0.042207126
000200 f6 00 96 bd af 38 8b bd e9 b3 f8 3d b6 13 2b bd
       -0.07324402 -0.06797921 0.1214369 -0.041766845
000210 4e df 29 bd e8 32 10 bd 06 c9 7c bd 2d 63 59 bb
       -0.041472726 -0.035204798 -0.06171515 -0.0033170686
000220 d9 15 c3 bc 05 eb d4 3c ea 20 2e bd 8e 6b 84 3c
       -0.023814129 0.025990972 -0.042511858 0.016164567
000230 10 6a 59 bd e8 fc 25 3d b8 37 38 3d c4 67 b1 3d
       -0.053079665 0.040524393 0.044975013 0.0866237
000240 24 30 88 bd 07 a2 f8 3c 83 b0 61 bd 15 53 f7 3c
       -0.06649807 0.030350698 -0.055099975 0.030190984
000250 10 f0 14 bc e3 e9 93 3d 81 ea 9a 3d 9b fc 6c bc
       -0.0090904385 0.07222345 0.07564259 -0.014464523
000260 b3 12 01 bc 41 64 8a bb ac 63 03 bd c0 4a 91 3d
       -0.007877993 -0.004223377 -0.032077476 0.070943356
000270 f0 f7 ab bd 8d 36 a4 3d 85 36 c7 bb fc 66 c4 3d
       -0.083969 0.08018217 -0.0060794973 0.09589955
000280 33 ec 58 3d ef 29 8e bd 02 f5 2a bd d8 b8 c3 bd
       0.052959632 -0.06941592 -0.041737564 -0.095567405
000290 44 d9 84 bd 2f a3 36 bd f1 69 9e 3d 69 bb 31 3c
       -0.06486753 -0.044589218 0.077350505 0.010847905
0002a0 23 6a 04 be ae 38 06 bd 20 d4 97 bc e8 35 39 bd
       -0.12931113 -0.032768898 -0.018533766 -0.045217425
0002b0 e8 23 cb bd 79 44 8a bd 9b bd 01 bd b1 66 12 bd
       -0.09918958 -0.067513414 -0.031674962 -0.035742465
0002c0 2d cf e9 bb 5c 10 ae bb b4 01 a8 3d 96 af 89 bc
       -0.007135293 -0.005312009 0.0820345 -0.016807359
0002d0 c6 c8 eb bd 26 ce ea bd 7f c6 ad 3d 49 b9 a8 bb
       -0.11512904 -0.11465101 0.08485126 -0.005149041
0002e0 af 30 ad 3d ee 98 29 be d2 41 39 bd 73 70 bd bd
       0.08456551 -0.16562244 -0.045228787 -0.092499636
0002f0 49 82 9c 3d af 04 bf bc d2 c4 bc bd 63 ad a3 bc
       0.076420374 -0.023317663 -0.09217228 -0.019980138
000300 b5 cc 1b 3e 3a 1e 56 bd 4b ff 12 bd c1 4e 86 bc
       0.15214808 -0.05227492 -0.035887998 -0.016394975
000310 0b 67 bf 3d 24 8e 77 3c fa 3e 13 3d c8 5e 37 bd
       0.09345826 0.015109573 0.03594873 -0.044768125
000320 47 49 76 3c 82 b3 c7 bd 6b 83 17 3e 9f cb 86 3d
       0.015032119 -0.09751035 0.14796226 0.065818064
000330 24 63 82 bd 41 9e 9b bd 90 4b 77 bd d2 28 5a bd
       -0.06366566 -0.07598544 -0.060374796 -0.053261586
000340 ab 85 09 be 6a c8 80 bd 6a fa 19 bd 1b 53 bf 3c
       -0.13429897 -0.06288226 -0.03759233 0.023355057
000350 0d 87 e0 bc c4 4a b3 bc 5e d5 9d ba d2 05 1a 3d
       -0.027408147 -0.021886237 -0.0012041738 0.037603207
000360 2c 0a 93 bd b1 ff 5c bd 7c c0 12 be 37 49 12 3e
       -0.071796745 -0.053954784 -0.1433124 0.14285742
000370 69 57 98 3d 1a 50 11 be 4b 47 e8 bd 2a 72 d7 39
       0.07438547 -0.14190713 -0.11341723 0.00041093054
000380 97 d5 18 3e f6 24 3f bd 98 35 99 3d 34 5f 4a ba
       0.14925228 -0.046666108 0.07480925 -0.0007719875
000390 68 06 7b 3c 8e 61 a0 bd b1 1a 19 3d 89 2a d0 bd
       0.015321352 -0.07831107 0.03737897 -0.10164363
0003a0 7b 36 e9 3b 93 ff c8 bd 45 93 2e 3b 7c 50 c5 3d
       0.0071170903 -0.09814372 0.0026638072 0.09634492
0003b0 6b f3 84 3c ef 6c e1 bd d0 b0 9b bd 21 44 1e 3e
       0.016229352 -0.110071056 -0.07602084 0.15455677
0003c0 96 04 24 bd 18 cc c8 bd b9 51 ab bd c7 b6 64 bd
       -0.040043436 -0.09804553 -0.08365197 -0.055838373
0003d0 9d 5b ea 3c 48 2e 9f 3c 1a d8 d4 3d cf ca 03 bd
       0.028608138 0.019431248 0.103927806 -0.032175835
0003e0 17 2e 41 3d ce 62 00 bd 23 81 aa bd 2c 4d 56 bd
       0.047163095 -0.031344227 -0.08325412 -0.05231969
0003f0 b1 6a f5 bd a5 21 a5 3d dc 46 66 bd 2e 18 1f bd
       -0.119832404 0.08063058 -0.05621992 -0.03884142

action_model._discrete_distribution.branches.1.bias f4 [3]
000000 8b ae 01 bc 27 e0 3a bd ba 38 65 3d
       -0.007915149 -0.045623925 0.0559623

action_model._discrete_distribution.branches.1.weight f4 [3, 128]
000000 29 5d 2c 3d 13 72 fb bc 49 c0 51 bd f2 7f d5 bc
       0.042081032 -0.030694043 -0.051208768 -0.026061986
000010 46 99 07 3c 4a 7e d0 bc 77 1c a4 3c 8a b3 99 bd
       0.008276289 -0.025450844 0.020033104 -0.075049475
000020 44 61 48 bd 0f b2 1c 3d df 2f 05 3d a3 b6 fb bd
       -0.048920885 0.038255747 0.032516357 -0.122906946
000030 fb 64 9f 3c a8 d1 8d 3d eb 5a 65 3d 67 6a c3 3c
       0.01945733 0.069247544 0.05599491 0.023854448
000040 3b 12 0c bd 4b 2d 4b 3c d5 47 9e bd fe 89 ba bd
       -0.034197073 0.012400935 -0.077285446 -0.09108351
000050 05 72 9f bd 81 dc cd 3c c7 1f 74 3c a5 c8 77 3b
       -0.077854194 0.025129559 0.014900154 0.0037808802
000060 ce 60 88 bd 08 6f 12 bd 60 0d bd bd af b9 01 bd
       -0.06659089 -0.03575042 -0.09231067 -0.031671222
000070 9d 42 2d bd f3 06 90 bb 03 4a ec 3b cb 1f 88 3d
       -0.042299856 -0.0043953597 0.0072109713 0.06646689
000080 2c 4c 57 3c 67 1b 11 bd 4f 19 29 bd 9f 92 57 bd
       0.013140719 -0.035426524 -0.0412839 -0.052630063
000090 e4 1f 24 bd e5 11 7f bd 34 17 ea 3d b4 a1 3b 3d
       -0.040069476 -0.062272925 0.11430207 0.04580851
0000a0 e9 ca d2 bc 04 46 8d bd d7 af b9 3c b9 46 13 3b
       -0.02573152 -0.0689812 0.022666855 0.0022472574
0000b0 0d 50 11 bd 93 f3 67 bd 82 4e 81 3c 04 93 cd bd
       -0.035476733 -0.056628775 0.015784506 -0.10037807
0000c0 b9 96 07 be 67 7c eb 3c 59 54 9a 3d b8 cd 8d bd
       -0.1324109 0.028745843 0.07535619 -0.06924003
0000d0 86 6a f8 bc e9 04 33 bd 7e 71 90 bd d6 6c 03 bd
       -0.030324232 -0.043705855 -0.07052897 -0.032086216
0000e0 fb 21 d5 3c 7d 25 cf bb 61 66 bf bb ef 4e 39 bd
       0.02601718 -0.0063216076 -0.005841062 -0.045241293
0000f0 d4 e1 2f 3d 39 32 a7 bd 9d 89 18 bd 6d 96 6a 3d
       0.042939976 -0.08163876 -0.037240613 0.057272363
000100 79 c3 7d bc 19 aa f1 bb e9 ab e1 3c 6b 7c 3c bc
       -0.015488499 -0.0073750135 0.027547793 -0.011504273
000110 51 82 9f 3c 29 27 03 3d 5a 11 7b 3d e5 40 56 3c
       0.01947132 0.032019768 0.061295845 0.0130769955
000120 34 c3 53 3c c0 dd c7 bc 4b 87 34 3d 62 12 d8 3a
       0.012924958 -0.02439773 0.044074338 0.0016484971
000130 90 96 83 bd 64 af 46 bd 8a 9b 12 3d cd 7d 32 bd
       -0.06425202 -0.04850711 0.035792865 -0.043577004
000140 72 e5 32 bd 56 c0 ae 3c 38 b9 0f 3d ad 46 6f bd
       -0.043675847 0.021331947 0.035088748 -0.05841701
000150 1f 64 2e bd 5e 55 15 bd d9 38 77 3c d7 ae b0 b9
       -0.04257595 -0.036458366 0.015089237 -0.00033699602
000160 1d df fa 3c ee 7c b2 bd 78 89 7f bd f3 f6 96 bc
       0.030623967 -0.08715235 -0.06238696 -0.018428301
000170 16 72 62 bd 78 5a 65 bd 75 e7 2d bd fe cd 84 3d
       -0.055284582 -0.05599448 -0.042457063 0.064846024
000180 7e d6 93 3d f6 7b 02 ba df 58 03 3d cd b4 76 3b
       0.072186455 -0.0004977578 0.032067176 0.0037644387
000190 95 3f 3a 3d 13 27 ea bd e1 35 63 3c 2c 0b 29 bd
       0.045470793 -0.11433234 0.013867826 -0.04127042
0001a0 9e a6 5b 3d 19 39 a7 bc 65 ea 8d 3d 88 42 a4 bd
       0.053625695 -0.020412968 0.06929473 -0.08020502
0001b0 2f 52 13 3d 36 15 a7 3b 19 21 e0 bb 61 7b 58 3d
       0.03596705 0.005098964 -0.006839883 0.05285204
0001c0 03 01 2e bd 95 29 04 bc 2e fe 65 bc a9 ed a2 3c
       -0.042481434 -0.008066555 -0.014037652 0.019888716
0001d0 dc 50 3e 3d 5e d7 5a bd 85 69 2b 3d d2 9a 62 3c
       0.046463832 -0.053428046 0.04184868 0.013830857
0001e0 92 6e f1 ba 4b ac 1a 3c 4c 8d b7 bc 59 77 3b bd
       -0.0018419793 0.009440492 -0.022406243 -0.045768116
0001f0 28 2c ec bb 58 79 ac 3c e5 93 bd bd c3 7c 33 3c
       -0.0072074123 0.021053955 -0.09256724 0.0109550385
000200 bb 02 98 bd f8 e4 79 3c f5 5d e2 3c 7f ca 0d 3d
       -0.07422396 0.015252344 0.027632693 0.034616943
000210 66 33 3e bd 89 5d 89 3c 61 04 59 bd 79 c3 2e 3d
       -0.046435736 0.016768234 -0.05298269 0.042666886
000220 33 dd b2 3d a6 9e 0c be e1 6f 3c bc 7c d2 57 3d
       0.08733597 -0.13732395 -0.011501283 0.052690968
000230 bc 40 92 bb 5c 92 be bd a5 68 9a 3c b6 5f 8e bd
       -0.0044632833 -0.093052596 0.018848727 -0.06951849
000240 9f d2 a3 bc 45 f6 50 bd 96 79 ba ba 61 ab b2 3c
       -0.019997893 -0.05101611 -0.0014226909 0.021810235
000250 9d 1b ea 3c 85 93 78 3d 18 0c 18 3d b4 f0 8e 3c
       0.02857762 0.06068756 0.03712091 0.01744876
000260 4a 6b 5f 3d 0f f8 4e bd 24 d4 7d bc 01 5a 82 bd
       0.05454568 -0.050529536 -0.015492473 -0.06364823
000270 b3 f2 12 bd 6e a6 96 3c 4a d3 36 bc 00 7b c9 3b
       -0.035875987 0.018389907 -0.011158774 0.006148696
000280 48 f5 04 3d 74 07 de 3c 36 ae ab 3c 72 f9 3f 3c
       0.03246048 0.027103163 0.020957094 0.011717187
000290 83 b4 bd 3c 3c c2 0c 3d 7c ce da bd 1a db 0d 3d
       0.023157364 0.034364924 -0.10683915 0.03463278
0002a0 4e ec e4 bc fc fa 0d 3d 6f ad b6 bb 7b fc 05 bd
       -0.02794471 0.034663185 -0.005574874 -0.032711487
0002b0 ca 6c 88 3c 03 b7 58 3d 71 58 f7 bc 33 23 05 3a
       0.016653437 0.05290891 -0.03019354 0.00050787925
0002c0 9c b0 25 bc 69 83 2b 3c 9a 51 1a bc 57 f6 2f bc
       -0.010112908 0.010468342 -0.009418869 -0.010739884
0002d0 8d ae a8 38 90 a5 34 bd f7 80 08 bd bd 5e ea 3c
       8.043377e-05 -0.044103205 -0.033326115 0.028609628
0002e0 78 91 c7 bd c3 9d e8 3c c4 68 11 3d c0 d1 87 3b
       -0.09744543 0.02839554 0.035500303 0.004144877
0002f0 39 8a 99 bd a1 24 29 3d 5f 5b 1c ba 26 1a 86 bc
       -0.07497067 0.041294698 -0.0005964543 -0.01636989
000300 02 d0 b6 bc 7e 53 49 bc 4b 23 02 3d be 9d 53 3d
       -0.022315983 -0.0122879725 0.03177194 0.051664107
000310 59 ee 7c 3b 8b 3b 18 3d 93 d5 35 bd 03 6e 36 bd
       0.0038594215 0.03716616 -0.044393133 -0.04453851
000320 ff bf 80 3d 7d 0c 02 bd 38 7c 22 bb 74 9a f3 bb
       0.0628662 -0.03175019 -0.0024793278 -0.0074341837
000330 f8 53 a4 3c 9c 31 31 3d 67 99 1a bd 6d 9e cf 3b
       0.02005957 0.0432602 -0.037743952 0.0063360245
000340 f4 bb d1 bc 1f 1d 93 3d 39 b1 0d bd 2d 37 f9 3c
       -0.025602318 0.07183289 -0.03459284 0.030421818
000350 96 12 14 bd e0 e8 d9 3d 65 c4 cf 3d 61 84 13 3d
       -0.036150537 0.106401205 0.10144881 0.03601492
000360 d5 77 8e 3d 5a ba 5e bb e5 42 81 3c e3 3c 00 3c
       0.0695645 -0.0033985586 0.015778968 0.0078270165
000370 81 47 58 3c 00 a0 24 3d 4d e4 44 3c 8e af bd bc
       0.013200642 0.04019165 0.012017322 -0.023155
000380 ad 9f 02 be 5c 4e ac 3b 37 e8 dc bd 0f 95 08 3d
       -0.12756224 0.0052583646 -0.10786479 0.03334528
000390 ec 2d 6d bd 82 fb 3f 3d 3d b1 8a bd 53 c4 79 bd
       -0.057905123 0.046870716 -0.06772087 -0.060978245
0003a0 8d eb 38 b7 da 84 02 bd b3 f9 af 39 8e 4b c2 3d
       -1.1022098e-05 -0.03186498 0.00033564641 0.09487067
0003b0 e9 a8 9a bb bb da 94 3c 3e 2a 25 bd bd e5 5c bd
       -0.0047198427 0.018170705 -0.04032349 -0.053930033
0003c0 34 12 d8 bc 0f 25 1f bc a8 df e2 b9 2a 2e 21 3d
       -0.026375867 -0.009713425 -0.00043272716 0.039350666
0003d0 e9 7c bd bd f4 c6 9f 3c 3b 9f 8d bd 90 64 bb 3d
       -0.0925234 0.019504048 -0.069151364 0.0915004
0003e0 46 a5 97 bc 2b df 84 bd 6d 29 69 bc 1c 1c b2 bd
       -0.018511426 -0.064878784 -0.014231068 -0.08696768
0003f0 8e e1 13 3c 5a d4 8d 3d f9 c6 db bc 42 75 87 3a
       0.009025944 0.069252685 -0.026828276 0.0010334628

discrete_action_output_shape f4 [1, 2]
000000 00 00 40 40 00 00 40 40
       3.0 3.0

network_body._body_endoder.seq_layers.0.bias f4 [128]
000000 b3 32 2e 3e 98 22 33 3d e2 5b f6 3c 4e b8 30 bd
       0.17011528 0.043734163 0.03007311 -0.043144517
000010 55 76 21 bd 46 23 7e 3d e9 7a 0c bd 57 d4 bf 3d
       -0.03941949 0.062045358 -0.034296904 0.093666725
000020 87 1a 8b bd b0 76 37 3c e1 39 40 3d 6c 09 b2 3d
       -0.06792169 0.011197731 0.046930198 0.08693203
000030 02 51 c5 bd aa b0 ce bc a2 6f 98 3c ba 8d 13 bd
       -0.09634592 -0.025230724 0.018607918 -0.036023833
000040 11 f3 b1 bc ec 9a 0d 3d df 82 fe bd 07 83 80 bd
       -0.021722348 0.034571573 -0.124273054 -0.062749915
000050 67 76 8b bd bc cb 7f 3d 98 1c 06 bd 94 42 92 3d
       -0.06809693 0.062450156 -0.032742113 0.07141605
000060 c2 da 95 bd e9 b9 d8 3d 6e f6 9b ba ee ea 6e bd
       -0.07317115 0.105823345 -0.0011899003 -0.058329515
000070 71 2b aa 3c 9e 73 9f 3c 9f c6 bb 3c 75 f3 84 bc
       0.020772668 0.01946431 0.022921858 -0.01622937
000080 b0 0a c0 3c 31 53 01 be aa ca d8 3c d3 ca 36 3a
       0.023442596 -0.12629391 0.026463825 0.0006972972
000090 bf a9 77 bd a7 fc e9 ba e3 ed 82 3d 22 0b 06 bd
       -0.060464617 -0.0017851786 0.063930295 -0.03272546
0000a0 93 de 01 bc dc 12 cd bd 29 0a 8f bd d9 37 cb 3c
       -0.007926601 -0.10013363 -0.0698436 0.024806904
0000b0 e0 3a 25 bd d1 ec 04 3d 98 c1 ea 3c df c6 a0 bc
       -0.04033935 0.03245241 0.028656766 -0.01962608
0000c0 91 1a fe bc b1 a4 cf 3d cd aa 89 bd b3 b8 19 3d
       -0.031018527 0.10138834 -0.06722031 0.03752966
0000d0 86 3a d4 3c c0 05 e7 3d b3 e0 fb bb c0 5d a2 3d
       0.025906812 0.112803936 -0.0076866983 0.07928038
0000e0 20 3f 70 bd 71 55 22 bd 5a 47 16 bd 90 7c af 3d
       -0.05865395 -0.039632265 -0.03668914 0.0856868
0000f0 f4 57 f6 bd be 26 a6 3d 49 74 16 3d 08 1a 0a 3d
       -0.120284945 0.08112858 0.036731992 0.03371623
000100 f2 04 f8 bd aa 69 ec 3c 61 49 cd 3d 96 29 51 3d
       -0.12110318 0.028858978 0.100237615 0.05106505
000110 79 e6 e9 3d ef 78 8f bc ba 5b 1f bd 4b 93 8d bd
       0.11420912 -0.01751372 -0.038905837 -0.069128595
000120 cf 02 a5 bd 55 27 d6 bd ec 52 e6 3c be 09 e8 3c
       -0.08057176 -0.10456721 0.028115712 0.028324958
000130 ca 21 f7 3b 5c 38 db bd 15 15 5a bd 0b c8 e6 bc
       0.0075418698 -0.10704109 -0.05324276 -0.02817156
000140 7c cc 93 3c d3 6d 9c 3c 8f 58 c3 ba f4 51 03 bd
       0.018041842 0.019095337 -0.0014903712 -0.03206058
000150 35 00 9f 3d cc 79 8d bd 6c d8 d0 3c a8 b8 d8 3d
       0.07763711 -0.069079965 0.025493823 0.105820954
000160 28 32 46 3c 98 1e c0 bd 35 29 2c bc 1f 8d 05 3e
       0.012096919 -0.09380835 -0.010507871 0.13042115
000170 47 d3 c7 bb 2a 24 09 3c d3 2a 92 bd ef 00 66 bd
       -0.0060981843 0.008370439 -0.07137074 -0.056153234
000180 00 ec 6c bc 7c d1 fd 3c 55 46 41 3d f5 aa 47 bd
       -0.014460564 0.030983679 0.047186214 -0.04874702
000190 f4 ae 2f 3b af 4d a7 3c e4 52 2b 3c f0 b1 2a 3d
       0.002680716 0.020422785 0.010456774 0.0416736
0001a0 1a 2f cd bd 5b fd af bc 8e cf e4 bd 36 40 06 3d
       -0.100187495 -0.021483114 -0.111724004 0.03277608
0001b0 c9 8a 04 be 2c db 2a 3d cb ef 0b bd bb cd 2d bd
       -0.12943567 0.041712925 -0.03416423 -0.042432528
0001c0 8f 3a a6 3d f7 7e 0c be e9 fa 14 be 11 51 e2 bc
       0.08116638 -0.13720308 -0.1454884 -0.027626546
0001d0 7e ef 4c 3d ed 36 b5 3d 1a e6 ad 3b 55 74 03 3e
       0.050033085 0.08848367 0.0053069713 0.12837346
0001e0 5d 4c aa 3c 8d eb 1a bd 94 bd c3 3d dc 2e 94 3d
       0.020788366 -0.037822295 0.095576435 0.072355
0001f0 a4 ee 90 3c 86 e6 c0 bd c9 f6 f3 bb fd 5c 57 bd
       0.017691918 -0.09418969 -0.0074451906 -0.052578915

network_body._body_endoder.seq_layers.0.weight f4 [128, 77]
000000 45 b3 22 3d 83 9e b1 bc 1a dd 72 bc 77 6e ef bd
       0.039721746 -0.02168203 -0.0148232225 -0.11690991
000010 f9 40 45 3e 1c a7 34 bd 50 bb 87 bd 82 57 d7 3d
       0.19263066 -0.04410468 -0.06627524 0.10514738
000020 61 bd ae bc 96 1e 44 be 5d 73 bb 3c d4 6e 22 be
       -0.021330537 -0.19152293 0.022882158 -0.1586259
000030 eb 3e 21 be 17 40 35 3e 71 67 04 3e 53 2a be 3d
       -0.15746658 0.1770023 0.12930085 0.092854165
000040 86 f8 59 bd 30 aa 61 bc 11 c4 27 be 0e c6 22 3d
       -0.053215526 -0.013773486 -0.16383387 0.03973966
000050 89 fd 61 be 60 f1 5f 3d 6d c5 0d 3e 21 f7 4e bd
       -0.22069372 0.054673553 0.13844843 -0.05052865
000060 64 52 7e 3d dc 37 0c 3c b5 96 17 be a5 ee b0 bd
       0.062090293 0.00855824 -0.14803584 -0.08639268
000070 df 3a 96 3c 74 8c 5b be cb 31 cd 3d c7 de cd bd
       0.018338619 -0.21440297 0.10019263 -0.10052257
000080 df 5c 3c bb d9 db 07 bd a4 ac 42 bd ee f3 8f 3d
       -0.002874188 -0.033168647 -0.047527924 0.07028948
000090 4b a9 65 be ad f8 f9 3c 2d 51 97 3c fa 4c 8a bd
       -0.22427861 0.030514086 0.018471325 -0.06752963
0000a0 d6 64 51 bd 76 14 be 3d f9 0f b6 3b 6d 79 bd be
       -0.051121555 0.09281246 0.0055561033 -0.37006703
0000b0 ee 19 6a be d6 04 9f 3d 14 7b 06 bc 5e 90 41 be
       -0.22861454 0.07764594 -0.008208055 -0.18902728
0000c0 96 43 09 bc 3e 2a 60 3e 90 22 35 be d3 34 4f be
       -0.00837793 0.21891114 -0.17688966 -0.20234995
0000d0 6d a4 b5 bc 35 72 6f 3d 76 88 0a 3d 51 85 1a 3e
       -0.02217313 0.058458526 0.033821546 0.15089919
0000e0 9d 8d 12 3d 6d 0a d8 bd a7 a3 b4 3d ef 95 28 3e
       0.035779584 -0.105488636 0.08820277 0.16463445
0000f0 4e 08 5d bd 3a 1d 19 be 50 9e 19 3c eb 76 32 be
       -0.053962998 -0.14952555 0.009376124 -0.17428176
000100 a6 cb 78 be b8 e5 83 3e a7 62 9f 3d 03 50 d6 3c
       -0.24296436 0.257612 0.07782488 0.0261612
000110 1e 5d 1e 3e 87 4c 36 3e 1d 83 32 be 53 39 bf 3d
       0.15465209 0.1780263 -0.17432828 0.093371056
000120 aa f7 77 3e 9d 26 c0 3d 46 25 6f 3e ba 8d 64 3e
       0.2421557 0.09382365 0.23354062 0.2231969
000130 d2 2c 65 3e 07 da 5d 3e 4c c6 d0 3c 0c 68 10 be
       0.22380379 0.21665202 0.02548518 -0.1410219
000140 da 9a 92 bd d1 5d dd bd 6f ae 3a bd 36 57 e9 3d
       -0.07158442 -0.1080891 -0.04557651 0.11393587
000150 28 79 b2 bd 51 5c 90 bd 68 17 e6 3d 59 e2 bf bd
       -0.08714515 -0.07048858 0.11234933 -0.09369344
000160 6f e5 0d 3e dc 40 26 bd fc ad 33 be 7b f3 35 be
       0.13857053 -0.0405892 -0.17546839 -0.17768662
000170 0d 33 15 3e 93 1e 20 bd c4 55 21 3c 15 cb 81 3d
       0.14570256 -0.039091658 0.009847108 0.06337563
000180 7b 0f 31 be 79 6d ac 3d 8b e2 d0 bc ba e3 db 3d
       -0.17291062 0.08419318 -0.02549865 0.10736795
000190 c5 05 39 bd 3a 11 2e be 9e 19 18 be 0d 5a a1 bc
       -0.045171518 -0.16998759 -0.14853522 -0.01969626
0001a0 aa 65 10 be 7c 5a cd 3d a6 6a c7 bd cd 12 a6 bd
       -0.14101282 0.10027024 -0.097371385 -0.08109055
0001b0 37 54 cc bd 7a 19 12 be 90 fd 8d bd 4f 15 7e bc
       -0.09977 -0.14267531 -0.06933129 -0.01550801
0001c0 fd a9 fc bd 33 b1 21 bd 99 b0 3b bc 52 5f 8d 3e
       -0.1233711 -0.03947563 -0.011455678 0.27611786
0001d0 fa 83 68 bd 96 6a f2 bd 75 da 47 be 69 a5 85 3b
       -0.056766488 -0.11836736 -0.19516928 0.0040785563
0001e0 06 85 1b 3d 2e cf 95 bc 4b 27 81 3c fd 3d 13 3e
       0.037968658 -0.018287268 0.015765807 0.14379115
0001f0 85 3d 93 bd 90 8b fd bd 5f 24 da bd ec f0 92 3d
       -0.07189468 -0.12380135 -0.106514685 0.071748585
000200 2d b0 97 3c b9 58 43 be 3a a9 02 be 59 67 96 3e
       0.018516624 -0.19076814 -0.12759867 0.29375723
000210 fa 4b ba bd 6d a3 bb 3d 1c 15 10 be 31 9e bd 3d
       -0.09096523 0.0916203 -0.14070553 0.09258688
000220 85 3a 00 be 32 be 68 3c 46 00 b5 bd c3 11 fd bc
       -0.12522323 0.014205502 -0.08837943 -0.030892259
000230 01 0b e7 3c 83 c6 c7 bd a2 8a 97 3d dc 19 a1 3c
       0.02820349 -0.0975466 0.07399489 0.019665651
000240 b9 0d ea bb 82 5e 2f 3d ea f2 b6 3b 9b 28 c8 3d
       -0.007142749 0.04281474 0.005583157 0.0977337
000250 c9 47 8a 3e ba 27 1a be 33 f2 af 3d 35 59 76 bd
       0.27007893 -0.15054217 0.08591118 -0.06014367
000260 6e 3b c1 3d 2e f6 10 3c 5f 22 22 be 7a 38 11 be
       0.094351634 0.008847756 -0.15833424 -0.141817
000270 c1 3a 63 be c0 f8 a2 bd e2 64 9b 3c ba 4e ba 3d
       -0.22190382 -0.079576015 0.018969003 0.09097047
000280 fd 1a 4f 3e f1 b6 67 bc a4 4c 29 3d 0b e3 a0 3d
       0.20225139 -0.014142738 0.041332856 0.07855805
000290 de 65 02 3e 7d 92 04 3b 20 05 01 3e 5a 63 73 3c
       0.12734172 0.0020228915 0.12599611 0.01485523
0002a0 78 74 b1 3e 43 07 6b bd ff 79 42 bd ac 68 91 3e
       0.3465917 -0.057379972 -0.047479626 0.2840017
0002b0 89 5f b7 3d 96 ea 9a be 03 c2 13 3e 5c 0a 95 3c
       0.08953769 -0.302571 0.14429478 0.018193416
0002c0 dd 81 91 be c0 69 56 bd 75 64 a6 bd 29 de 1a 3b
       -0.2841939 -0.052346945 -0.081246294 0.0023630953
0002d0 68 8f 21 3d ae 0a 93 3e d1 02 00 bd 5f c2 79 bd
       0.039443403 0.28719085 -0.031252686 -0.060976382
0002e0 ab de 5f 3e 6c 71 6f 3e 15 c2 b1 3c 09 e6 f9 bd
       0.21862285 0.23383111 0.02169899 -0.12202079
0002f0 f7 f4 26 3b 42 25 cd 3c 8d 59 cf 3c e2 36 8c bc
       0.00254756 0.02504218 0.025311256 -0.017116014
000300 78 53 4e bd eb d2 d9 bc 62 f4 de bd da 0c 23 3d
       -0.05037257 -0.026589831 -0.10886456 0.039807178
000310 10 b7 02 3b 19 ca 40 be c8 63 98 be 4f 64 31 3e
       0.001994554 -0.18827094 -0.29763627 0.17323421
000320 be e5 47 bd 11 04 87 bd 34 59 c4 3c 83 10 d7 3d
       -0.048803084 -0.065925725 0.023968317 0.10501196
000330 ac 76 aa bb 0a 57 84 3b ff 7d 31 be 71 ce 30 be
       -0.005202135 0.004038696 -0.1733322 -0.17266251
000340 6e 2c f2 bc d4 b0 ae 3d 92 31 2b be 62 47 15 be
       -0.029562201 0.08529821 -0.16718128 -0.14578012
000350 f1 3c 81 3e e5 8a 8c 3b d5 7d 58 be 28 2a 94 bd
       0.25241807 0.0042890185 -0.21141751 -0.07234603
000360 6c a1 66 3e 69 35 31 bc 6c ac 49 be e1 f0 b4 bd
       0.22522515 -0.010815957 -0.1969468 -0.088350065
000370 6a b2 ac 3c 80 35 80 bd 43 0c 0b be 63 1c 01 bd
       0.021081168 -0.06260204 -0.13578896 -0.031521212
000380 de 27 4f bd 4a 83 9c bd 40 52 c0 bd b1 39 99 bd
       -0.05057513 -0.07642229 -0.09390688 -0.07481707
000390 8e b3 b9 3d fb 0a 3c 3e a6 2f 2c be 48 57 48 3e
       0.090674505 0.18363564 -0.16815051 0.19564545
0003a0 89 26 ba 3d 83 f0 55 3e 6a eb 82 be a3 04 1f bd
       0.09089381 0.20892529 -0.25570232 -0.03882278
0003b0 3a 6c 12 be 11 46 b3 bd e6 5f b9 bd 68 17 81 bd
       -0.14299098 -0.087535985 -0.09051494 -0.063032925
0003c0 17 d2 17 bd af 30 3e be 71 21 ff 3b 7c 5d c1 3c
       -0.03706559 -0.18573259 0.007785969 0.023604147
0003d0 b1 09 5d bd d2 2b c6 bd e0 d2 97 bd 9e a4 0d 3e
       -0.05396432 -0.09676327 -0.07413268 0.13832328
0003e0 1a e2 9a bc ab 22 5e bd c1 dc 21 bd f5 cd 7a bd
       -0.018906642 -0.05423228 -0.039517168 -0.061231572
0003f0 a4 55 3c be f0 60 f6 3c 7f fe 48 bc ae bc e2 3d
       -0.18392044 0.03007552 -0.012267708 0.11071144

network_body._body_endoder.seq_layers.2.bias f4 [128]
000000 af cc e3 bd e2 0b 66 3d be b2 9b 3d 2a 67 1a be
       -0.11123025 0.056163676 0.07602452 -0.15078416
000010 e8 3a d1 bd fe c2 3b bd e6 3d 95 bd ad ba 52 bd
       -0.102163136 -0.045840256 -0.07287197 -0.05144756
000020 be c3 03 bc df 0b ab bd c4 91 a4 3d f1 68 02 3d
       -0.008042274 -0.083518736 0.08035615 0.03183836
000030 69 be 2f be 11 9c ab bc 83 c0 ba 3d 48 45 78 3c
       -0.1716248 -0.020948442 0.0911875 0.015153237
000040 f5 9a e9 3d d2 6f 67 bd 5b b9 a7 bd 2c 35 15 bd
       0.11406509 -0.056503125 -0.081896506 -0.03642766
000050 9a 28 2b 3c 5a 19 46 bd c3 dd 37 3d 6e c1 dc 3d
       0.010446692 -0.04836402 0.044889223 0.10779081
000060 58 83 a6 3d 25 cb 96 bd ad ff 9b bd 6d e9 44 bd
       0.081305206 -0.073629655 -0.07617126 -0.048074175
000070 f7 d8 5d 3d fb 2b 8c 3c d0 25 db 3d ca 98 bf 3c
       0.054161992 0.017110815 0.107005715 0.023388285
000080 a1 75 11 bd e2 f0 73 3d ac fe 9f 3c 8a 55 ab bd
       -0.03551257 0.059555896 0.019530617 -0.08365925
000090 e2 c3 89 bb 96 8b 80 bd 79 f9 1d bd b7 d9 af ba
       -0.0042042593 -0.06276624 -0.038567994 -0.0013416325
0000a0 b5 d8 97 ba 60 a8 72 bd cf 6f 0f bd 6b 5b dc 3b
       -0.001158497 -0.059242606 -0.03501874 0.006724765
0000b0 15 b3 bb 3d 86 9b 32 bd e1 50 b9 bd 30 d1 97 bb
       0.091650166 -0.04360535 -0.090486296 -0.0046330914
0000c0 20 1d 63 3b a4 64 0c be 0a 98 06 3c 53 43 33 bc
       0.003465481 -0.13710266 0.00821496 -0.010941344
0000d0 87 0d cf bc 9d 37 93 3d c5 bc 48 bc 87 8c 02 be
       -0.025275005 0.07188342 -0.012252037 -0.1274892
0000e0 e2 ae 79 3c a7 0c 41 3d c2 6b 0c 3d e1 95 62 bd
       0.015239449 0.047131207 0.034282453 -0.055318717
0000f0 a0 91 dc bd 9c f6 22 3c 1c ae 19 bd 05 59 8b bd
       -0.10769963 0.009946492 -0.03751956 -0.068040885
000100 2e ee 25 bc 42 b1 e0 3c ad 1b 4a 3d d3 20 e4 3d
       -0.010127587 0.027428273 0.0493428 0.11139073
000110 b6 e8 20 bc 7a e4 17 be 47 0d 61 3b 4e 14 fa bd
       -0.009821108 -0.1483325 0.003434019 -0.12210904
000120 e4 11 9d bd e4 f4 0d 3d c1 1c c4 ba 17 f4 4a bd
       -0.07669428 0.034657374 -0.0014962183 -0.04954919
000130 41 3d a7 3d 95 a0 a0 bd cb 9f 9a 3c 13 3a 21 bd
       0.0816598 -0.078431286 0.018875023 -0.039362025
000140 56 a7 ed 3c 0d 06 c1 3d d9 2f 22 3d 10 3a 62 3b
       0.029010456 0.09424982 0.039596412 0.0034519471
000150 0f a9 83 bd a5 0a 08 3d ef b5 90 bd f3 e1 1a be
       -0.0642873 0.033213276 -0.07065951 -0.15125255
000160 59 3e c7 3d 14 d1 b1 bb 71 81 4e 3d e7 bf 8f bd
       0.09728689 -0.0054265354 0.050416414 -0.07019024
000170 3e ec b3 bc fd c2 ff 3d 96 19 db 3d f5 05 ff bc
       -0.021963235 0.12488363 0.106982395 -0.03113077
000180 ce 93 72 bc 9d b7 5b bc be 4f bb bd 93 f8 43 be
       -0.014805747 -0.013410476 -0.09146069 -0.19137792
000190 a6 4c 39 be f5 5d 25 3b 03 6e 1a be 80 41 03 3d
       -0.18095645 0.0025233005 -0.15081029 0.032044888
0001a0 da ba 8f bd ae b4 94 bd 56 3b 59 3d a1 2f 3d bd
       -0.07018061 -0.072610244 0.053035103 -0.046188
0001b0 4b 55 9b bd d2 f5 6a bd 75 b6 84 bd f3 28 17 bc
       -0.07584628 -0.05736334 -0.064801134 -0.009226072
0001c0 24 bd 6f bd de 6c fc 3c ca ef c4 3d e8 0f 37 bd
       -0.058529988 0.03081363 0.09616049 -0.044692904
0001d0 c0 66 04 be e7 d0 0b 3d 5a 35 95 3b cb c5 e9 3d
       -0.12929821 0.03413477 0.004553479 0.11414679
0001e0 c4 23 fa bd 4c 33 00 be 16 60 68 bd 28 57 5b 3d
       -0.12213853 -0.12519568 -0.05673226 0.053549916
0001f0 54 a0 cc 3d e4 15 6b bd cc 7f 65 3b bc 2a c5 3d
       0.09991518 -0.057393923 0.00350188 0.096272916

network_body._body_endoder.seq_layers.2.weight f4 [128, 128]
000000 c3 9e 72 bd 07 44 57 3d 44 41 18 be c5 41 46 be
       -0.05923344 0.05255511 -0.14868647 -0.19361027
000010 15 f0 18 be 0b 96 9d 3d 1e e1 fa 3d 2f 54 a3 3c
       -0.14935334 0.07694634 0.12249969 0.019937603
000020 12 aa fa 3d 40 8e a7 be 89 e0 30 3e ac 1a 7e be
       0.122394696 -0.32725716 0.17273153 -0.24814862
000030 67 46 76 bb eb 70 be bd de 7f 46 bd ef 60 70 3e
       -0.0037578584 -0.09298881 -0.048461787 0.23474477
000040 54 cf 0c be f5 43 b5 3d 03 80 35 3e c1 f1 48 be
       -0.13750964 0.088508524 0.17724614 -0.19623472
000050 ed 5f 65 3e 9a 1d 7c bd 57 e9 f3 3b 0c 3a 87 3d
       0.22399874 -0.061551668 0.0074435878 0.066028684
000060 60 df 4c 3e ee 15 9b be 9b 70 bc bd bd f3 16 3d
       0.20007086 -0.3029017 -0.09201165 0.03685354
000070 6d 46 3a 3d 36 7b 35 bb 0c 88 06 3d f5 4d 8b 3d
       0.04547732 -0.0027691848 0.03284459 0.068019785
000080 10 df de bd af 3a 30 3c 47 94 0b be a3 f9 3b 3d
       -0.108823895 0.010756179 -0.13630782 0.04589237
000090 1e f7 00 be b2 71 f3 bd 9d e2 dc 3c 90 e8 d0 bc
       -0.12594268 -0.1188692 0.026963526 -0.02550152
0000a0 43 37 8c bc 16 c4 5d 3d 88 1a c6 bd d1 d1 d8 3c
       -0.017116195 0.05414208 -0.09673029 0.026467236
0000b0 2d ec 45 3b c5 76 0c 3e 52 76 1a 3e ca de 66 bc
       0.0030200586 0.13717182 0.15084198 -0.014091203
0000c0 6a 56 35 3d 1e 91 b6 3c b9 18 98 3b 74 c0 0e be
       0.044271864 0.022285994 0.004641619 -0.13940603
0000d0 bd 10 cf 3c 87 45 06 3e d4 c1 ad bd 7c cc ea 3a
       0.025276536 0.1311246 -0.084842354 0.0017913724
0000e0 1f b2 bd bc e4 e3 74 bd c6 44 79 3b b6 29 d7 bd
       -0.023156224 -0.059787646 0.0038035377 -0.105060026
0000f0 e2 13 52 bd f0 cd 10 be 33 42 ac be 47 fa ba bd
       -0.051288493 -0.14141059 -0.33644256 -0.09129768
000100 45 96 0c 3e 7a ce e7 3d 88 42 14 3b 7b b6 bf bd
       0.13729198 0.11318679 0.0022622664 -0.09360977
000110 c8 70 88 bd ff 56 20 be d4 4f 01 be 9b 78 95 3b
       -0.06662136 -0.15658186 -0.12628108 0.0045614964
000120 8b ce 99 3d 1d 10 9a 3c 95 e1 75 3b 1b 02 43 3e
       0.07510098 0.018806512 0.003751849 0.19043772
000130 ef fd e5 3d 3d 6a 63 3a 46 06 25 3d d6 98 d8 bd
       0.112300746 0.00086751935 0.040289186 -0.10576026
000140 bb 2e 1d bb b0 0a a5 be c9 09 c2 bc ce e0 a4 bd
       -0.0023984152 -0.32234716 -0.023686307 -0.080506906
000150 4f 0b 15 be 9d 30 04 3e c6 80 e5 3c ce c2 e2 3c
       -0.14555095 0.1290917 0.028015506 0.02768078
000160 9b d1 00 be e1 9e 25 bd 00 c5 40 be c6 d2 49 3c
       -0.12579958 -0.04043472 -0.1882515 0.012318319
000170 5d f7 82 bc 44 39 bc 3d 77 02 03 3d f0 c8 33 bd
       -0.015987093 0.0919061 0.031984773 -0.0438928
000180 36 75 7f bd 03 5e 71 be 5f cb 91 3d 78 fd 0d 3e
       -0.06236764 -0.23571019 0.07118868 0.13866222
000190 11 b1 23 be 2c 2c 89 3d 39 dd 1d bd 4f ad a8 bc
       -0.15985514 0.06697878 -0.038541052 -0.020590452
0001a0 5e 1e 06 3e 56 e8 a0 3d e3 ed db 3d 8e 8b 22 be
       0.13097522 0.078568146 0.10738733 -0.15873548
0001b0 97 b1 dd 3d 17 3a b9 bd 33 1d dc 3d 4e b5 1e 3d
       0.10824888 -0.09044283 0.10747757 0.038747124
0001c0 63 6c 45 bd ae 1c 42 bd 7e a1 2b 3d 7b 9c ea 3c
       -0.04819907 -0.047390632 0.041902058 0.028639069
0001d0 b9 d7 32 be ed 58 4d 3c 70 78 db bb 46 5b 6b 3d
       -0.17465104 0.012533409 -0.006697707 0.057460092
0001e0 08 34 61 bc f0 d9 46 bc a3 91 8f bd 63 ea 04 3d
       -0.013745315 -0.012136921 -0.070102 0.03245009
0001f0 7a ef 44 3d 4f e6 f1 3c ee 1c 43 3c 7a 28 59 bd
       0.048079945 0.029528765 0.011908753 -0.053017117
000200 a4 3d eb bc 4c 99 d5 bc bf 2a 38 3d 63 38 7e 3d
       -0.028715916 -0.026074074 0.04496264 0.062065493
000210 fa b7 03 be e0 64 37 bd 40 2e 12 be ec fc 73 3d
       -0.1286315 -0.044773936 -0.14275455 0.059567377
000220 37 2f 04 3e ca ab b2 bd 65 d9 54 bd 02 42 e8 bb
       0.12908636 -0.087241724 -0.051965136 -0.007087947
000230 f0 24 81 bc 44 1d 0d be 69 93 79 bc 31 a4 43 bd
       -0.015764683 -0.13780695 -0.015232899 -0.047764007
000240 0e fd 26 be 78 cb 84 3e 34 57 16 3e 28 77 f9 bd
       -0.1630747 0.25936484 0.14681703 -0.121809304
000250 78 17 e5 3d 9b a0 09 3d 73 f7 0f be 46 88 ae 3c
       0.11186117 0.03360043 -0.14059238 0.021305215
000260 bd b4 0e 3e f6 d9 46 be fc 84 8d 3d f4 36 88 3d
       0.13936134 -0.19419083 0.069101304 0.066511065
000270 97 ff ff 3d 8a 79 67 3e b4 ba 4b bd 28 b7 de 3d
       0.12499922 0.22604957 -0.0497386 0.10874778
000280 a1 cc ba bb 93 77 32 be dd 92 88 3b 85 2f 3b 3e
       -0.005700663 -0.17428426 0.004167898 0.18279846
000290 cd cf fc bd ba 92 a3 bc 7d eb 0c be c3 37 28 bd
       -0.12344322 -0.019967426 -0.13761707 -0.041068804
0002a0 b7 67 0a bd c5 ac 8a bd 26 e1 a7 ba 97 dd 3b bb
       -0.033790316 -0.067712344 -0.0012808188 -0.0028666013
0002b0 b7 02 47 3d 4d 6d 89 bc 1c d9 c7 bd b6 51 87 bd
       0.048586573 -0.016775751 -0.09758207 -0.06607382
0002c0 4e 27 ad bd 1b ff b8 3d 1a 5a 47 3c 11 a8 0d 3e
       -0.084547624 0.090330325 0.012167478 0.13833643
0002d0 79 91 6d 3d 90 4b b8 3d 0d d2 67 bd 50 a5 84 bc
       0.05800006 0.089987874 -0.056596804 -0.016192108
0002e0 2d 1c 7b bd 60 54 79 be fb 81 61 3e 9c ba 7d bd
       -0.061306167 -0.24348593 0.2202224 -0.061945543
0002f0 32 89 b6 bd 0b 4a 5c bc 06 43 64 3d b8 5b 2c be
       -0.08912887 -0.013445388 0.05572798 -0.16831863
000300 83 fb 67 3c bd 30 18 bd 16 84 68 3d 41 c1 f2 3c
       0.014159086 -0.037155855 0.056766592 0.029633166
000310 c6 99 13 3e 7c bd 37 3e ea bf eb 3d 9f 45 ba 3c
       0.14414129 0.17943376 0.11511214 0.022738276
000320 de a2 00 3e 25 dc 0d 3e 06 08 fe 3d bf 7f 3b bd
       0.12562129 0.1385351 0.12403874 -0.045776125
000330 92 c6 34 3d 95 51 50 bd 88 6b 1b 3d 7c ab 17 be
       0.044134684 -0.050859053 0.037944347 -0.1481151
000340 77 81 0c be 2b ff 9e b8 3c 46 4e bd f3 1f 1c 3e
       -0.13721262 -7.581556e-05 -0.05035995 0.15246563
000350 03 12 c0 bc 88 b5 da 3d 1a 2b c5 3d 33 87 61 3d
       -0.023446089 0.106791556 0.096273616 0.055060577
000360 53 c8 67 3d 3a ce 74 bd 47 3b 25 bc a4 3d 32 3d
       0.05658753 -0.059766985 -0.010084934 0.043515816
000370 99 49 6f be 1e 33 b9 3d e0 d1 7a bd c0 8e b8 bd
       -0.23367919 0.09042953 -0.06123531 -0.090116024
000380 17 b4 e8 3d 06 0c f7 bd d4 21 f8 3d c9 19 5e bd
       0.113624744 -0.1206284 0.12115827 -0.05422381
000390 25 32 38 3c e6 83 e9 3d 29 a9 17 bd 91 f6 5b bd
       0.011242424 0.11402111 -0.037026558 -0.05370194
0003a0 ec 93 34 be 1e 44 0b bd 63 94 08 be de 87 8f 39
       -0.17634553 -0.03400051 -0.13337855 0.00027376314
0003b0 94 b0 c3 bd cf 42 e6 bd 9c 17 c9 3d 3f 8f f7 bd
       -0.09555164 -0.112432115 0.09818956 -0.12087869
0003c0 41 5e 33 be 9f fc 00 3d ec f4 40 bc 11 7a b7 bd
       -0.17516424 0.03149092 -0.011777144 -0.08958829
0003d0 83 67 72 bd e3 38 20 3e 73 62 87 bb 54 16 35 3d
       -0.059180748 0.156467 -0.004131609 0.044210747
0003e0 70 eb 07 3e 35 94 19 be 6a b0 17 3e a4 4a a1 bd
       0.13273406 -0.14997943 0.1481339 -0.07875565
0003f0 73 e0 29 3d 0e a8 39 bb 32 d5 08 bd a4 f4 fc bc
       0.041473817 -0.0028328928 -0.033406444 -0.030878372

network_body.observation_encoder.processors.0.normalizer.running_mean f4 [63]
000000 fe ed 38 3e b9 62 25 3d 00 00 00 00 00 00 00 00
       0.18059537 0.040377352 0.0 0.0
000010 00 00 00 00 00 00 00 00 a4 14 da 3c 86 8f 41 3e
       0.0 0.0 0.02662117 0.18902406
000020 5a b0 fd 3d 00 00 00 00 00 00 00 00 00 00 00 00
       0.12387152 0.0 0.0 0.0
000030 00 00 00 00 69 56 de 3c 88 36 20 3e 08 ae 6d 3d
       0.0 0.027140813 0.15645802 0.058027297
000040 00 00 00 00 00 00 00 00 00 00 00 00 00 00 00 00
       0.0 0.0 0.0 0.0
000050 06 d5 e3 3c 8d 0c 5c 3e ae 53 33 3e 00 00 00 00
       0.027811538 0.21489163 0.1751239 0.0
000060 00 00 00 00 00 00 00 00 00 00 00 00 00 3e cc 3c
       0.0 0.0 0.0 0.024931908
000070 7e 1f 4c 3e 46 6f ab 3d 00 00 00 00 00 00 00 00
       0.19933888 0.08370833 0.0 0.0
000080 00 00 00 00 00 00 00 00 ad 2c fe 3c 4a 8e c6 3e
       0.0 0.0 0.031027162 0.38780433
000090 b3 3c 1b 3d 00 00 00 00 00 00 00 00 00 00 00 00
       0.037899684 0.0 0.0 0.0
0000a0 00 00 00 00 a8 d0 e1 3c 5f 00 5c 3e 90 b7 94 3d
       0.0 0.027565315 0.21484517 0.07261574
0000b0 00 00 00 00 00 00 00 00 00 00 00 00 00 00 00 00
       0.0 0.0 0.0 0.0
0000c0 5d 26 09 3d 5a fc 25 3f fb be 81 3b 00 00 00 00
       0.03348385 0.6483818 0.003959534 0.0
0000d0 00 00 00 00 00 00 00 00 00 00 00 00 40 52 00 3d
       0.0 0.0 0.0 0.03132844
0000e0 d3 e9 c6 3e 20 76 16 3e 00 00 00 00 00 00 00 00
       0.3885027 0.14693499 0.0 0.0
0000f0 00 00 00 00 9c 4d c9 36 d1 5e 34 3d
       0.0 5.9993017e-06 0.044035736

network_body.observation_encoder.processors.1.normalizer.running_mean f4 [14]
000000 96 7b 9a c0 a5 fe ff be b5 f2 6b 41 00 00 00 00
       -4.827586 -0.49998966 14.746755 0.0
000010 b1 a2 87 3e 00 00 00 00 8d 8b b8 3e a2 04 0e bf
       0.2649131 0.0 0.3604397 -0.5547582
000020 36 4a a9 3e 83 1e 12 41 6c ae 08 ba 2a 12 54 bb
       0.3306443 9.132449 -0.0005213979 -0.003235946
000030 f1 97 44 39 fe e3 7b 3f
       0.00018748619 0.98394763
