Assets/Brains/Old/CarPractice 4.onnx (onnx, 103637 bytes, 8 tensors)

action_model._continuous_distribution.log_sigma f4 [1, 2]
-0.89470744 -1.0551994
00000000: 8c0b 65bf c610 87bf

action_model._continuous_distribution.mu.bias f4 [2]
0.02035165 0.015695374
00000000: 81b8 a63c 9693 803c

action_model._continuous_distribution.mu.weight f4 [2, 128]
0.017852815 -0.069852985 -0.11061386 -0.033015896 -0.01045685 0.008672513 0.07859033 -0.042506553
0.061752487 -0.0885053 0.044351265 -5.1486227e-06 0.017422691 -0.056916475 -0.016180376 0.0864611
-0.08004785 0.08279227 -0.039067764 -0.002446041 -0.018573347 -0.025021555 0.028356496 0.14869864
-0.012718242 0.03484187 0.015586462 0.035312157 -0.030917695 -0.10990013 0.12902504 -0.004120711
-0.09253386 0.08938766 -0.03415023 0.011859216 -0.009638577 0.058260616 0.07047506 -0.058244575
0.074732386 -0.02449849 0.13562109 -0.03083002 0.038895372 -0.021689113 -0.10588835 -0.010301831
-0.009534943 -0.08340843 0.10498071 -0.020871723 0.039841443 0.034457125 0.018441424 -0.027334893
-0.07093999 -0.10607843 -0.022452617 0.05208712 -0.008142951 -0.028686915 0.044694275 -0.045675922
-0.03241404 0.016563095 0.116588965 -0.016563976 0.01064811 0.037543986 -0.073851414 0.07295309
0.0013701081 0.0023234293 -0.12332181 0.014505465 0.02189253 -0.049387068 -0.036976587 -0.041762184
0.015370238 0.0015079634 -0.12205088 -0.06484553 0.026981385 0.03093727 -0.025408242 0.04697295
-0.0341902 -0.11801177 0.06372372 0.11109825 0.0055827815 -0.0783693 -0.040627804 -0.023315862
-0.050486945 -0.11783644 0.0031386486 0.13067168 -0.012905116 -0.015075967 -0.019587018 -0.110215634
-0.0013622036 0.015689284 0.013070665 -0.09225175 -0.03235232 0.005109847 -0.05630419 -0.0017564776
0.009480836 0.10300211 -0.06195797 -0.03267882 -0.06573763 -0.01550811 -0.010526349 0.058067456
0.08843639 0.008889194 -0.10089701 0.11225883 -0.046437994 -0.022111267 -0.0670148 -0.06610229
-0.007860211 0.017169086 0.08891117 0.0014355497 0.008465142 -0.004294167 -0.009834423 -0.0119112935
0.040449988 0.0051084645 -0.0121522825 -0.09370645 -0.015401615 0.031983174 0.008283863 0.047044914
-0.13909028 -0.017765014 0.012776425 0.0137987025 -0.02120613 0.042433742 -0.05142676 -0.017772969
0.013997039 -0.015805164 0.042965207 -0.00017878471 -0.07107441 0.030866588 -0.02042132 0.01624226
0.026969394 -0.00967876 0.00082511886 -0.11409379 0.010327151 -0.025966015 0.021544449 -0.08969304
0.022265963 -0.06721522 -0.042067435 0.019611105 -0.009049904 0.03375682 -0.032754716 0.009048497
-0.030548483 0.018284015 -0.012889901 -0.028334677 0.00042589297 -0.013898786 -0.013028383 0.010356363
0.018851858 0.030319598 -0.032656044 -0.0043336847 0.008882043 0.009173486 -0.0071073696 0.047826093
0.003949445 -0.016563661 -0.036816273 -0.0077884994 -0.1283455 -0.006894173 -0.025696633 -0.032312397
0.06893958 -0.014494445 0.12554502 -0.018545909 -0.042399373 0.020859467 0.007934199 0.043435574
0.004237209 -0.015859956 -0.01570099 0.036290534 0.006790299 -0.031995893 0.0003271972 0.0005287358
0.028685816 0.10596873 0.016962403 0.023182947 0.040501814 -0.132699 1.8128145e-05 0.00018623484
0.024927655 0.09825306 -0.052737173 -0.006931539 0.01911472 0.016830465 0.00040359132 -0.10463735
0.009564523 0.0077129714 -0.04720453 0.014429332 0.0004899933 -0.05866943 0.023556825 0.009369841
-0.060392246 -0.011085309 -0.05842768 -0.03576717 0.032952957 -0.01655661 -0.0074260896 0.055075966
0.008357428 -0.0064490386 -0.018192304 0.02462442 0.02508792 -0.021728463 -0.03701176 0.006501337
00000000: 1140 923c 150f 8fbd 8589 e2bd ad3b 07bd
00000010: 3553 2bbc 2817 0e3c f8f3 a03d 5a1b 2ebd
00000020: 2df0 7c3d 4442 b5bd aca9 353d 55c2 acb6
00000030: 08ba 8e3c 4021 69bd b58c 84bc 8412 b13d
00000040: 21f0 a3bd fe8e a93d 8505 20bd c24d 20bb
00000050: 2227 98bc 01fa ccbc e24b e83c 7544 183e
00000060: 2c60 50bc 59b6 0e3d 5c5e 7f3c 7ba3 103d
00000070: 1b47 fdbc 5213 e1bd 241f 043e 0707 87bb
00000080: 6482 bdbd e110 b73d 1de1 0bbd 284d 423c
00000090: 1feb 1dbc afa2 6e3d 3a55 903d dd91 6ebd
000000a0: 4b0d 993d 0fb1 c8bc 41e0 0a3e 3d8f fcbc
000000b0: c150 1f3d 5ead b1bc fedb d8bd 03c9 28bc
000000c0: 7338 1cbc 0ad2 aabd 2000 d73d 2dfb aabc
000000d0: c830 233d ea22 0d3d 7812 973c 6ded dfbc
000000e0: fc48 91bd a63f d9bd 8dee b7bc 4e59 553d
000000f0: 036a 05bc d200 ebbc 5811 373d ad16 3bbd
00000100: 96c4 04bd 54af 873c 32c6 ee3d 2db1 87bc
00000110: 6975 2e3c b9c7 193d 693f 97bd 6e68 953d
00000120: 3395 b33a ad44 183b 2590 fcbd 54a8 6d3c
00000130: f757 b33c 184a 4abd c374 17bd d30e 2bbd
00000140: 73d3 7b3c dba6 c53a d0f5 f9bd bccd 84bd
00000150: 1108 dd3c 2870 fd3c f224 d0bc b566 403d
00000160: 060b 0cbd 28b0 f1bd 9581 823d 7b87 e33d
00000170: c4ef b63b 1580 a0bd 5769 26bd e800 bfbc
00000180: 66cb 4ebd 3b54 f1bd c9b1 4d3b ccce 053e
00000190: fb6f 53bc 3001 77bc f474 a0bc bcb8 e1bd
000001a0: f88b b2ba d086 803c 5826 563c 7cee bcbd
000001b0: de83 04bd 8170 a73b 399f 66bd 9c39 e6ba
000001c0: 8255 1b3c c5f2 d23d a4c7 7dbd 3ada 05bd
000001d0: 73a1 86bd ba15 7ebc b576 2cbc 24d8 6d3d
000001e0: 231e b53d fba3 113c 17a3 cebd f5e7 e53d
000001f0: c435 3ebd b022 b5bc 0e3f 89bd a360 87bd
00000200: 1dc8 00bc 2fa6 8c3c 0f17 b63d 0e29 bc3a
00000210: 61b1 0a3c 15b6 8cbb 8f20 21bc 9627 43bc
00000220: e3ae 253d e864 a73b 5e1a 47bc 2be9 bfbd
00000230: 0e57 7cbc ca00 033d 0ab9 073c 2bb2 403d
00000240: af6d 0ebe ef87 91bc 3654 513c f413 623c
00000250: 7ab8 adbc 01cf 2d3d dea4 52bd 9e98 91bc
00000260: d653 653c d579 81bc 49fc 2f3d 2878 3bb9
00000270: 768f 91bd eddb fc3c 9d4a a7bc 7d0e 853c
00000280: ebee dc3c a993 1ebc ca4c 583a 01aa e9bd
00000290: 3633 293c aeb6 d4bc fc7d b03c fcb0 b7bd
000002a0: 1c67 b63c 22a8 89bd e74e 2cbd 78a7 a03c
000002b0: 0c46 14bc 9744 0a3d cf29 06bd 2640 143c
000002c0: d040 fabc 5cc8 953c 2a30 53bc 201e e8bc
000002d0: 634a df39 bcb7 63bc 0075 55bc bcad 293c
000002e0: 366f 9a3c ce60 f83c 58c2 05bd 9501 8ebb
000002f0: fd85 113c 644c 163c f0e4 e8bb 4be5 433d
00000300: 596a 813b 84b0 87bc a9cc 16bd ab36 ffbb
00000310: 016d 03be 84e8 e1bb bf81 d2bc 015a 04bd
00000320: 3230 8d3d 1c7a 6dbc e08e 003e 97ed 97bc
00000330: f7aa 2dbd 79e1 aa3c 71fe 013c 80e9 313d
00000340: 49d8 8a3b bdec 81bc 5d9f 80bc 62a5 143d
00000350: 2881 de3b 200e 03bd aa8b ab39 dc9a 0a3a
00000360: 84fe ea3c 2206 d93d bdf4 8a3c 2aea bd3c
00000370: 3be5 253d 3fe2 07be e511 9837 0948 4339
00000380: 1535 cc3c e638 c93d ef02 58bd f721 e3bb
00000390: 7996 9c3c 0be0 893c 1c99 d339 1b4c d6bd
000003a0: 84b4 1c3c 18bd fc3b 8a59 41bd 0169 6c3c
000003b0: e572 003a 5b4f 70bd 3efa c03c f683 193c
000003c0: dc5d 77bd 289f 35bc dd51 6fbd 9980 12bd
000003d0: aef9 063d baa1 87bc 8e56 f3bb 5697 613d
000003e0: 98ed 083c 7552 d3bb 0708 95bc 27b9 c93c
000003f0: 2e85 cd3c e4ff b1bc a599 17bd 2b09 d53b

action_model._discrete_distribution.branches.0.weight f4 [1, 128]
-0.005301474 0.0031924732 -0.0054827896 -0.014662656 0.012183621 0.0062728873 -0.009734408 -0.01932151
-0.0016431556 0.009752831 0.0066299937 0.014350469 0.008252339 -0.0032021336 0.0010275585 0.0005136035
0.0010864887 0.009824242 -0.0044722417 -0.011947498 0.020364998 0.0010334866 0.003982243 0.008563737
-0.004720897 -0.0023192824 0.0019170449 -0.001292861 -0.0010672424 -0.014042148 0.0042129937 0.008892816
0.011297566 0.0050577857 0.009868046 0.00026947702 -0.0016049348 -0.00017001576 -0.0021778138 0.008113564
0.000545299 -0.011211503 0.010579227 -0.0032707423 0.042078212 0.0022185536 -0.0152211785 0.008428994
-0.013266878 0.013506872 -0.0052895495 0.00506646 -0.00021791973 0.001231226 -0.0027795697 -0.008922419
-0.012318197 0.0074783647 0.011555722 -0.004754507 -0.005659746 -0.009535757 0.0046694996 -0.0038536226
0.009406237 0.018183613 0.003777346 -0.008319629 -0.0060561355 0.017101927 0.0060708267 -0.0035489518
0.0067417184 -0.008257366 0.00055801397 0.009414983 -0.0025814471 0.0042996625 0.0038996488 -0.013517328
0.0058399932 0.017733349 0.0024725506 -0.006549388 -0.013737611 -0.016982898 -0.0043893317 -0.01610991
0.0019690478 -0.0030450008 -0.004309799 -0.0024477968 0.0053028106 -0.010209326 0.017050542 -0.029469842
0.014343843 -0.0031162763 -0.00025614386 0.006913151 0.0071641183 -0.000520681 0.007545219 0.03579419
0.009819055 -0.006985339 -0.0005968201 0.025161594 0.00088389 0.0022723924 -0.017371483 -0.008280042
0.007517066 0.013912742 0.0050590085 -0.0026127899 -0.00869488 0.024570528 -0.0002541881 -0.010188434
0.017334668 0.0033313313 0.0015875545 -0.004737516 -0.0041925437 0.0021355648 0.00859508 0.012270333
00000000: fdb7 adbb d038 513b f9a8 b3bb a33b 70bc
00000010: cf9d 473c cb8c cd3b 117d 1fbc 2548 9ebc
00000020: 275f d7ba 57ca 1f3c 6b40 d93b 3b1e 6b3c
00000030: d234 073c e3da 51bb 24af 863a 59a3 063a
00000040: 8368 8e3a dcf5 203c e28b 92bb 70bf 43bc
00000050: 7fd4 a63c 0e76 873a 7a7d 823b eb4e 0c3c
00000060: c1b1 9abb 1aff 17bb 5a45 fb3a 3775 a9ba
00000070: b6e2 8bba 0a11 66bc 270d 8a3b 2cb3 113c
00000080: 6d19 393c c8bb a53b 96ad 213c 9848 8d39
00000090: ad5c d2ba 4246 32b9 a7b9 0ebb c1ee 043c
000000a0: 65f2 0e3a 74b0 37bc 7e54 2d3c f359 56bb
000000b0: 345a 2c3d 2765 113b 4062 79bc c319 0a3c
000000c0: 525d 59bc ed4b 5d3c f553 adbb 8c04 a63b
000000d0: 6281 64b9 1761 a13a 7129 36bb 562f 12bc
000000e0: 43d2 49bc 120d f53b 3654 3d3c b2cb 9bbb
000000f0: 6475 b9bb dd3b 1cbc 9a02 993b 0f8d 7cbb
00000100: 9e1c 1a3c cdf5 943c 5a8d 773b 0e4f 08bc
00000110: 8c72 c6bb 5719 8c3c c9ed c63b 8895 68bb
00000120: a2e9 dc3b e749 07bc af47 123a 4d41 1a3c
00000130: 7f2d 29bb 2fe4 8c3b 4091 7f3b c877 5dbc
00000140: 6a5d bf3b 8745 913c 840a 223b 409c d6bb
00000150: b713 61bc b81f 8bbc 62d4 8fbb eef8 83bc
00000160: 240b 013b a38e 47bb 3739 8dbb 376b 20bb
00000170: 33c3 ad3b 0445 27bc 94ad 8b3c bd6a f1bc
00000180: 7002 6b3c 713a 4cbb 0c4b 86b9 b787 e23b
00000190: fbc0 ea3b 4f7e 08ba e23d f73b ee9c 123d
000001a0: 1ae0 203c 45e5 e4bb eb73 1cba b01f ce3c
000001b0: dbb4 673a 6bec 143b a44e 8ebc 03a9 07bc
000001c0: b851 f63b 45f2 633c 0ac6 a53b 573b 2bbb
000001d0: f874 0ebc 2248 c93c 8d44 85b9 64ed 26bc
000001e0: 6f01 8e3c 7752 5a3b 7d15 d03a 2a3d 9bbb
000001f0: 9b61 89bb d5f4 0b3b 61d2 0c3c 8209 493c

network_body._body_endoder.seq_layers.0.bias f4 [128]
0.023001399 0.026151072 -0.04352723 -0.07163734 -0.056783307 -0.00031971498 -0.0015036191 -0.061960615
0.023936706 0.007601631 -0.121171094 -0.018873211 0.047754113 -0.0029716187 -0.2818825 -0.08865127
-0.35150015 -0.024038376 -0.021962017 -0.033566322 -0.106079355 -0.088194005 0.037231326 0.039330427
-0.027483024 -0.09794944 0.05062429 0.03366753 0.04789419 0.018294064 -0.31403834 -0.051527765
-0.021287726 0.022933196 0.003119253 -0.13926889 -0.09264137 -0.037929427 -0.31078717 -0.22565524
-0.004562605 -0.07771605 -0.052181225 -0.043292686 -0.10722388 -0.027678367 0.025056355 -0.008462534
-0.045078546 -0.01932673 -0.0986798 -0.28543997 -0.054877575 0.0022551755 -0.027010292 -0.21507467
0.012963409 0.016935743 -0.030498253 0.047304187 -0.044610787 0.021534419 -0.07720969 -0.18595044
-0.096308164 -0.36130908 0.007000455 0.031552564 -0.053678073 -0.024568014 -0.18239821 -0.03764856
-0.35336962 -0.0041841045 -0.2100053 -0.022924744 -0.08589611 -0.19616197 -0.037954025 -0.11094972
-0.19787076 -0.07578118 -0.2666629 -0.014156368 -0.045482796 -0.11996754 -0.17348523 -0.256252
-0.03824919 -0.13492534 -0.12877537 -0.033363644 0.053950906 0.027536463 0.00456034 -0.043314006
-0.09388087 -0.021207685 0.022075614 0.0263934 0.036878556 -0.03930992 -0.06802345 0.021735888
-0.09194307 0.031929042 -0.07493006 -0.020704487 -0.008234194 -0.2655136 -0.00071121374 -0.19277306
0.03746313 -0.16986197 -0.020369641 -0.17017174 -0.0759895 0.003076739 -0.036494676 -0.3740806
0.0010334307 -0.1276923 -0.07863096 -0.041870393 0.02737813 -0.17596878 -0.02144845 -0.20531292
00000000: 6e6d bc3c c63a d63c 9c49 32bd 99b6 92bd
00000010: 9d95 68bd 6b9f a7b9 1615 c5ba 6aca 7dbd
00000020: e916 c43c 1a17 f93b 8d28 f8bd fe9b 9abc
00000030: d199 433d 7dbf 42bb e752 90be cc8e b5bd
00000040: d4f7 b3be 21ec c4bc b0e9 b3bc d77c 09bd
00000050: 2240 d9bd 0f9f b4bd e07f 183d f118 213d
00000060: 1424 e1bc b799 c8bd 6a5b 4f3d f7e6 093d
00000070: b32c 443d 6fdd 953c a2c9 a0be c70e 53bd
00000080: 9963 aebc 66de bb3c 626c 4c3b 819c 0ebe
00000090: c2ba bdbd e35b 1bbd 7f1f 9fbe 2b12 67be
000000a0: e881 95bb 9829 9fbd fbbb 55bd ac53 31bd
000000b0: 3298 dbbd bebd e2bc fc42 cd3c 71a6 0abc
000000c0: 48a4 38bd 1753 9ebc a318 cabd 3025 92be
000000d0: 4fc7 60bd 91cb 133b b044 ddbc 893c 5cbe
000000e0: 7a64 543c d4bc 8a3c 79d7 f9bc 09c2 413d
000000f0: cdb9 36bd f368 b03c 1d20 9ebd cb69 3ebe
00000100: 373d c5bd 81fd b8be 1364 e53b 433d 013d
00000110: 8add 5bbd dc42 c9bc 99c6 3abe 6035 1abd
00000120: ddec b4be d01a 89bb a10b 57be accc bbbc
00000130: 4dea afbd afde 48be ae75 1bbd 9b39 e3bd
00000140: a29e 4abe 2a33 9bbd 0a88 88be 1cf0 67bc
00000150: 2b4c 3abd 8bb1 f5bd 1da6 31be 7633 83be
00000160: 2fab 1cbd de29 0abe b1dd 03be 51a8 08bd
00000170: a0fb 5c3d 2694 e13c e86e 953b 076a 31bd
00000180: 9d44 c0bd bdbb adbc ebd7 b43c f936 d83c
00000190: f80d 173d 7003 21bd e14f 8bbd 760f b23c
000001a0: a64c bcbd 07c8 023d ee74 99bd 759c a9bc
000001b0: b6e8 06bc 66f1 87be bf70 3aba 4d66 45be
000001c0: f072 193d 4cf0 2dbe 3cde a6bc 8041 2ebe
000001d0: 62a0 9bbd 1da3 493b 717b 15bd 7e87 bfbe
000001e0: 2e74 873a c5c1 02be 4509 a1bd 4a80 2bbd
000001f0: 1a48 e03c 2931 34be a9b4 afbc 8d3d 52be

network_body._body_endoder.seq_layers.0.weight f4 [128, 63]
0.018507406 -0.0324085 0.16012219 -0.13313903 -0.060282256 -0.12373419 -0.1169325 -0.034638576
0.05078362 -0.123357415 -0.17678289 -0.10547806 0.19404523 -0.27165934 0.23457308 0.2747517
0.22458094 -0.029418454 -0.1398646 -0.25971776 0.10270428 -0.20632489 -0.024524197 -0.16786146
0.32699707 0.084527075 0.05012291 0.021450028 0.060323462 0.10345022 -0.041913636 -0.12684831
0.043335475 -0.15847814 0.09583233 0.16539866 0.003830084 0.119148664 0.1693204 0.09287769
-0.19581114 -0.060620174 0.12612267 -0.10609654 -0.06802502 -0.11933754 0.15405942 0.06833392
0.029966587 0.15183236 0.14137118 -0.13112827 0.043243606 0.036176898 0.22931887 0.014476559
0.121423826 -0.19368298 -0.19721295 0.23690152 0.13945249 -0.18376067 -0.042604994 -0.0046976306
0.120624386 -0.004537637 -0.19773169 0.05932708 0.00085495895 -0.057436008 -0.083143584 -0.14178355
0.0031752605 0.10164898 -0.0074306168 0.062644646 0.03968808 0.033105835 0.095624715 -0.20625028
0.0013073931 0.11803713 0.118969895 -0.03343888 -0.054893654 0.11812573 -0.05822954 -0.05259935
0.104996935 -0.21340741 -0.032873888 -0.16566603 0.017830346 0.034953002 0.04868449 -0.04168404
-0.031726036 0.09402877 -0.12615198 0.028537894 0.24468252 0.124605305 0.20061325 0.2198119
0.029673228 0.060155984 -0.051586445 -0.11566099 0.030501017 0.02018306 0.0033971176 0.0140316775
0.07574076 0.056418426 0.009890007 0.004430267 0.14226168 -0.021071607 0.07327985 -0.068816274
-0.22411917 -0.1187155 0.06158351 -0.3059338 -0.54460543 -0.0055508004 -0.110263176 0.099011496
0.18031566 -0.09889683 -0.050847244 -0.14023031 -0.19381762 -0.061345804 -0.009223945 -0.11186152
0.13957416 0.10614511 0.10479081 -0.010951411 -0.12818663 -0.12850274 0.034677785 -0.25108492
-0.161355 -0.01314773 -0.026713615 0.18899393 -0.18042661 0.016460795 0.10937328 0.0063617206
-0.025907075 0.2956198 -0.26955366 0.089034446 0.142616 0.1306734 -0.16456509 -0.0034366124
-0.059776697 -0.2060733 -0.21964319 0.020591754 -0.12845224 0.104449145 0.06159387 -0.13455452
-0.065769486 -0.100854985 0.009801433 -0.076163694 -0.09620259 0.023247318 0.039555505 -0.05968449
-0.050064266 0.004189563 0.062026113 0.065781936 0.26022986 0.14061204 -0.1119196 -0.07578279
0.09476804 -0.016880888 -0.25771177 -0.044486526 -0.054475162 -0.082935 -0.091397 0.15398745
0.055151973 -0.21213286 -0.04672463 0.3193073 0.042633485 0.24467243 -0.186942 -0.16018742
0.120999165 -0.060172368 0.15978606 -0.2009322 -0.20102859 0.0086199865 0.24023017 -0.24133721
0.00194897 -0.16706255 -0.1632663 0.0036366275 -0.12954019 0.05974733 -0.23213261 0.03258471
-0.024371164 0.15373243 -0.04155307 0.0960464 -0.123459086 0.11046111 -0.036998186 0.10920995
-0.20818655 0.14385651 0.06306978 -0.03682846 -0.048809737 -0.050381474 0.086390495 0.030741766
0.00022365291 0.008287942 -0.00068119145 -0.2757813 -0.02795786 -0.028745627 0.05931614 0.08022306
0.062079567 0.026103096 -0.276712 -0.06611934 -0.15891334 -0.15886253 0.037700478 -0.013510547
-0.02224941 -0.22982723 0.012541219 -0.072891265 -0.34535354 0.08129246 0.019145248 0.30661884
00000000: d89c 973c c6be 04bd 12f7 233e 9955 08be
00000010: 87ea 76bd 5a68 fdbd 4e7a efbd 2ee1 0dbd
00000020: 7c02 503d d0a2 fcbd 9306 35be e204 d8bd
00000030: cbb3 463e ef16 8bbe ed33 703e 41ac 8c3e
00000040: 8cf8 653e f8fe f0bc aa38 0fbe baf9 84be
00000050: 9f56 d23d d546 53be f8e6 c8bc e0e3 2bbe
00000060: 296c a73e 881c ad3d ae4d 4d3d f8b7 af3c
00000070: bc15 773d b5dd d33d a2ad 2bbd 86e4 01be
00000080: 8a80 313d 1848 22be be43 c43d 445e 293e
00000090: 2602 7b3b 3704 f43d 5462 2d3e a936 be3d
000000a0: b782 48be dc4c 78bd 4d26 013e 2549 d9bd
000000b0: b450 8bbd 3d67 f4bd c1c1 1d3e a7f2 8b3d
000000c0: 7d7c f53c f179 1b3e 9bc3 103e 7d46 06be
000000d0: 3520 313d 3a2e 143d 91d2 6a3e 172f 6d3c
000000e0: 0ead f83d d554 46be 31f2 49be 5096 723e
000000f0: a2cc 0e3e c22b 3cbe 9382 2ebd 95ee 99bb
00000100: eb09 f73d 75b0 94bb 2d7a 4abe f400 733d
00000110: 531f 603a 0542 6bbd 2f47 aabd b52f 11be
00000120: 0818 503b 572d d03d 887c f3bb d64b 803d
00000130: f88f 223d fc99 073d e4d6 c33d 4633 53be
00000140: d55c ab3a 73bd f13d 7da6 f33d 35f7 08bd
00000150: 2bd8 60bd e7eb f13d 1982 6ebd 6b72 57bd
00000160: a208 d73d 7987 5abe c5a6 06bd 5ba4 29be
00000170: f210 923c e12a 0f3d 6369 473d e2bc 2abd
00000180: 29f3 01bd 2892 c03d fc2d 01be 4dc8 e93c
00000190: 0e8e 7a3e 1131 ff3d 8f6d 4d3e 5f16 613e
000001a0: 4515 f33c 1f66 763d 4f4c 53bd abdf ecbd
000001b0: 45dd f93c f256 a53c 2da2 5e3b 1fe5 653c
000001c0: f91d 9b3d 0217 673d b209 223c c62b 913b
000001d0: 0cad 113e 5d9e acbc bf13 963d 8cef 8cbd
000001e0: 7f7f 65be 1d21 f3bd fe3e 7c3d 5ba3 9cbe
000001f0: 436b 0bbf 7de3 b5bb a9d1 e1bd 8ac6 ca3d
00000200: aba4 383e 6c8a cabd 3345 50bd 8998 0fbe
00000210: 2078 46be bd45 7bbd 0820 17bc a717 e5bd
00000220: 87ec 0e3e 9c62 d93d 909c d63d 8c6d 33bc
00000230: 5b43 03be 3996 03be 4b0a 0e3d 348e 80be
00000240: 3f3a 25be 9469 57bc 83d6 dabc a087 413e
00000250: c1c1 38be cad8 863c 19ff df3d fb75 d03b
00000260: 133b d4bc 7a5b 973e f002 8abe b157 b63d
00000270: ee09 123e 3fcf 053e c083 28be ca38 61bb
00000280: 69d8 74bd e104 53be 25ea 60be 0ab0 a83c
00000290: fc88 03be 6fe9 d53d db49 7c3d a9c8 09be
000002a0: 27b2 86bd 0f8d cebd 3196 203c b6fb 9bbd
000002b0: dd05 c5bd 2971 be3c f404 223d b977 74bd
000002c0: 3010 4dbd 9a48 893b 180f 7e3d aeb8 863d
000002d0: d93c 853e 9afc 0f3e 1a36 e5bd 0234 9bbd
000002e0: bf15 c23d ca49 8abc ccf2 83be 8137 36bd
000002f0: 5921 5fbd d3d9 a9bd 5a2e bbbd e3ae 1d3e
00000300: 09e7 613d 5b39 59be 5362 3fbd 3f7c a33e
00000310: 73a0 2e3d 698b 7a3e b96d 3fbe 2c08 24be
00000320: 69ce f73d 4d77 76bd f59e 233e 2cc1 4dbe
00000330: 70da 4dbe d83a 0d3c e6fe 753e 1a21 77be
00000340: 9574 ff3a 7212 2bbe 482f 27be 7c54 6e3b
00000350: 2fa6 04be 9eb9 743d 2cb4 6dbe 8b77 053d
00000360: 09a6 c7bc 096c 1d3e 8d33 2abd fab3 c43d
00000370: 1ed8 fcbd 6f39 e23d 698b 17bd 77a9 df3d
00000380: db2e 55be 1f4f 133e bb2a 813d 70d9 16bd
00000390: b8ec 47bd ce5c 4ebd 80ed b03d 28d6 fb3c
000003a0: 5f84 6a39 26ca 073c fc91 32ba 3533 8dbe
000003b0: e207 e5bc f37b ebbc 7bf5 723d fd4b a43d
000003c0: 2547 7e3d 29d6 d53c 32ad 8dbe 9469 87bd
000003d0: 2eba 22be dcac 22be d16b 1a3d 575b 5dbc
000003e0: 6544 b6bc d457 6bbe af79 4d3c 0448 95bd
000003f0: 2ed2 b0be a97c a63d 7fd6 9c3c 25fd 9c3e

network_body._body_endoder.seq_layers.2.bias f4 [128]
0.052172326 -0.028571518 -0.019581411 -0.27834833 -0.03849969 -0.1210282 -0.00024162437 -0.10269307
-0.025744949 -0.029893445 -0.0075956755 0.015571787 -0.097221136 -0.043097883 -0.042607017 -0.01702741
-0.014601034 0.060589306 0.0032827198 -0.06812236 -0.028431254 -0.05567197 0.017511208 0.022114586
-0.06696609 -0.019091258 -0.041086324 -0.048026696 -0.023020582 -0.0041302005 0.043521192 -0.054513637
-0.005960034 0.05765826 -0.03618746 0.0076470203 -0.06305727 0.01843938 -0.020886227 -0.020053072
-0.010627981 -0.020706331 0.06003234 -0.099576 0.0057177776 -0.071746565 -0.07101462 -0.027414387
-0.041813146 -0.0810815 0.01147027 -0.3596974 -0.030217258 0.06489547 -0.074351996 -0.114818856
-0.046256494 0.019330708 -0.029324608 -0.0046716277 -0.008156247 -0.0036007788 -0.040152173 -0.05942933
-0.031430718 -0.017482523 0.078499585 -0.02596738 0.016029922 -0.5952915 -0.051720716 0.01722541
-0.03491411 -0.038607545 0.024829878 -0.026766531 0.07541597 -0.030495979 -0.053248268 -0.056051373
-0.03638682 -0.02363277 0.019317614 -0.010197745 -0.08263649 0.015800914 -0.02477695 -0.03353288
-0.059463877 -0.0021544083 -0.058169182 0.0019476159 -0.12255672 -0.012792051 0.011614081 -0.00023860058
-0.017741684 0.011082201 -0.0028403096 0.0042365664 0.03052836 -0.051281534 -0.08036991 -0.023718832
-0.0707749 -0.07717224 0.011084072 -0.034560338 -0.05405656 0.0060775727 -0.061369818 -0.03308422
-0.06735017 0.046944957 -0.018541642 -0.02993058 -0.07152602 0.042416304 -0.03553597 -0.031031247
-0.047459263 0.02393211 -0.01271581 -0.011588184 -0.054728832 -0.043036483 -0.037590373 -0.058863122
00000000: a6b2 553d d10e eabc 3269 a0bc ac83 8ebe
00000010: dab1 1dbd a2dd f7bd 8c5c 7db9 bf50 d2bd
00000020: 12e7 d2bc 19e3 f4bc 25e5 f8bb cf20 7f3c
00000030: e01b c7bd 6887 30bd b284 2ebd 117d 8bbc
00000040: 2d39 6fbc 7e2c 783d e622 573b bc83 8bbd
00000050: a9e8 e8bc 4b08 64bd aa73 8f3c a629 b53c
00000060: 8425 89bd 4565 9cbc 224a 28bd a4b7 44bd
00000070: a995 bcbc a256 87bb 4743 323d b149 5fbd
00000080: 644c c3bb 112b 6c3d 4d39 14bd db93 fa3b
00000090: 2c24 81bd 2f0e 973c 9819 abbc 5746 a4bc
000000a0: fc20 2ebc 53a0 a9bc 79e4 753d 80ee cbbd
000000b0: 325c bb3b ddef 92bd 1d70 91bd 2394 e0bc
000000c0: 4344 2bbd 0f0e a6bd cded 3b3c 422a b8be
000000d0: 2f8a f7bc ebe7 843d dc45 98bd 2626 ebbd
000000e0: 7377 3dbd 6f5b 9e3c 293a f0bc 7414 99bb
000000f0: c8a1 05bc 0bfb 6bbb 9b76 24bd 2b6c 73bd
00000100: 7fbd 00bd 8237 8fbc 64c4 a03d 8bb9 d4bc
00000110: 2f51 833c 0665 18bf 1ad9 53bd 4e1c 8d3c
00000120: 1902 0fbd f222 1ebd 0768 cb3c 7c45 dbbc
00000130: b073 9a3d b4d2 f9bc db1a 5abd 2096 65bd
00000140: 590a 15bd 8399 c1bc f93f 9e3c 7114 27bc
00000150: 523d a9bd eb70 813c 08f9 cabc c659 09bd
00000160: 6590 73bd f930 0dbb cf42 6ebd 2547 ff3a
00000170: 05ff fabd c095 51bc fd48 3e3c db30 7ab9
00000180: 0257 91bc 1f92 353c 7d24 3abb e5d2 8a3b
00000190: 9c16 fa3c 960c 52bd fb98 a4bd ff4d c2bc
000001a0: 6ef2 90bd 7b0c 9ebd f899 353c 248f 0dbd
000001b0: 696a 5dbd 6026 c73b eb5e 7bbd 5283 07bd
000001c0: e3ee 89bd 5b49 403d a4e4 97bc fa30 f5bc
000001d0: 3c7c 92bd b8bc 2d3d 2a8e 11bd 3e35 febc
000001e0: a564 42bd 460d c43c f955 50bc 5edc 3dbc
000001f0: 572b 60bd 0647 30bd 5df8 19bd 751a 71bd

network_body._body_endoder.seq_layers.2.weight f4 [128, 128]
0.047211472 -0.2007312 -0.19962904 0.103070736 -0.007031544 0.010105249 -0.19894382 -0.07533202
0.14011852 -0.13326962 0.12024077 -0.03753716 0.15413855 -0.06393899 0.054809835 0.05214883
-0.16325071 -0.06305387 -0.02505032 0.07871954 -0.15852167 0.08293553 -0.062102627 0.027558213
-0.12716311 -0.000125447 -0.06623018 -0.07975729 -0.04979308 -0.019254787 -0.19508003 -0.032606743
-0.053736355 -0.16051912 -0.08240701 -0.03239807 0.120884575 -0.09908765 0.11783177 0.11384499
-0.0053541632 -0.073162384 -0.010619461 0.116122045 -0.100516364 0.07803749 -0.016033674 0.08279121
0.018586706 -0.08061218 -0.069433585 0.07550752 -0.11052405 -0.055833936 -0.07670916 0.058173805
0.030647162 -0.0015986824 0.0553029 -0.052898135 0.020302229 -0.23826371 -0.21157233 -0.06375163
-0.2594289 -0.08409248 -0.07132151 0.09090649 -0.016350659 -0.2636174 0.12190076 -0.116320506
-0.12856953 0.015913408 -0.022778276 -0.15354724 -0.040413294 -0.14293687 -0.015878882 0.10406614
0.1280785 0.10909749 0.012745399 -0.04989559 0.16180067 0.05387616 0.03142013 -0.10981953
0.025936356 0.05605691 0.17556185 -0.06698154 -0.1820774 -0.08703882 0.034743488 -0.028058736
0.07811393 0.014555986 -0.18233615 0.058978204 -0.0080798995 -0.027984226 0.122883834 -0.05186822
0.08716422 -0.077447854 0.006681359 -0.15967247 -0.14913587 0.033384476 -0.0891189 0.07749586
0.02790053 0.0680129 0.080002785 -0.0067525366 -0.08155929 0.24744733 -0.09266573 0.042451244
-0.1673295 0.041009426 -0.056790926 0.01302533 -0.19936927 -0.014064014 -0.08947744 0.014762413
-0.099022016 0.024119541 -0.020738343 -0.11096337 0.0758106 -0.12306806 0.120410666 -0.039295018
0.025867423 0.016342562 -0.08911656 0.0455929 -0.056454618 0.022774555 0.20320074 -0.034663215
-0.10127616 -0.08549668 0.05251318 0.24324322 0.096325286 0.23315057 0.015097105 -0.065565005
0.060910184 -0.042986743 -0.10054471 -0.08572649 -0.111049175 0.1393334 0.12074336 0.07951332
-0.16099942 0.15777947 -0.22177051 0.088210166 0.08530282 -0.02005981 0.08479592 -0.0731761
-0.015546869 0.06469328 0.038027413 -0.09556911 -0.15429474 0.019624209 -0.061401784 0.089264594
0.1366853 0.06438427 -0.094341725 -0.016953519 -0.0028797982 0.00011034585 -0.071408406 -0.019757956
0.051105294 -0.046637557 0.13029267 0.028254552 -0.081558146 0.15247905 0.061983977 -0.22874808
0.1627576 -0.00699576 -0.040513102 -0.26112705 0.10507164 0.16172168 0.111270875 -0.12622458
-0.08326916 0.0021221 0.036837164 -0.027791517 0.09182875 -0.073702864 0.010115561 -0.10943807
0.09279745 0.053404056 0.082991056 0.058184095 0.15921779 0.07775749 0.025547367 0.009318097
-0.02078431 0.00027070197 0.07641618 -0.11879266 -0.37940276 0.04115237 0.25715044 -0.003468663
0.12524326 -0.07130609 0.093729176 -0.008995475 -0.20367686 -0.04427232 0.11786703 0.09503559
0.1459164 0.055525497 0.02469023 0.06559455 0.09868006 0.020740822 0.0070794336 0.06300036
-0.109839514 0.13753556 -0.14164452 0.05656293 0.022744045 0.16626188 0.063566536 0.013420486
-0.11515935 -0.017222824 0.12958056 0.020908315 -0.04988018 -0.06136427 -0.046575293 -0.05908154
00000000: d160 413d 7b8c 4dbe 8e6b 4cbe c016 d33d
00000010: de68 e6bb 7c90 253c eeb7 4bbe ad47 9abd
00000020: 3b7b 0f3e d577 08be cb40 f63d 91c0 19bd
00000030: 7fd6 1d3e 72f2 82bd 4780 603d 039a 553d
00000040: 322b 27be 6322 81bd 5436 cdbc b637 a13d
00000050: 8153 22be 1ada a93d 535f 7ebd c3c1 e13c
00000060: 0c37 02be 6c8a 03b9 b0a3 87bd ca57 a3bd
00000070: d4f3 4bbd 37bc 9dbc 0fc3 47be a68e 05bd
00000080: a71a 5cbd 205f 24be 02c5 a8bd d7b3 04bd
00000090: 5592 f73d 77ee cabd c851 f13d 9027 e93d
000000a0: fa71 afbb 29d6 95bd 3ffd 2dbc 65d1 ed3d
000000b0: 86db cdbd 1fd2 9f3d 0d59 83bc 708e a93d
000000c0: 2643 983c 0018 a5bd 3233 8ebd b0a3 9a3d
000000d0: 6f5a e2bd 20b2 64bd b119 9dbd a847 6e3d
000000e0: c20f fb3c e18a d1ba 4b85 623d b7ab 58bd
000000f0: dc50 a63c 67fb 73be 6ba6 58be 3790 82bd
00000100: ddd3 84be ae38 acbd 0311 92bd 2f2d ba3d
00000110: d1f1 85bc dcf8 86be 1ba7 f93d 7239 eebd
00000120: bba7 03be d65c 823c 8299 babc 7d3b 1dbe
00000130: 6988 25bd 0b5e 12be 6e14 82bc a120 d53d
00000140: 0327 033e 816e df3d 14d2 503c 515f 4cbd
00000150: 13af 253e 40ad 5c3d 65b2 003d 10e9 e0bd
00000160: 7b78 d43c ee9b 653d 7cc6 333e 9e2d 89bd
00000170: 7f72 3abe 6941 b2bd 304f 0e3d 6fdb e5bc
00000180: 32fa 9f3d 3b7c 6e3c 54b6 3abe 2193 713d
00000190: 8e61 04bc 2d3f e5bc 85aa fb3d c573 54bd
000001a0: 2883 b23d fb9c 9ebd 4def da3b 2e81 23be
000001b0: 13b7 18be 29be 083d f883 b6bd 26b6 9e3d
000001c0: a78f e43c 594a 8b3d 80d8 a33d 6244 ddbb
000001d0: 8f08 a7bd d562 7d3e 88c7 bdbd 5be1 2d3d
000001e0: 6d58 2bbe 80f9 273d 9a9d 68bd 3268 553c
000001f0: 7527 4cbe c06c 66bc f33f b7bd 0cde 713c
00000200: 0ecc cabd 5896 c53c 75e3 a9bc c340 e3bd
00000210: 9642 9b3d 1b0b fcbd de99 f63d d0f3 20bd
00000220: ebe7 d33c d6e0 853c be82 b6bd 9fbf 3a3d
00000230: f53c 67bd b491 ba3c db13 503e 04fb 0dbd
00000240: e069 cfbd e218 afbd 0f18 573d c014 793e
00000250: 3146 c53d 06bf 6e3e d959 773c f246 86bd
00000260: f57c 793d de12 30bd 63ea cdbd 5f91 afbd
00000270: c06d e3bd 6aad 0e3e 4b48 f73d e1d7 a23d
00000280: 08dd 24be f190 213e cf17 63be 88a7 b43d
00000290: 3fb3 ae3d 7854 a4bc 7ca9 ad3d 5add 95bd
000002a0: 4bb8 7ebc e97d 843d a2c2 1b3d bdb9 c3bd
000002b0: 71ff 1dbe f3c2 a03c 7080 7bbd 5bd0 b63d
000002c0: 3bf7 0b3e e6db 833d 3c36 c1bd 1be2 8abc
000002d0: ffba 3cbb 7a69 e738 923e 92bd 70db a1bc
000002e0: c953 513d 0607 3fbd 716b 053e 1776 e73c
000002f0: f507 a7bd 7823 1c3e e9e2 7d3d f03c 6abe
00000300: eea9 263e b03c e5bb 11f1 25bd 72b2 85be
00000310: cd2f d73d 5e9a 253e fce1 e33d 0441 01be
00000320: 0589 aabd ee12 0b3b 91e2 163d 09ab e3bc
00000330: b610 bc3d 87f1 96bd bdbb 253c 1121 e0bd
00000340: 970c be3d 36be 5a3d 37f7 a93d 7252 6e3d
00000350: fd09 233e 523f 9f3d b648 d13c eeaa 183c
00000360: db43 aabc 01ed 8d39 1680 9c3d 9149 f3bd
00000370: 1441 c2be 638f 283d 39a9 833e 8252 63bb
00000380: c53f 003e ed08 92bd 15f5 bf3d c261 13bc
00000390: ab90 50be e456 35bd 4564 f13d 05a2 c23d
000003a0: 1c6b 153e b46e 633d 2a43 ca3c 6f56 863d
000003b0: c518 ca3d a8e8 a93c 98fa e73b 5506 813d
000003c0: 8af3 e0bd 1fd6 0c3e 430b 11be 88ae 673d
000003d0: b851 ba3c 8e40 2a3e 2c2f 823d 99e1 5b3c
000003e0: aad8 ebbd e116 8dbc c4b0 043e ea47 ab3c
000003f0: 294f 4cbd 1a59 7bbd bcc5 3ebd 7cff 71bd
