Assets/Brains/Old/CarPractice_run28-1.onnx (onnx, 108915 bytes, 15 tensors)

85 f4 [25]
000000 9c c9 f6 3e ff bc 2f 3e e5 11 83 3a e5 11 83 3a
       0.4820069 0.1716194 0.000999984 0.000999984
000010 81 bf 18 3e e5 53 f7 3e f4 e4 e2 3d e5 11 83 3a
       0.14916803 0.48306194 0.110788256 0.000999984
000020 ee 53 2d 3d 1e cf 37 3e ca 1b ef 3e 30 4d d5 3d
       0.04231637 0.17950103 0.4670089 0.10415113
000030 e5 11 83 3a 4d 5a 06 3e e6 76 49 3e 0a ae fa 3e
       0.000999984 0.13120385 0.19674262 0.48960906
000040 2e c8 a8 3d e5 11 83 3a d7 db 2a 3e 42 4a 77 3e
       0.08241306 0.000999984 0.16685425 0.24149421
000050 3c f0 dd 3e b8 f2 d0 3d e5 11 83 3a 08 a3 58 3e
       0.43347347 0.10202545 0.000999984 0.21155941
000060 8d b5 84 3e
       0.25919762

88 f4 [30]
000000 8e c6 bb 3e 36 50 7d 3e e5 11 83 3a e5 11 83 3a
       0.36674923 0.2473763 0.000999984 0.000999984
000010 27 22 6c 3e 1c 07 9b 3e 26 94 a7 3e 1b d8 e9 3d
       0.23059903 0.30278862 0.32730216 0.11418172
000020 e5 11 83 3a e5 11 83 3a 1d 66 6c 3e 3a b9 96 3e
       0.000999984 0.000999984 0.23085828 0.29438192
000030 9e 98 d0 3e bf b1 0a 3e e5 11 83 3a e5 11 83 3a
       0.40741438 0.13544367 0.000999984 0.000999984
000040 32 a0 12 3e ab d6 8e 3e af 78 95 3e aa eb f3 3d
       0.14318922 0.27898154 0.29193637 0.11910184
000050 e5 11 83 3a e5 11 83 3a dc 86 3f 3e da d0 7e 3e
       0.000999984 0.000999984 0.18703789 0.24884358
000060 c6 6a ec 3e 74 c5 de 3d e5 11 83 3a e5 11 83 3a
       0.46175212 0.10877505 0.000999984 0.000999984
000070 cb b4 cd 3d 73 8c 70 3e
       0.10044249 0.23491077

91 f4 [13]
000000 4b 60 81 41 2e 8a 92 3a 4a c1 4b 41 d3 77 db 40
       16.172018 0.0011180097 12.73469 6.858377
000010 40 4e 4d 3d 6b ed f6 40 e8 4e a4 3d fb e9 03 3f
       0.050123453 7.7164817 0.08022863 0.515289
000020 ae e5 aa 3d 4f 03 c6 3e a6 cf b8 43 e5 11 83 3a
       0.08344589 0.386744 369.62225 0.000999984
000030 8b b0 a4 41
       20.586203

action_model._discrete_distribution.branches.0.bias f4 [3]
000000 10 ea 1c 3e 62 54 14 be c5 40 0f bd
       0.15323663 -0.14485314 -0.03497388

action_model._discrete_distribution.branches.0.weight f4 [3, 128]
000000 a0 87 15 3e 4c 60 eb bc 7d 12 05 be f7 dd 4f 3c
       0.14602518 -0.028732441 -0.12995334 0.012687198
000010 4b 72 51 bc 99 38 c8 3d e9 3e a3 bd 4f a9 ef 3c
       -0.012783597 0.0977642 -0.079709835 0.029255537
000020 62 2e c3 bb a7 aa a6 3d a7 0f 80 bd 09 6b 83 3c
       -0.005956457 0.08138018 -0.062529854 0.01604225
000030 48 06 25 3d 71 43 4b 3d 06 12 e2 bc d8 04 41 bd
       0.040289193 0.049624864 -0.027596485 -0.04712376
000040 43 65 ea 3b 9c 45 36 3d 4d 65 01 bc 19 1f bd bc
       0.0071531846 0.04449998 -0.007897687 -0.023086118
000050 08 7d 8c bc 05 a5 5a 3d a9 76 b7 3c 9a 5c 0f 3e
       -0.017149463 0.05338003 0.022395449 0.14000168
000060 70 41 0e be 53 3c 44 be 93 a3 7c bd 5a fc 9d be
       -0.1389215 -0.19163637 -0.061679434 -0.3085659
000070 ef 22 c6 3d 6b 62 e2 bd 8c 20 cc bc a3 2e 39 3d
       0.09674632 -0.11053928 -0.024917863 0.045210492
000080 9a 4f 18 3e b6 73 94 3d f4 81 5a bd 01 18 f1 3c
       0.14874116 0.072486326 -0.05334659 0.029430391
000090 a9 31 10 bc 59 39 2f 3c 72 68 a1 3d 05 52 19 3d
       -0.008800902 0.010694825 0.078812495 0.037431736
0000a0 0e 2a ac bc 2f b3 54 3d e8 c9 36 3d bb c4 27 3e
       -0.021016147 0.051928695 0.044626147 0.1638364
0000b0 35 e9 b5 bc 45 7f 3f 3d 70 0c cd ba 1f 9f 8a 3d
       -0.022205928 0.046752233 -0.0015643965 0.06768631
0000c0 5c 79 19 3e d9 3b ce bd 89 f8 ad 3c 76 44 a2 3d
       0.14987701 -0.10070009 0.021236675 0.07923214
0000d0 62 e8 8a 3c 2a ed e4 bc 84 66 61 bc b0 d3 4b bd
       0.016956512 -0.02794512 -0.013757352 -0.049762428
0000e0 c8 d1 c0 3d 42 ff 0a 3e 11 f6 88 3d 20 33 cc bd
       0.094150126 0.13573936 0.066875584 -0.09970689
0000f0 2b 1e 9f 3d 42 68 f8 bd 1f 43 bf bd 4d d8 b6 bd
       0.07769426 -0.121292606 -0.09338974 -0.08927975
000100 dc e8 c0 bc b0 45 53 bd 49 32 17 be d2 4d b2 3b
       -0.023548536 -0.05158013 -0.14765276 0.005441406
000110 6f a7 85 bc bd bc 58 3d d5 6b 7a bd b8 86 69 3d
       -0.01631519 0.05291437 -0.061137993 0.057013243
000120 ed 63 84 3d 8d 1e 35 3d d1 91 17 3d 51 3a 6b 3d
       0.06464372 0.04421859 0.037004296 0.05742866
000130 e0 e7 92 bc 9e 53 26 bd 0c 69 5d 3d 08 be c5 bc
       -0.017932832 -0.040607087 0.05405526 -0.024138466
000140 5e 65 0d bd ca 0d 8a 3a 79 4d 04 3e 05 09 51 3d
       -0.0345205 0.0010532674 0.12920178 0.051033992
000150 8d df 24 3d da 10 a9 be 9b a3 28 bd 71 d1 2a be
       0.040252257 -0.3302067 -0.04117165 -0.16681458
000160 98 69 ed bd 5c 27 42 be 7b 04 2b be c3 85 b3 bb
       -0.11592406 -0.18960327 -0.16700928 -0.005478592
000170 87 47 0b be 4c d8 12 3e 05 3f 13 bc 79 05 a2 3c
       -0.13601504 0.14340323 -0.008987193 0.019778
000180 3a 37 7d bd 28 a1 ff bd 45 eb 83 bd 06 c5 9e bd
       -0.061820246 -0.1248191 -0.064413585 -0.07752423
000190 02 71 fe 3c d0 cc 8f 3c 74 98 b2 bd ed cc ec bd
       0.031059746 0.017553717 -0.087204844 -0.11562524
0001a0 d7 8d 58 3c 57 d3 1e 3b 59 04 d4 3d 14 7b 97 bd
       0.013217411 0.0024234855 0.10352392 -0.07396522
0001b0 c9 3c b1 bd a1 2e 00 3d 98 b8 09 3d b5 9b b4 bc
       -0.08654172 0.03129447 0.033623308 -0.022046903
0001c0 29 bb aa bc 4d 40 01 bc 4f 28 5f 3d 6c ac bd 3d
       -0.020841198 -0.007888866 0.0544818 0.092614025
0001d0 6d 98 84 be de c7 d6 bc 9a c5 1c ba 67 ea ca 3d
       -0.25897542 -0.026218351 -0.00059803727 0.0990799
0001e0 93 1f 07 3d 0c 3d 15 bd 21 68 9e 3d 8f 4b 44 bd
       0.032989096 -0.036435172 0.07734705 -0.04792362
0001f0 d1 27 80 3d b2 6b 1f 3d ab 1b 60 bb df 3d a8 be
       0.062575944 0.038921066 -0.003419618 -0.32859704
000200 4d ad 2e be a2 de 35 3d 95 92 8b 3d b2 ef b5 bc
       -0.17058297 0.044401772 0.06815068 -0.022209022
000210 ee 4f 6c bd 26 28 46 be 9b 23 bb 3d fb 1a 2e bd
       -0.057693414 -0.19351253 0.091376506 -0.0425062
000220 dc e5 51 be 48 5c c1 bc f6 d8 16 3e 3c 11 80 3d
       -0.2049784 -0.023603573 0.14731202 0.06253287
000230 9f ed 9d bd 7c f3 e3 3d e4 02 3f bc ec 82 b0 bd
       -0.07711338 0.11130425 -0.011658404 -0.08618721
000240 14 5a c3 bc 8c 9f 30 be e0 d3 34 bd 0d 98 ce bb
       -0.023846664 -0.17248362 -0.044147372 -0.006304747
000250 8b c6 88 3d 95 24 5b be 84 d6 d3 3d 3a 96 31 be
       0.06678494 -0.21400674 0.1034365 -0.17342463
000260 40 60 d8 3d 6f 4c 8e 3d 68 94 0b 3e 87 c8 0c 3e
       0.10565233 0.06948172 0.13630831 0.1374837
000270 0d b0 31 be ef 0e e5 3d df a2 fa bd 5c a5 3e bd
       -0.17352314 0.11184489 -0.122380964 -0.046544418
000280 89 41 34 bd 83 0c 40 be 0a 1a 64 bc 70 0d 47 bd
       -0.04400781 -0.18754773 -0.013922224 -0.0485968
000290 3e cf e3 3d 9b 24 91 bc 98 5a ae bd 3e 63 15 3d
       0.11123513 -0.01771765 -0.08513373 0.036471598
0002a0 0c a7 3d 3d 5e 7f e4 bd 5b b7 eb 3c 18 e4 ec bd
       0.046301886 -0.11157106 0.028773954 -0.11566943
0002b0 d6 c1 06 3e 89 c2 58 3d a0 ed 5f be 6b 2f 22 be
       0.1315988 0.0529199 -0.2186799 -0.15838401
0002c0 61 46 18 be 70 00 a5 3d 61 ca 35 bd 55 b4 fe 3c
       -0.14870597 0.08056724 -0.044382457 0.031091848
0002d0 50 a9 45 be d8 50 cc 3d 99 38 06 3d f4 3b 0b 3e
       -0.19302869 0.09976357 0.03276882 0.13597089
0002e0 c0 4f 88 be 4b e0 5d bd 34 ef 01 3d eb 94 03 bd
       -0.26623344 -0.05416898 0.031722263 -0.03212444
0002f0 b7 98 6a bd 46 60 a7 3d fb a5 d2 3d 90 69 9e 3d
       -0.057274546 0.081726596 0.102855645 0.07734978
000300 8c f8 e3 3d 0f f2 4c be 1e b9 9a bd 67 d1 bb 3d
       0.11131391 -0.20014213 -0.075548396 0.091708
000310 5b 4c 89 bc fe dc 39 3d 95 22 76 3d 81 65 98 bd
       -0.016760042 0.04537677 0.060091574 -0.07441235
000320 b3 7b 58 bd 5b f8 f2 ba 46 bd 29 3e b7 c2 28 be
       -0.052852344 -0.001853715 0.16576108 -0.16480528
000330 6d ea 63 3d 3e 85 4e 3e 70 3f ff bc 93 b8 21 3d
       0.055643488 0.20168015 -0.031158179 0.039482664
000340 58 fe 10 3e 8f 6c 9f 3d 6e 99 02 bc b3 84 6b bd
       0.14159524 0.07784378 -0.007971151 -0.0574996
000350 03 ab 4f be 36 3d 02 3e c5 70 d6 3d 6d fd 07 bb
       -0.2028008 0.12718663 0.10470728 -0.0020750419
000360 4d 4c 4b 3e 26 ca 0a 3d de 28 31 be de e3 9b bd
       0.19853325 0.03388419 -0.17300746 -0.076118216
000370 c8 81 0e 3e fa 58 eb bd 63 4e 49 39 52 ea 0f bd
       0.13916695 -0.1149158 0.00019198055 -0.035135575
000380 94 b0 ed 3d f3 9d 03 3e a9 c1 e2 bd 9c 66 00 bc
       0.11605945 0.12853222 -0.11072094 -0.007836964
000390 0e 7b 0e be c9 9a 91 3d 95 e8 3e 3e e8 43 f9 3d
       -0.13914129 0.07109601 0.1864341 0.12171155
0003a0 80 98 96 bd e5 8d 5c 3d b3 8b 8a bc 38 0e 05 3e
       -0.07353306 0.05384626 -0.016912317 0.12993705
0003b0 f4 26 9f 3d 88 ba 07 bd 97 80 98 bd e7 15 d6 3d
       0.077711016 -0.033136874 -0.074464016 0.10453396
0003c0 2b 12 2d 3e 55 3b d7 bd be ce e2 bc 33 5a 92 bd
       0.16901462 -0.105093636 -0.027686473 -0.071461104
0003d0 da 13 1c be d7 02 35 3e 6e 91 c9 bd b4 7b cd bc
       -0.15241948 0.17676865 -0.09842192 -0.0250834
0003e0 4e a8 f0 bd 7e d9 26 3e d8 2f 0a 3b 6d 7c 80 3d
       -0.117508516 0.16293904 0.0021085646 0.06273732
0003f0 4a 8c 0c be 85 9b a8 3d 68 65 ca bd 48 48 88 3c
       -0.13725391 0.08232788 -0.09882623 0.016636029

action_model._discrete_distribution.branches.1.bias f4 [3]
000000 c6 22 16 3d 80 80 b4 3c 72 43 b3 bc
       0.036654256 0.02203393 -0.021882746

action_model._discrete_distribution.branches.1.weight f4 [3, 128]
000000 4d 67 91 3d bd dc 2c 3e cd b7 30 be e1 89 1e 3d
       0.07099781 0.1688108 -0.17257614 0.03870571
000010 b0 2b db 3d 7a ef 83 bc d9 a9 1c be 82 9f 1c 3e
       0.10701692 -0.016105402 -0.15299167 0.15295222
000020 64 04 48 ba 44 31 2d 3e 8e b1 1a bd 13 1e c1 3d
       -0.0007630049 0.16913325 -0.037766986 0.09429564
000030 d4 ff 45 3d c3 ae 88 3d 58 9d b9 3d c6 99 18 be
       0.04833968 0.06673958 0.09063214 -0.1490241
000040 ec bd 7d bd 01 bb c1 bd c5 98 1b bc e5 da 46 be
       -0.0619487 -0.09459496 -0.009496872 -0.19419439
000050 9e b6 d1 bd 47 c6 ad 3d 30 20 4c be da 2f 68 3d
       -0.102399096 0.08485084 -0.19934154 0.05668626
000060 59 6d 9e bd f3 3b 05 3e 91 2c f2 bd 63 ba cb bd
       -0.077357 0.1301115 -0.118249066 -0.0994766
000070 e6 a2 e8 3c 21 c1 d3 3d 8d 40 1f 3d 40 ad 78 3e
       0.028397989 0.10339571 0.03887992 0.2428484
000080 06 b2 f1 3c 25 de 2e bd d8 80 93 bd cc 71 6d be
       0.029503834 -0.042692322 -0.07202309 -0.23187941
000090 cf ca 16 3c b8 f6 7f be 57 d7 79 3d 92 f2 1d bc
       0.009203627 -0.2499646 0.06099638 -0.009640353
0000a0 69 a2 14 bb 09 a1 28 bd 8b e0 40 3d fa 39 14 3e
       -0.0022679812 -0.0411692 0.04708914 0.14475241
0000b0 a2 5f 52 bd bf b0 33 bd 5e ee 28 3d 0a 78 fe 3d
       -0.051360734 -0.04386973 0.04124295 0.124252394
0000c0 a9 fe 36 3e 77 24 7e bd ce 80 8e be 68 d5 8b 3d
       0.17870583 -0.062046494 -0.27832645 0.068278134
0000d0 19 23 5e 3e db 69 6d 3d db e5 1e bc 9b 82 7b bd
       0.21693076 0.05796228 -0.0096983565 -0.061403852
0000e0 32 29 1e bc 90 ac 3d bd 7a ae 9a 3d 0c f9 d9 bc
       -0.009653376 -0.046307147 0.0755281 -0.026608013
0000f0 ba 20 08 3c 6b af 81 3d 05 dc 34 be 84 5f 3b be
       0.008308584 0.063322864 -0.17662056 -0.18298155
000100 c0 04 12 be af 86 10 3e 29 b4 44 bc 43 d1 b0 bd
       -0.14259624 0.14113878 -0.012005844 -0.086336635
000110 e3 9a f1 3d 01 d2 9d bd 54 74 10 be ae a6 f8 3d
       0.117971204 -0.07706071 -0.14106876 0.121411666
000120 6d 33 0b bd 51 12 92 bd 40 d4 99 3c c4 eb cc 3d
       -0.03398459 -0.071324 0.018777966 0.10005906
000130 99 84 3c 3d 09 19 8a 3c 8d 17 05 3e a7 9f 08 be
       0.046024892 0.01685764 0.12997265 -0.13342153
000140 ad 95 b6 bd 49 70 c9 3d a6 e5 45 3e 4f af 52 3c
       -0.08915267 0.0983587 0.19325885 0.01285918
000150 6d ef 97 3d 9e 99 33 3d 8d 0c ca bd 10 de e3 bd
       0.07418714 0.043847673 -0.09865675 -0.111263394
000160 ce 84 3e be ef be dc bd da e3 02 3e d3 5e dc bd
       -0.18605348 -0.10778605 0.12782231 -0.10760274
000170 45 8f 86 3b 04 0a 3b 3e 39 fb ef bd ad 0d 23 3d
       0.0041064345 0.1826554 -0.11717839 0.039807964
000180 e5 38 f2 bd 1d c4 70 be 92 37 24 3e ec 17 6a 3d
       -0.11827258 -0.23512311 0.16036823 0.05715172
000190 72 41 27 be d3 4c ea bd 76 c5 5e be 0f 58 38 be
       -0.16333559 -0.11440434 -0.21755013 -0.18002342
0001a0 34 7c 04 be e3 fe 24 3e b2 03 c3 3c 02 25 d0 bd
       -0.12938005 0.16112857 0.023805473 -0.10163309
0001b0 53 35 8c 3d ff a1 1e be 3d 7f 24 3d 98 ea 0f 3e
       0.06846108 -0.15491484 0.040160406 0.14054334
0001c0 bc fa 13 be 53 79 f8 3d 72 f4 36 3e ff 2c 2e 3e
       -0.14451116 0.12132516 0.17866686 0.17009352
0001d0 79 20 f7 3b 1c 2f aa 3c c8 c1 9b bd 8f 11 e5 bd
       0.007541713 0.020774417 -0.0760532 -0.1118499
0001e0 b5 2c 34 bd 8e 6c da bd 34 ff f8 3c 8b e7 c7 bd
       -0.04398795 -0.106652364 0.030395128 -0.0976096
0001f0 1e ef ec 3d 9f bd 16 3e 7c 35 fd b9 d8 22 96 bd
       0.115690455 0.14720772 -0.0004829577 -0.07330865
000200 8a 5c 82 bc 51 fb 27 bd 11 20 d6 bd de 2d ba bd
       -0.015913267 -0.04101116 -0.10455335 -0.0909078
000210 76 84 f5 bc 73 88 dd b9 d2 a7 98 3b 2a 9b 33 be
       -0.029970389 -0.00042254067 0.0046586776 -0.17539659
000220 59 a8 f1 bd 86 0b 04 3d e5 b4 b3 3d 89 48 ed 3d
       -0.11799688 0.032237552 0.08774737 0.115861006
000230 2e da 84 bd ec bc 12 bd a0 47 fa bc 5f 2c 93 bd
       -0.06486927 -0.0358247 -0.030551732 -0.071861975
000240 25 ee 03 3c 51 ce a9 bb ba d3 84 3d e9 49 c1 3b
       0.008052384 -0.0051820655 0.06485696 0.0058987034
000250 63 79 b1 3d 43 c0 11 bc a2 c8 e3 3d 3b 6e 9f bd
       0.08665731 -0.008895936 0.11122252 -0.07784697
000260 2e 6c e2 3d 5c 81 10 be b5 2a 24 3d 9d 56 0b be
       0.1105579 -0.14111847 0.04007979 -0.13607259
000270 a7 d4 96 3c 4f 0a 3a be 7a ef 12 be d2 52 d3 3d
       0.018411947 -0.18167995 -0.14349166 0.10318531
000280 cb 21 0d 3d b1 de 03 3d 36 bf 87 3d 06 00 d9 bb
       0.034456056 0.032194797 0.066282675 -0.0066223172
000290 71 3e c3 bd 7e 07 5c bd fb 2e ea bd 2c 64 bd bd
       -0.09533394 -0.053718083 -0.11434742 -0.09247622
0002a0 0f 8c 70 3d 19 fc 56 bc d5 b3 43 3c a6 08 b5 bd
       0.05872732 -0.013121628 0.011944731 -0.0883954
0002b0 29 a6 98 3c 8e f2 12 3e e4 64 53 be 7e 8a 8b bd
       0.018633919 0.1435034 -0.20643955 -0.06813525
0002c0 df c7 17 bd 94 e0 77 3d 03 52 1c 3c a5 9b 15 be
       -0.037055846 0.06051691 0.0095410375 -0.14610155
0002d0 b1 df 1e be 8d 7a 81 3d 8e 2c 85 3c ba a2 01 3d
       -0.15515019 0.06322203 0.016256597 0.03164933
0002e0 f6 dd 3a 3d 93 2f c2 3d d8 25 43 bd c1 44 65 be
       0.045621835 0.0948173 -0.047643512 -0.22389509
0002f0 9f e5 05 be 47 61 87 bd fe 27 e8 3d 51 6f dd 3d
       -0.13075875 -0.06610351 0.11335753 0.108122475
000300 b6 23 9d 3d e0 14 cf bd 34 54 6c 3d 27 c9 98 3d
       0.07672827 -0.101114035 0.05769749 0.07460242
000310 ff dd b0 3c c4 30 09 3d fa e7 2a bd 48 3b 92 be
       0.021590231 0.033493772 -0.041725136 -0.28560853
000320 84 b7 02 bd f2 f0 d4 bc 18 c5 4d bc 66 4f 7e be
       -0.031913295 -0.025993798 -0.012559198 -0.24834976
000330 67 57 8b 3d 98 aa 2f bd 20 c6 15 be 45 f2 a3 3d
       0.0680378 -0.0428873 -0.1462636 0.080051936
000340 81 01 4b 3d 2b a6 bb 3d 9b d4 16 be f8 b2 e3 3c
       0.04956198 0.091625534 -0.1472954 0.0277953
000350 7e c1 47 bd d0 33 8f be 48 53 f4 3d d7 22 52 be
       -0.048768513 -0.27969217 0.11929947 -0.20521103
000360 52 16 f6 bc 52 a1 1e be 15 a4 a4 bd c1 38 03 be
       -0.03003994 -0.15491226 -0.08039109 -0.12814619
000370 0d 9b a5 3d 92 48 d2 bd 29 b5 da bd a4 05 95 bc
       0.08086214 -0.10267748 -0.10679085 -0.018191166
000380 35 ef 70 3d 7f e2 af 3d 68 11 b7 bd f9 58 73 be
       0.058821876 0.085881226 -0.08938867 -0.23764409
000390 e4 e3 88 3d ea 48 f4 bc 61 a5 09 3d 81 5f cf 3d
       0.06684092 -0.029819924 0.033604983 0.10125638
0003a0 bc 01 af bd a2 69 55 bd 41 07 30 be 2e be a4 3d
       -0.08545253 -0.052102692 -0.17190267 0.080440864
0003b0 d8 92 68 bd 68 61 34 bd 6a c4 5b 3e 93 f5 8b bd
       -0.056780666 -0.044038206 0.21461645 -0.06833949
0003c0 e7 dd 01 3e 3c fc 55 be c4 0b b2 bd 8e 98 02 be
       0.12682305 -0.20897001 -0.0869365 -0.12753507
0003d0 74 7a aa bd 31 44 8f 3d cb 8a ed bd b4 01 b5 3d
       -0.08324137 0.06995428 -0.11598738 0.088382155
0003e0 d8 3e cf bc 13 89 c0 3d ad f5 11 be 29 11 83 3d
       -0.02529852 0.09401145 -0.14253874 0.063997574
0003f0 84 c4 9d be 39 d6 9a bd 3b c7 79 3d fa 4a 64 be
       -0.30813992 -0.07560391 0.060981017 -0.22294226

discrete_action_output_shape f4 [1, 2]
000000 00 00 40 40 00 00 40 40
       3.0 3.0

network_body._body_endoder.seq_layers.0.bias f4 [128]
000000 c3 cc 9a bd 71 17 3b 3c 40 d4 82 3c f4 69 9a 3d
       -0.075585864 0.011419163 0.01597035 0.0753974
000010 cb 5d a8 bd 0a 06 21 bc 9c fe 76 bc 38 52 8c bd
       -0.082210146 -0.0098281 -0.015075352 -0.068516195
000020 9c c1 74 3d ce e3 12 be ff 56 bd 3d c2 40 b5 3d
       0.059754953 -0.14344713 0.09245109 0.08850242
000030 4f 1c 2e 3d b8 b5 8a 3d f8 1f ca 3d 8a c0 f9 3d
       0.042507466 0.06772941 0.09869379 0.12194927
000040 1b 73 f8 bc 77 68 f1 bd 9c 9d 14 3d 78 5d 42 3b
       -0.030328324 -0.11787503 0.03628312 0.0029657762
000050 98 7f 88 3d 0e ff fb 3d 26 db c8 bc 98 44 9f 3c
       0.066649616 0.12304507 -0.02451856 0.019441888
000060 c8 7c ec bd 28 8e 86 3c f6 ce cc bd b1 24 90 bd
       -0.11547238 0.016425207 -0.10000412 -0.07038248
000070 68 a1 2f bd 41 2c a8 bd 97 cd 22 be 59 c6 f6 bd
       -0.04287854 -0.08211566 -0.15898739 -0.120495506
000080 c7 a4 bd 3d 6c e9 48 b9 9d 66 d0 bc 3c e0 97 bc
       0.092599444 -0.00019160443 -0.025439555 -0.01853954
000090 e0 89 ea 3c ab 8e 10 3d 4b 81 d5 3d 05 df 77 3d
       0.028630197 0.03529231 0.10425051 0.060515422
0000a0 e4 cb 02 be 55 da 27 3d 09 0b 28 bd eb 43 b9 3d
       -0.1277309 0.040979702 -0.04102615 0.090461574
0000b0 97 f3 20 be 66 08 13 3e 6b e8 05 bc f5 d9 d9 bc
       -0.15717922 0.14358672 -0.008173089 -0.026593188
0000c0 38 c5 1b be e4 a5 1f bd 33 f7 d1 bc 8d d5 bd 3d
       -0.15211952 -0.038976565 -0.02563057 0.09269247
0000d0 bc 39 3c bd d7 f3 dc bd 9c c0 12 3d 36 03 e3 3d
       -0.045953497 -0.10788696 0.035828218 0.11084597
0000e0 b1 5a b4 bd e9 b6 e2 bc 8d 15 39 3d 06 d9 bd 3d
       -0.088063605 -0.027675109 0.045186568 0.092699096
0000f0 c9 f7 bb 3d 50 45 26 bc be fe 63 bc 84 04 dd 3b
       0.09178121 -0.010148361 -0.013915716 0.006744923
000100 e8 92 7d bd 6d 1c 4d bd 07 b8 81 bd ba 21 64 bc
       -0.06190768 -0.050075937 -0.063339286 -0.013924057
000110 1b 56 18 be 1e 6c 4b 3c a4 cd 01 3c 41 c0 9a 3d
       -0.14876597 0.012415914 0.007922564 0.07556201
000120 17 53 66 bd 40 ba da bd cb 73 a2 3d 7c bf d1 bd
       -0.056231584 -0.106800556 0.07932242 -0.10241601
000130 40 58 9b 3d 04 e0 87 3b ab 8c 6b bd d3 d2 a3 3a
       0.07585192 0.004146578 -0.0575072 0.0012498744
000140 23 f6 38 3d e4 54 0a be 29 04 dc 3c 61 43 ec 3c
       0.04515661 -0.13508946 0.026857452 0.028840723
000150 6d 20 e2 3c 12 cc 3b bd ec 99 16 3d ac 00 65 3d
       0.027603352 -0.045848913 0.036767885 0.055908844
000160 ce 29 20 be 7a ad 38 3d ab c4 c5 bd 03 3c 5d 3d
       -0.15640947 0.045087315 -0.09656652 0.05401231
000170 f0 e7 0c 3d 16 55 21 3d ff d5 18 bd bb 6b f7 bb
       0.03440088 0.039387785 -0.037313458 -0.0075506843
000180 8f f7 a1 3c 65 70 a6 3c c4 a4 95 3c 49 8e e4 3c
       0.019771365 0.020317266 0.018267043 0.027899878
000190 8e 1d 76 3d 30 16 8f bb 0f 9b 14 bd f6 ba 9f 3c
       0.06008678 -0.0043666586 -0.036280688 0.01949833
0001a0 ff 44 2f bd d4 50 39 3c ef 34 90 bc c4 25 8d bd
       -0.04279041 0.011310775 -0.017603366 -0.06891969
0001b0 d5 ea 78 3d 62 e9 0a 3d c8 e8 82 3d 9e f0 22 3e
       0.06077083 0.033913977 0.06392056 0.159121
0001c0 50 57 00 bd aa b9 4b 3c 6c 80 02 be 22 6a 6b 3d
       -0.031333268 0.0124344025 -0.12744302 0.057474263
0001d0 65 51 f6 bc 9c 43 39 3b 4f f6 9d 3c 4a b7 ad 3d
       -0.030068109 0.0028269058 0.019282488 0.08482225
0001e0 4b 00 58 bd 10 1f 52 3d 4c 7b 05 3d 96 ce a3 bd
       -0.052734654 0.051299155 0.03258829 -0.079983875
0001f0 6b 83 4e bc 62 bf a8 3d a1 21 25 3d 04 e6 f7 bd
       -0.012604575 0.082396284 0.040315274 -0.12104419

network_body._body_endoder.seq_layers.0.weight f4 [128, 68]
000000 80 09 1f bd c7 53 12 be 5e 08 81 be 8c ef d7 bd
       -0.03882742 -0.14289771 -0.25201696 -0.10543737
000010 97 e3 89 3d b1 e0 47 bb 45 cd 70 bc f1 59 84 bd
       0.067328624 -0.0030498917 -0.014697378 -0.064624675
000020 7c 18 69 3e 14 67 f3 3d 79 c7 23 3e f1 24 77 3d
       0.22763246 0.11884895 0.15994062 0.060337964
000030 8a 61 25 be 35 dd d0 3c 74 dc 38 be 04 2f f2 bc
       -0.1615049 0.025496105 -0.18052846 -0.029563434
000040 c2 7e 2b 3e 25 e8 95 bd 63 1b 28 3e 29 b5 37 3e
       0.16747573 -0.07319669 0.16416697 0.17940201
000050 48 89 33 3e 6f 79 d3 3d 00 2f fd bc d9 25 0e be
       0.17532837 0.10325896 -0.0309062 -0.13881625
000060 07 e6 d2 3c 79 42 9c be 71 09 d1 bd f2 a6 0c 3d
       0.025744451 -0.30519465 -0.10206879 0.0343389
000070 e4 62 57 be a3 98 ab be 00 55 28 3e 82 1e b1 bd
       -0.21033818 -0.3351489 0.16438675 -0.08648397
000080 f4 72 87 3e 29 99 32 3d 27 7b 72 bd ce e7 d3 3d
       0.2645489 0.043603096 -0.05919948 0.103469476
000090 32 73 10 3c ad 9e 33 bc cb 60 01 3e b7 10 b6 bd
       0.008816527 -0.010963124 0.1263458 -0.08889907
0000a0 c3 cd 99 3d 76 f7 a7 3e 9e 92 5a 3e 10 3d 30 bd
       0.07509949 0.32805985 0.21344993 -0.043026984
0000b0 36 d6 f9 bd 91 23 6d bd d5 7a 83 be ad b1 ca bd
       -0.121990606 -0.057895247 -0.2567965 -0.0989717
0000c0 3a ff 18 3d e2 da c6 be bd 54 e6 3c e5 2c 5e be
       0.037352778 -0.3883887 0.028116578 -0.21696813
0000d0 b1 64 3e be 8a 50 31 3d fa e5 19 be bf ba 96 3e
       -0.18593098 0.0432897 -0.15029135 0.2943935
0000e0 b5 9c 65 3c 01 c6 9a bb 86 26 1f 3c 18 f4 3a bd
       0.014014413 -0.004723311 0.009713775 -0.045642942
0000f0 bc 11 4d 3e 27 44 53 bd 53 a6 0d 3d 6e c5 41 bd
       0.20026296 -0.051578667 0.034582447 -0.047307424
000100 7c 16 40 3c c8 45 36 be e9 5a 14 be 47 fb 38 3e
       0.011724111 -0.17800057 -0.14487804 0.18064605
000110 d1 70 32 be 3f f5 84 be b4 3d 1b be 21 46 48 3b
       -0.17425849 -0.25968358 -0.15160257 0.0030559378
000120 ee bc 65 3a 92 33 75 3d 1a fb 05 be 26 d4 43 bc
       0.00087638095 0.059863634 -0.13084069 -0.011952436
000130 17 8c 0d 3e 8d 45 1f be 35 be a5 3d 85 5e ba be
       0.13822971 -0.15553875 0.0809292 -0.36400238
000140 db 1e 84 bd ea cc 21 be f2 00 19 3e ad ea 53 be
       -0.06451198 -0.15800825 0.14941767 -0.2069499
000150 a1 fe ad 3c 1b bc a4 bd 5c f9 3c bd a1 8a 2f be
       0.02123958 -0.08043691 -0.046136245 -0.17142726
000160 bd d0 e2 bd d3 88 21 3e 7c b7 d4 3d 2e 97 e6 bd
       -0.1107497 0.1577485 0.10386559 -0.11259304
000170 a5 e2 b7 bb 83 04 39 be a5 5c 8f be 1a 25 a4 3c
       -0.005611735 -0.18068127 -0.2800037 0.020037223
000180 3b 0c ae bd d8 d1 c3 be 3d 30 2e be ed 22 7d be
       -0.084984265 -0.38246036 -0.17010589 -0.24720354
000190 3a 5e a8 bb d8 dc 4a 3b de 83 96 bd 5b e2 d6 3d
       -0.005138186 0.0030954387 -0.073493704 0.10492393
0001a0 26 e3 a4 3d e0 ff 36 be 91 ff 46 bd 39 a2 f6 bc
       0.080511376 -0.17871046 -0.04858357 -0.03010665
0001b0 e2 0e b8 bd d2 43 9e bd b8 c0 27 3d d2 38 3c be
       -0.08987214 -0.077277794 0.040955275 -0.1838105
0001c0 b1 ed f2 bd 11 f4 f9 bd 20 56 1f be fa 05 2b 3e
       -0.11861742 -0.12204755 -0.15560198 0.16701499
0001d0 ee 98 a1 3d de 96 c6 be ab b6 45 3e 9c e0 19 bc
       0.07890497 -0.38786978 0.19307964 -0.00939193
0001e0 0c 84 c6 3d 5a 45 84 be 97 68 15 bd 0c 45 c8 3d
       0.09693155 -0.2583416 -0.036476698 0.09778795
0001f0 24 96 e9 bd 6d 5c 1b be 13 55 79 be 49 9e 4e be
       -0.1140559 -0.15171976 -0.2434886 -0.20177568
000200 40 63 df bd 81 a5 30 3e 82 3e 81 3d 41 ed 7a bd
       -0.10907602 0.17250635 0.063107505 -0.06126142
000210 9d 4a 21 3e 95 76 c1 be 03 9e 0f 3e 77 b4 42 be
       0.15751119 -0.37785783 0.1402512 -0.19014154
000220 1c 48 45 be db 42 64 3e 70 5e 02 3d 1b d7 9c 3d
       -0.19265789 0.22291128 0.031828344 0.076582156
000230 e2 32 71 3d e2 46 60 be 89 21 12 be 7b 0f 73 bd
       0.058886416 -0.2190204 -0.14270605 -0.059340935
000240 a9 bd a5 3d 78 9a d8 3e 4a c7 07 bd 73 93 5d be
       0.080928154 0.4230535 -0.03314904 -0.21638279
000250 e9 a4 1f be 97 35 08 3e d0 02 19 be d1 91 14 bd
       -0.15590252 0.13301693 -0.14942479 -0.036271874
000260 78 59 a6 be e7 b4 2b bd f9 43 a4 3e 16 5f ab bd
       -0.32490134 -0.04192057 0.3208311 -0.083677456
000270 c7 f0 05 be 49 54 18 3d 8b 1a 2d be 71 0c 02 3e
       -0.1308013 0.037189756 -0.16904657 0.12700059
000280 70 4d 8e 3d ec d4 72 3d 61 1d a3 bd 52 ef 44 bd
       0.06948364 0.05928509 -0.07964588 -0.048079796
000290 35 46 7b 3d d0 4b b5 3d 09 1a e3 bd 52 3f 88 be
       0.06134625 0.08852351 -0.1108895 -0.2661081
0002a0 90 2c 6c be 52 f2 99 3d 50 12 a5 bd b8 fd b6 be
       -0.23063874 0.07516922 -0.080601335 -0.35740447
0002b0 93 6f 12 3a 0d bd cf 3e 88 65 af 3e 35 d0 8b bc
       0.0005586084 0.40573922 0.3425715 -0.017067054
0002c0 cd 30 aa 3c 30 ca c7 3d c6 cb 86 3d d4 bf d3 3d
       0.020775223 0.09755361 0.065818354 0.10339323
0002d0 b5 2d 6b 3d ba 30 55 bd d5 e5 a5 3d 6a 32 82 bc
       0.057416636 -0.052048422 0.081004776 -0.01589318
0002e0 0f 59 5b bd 52 8b e9 3c 0f 8d 14 3c 76 94 c3 bd
       -0.05355173 0.028508816 0.009066834 -0.09549801
0002f0 f8 dd 22 3e 73 40 56 bd ac 6d 29 3e 0e 2e 87 3c
       0.15904987 -0.052307557 0.16545743 0.016501453
000300 d4 e7 77 3e 6f af 05 3e 98 03 c4 3d 5d 25 bc 3e
       0.24209529 0.13055204 0.09570998 0.36747256
000310 ce 87 c2 bd 03 7e d4 be bb c4 11 3d 09 3a 46 3c
       -0.09498559 -0.4150239 0.035588007 0.012098798
000320 33 33 57 3d 38 d1 24 3e 14 02 2e 3d ce 61 76 bd
       0.05253906 0.16095436 0.04248245 -0.060151868
000330 6a 42 b2 bd e7 15 7b 3e 6d f2 89 be e3 fa db 3b
       -0.08704074 0.24520074 -0.2694277 0.0067132576
000340 f3 b1 e3 3d 08 66 ab bc 93 a9 bc 3d 5a 5e db 3d
       0.111179255 -0.020922676 0.09212031 0.107113555
000350 71 df 2f 3e f6 d5 f3 bd 09 19 d1 bd bd 70 bf bd
       0.1717508 -0.11906044 -0.10209853 -0.09347675
000360 66 7d 36 3e 70 7d 8c be a6 53 8d 3d d4 16 9f be
       0.17821273 -0.2743945 0.0690072 -0.31072104
000370 af e7 65 3d 4b a5 55 bb 84 14 a1 3b 25 ba 79 3d
       0.056129154 -0.0032599743 0.0049157757 0.060968537
000380 1a a4 23 3e 7a 69 11 be 4f 65 dd bc 36 9a c0 3d
       0.15980569 -0.14200392 -0.027025847 0.094044134
000390 48 d0 08 3e 78 21 f6 3c fd 0f 70 3e 61 0f 5e bd
       0.13360703 0.030045256 0.23443599 -0.054213885
0003a0 b0 c1 71 3d 94 e1 fd 3b 99 6b 5c bd 88 55 2c bc
       0.059022605 0.0077478383 -0.05381355 -0.010518439
0003b0 5c 66 68 be 60 69 29 bd 68 c0 ca bd eb 2e 88 3d
       -0.22695297 -0.04136026 -0.0989998 0.06649574
0003c0 2c 88 96 3d 77 fe 4d 3e f2 fd ea bd 83 8e 44 3e
       0.073501915 0.20116602 -0.114742175 0.19194989
0003d0 46 95 8d 3c ad 6f 4a be d9 a2 90 3d dd dc df bd
       0.017283093 -0.19769163 0.07062311 -0.10930798
0003e0 70 b2 46 3c cc e9 2f 3d f2 ae 60 3d e1 68 66 be
       0.012127504 0.042947575 0.05485434 -0.22500946
0003f0 88 fe 29 3e 01 ba 0f be bc 37 75 bd 49 7d 16 3c
       0.16601002 -0.14035799 -0.059867606 0.009185144

network_body._body_endoder.seq_layers.2.bias f4 [128]
000000 0d 83 2e 3d 15 98 4a bd 39 61 db bc c1 b5 c4 bc
       0.04260545 -0.049461443 -0.026779758 -0.024012448
000010 12 90 9c bc 3d 3a a5 3d d5 0b 1d bd 23 47 4c bd
       -0.019111667 0.08067749 -0.038341362 -0.04987253
000020 85 a4 af 3d bf 14 17 3d 8c 3b 54 bc 8e 52 dc 3c
       0.085763015 0.03688502 -0.01295365 0.026894834
000030 76 26 7e bc a1 a6 04 be 95 86 9e bd fc b1 86 bd
       -0.0155120995 -0.12954189 -0.07740513 -0.065769166
000040 69 b0 c7 bd 20 64 3e bc 39 b7 77 3c 43 10 d6 bd
       -0.097504444 -0.011620551 0.015119367 -0.104523204
000050 9a 48 c0 bd c5 79 9c 3d 1b 6b aa 3b 3b 68 5c 3c
       -0.09388848 0.07640413 0.0052007562 0.013452585
000060 8e 7c a3 bd af ad 37 3d 9d 87 b1 bd 26 df 87 3d
       -0.07982741 0.044843372 -0.08668444 0.06634359
000070 3a ea 1a b9 7d 7a 93 bc 8e ba ff 3c 7d 4e b0 3d
       -0.0001477384 -0.018002743 0.031216886 0.086087205
000080 fa 10 3d 3d b7 9a 03 3c 8b 90 f0 bd d7 e5 03 3d
       0.04615877 0.008032492 -0.117463194 0.032201614
000090 18 7f 47 bd 03 66 a1 bc 5e be 1e 3b 9e 7c ba bd
       -0.04870519 -0.019701963 0.0024222354 -0.091058
0000a0 d2 3b c6 bd 44 ad 0d be 4c d6 c2 bd ff 9c ac 3d
       -0.096793786 -0.13835627 -0.0951353 0.08428382
0000b0 82 07 41 bc bf 02 aa 3c d0 f1 b2 3d 4a cf 65 3d
       -0.011781575 0.020753263 0.08737528 0.05610589
0000c0 5a 39 63 3c 2f 1e ca bd e3 d2 a7 bb 82 07 23 bd
       0.013868654 -0.09869038 -0.005121575 -0.039802082
0000d0 7a d3 17 3e c2 6e a9 bd cf d0 97 bc 90 bf 21 be
       0.14826766 -0.082730785 -0.018532185 -0.15795732
0000e0 45 79 68 3d e2 05 1d 3d c9 cd b4 bc 57 cd 80 3d
       0.056756277 0.03833569 -0.022070782 0.062891655
0000f0 10 37 36 bd f2 c0 af bd 67 78 0f be 3e ff 2e bd
       -0.044486105 -0.08581723 -0.14010774 -0.042723887
000100 30 96 8b bd 41 1f 9b 3d 19 11 62 bd 9d 30 94 bc
       -0.06815755 0.075743206 -0.055192087 -0.018089587
000110 a6 7a e9 bc 51 4f 9a bd fd 8c 95 bd a1 af d1 3d
       -0.028500866 -0.0753466 -0.07302282 0.10238577
000120 11 b3 d4 3b 5e 94 bb ba ad f2 99 3d bc 77 b8 3d
       0.006491073 -0.0014311185 0.0751699 0.090072125
000130 f7 32 a7 bd 3b 0c 07 3c d8 f9 7b bd 9a 9f b8 bd
       -0.08164018 0.008242662 -0.061517566 -0.090148166
000140 75 9f 61 bb f7 89 cf b9 90 2b 04 bd 54 56 2d bd
       -0.003442732 -0.00039584909 -0.032268107 -0.042318657
000150 40 0f 12 3d b0 82 b6 3b 38 ab 5f bd cb f5 88 39
       0.035659075 0.0055697784 -0.054606646 0.0002612307
000160 c3 fc 15 3d 8a dc 32 bd 15 f7 20 3d de 79 f7 3d
       0.036618005 -0.043667354 0.039298136 0.12083791
000170 71 19 cf bd c2 8a 16 3e 59 52 ae 3c ea f6 c8 bd
       -0.101122744 0.1470137 0.0212795 -0.0981272
000180 c8 d1 88 bd 77 12 f7 bc be 84 c3 3d 2f c7 2e 3d
       -0.066806376 -0.030160172 0.09546803 0.042670425
000190 95 e4 25 3d 6e c2 93 bd 37 03 28 bd 84 95 5b bd
       0.040501196 -0.07214819 -0.04101869 -0.053609386
0001a0 d6 1b 88 bb 4e c4 67 bd 70 48 ad 3c 2c da 7b bd
       -0.004153709 -0.056583695 0.021152705 -0.06148736
0001b0 f1 70 51 bd 57 e8 8f 3d 28 9e 7b 3d 38 19 8d bd
       -0.0511331 0.07026737 0.061430126 -0.06889576
0001c0 f0 1f 1b bb 03 38 0d 3e 17 bc a4 bc 78 39 a9 3d
       -0.002367016 0.13790898 -0.02010922 0.082629144
0001d0 0c e1 a3 3c 3a 05 32 3c 60 aa c4 ba 5f a1 e3 3b
       0.020004772 0.010865504 -0.0015004389 0.006946727
0001e0 d9 e6 f2 bd 12 ad 47 bc 49 77 18 bc 93 6b e5 bd
       -0.11860437 -0.012187259 -0.009305784 -0.11202159
0001f0 25 4b fc 3d 1c 7d 29 bd 36 9f 39 3c d0 e8 cc 3c
       0.1231902 -0.04137908 0.011329463 0.025013357

network_body._body_endoder.seq_layers.2.weight f4 [128, 128]
000000 44 bd 04 3d 16 0c 0c 3d c5 b6 56 be 8c 7f a2 bd
       0.03240706 0.034191214 -0.20968159 -0.07934484
000010 ca 94 99 3d 2e be 30 be a8 0c 45 3c 0f ea 6e bd
       0.074990824 -0.17260048 0.012026943 -0.058328684
000020 30 c2 90 bd 15 7e 8b 3d b5 e8 bc 3d cc 5f 98 3c
       -0.07068288 0.068111576 0.09224073 0.018600367
000030 5a db d7 bd 34 a4 28 bd be c7 7d 3e 23 0f 33 3e
       -0.10539885 -0.04117222 0.24783227 0.17486243
000040 37 9a 44 3e 8f 9a df 3d a2 26 91 3d 9c 44 92 3c
       0.19199453 0.109181516 0.07087447 0.017854981
000050 15 fc ad 3d 21 e6 27 bc 1c 98 4f 3d e3 9c 5a be
       0.084953465 -0.010247738 0.050682172 -0.2134891
000060 51 e6 b8 3d e8 a0 03 be c3 97 ec bd 61 c9 7b bd
       0.09028304 -0.1285435 -0.11552384 -0.061471347
000070 8c 44 ac 3d 72 8b b5 3d 87 4a 00 3e 3d 8c 0b bd
       0.08411512 0.08864488 0.1252843 -0.03406929
000080 87 bf 79 3d bc 37 a7 bc 73 a6 89 3e ff e1 d2 3d
       0.06097367 -0.020412318 0.26884803 0.102970116
000090 97 e7 97 3d 20 52 8a bc 83 92 7f 3e ee 8e 1c 3e
       0.07417219 -0.016884863 0.24958234 0.15288898
0000a0 78 3d d0 bd e7 0b 80 be fe b2 45 be 31 35 49 be
       -0.10167974 -0.2500908 -0.19306561 -0.19649197
0000b0 2d 86 7e bd ea 4b 70 bd 2c fe 1f 3e 90 59 11 be
       -0.06213968 -0.058666147 0.15624303 -0.14194322
0000c0 27 33 55 be 7b 12 3b 3c 90 96 84 3c d3 9e 02 3e
       -0.20820294 0.01141798 0.016185075 0.12755899
0000d0 f2 e4 34 3d b3 bf 42 3d 9e 47 83 3b 33 63 0b 3c
       0.04416365 0.0475461 0.00400634 0.008507538
0000e0 c9 0a 8a bd e7 23 04 3e 22 5f 04 3e 86 0e 59 3d
       -0.06740338 0.1290432 0.12926915 0.052992366
0000f0 66 dc 97 bc be 80 7c be 2a 83 2c be 62 3f ae bd
       -0.018537711 -0.24658486 -0.1684691 -0.08508183
000100 48 e9 b1 bd 4d fa 40 3d d1 0a 19 3e e2 ab 12 3e
       -0.08687073 0.047113705 0.14945532 0.1432338
000110 1f 5b 09 be c4 b9 f9 bd f8 28 a4 bc 43 e7 b2 3c
       -0.13413666 -0.12193635 -0.020039067 0.02183879
000120 0e 85 0d be db 9e 29 be ca 1b 9d be 7e 11 66 3e
       -0.13820288 -0.16564505 -0.30685264 0.2246761
000130 9d 52 ff 3d ff fc 08 3e c9 ff 99 be c2 e9 aa be
       0.12466929 0.1337776 -0.3007796 -0.33381468
000140 2c 1f 42 3e bc 71 c6 bd 77 ce b8 bd 9b 46 db bc
       0.18957204 -0.09689662 -0.09023755 -0.026767066
000150 46 22 5d be 29 4b 37 be 7a 3c cf 3d 2f 6f 82 3b
       -0.21595106 -0.17899765 0.10118957 0.0039805393
000160 3a f0 55 3d 02 d1 92 3d f0 a6 08 be e5 5c 6f bc
       0.05223105 0.07168771 -0.13344932 -0.01460955
000170 88 63 3f be f1 a8 10 be 82 21 15 3d 10 54 aa be
       -0.18690312 -0.14126946 0.03640891 -0.3326726
000180 f1 24 bd 3d fd 2b 7b be 90 fc 3d be 4c 61 bc bc
       0.09235562 -0.24528499 -0.18553376 -0.022995614
000190 77 2b dc bd 02 e1 d4 3d c4 29 74 3d bb a2 cf bc
       -0.10750478 0.10394479 0.059610143 -0.02534615
0001a0 4f 64 8d 3d 42 df f3 3c 35 7d 3f be 32 51 8b bd
       0.06903898 0.029769544 -0.18700106 -0.06802596
0001b0 5b 02 39 bd 57 06 ce bd 1a 56 0a 3d 61 06 cd 3d
       -0.045168262 -0.10059803 0.03377352 0.10010982
0001c0 b6 e3 03 3e 63 dc a7 3c 88 aa 41 3d 7f c9 8e 3d
       0.12879834 0.02049083 0.047281772 0.06972026
0001d0 bf 29 b6 3d 4a dd 99 bd 21 c4 84 be c3 79 6d be
       0.08894681 -0.07512911 -0.25930884 -0.2319098
0001e0 cc 20 8a 3d 2d 24 7e 3e b1 18 31 3e 39 77 43 3c
       0.06744537 0.24818487 0.17294575 0.01193028
0001f0 b6 26 25 3e e5 9e 97 bd 4c 32 bf bc dd 1d c6 bd
       0.16128048 -0.074033536 -0.023339413 -0.09673665
000200 f4 61 60 be 31 5f 86 be da 1f 23 3c dc bb 06 be
       -0.21912366 -0.262445 0.0099563245 -0.131576
000210 d5 75 90 be f4 e5 87 bc d5 3f 28 3e bb 41 35 3e
       -0.282149 -0.016589142 0.164306 0.17700855
000220 47 ed 3e bd d9 02 a8 bd 45 82 95 3c 70 a2 4c be
       -0.046613004 -0.08203668 0.018250594 -0.1998384
000230 89 b1 9a 3b b9 76 ae bd 9d 9a b1 bd 45 bf af be
       0.004720871 -0.08518738 -0.08672068 -0.34325615
000240 39 9f bd bd 1b 39 b1 bd b2 d3 46 be ae 5a bd bd
       -0.09258885 -0.0865347 -0.19416693 -0.092458114
000250 47 b6 d5 bb 84 28 1e bd 70 e4 5f be 6e 51 2f be
       -0.0065219733 -0.038612857 -0.21864486 -0.17120907
000260 6c 13 09 3e 9c d7 06 be bc 02 cd 3c 69 88 ff bd
       0.13386315 -0.13168186 0.025025718 -0.1247719
000270 f6 b5 bd bb e7 5b df bd 06 69 29 3e 38 e7 89 3e
       -0.0057895137 -0.10906201 0.1654397 0.26934218
000280 af 19 b3 3c f6 48 5e 3d 48 4b 04 3d 40 c5 e1 3d
       0.021862833 0.0542688 0.032298356 0.110239506
000290 87 04 3e 3d d2 ab 24 be 9c 05 29 be 0f 19 85 be
       0.046391036 -0.16081169 -0.16506046 -0.2599568
0002a0 1d e4 93 3e d2 0f c9 3c 4f 28 cd 3d 82 1d 8b 3d
       0.28884974 0.024543677 0.10017454 0.067927375
0002b0 ab dd 66 bd 26 34 55 bd 74 37 d2 bd d1 18 8a 3c
       -0.056363743 -0.052051686 -0.10264483 0.016857537
0002c0 4f 29 5d 3e a7 35 93 3c fe 20 82 3d b3 e8 7f be
       0.21597789 0.01796992 0.06353949 -0.24991111
0002d0 6c f6 6d bd d0 2c 6e 3d b1 10 ef bc e7 67 1a bd
       -0.058096334 0.058148205 -0.029182764 -0.037696745
0002e0 25 d9 01 3e e9 df 96 bc b0 1f 51 bc 55 4b f2 bd
       0.1268049 -0.018417316 -0.012763903 -0.11830775
0002f0 6d 58 01 be 16 c8 86 be fb 4b d1 3b c5 ce 4f be
       -0.12631388 -0.26324528 0.0063872314 -0.2029372
000300 ee ba ea bd 0e 8e 10 be 74 91 89 3d 05 dc 8f be
       -0.11461435 -0.1411669 0.06717196 -0.2809755
000310 ed 5e fd 3d c2 f7 70 be da bd 41 3e c3 18 4c bd
       0.12371621 -0.23532012 0.18920079 -0.049828302
000320 04 e3 b6 3e 5e ed b2 3d 18 82 0b be c7 ae ac bd
       0.35720074 0.087366804 -0.13623846 -0.08431774
000330 5d fc 17 3c 47 20 ef bb 58 d9 f1 bd 43 08 a0 bd
       0.009276477 -0.007297549 -0.11809033 -0.07814076
000340 61 6d 41 be f5 91 a2 3d 57 f8 21 be ec 23 ae 3a
       -0.18889381 0.07937995 -0.1581739 0.0013285852
000350 df e1 50 3e 57 5e 5d 3d 99 b6 d4 be a0 1d e7 3d
       0.20398663 0.054045048 -0.4154556 0.112849474
000360 76 22 0c 3e 14 8d ad bd a8 94 1b bd e3 b2 67 3e
       0.13685021 -0.08474174 -0.037983567 0.22626834
000370 f7 f5 0e be 5a ab 2b be 98 8b 4a bc 68 d6 2d 3e
       -0.13961016 -0.16764584 -0.012362383 0.1697632
000380 d8 3d 44 bb f1 9f 9c 3d bc 3a 36 be b6 e1 bd bd
       -0.0029944088 0.07647694 -0.17795843 -0.092715666
000390 2f 93 92 3d c5 f1 6e 3d 43 a9 62 be 11 44 8f bd
       0.07156979 0.05833604 -0.2213488 -0.069954045
0003a0 3e 54 ea 3d 00 aa a7 3d 93 ad 0c bd 20 5f c9 be
       0.11441849 0.08186722 -0.03434522 -0.39330387
0003b0 57 7d a3 3d d8 56 1f 3d 4c 31 1d be a5 b1 e2 3d
       0.07982891 0.03890118 -0.15350837 0.11069039
0003c0 b8 bc f1 bd ab 95 2a be f7 d2 e2 3d e9 03 2e 3e
       -0.11803573 -0.16658656 0.110753946 0.16993679
0003d0 94 f4 57 be c8 e7 c0 bc 77 c5 ca bd 51 62 8a bc
       -0.21089393 -0.023548022 -0.09900945 -0.016892584
0003e0 ed 4c 8f bd a7 e8 1e 3c dc ea 85 be 56 79 b7 bd
       -0.06997094 0.009699023 -0.26155746 -0.0895869
0003f0 9b 3d 38 3d f1 30 74 be 75 94 38 3e 0e e3 b2 3c
       0.044980627 -0.23846795 0.18025382 0.021836784

network_body.observation_encoder.processors.0.normalizer.running_mean f4 [25]
000000 35 f1 bb 3e 1b d5 f8 3c 00 00 00 00 00 00 00 00
       0.36707464 0.030375054 0.0 0.0
000010 b6 7a 78 3e 63 ed bd 3e 3e 9d 4b 3c 00 00 00 00
       0.2426556 0.37095174 0.012427626 0.0
000020 20 01 eb 3a a7 ec 92 3e 48 8c a4 3e 62 ad 33 3c
       0.0017929412 0.28696176 0.32138276 0.010966631
000030 00 00 00 00 11 87 8f 3c 59 0d 97 3e 19 14 cc 3e
       0.0 0.01752046 0.2950237 0.39859083
000040 8f 0f e0 3b 00 00 00 00 af ca ea 3c ca d1 e6 3e
       0.006837792 0.0 0.0286611 0.4508193
000050 be 68 80 3e 81 56 2c 3c 00 00 00 00 bc 5a 40 3d
       0.25079912 0.010518671 0.0 0.04696153
000060 4d 60 e6 3e
       0.44995347

network_body.observation_encoder.processors.1.normalizer.running_mean f4 [30]
000000 bf fe 23 3e 50 1b 86 3d 00 00 00 00 00 00 00 00
       0.16015147 0.06548178 0.0 0.0
000010 9d cf 66 3d 63 2d 01 3f 04 e2 f9 3d 1f 75 58 3c
       0.05635034 0.5045988 0.12201312 0.013211518
000020 00 00 00 00 00 00 00 00 14 5d 67 3d 6e c8 fd 3e
       0.0 0.0 0.05648525 0.49566978
000030 24 31 57 3e df 22 99 3c 00 00 00 00 00 00 00 00
       0.2101484 0.018693386 0.0 0.0
000040 29 8b ab 3c f8 66 f3 3e 58 ab c0 3d 91 ca 6b 3c
       0.02094038 0.47539496 0.09407681 0.014391557
000050 00 00 00 00 00 00 00 00 2a af 14 3d 3d 2e ee 3e
       0.0 0.0 0.036299862 0.46519652
000060 bd cc 9d 3e 30 31 44 3c 00 00 00 00 00 00 00 00
       0.30820265 0.011974618 0.0 0.0
000070 fc fa 26 3c 2e 90 ee 3e
       0.010191675 0.46594375

network_body.observation_encoder.processors.2.normalizer.running_mean f4 [13]
000000 7d 82 03 be 9f fe ff be d3 0d 2f 41 5b 2f 00 40
       -0.12842746 -0.49998948 10.940875 2.0028903
000010 e8 96 ac 3e ad 6b 90 40 97 fc f1 bb 2a 42 86 be
       0.33708882 4.513144 -0.0073848474 -0.26222354
000020 77 d2 87 bb bc 80 35 3f c3 5d 73 42 00 00 00 00
       -0.0041449624 0.7089956 60.841564 0.0
000030 ce a9 8b bf
       -1.0911195
