Assets/Brains/Old/CarPractice 1.onnx (onnx, 75401 bytes, 8 tensors)

action_model._continuous_distribution.log_sigma f4 [1, 2]
-0.16313212 -0.4216177
00000000: 1b0c 27be 46de d7be

action_model._continuous_distribution.mu.bias f4 [2]
0.008728651 0.05380619
00000000: 9e02 0f3c e163 5c3d

action_model._continuous_distribution.mu.weight f4 [2, 128]
-0.013263508 0.0022321718 0.054317128 0.16212644 0.0069742324 -0.010089342 0.035731744 -0.025888689
0.07637944 0.01891284 0.0076357718 0.00598695 0.032771353 -0.03990647 -0.0030832216 -0.012283373
-0.018766621 0.0060947146 0.009340465 0.02622151 -0.00087289326 0.011897784 -0.006274211 -0.07693496
0.06568607 -0.029648095 0.029334236 0.007187569 0.016354682 -0.013056154 0.007673526 0.026363702
0.007795916 0.022539647 0.01885467 0.018747091 0.037636925 -0.033131327 -0.008122185 -0.030722262
-0.04022606 -0.0054591703 0.069154344 0.07392266 0.034805164 0.033355143 0.009261695 -0.0051325145
-0.056636482 -0.0069124736 -0.052938238 -0.009105628 0.026273396 -0.0075504556 -0.027439719 -0.04948862
0.0151331015 -0.023536503 0.11955689 0.013111545 0.01131517 0.007005725 0.040673092 -0.032987162
0.016804824 -0.013523439 0.06182506 0.009531772 -0.016791848 -0.02034168 0.03838303 0.03657316
-0.02154636 -0.019718528 0.013283589 0.017577536 -0.008863689 0.028441768 -0.0032382526 0.03618844
0.025675556 0.05012813 0.041498877 -0.022791876 -0.02377948 0.004504347 0.07116999 -0.012356316
0.0012926444 -0.0636028 0.03336665 -0.0017790775 -0.05480026 -0.029495915 0.06039513 0.010560226
-0.024051938 -0.009132754 -0.036349986 -0.08901439 0.031037387 0.035483032 -0.014635802 0.042499255
0.011862961 0.056773275 0.06320091 -0.02515381 -0.028944474 -0.0011496608 -0.012015176 -0.044499937
-0.064770244 -0.06427953 0.03408703 -0.008815934 -0.021217318 0.003946595 0.0041324478 0.005597536
-0.028568095 0.04936376 0.044131383 -0.04358158 0.0027879642 -0.009200749 -0.007374188 0.0039697606
-0.051573474 -0.085095875 -0.06676758 0.0090643 0.047655787 0.010749267 -0.013239248 -0.012214037
-0.101589195 -0.020081617 -0.029009504 0.0043724407 -0.068691924 -0.012860949 -0.010668889 -0.032644242
-0.018325537 -0.05448329 -0.0023411424 -0.11725884 -0.0011589637 -0.030855378 -0.04691048 -0.10357614
-0.0016891301 -0.036330607 -0.05594679 -0.11086798 -0.0015131339 -0.029058568 0.040925313 -0.015021711
0.0005972478 -0.07989741 -0.07418489 -0.008633304 0.089092754 0.015678339 0.0041983696 -0.04669965
0.01945169 -0.025919981 -0.05099659 -0.04014219 0.00105322 0.009338026 0.0010554221 -0.033733644
-0.06134441 -0.03646932 0.053200997 -0.020254014 -0.03470074 0.0374736 -0.06804502 -0.12798893
-0.028277013 -0.041888922 -0.009964284 0.047036547 -0.0066006836 0.0006201831 -0.00338593 -0.022459788
-0.05600121 -0.022194013 -0.078784324 -0.010752713 -0.020269185 -0.0106837675 -0.009074512 -0.011877687
-0.09496786 0.013248086 -0.043947075 -0.065743916 0.01694166 -0.038502075 -0.08490714 -0.07329221
0.0015167701 -0.03315382 -0.0542514 -0.04256679 -0.06524581 -0.016497254 -0.013351066 -0.039131667
-0.08687003 0.001878608 0.02711308 -0.007000778 -0.02448777 -0.027194673 0.019332483 -0.015050455
-0.0080093965 -0.025866378 -0.004669525 0.038474243 0.018812781 0.0007537626 -0.09494478 -0.019915635
-0.07353556 -0.08542802 0.0143425055 -0.041887708 -0.036255017 -0.00944345 -0.04430292 -0.036328826
-0.05866337 -0.052281175 -0.040954877 -0.061278455 -0.024529316 -0.0042205513 -0.022945344 -0.008970055
-0.08417372 -0.05931424 -0.11440962 -0.048025653 -0.0959418 -0.07212626 -0.010250913 -3.563088e-05
00000000: 2f4f 59bc a149 123b a37b 5e3d 7904 263e
00000010: 1a88 e43b c44d 25bc 735b 123d 8414 d4bc
00000020: d36c 9c3d 1aef 9a3c 7f35 fa3b 2d2e c43b
00000030: 413b 063d f774 23bd e00f 4abb 3340 49bc
00000040: 75bc 99bc 2cb6 c73b c008 193c 7ece d63c
00000050: e0d2 64ba ecee 423c e697 cdbb 1490 9dbd
00000060: 6b86 863d 90e0 f2bc 5a4e f03c b385 eb3b
00000070: 41fa 853c 7be9 55bc 3472 fb3b b1f8 d73c
00000080: e274 ff3b 11a5 b83c 1c75 9a3c 8093 993c
00000090: 2d29 1a3d b7b4 07bd ea12 05bc 41ad fbbc
000000a0: 15c4 24bd d7e2 b2bb cba0 8d3d c364 973d
000000b0: dc8f 0e3d 679f 083d 5dbe 173c a72e a8bb
000000c0: a8fb 67bd 0882 e2bb c4d5 58bd c62f 15bc
000000d0: 4e3b d73c d069 f7bb 43c9 e0bc 94b4 4abd
000000e0: d4f0 773c a0cf c0bc 3eda f43d ced1 563c
000000f0: 4363 393c 4890 e53b d498 263d 8c1d 07bd
00000100: 45aa 893c 6a91 5dbc 463c 7d3d 262b 1c3c
00000110: 0f8f 89bc 98a3 a6bc 8637 1d3d bdcd 153d
00000120: fe81 b0bc c088 a1bc 69a3 593c c4fe 8f3c
00000130: 0239 11bc b6fe e83c dd38 54bb 543a 143d
00000140: 8b55 d23c 2753 4d3d bafa 293d 07b6 babc
00000150: 2fcd c2bc 3499 933b 92c1 913d 2572 4abc
00000160: f36d a93a 2f42 82bd 78ab 083d ef2f e9ba
00000170: 3d76 60bd 6ba1 f1bc e260 773d cc04 2d3c
00000180: 9208 c5bc 8ca1 15bc b9e3 14bd 2d4d b6bd
00000190: 1e42 fe3c a856 113d 01cb 6fbc b313 2e3d
000001a0: dd5c 423c 188b 683d 7b6f 813d 5d0f cebc
000001b0: f61c edbc 37b0 96ba 4ddb 44bc 9145 36bd
000001c0: 43a6 84bd fca4 83bd d79e 0b3d b570 10bc
000001d0: f1cf adbc 7052 813b 7c69 873b 896b b73b
000001e0: a307 eabc a731 4a3d 1cc3 343d 9982 32bd
000001f0: 47b6 363b bdbe 16bc 2ca3 f1bb c414 823b
00000200: b53e 53bd bf46 aebd 71bd 88bd 6e82 143c
00000210: b732 433d b21d 303c 6ee9 58bc 621d 48bc
00000220: ff0d d0bd 3482 a4bc 57a5 edbc b146 8f3b
00000230: 5aae 8cbd bbb6 52bc 90cc 2ebc f8b5 05bd
00000240: 701f 96bc df29 5fbd da6d 19bb 6725 f0bd
00000250: 5ee8 97ba 6bc4 fcbc 3425 40bd ba1f d4bd
00000260: cd65 ddba 67cf 14bd 7628 65bd c00e e3bd
00000270: 5954 c6ba 3c0c eebc 4da1 273d 9f1d 76bc
00000280: 9f90 1c3a 41a1 a3bd 3fee 97bd b472 0dbc
00000290: 4376 b63d dc6f 803c 7a92 893b 2248 3fbd
000002a0: 2759 9f3c 2456 d4bc cde1 50bd 236c 24bd
000002b0: 330c 8a3a 85fe 183c 1756 8a3a 4a2c 0abd
000002c0: 4744 7bbd db60 15bd 4ae9 593d bfeb a5bc
000002d0: 5d22 0ebd eb7d 193d 305b 8bbd 880f 03be
000002e0: 32a5 e7bc b893 2bbd 3c41 23bc 65a9 403d
000002f0: 8c4a d8bb c993 223a 7be6 5dbb 97fd b7bc
00000300: 8661 65bd 38d0 b5bc ad59 a1bd 262c 30bc
00000310: 900b a6bc f80a 2fbc 43ad 14bc a19a 42bc
00000320: 827e c2bd 800e 593c d901 34bd bfa4 86bd
00000330: 3cc9 8a3c 5ab4 1dbd cbe3 adbd 3a1a 96bd
00000340: 5cce c63a 4dcc 07bd b736 5ebd 845a 2ebd
00000350: 989f 85bd 4025 87bc 6ebe 5abc 8748 20bd
00000360: eae8 b1bd a03b f63a 401c de3c c866 e5bb
00000370: 939a c8bc 5dc7 debc 285f 9e3c 2f96 76bc
00000380: d839 03bc bae5 d3bc d102 99bb 2b97 1d3d
00000390: 431d 9a3c 2798 453a 6972 c2bd 1d26 a3bc
000003a0: d099 96bd e3f4 aebd d4fc 6a3c 7292 2bbd
000003b0: 2480 14bd b3b8 1abc fb76 35bd 89cd 14bd
000003c0: 0049 70bd c924 56bd 4dc0 27bd 1eff 7abd
000003d0: b4f1 c8bc 8d4c 8abb e0f7 bbbc 23f7 12bc
000003e0: 4563 acbd 7df3 72bd 974f eabd 8cb6 44bd
000003f0: 227d c4bd efb6 93bd 72f3 27bc 5e72 15b8

action_model._discrete_distribution.branches.0.weight f4 [1, 128]
0.005262226 0.00063195697 -0.008105476 -0.0013896561 -0.0018964232 -0.01061161 -0.0029742045 -0.01726814
-0.00038898684 -0.0031746519 0.019512543 -0.003178667 -0.010069832 0.01691474 -0.013018816 -0.012244025
0.0002487404 -0.0019724804 0.00596734 -0.008176032 0.010572645 0.016094733 0.007009296 -0.0021498129
0.0014312308 0.0042960024 -0.0008593717 0.00094513054 0.0032363143 0.0041811354 -0.0005517402 -0.00023876305
-0.0013315867 -0.011320044 -0.0022416478 0.013999295 -0.0023033647 -0.0046583423 -0.0014960924 -0.0067276205
0.00078535307 0.015232973 0.013266674 0.0061599347 -0.0010361581 0.008334409 -0.013764441 -0.0015319594
0.005174215 0.0017678915 0.003618349 -0.0043220404 0.019236183 -0.00350305 -0.005719043 0.0024879177
0.0011568287 -0.0130371945 7.644004e-05 -0.0039393115 0.006855885 0.0022513901 -0.008189175 -0.009970011
-0.008938142 -0.018057982 -0.0040142685 -0.016834868 0.015047721 -0.010892974 -0.013806171 -0.002165078
0.007202109 -0.0055180737 0.00015544954 0.0018811229 -0.0029271867 -0.00071700657 0.003607262 -0.007918499
-0.011317207 0.0068074176 -0.004979754 0.005593574 0.021152915 -0.0030213462 -0.0049946285 -0.0036159677
-0.0054847463 -0.008009106 -0.012262954 0.005798322 0.009044014 0.011791828 -0.010809241 0.004292466
-0.0049275067 -0.0015448661 -0.011181571 0.011947857 0.0037607655 -0.008639943 -0.0077626943 -0.008190169
0.002681641 -0.004771962 0.006494177 -0.00081595563 0.005080628 0.017388484 -0.0061378498 -0.010244577
0.012250136 -0.0020409673 -0.0079586925 -0.011328588 0.008457009 -0.016330302 -0.021103848 0.00031762573
0.00766892 -0.007362222 0.00064606016 -0.006048794 0.0056121307 0.0067244912 0.014157829 0.00084218936
00000000: c06e ac3b eaa9 253a d5cc 04bc 1f25 b6ba
00000010: 6791 f8ba 51dc 2dbc dfea 42bb ea75 8dbc
00000020: eef0 cbb9 d20d 50bb c5d8 9f3c 2f51 50bb
00000030: f0fb 24bc c890 8a3c df4c 55bc 2a9b 48bc
00000040: 5f69 8239 bb44 01bb ad89 c33b c4f4 05bc
00000050: e338 2d3c 1ad9 833c 3dae e53b e0e3 0cbb
00000060: 2398 bb3a 7bc5 8c3b 7547 61ba a3c2 773a
00000070: 5818 543b e801 893b a8a2 10ba 785c 7ab9
00000080: a388 aeba b577 39bc 9ce8 12bb 4d5d 653c
00000090: 0cf4 16bb 02a5 98bb 8818 c4ba 5f73 dcbb
000000a0: 27e0 4d3a b893 793c 775c 593c 47d9 c93b
000000b0: b2cf 87ba 0c8d 083c 4084 61bc 07cc c8ba
000000c0: 768c a93b 98b8 e73a d321 6d3b e79f 8dbb
000000d0: 3395 9d3c 6d93 65bb cf66 bbbb 550c 233b
000000e0: bba0 973a f599 55bc 6f4e a038 5715 81bb
000000f0: 55a7 e03b 0f8c 133b e42b 06bc 4259 23bc
00000100: 4971 12bc 55ee 93bc 208a 83bb 47e9 89bc
00000110: b78a 763c 7278 32bc 4733 62bc fbe3 0dbb
00000120: abff eb3b f5d0 b4bb 2b00 2339 0390 f63a
00000130: 0bd6 3fbb 7ff5 3bba d067 6c3b 98bc 01bc
00000140: ce6b 39bc c210 df3b 342d a3bb 4d4a b73b
00000150: e148 ad3c c701 46bb fba9 a3bb dff9 6cbb
00000160: 63b9 b3bb a038 03bc 8fea 48bc daff bd3b
00000170: 582d 143c 8332 413c 3e19 31bc d1a7 8c3b
00000180: ec76 a1bb 1b7d caba e832 37bc f2c0 433c
00000190: 2d77 763b 8c8e 0dbc 335e febb 0f30 06bc
000001a0: 78be 2f3b 1e5e 9cbb 1bcd d43b dbe5 55ba
000001b0: 667b a63b 4b72 8e3c 0420 c9bb dfd8 27bc
000001c0: cbb4 483c c0c1 05bb 2d65 02bc 8b9b 39bc
000001d0: 448f 0a3c 20c7 85bc fae1 acbc 0187 a639
000001e0: 904b fb3b cb3e f1bb 5d5c 293a f634 c6bb
000001f0: f7e5 b73b 1f59 dc3b 3df6 673c 5fc6 5c3a

network_body._body_endoder.seq_layers.0.bias f4 [128]
-0.067472406 0.018292328 0.01956034 0.11350483 0.0061358376 0.037784804 -0.029954068 0.059873447
-0.048246723 -0.0063270004 0.03546652 -0.08725189 -0.05120943 -0.012547056 -0.043291982 -0.07963614
0.059147876 -0.027852645 0.12555572 0.056176953 -0.014198602 -0.040685833 -0.025877716 -0.051458
-0.053496063 -0.09443326 0.029269166 -0.0142762745 -0.09796137 0.080050595 0.08214961 -0.09699341
-0.07443926 -0.08172214 0.09133463 -0.038083315 0.016683027 -0.02850441 -0.02760717 0.060440425
0.028405087 -0.051180188 -0.0008274897 0.05366168 -0.0002039453 0.01632079 -0.038648788 0.009524701
-0.053319633 -0.12359619 0.024799252 0.037249938 -0.03352554 0.048587486 -0.042187594 0.055959914
-0.0020903083 -0.064475864 -0.041000836 -0.09553576 0.039673723 0.08025751 -0.008589758 -0.08054032
-0.04134152 -0.0033371265 0.0041718665 -0.050081693 -0.009061407 -0.0356738 -0.024800602 -0.036890414
0.020792237 -0.054596275 -0.08006767 0.031328525 -0.00863795 -0.020278964 -0.021339357 -0.0063636242
-0.043866087 0.0124720605 -0.049934547 -0.12274503 0.06719672 0.041236535 -0.0054401136 -0.005361563
-0.018823601 0.07411064 -0.0701841 -0.042769767 -0.015787566 -0.14693141 -0.04446781 0.042083573
0.14099401 -0.050320014 0.04614344 0.13869853 -0.055671453 -0.011210364 -0.062799364 -0.06743415
0.0014020543 0.119189166 0.13756403 -0.08768745 0.031636313 -0.012914932 -0.0026931681 0.12377977
-0.0045720255 0.018768499 -0.07639189 0.01710093 0.042485666 0.07759171 -0.1515973 0.09175284
-0.06764777 0.011867069 -0.025185553 -0.023995208 0.043814503 -0.065790325 0.041226774 0.0072490624
00000000: f92e 8abd cbd9 953c 023d a03c 3875 e83d
00000010: 230f c93b 3dc4 1a3d 3c62 f5bc dc3d 753d
00000020: 5b9e 45bd ba52 cfbb 5745 113d 1eb1 b2bd
00000030: fbc0 51bd 2b92 4dbc ef52 31bd 4618 a3bd
00000040: 0b45 723d 3b2b e4bc ae91 003e ce19 663d
00000050: 41a1 68bc 30a6 26bd 81fd d3bc a0c5 52bd
00000060: b01e 5bbd 3a66 c1bd e4c5 ef3c 09e7 69bc
00000070: f99f c8bd 91f1 a33d 0e3e a83d 7ba4 c6bd
00000080: 9c73 98bd f05d a7bd a70d bb3d 40fd 1bbd
00000090: d8aa 883c 1582 e9bc 6f28 e2bc 6190 773d
000000a0: c9b1 e83c 51a2 51bd e5eb 58ba 5acc 5b3d
000000b0: 26da 55b9 2db3 853c 314e 1ebd 7e0d 1c3c
000000c0: b065 5abd 0020 fdbd cd27 cb3c 6493 183d
000000d0: 1452 09bd ac03 473d e6cc 2cbd 3936 653d
000000e0: 8efd 08bb ec0b 84bd 7ef0 27bd 41a8 c3bd
000000f0: ea80 223d 0d5e a43d 0ebc 0cbc 53f2 a4bd
00000100: ba55 29bd b1b3 5abb 27b4 883b 7622 4dbd
00000110: 4c76 14bc b11e 12bd a22a cbbc 671a 17bd
00000120: 7b54 aa3c 58a0 5fbd 85fa a3bd 5752 003d
00000130: 3086 0dbc 1220 a6bc e0cf aebc f385 d0bb
00000140: edac 33bd 9d57 4c3c 2b88 4cbd bf61 fbbd
00000150: 6f9e 893d a4e7 283d fb42 b2bb 0db0 afbb
00000160: f433 9abc 52c7 973d aebc 8fbd 5a2f 2fbd
00000170: ed54 81bc 3075 16be e123 36bd d35f 2c3d
00000180: bc60 103e 5c1c 4ebd e700 3d3d fd06 0e3e
00000190: c007 64bd adab 37bc f49c 80bd ea1a 8abd
000001a0: 23c5 b73a 7319 f43d 96dd 0c3e 7a95 b3bd
000001b0: 1495 013d 2799 53bc dd7f 30bb 4080 fd3d
000001c0: eed0 95bb 65c0 993c 5a73 9cbd 4017 8c3c
000001d0: 7305 2e3d 67e8 9e3d 533c 1bbe eae8 bb3d
000001e0: ea8a 8abd 186e 423c ef51 cebc 9991 c4bc
000001f0: d676 333d 14bd 86bd 68dd 283d 8b89 ed3b

network_body._body_endoder.seq_layers.0.weight f4 [128, 8]
0.80027175 -0.26040086 0.21335527 0.11487332 -0.41385216 -0.06662734 -0.3721351 0.57398814
0.19885588 0.09865057 -0.11221073 0.54955375 -0.2610716 0.46906945 -0.12561841 0.55195856
0.2678493 0.10885969 -0.018146781 -0.053239096 0.29525965 0.3265035 0.11747297 0.2336752
0.33077556 -0.40944868 -0.18134199 -0.8378206 0.4236398 0.6401825 -0.25685373 0.051136814
-0.010479716 -0.36438045 0.5598483 0.7754294 0.16502555 0.09816648 0.14627494 -1.3831276
-0.13048975 0.40035892 -0.2575165 -0.016287588 0.48818645 -0.13025175 -0.3147631 -0.21995787
-0.15723501 0.4106548 0.044262543 -0.17015098 -0.66027075 0.37388042 0.17620468 -0.5825701
-0.47952062 0.06855118 -0.24072684 -0.24917366 0.4692485 -0.6811181 0.27568272 0.6289866
-0.23268424 -0.39941472 -0.3964802 -0.56442845 0.418789 0.05136214 -0.2739242 0.23657718
-0.016864557 -0.53530663 -0.54305184 -0.45835498 0.30556726 0.26432383 -0.2382529 0.65030926
0.16464476 0.11250173 -0.117798135 0.56852263 0.07449106 0.3149214 -0.026545582 0.46789274
0.20907894 -0.22240117 0.5645417 -0.60343975 0.48690447 -0.332068 0.24025483 -0.08116508
-0.43783334 -0.059371058 -0.36877257 -0.37123775 -0.03628116 0.14017938 -0.28080547 -0.5572007
0.96921384 -0.44907784 -0.04295421 -0.19003642 -0.26306123 0.6638143 0.11206126 -1.0846128
0.33661047 0.0147627955 0.2695022 0.76609325 0.6195164 -0.7003753 -0.42286944 -0.17402211
-0.06980814 0.2698182 0.24098064 0.00405191 0.52442425 0.4312051 0.5210136 0.7387069
0.45382068 -0.39745867 -0.0047159404 -0.036469817 0.22560047 -0.22544418 0.98535913 0.23617743
-0.19723646 0.47591743 0.20816834 -0.9667556 0.022316702 0.18099435 0.18329144 0.07210774
-0.25856835 -0.28528017 -0.2631233 0.14496675 0.42475647 -0.5275383 0.1508239 -0.13376604
-0.22589365 -0.4347904 -0.23554462 -0.044949703 0.06799517 -0.11606257 -0.45351988 -0.36925474
0.6375578 -0.3502196 -0.002010922 -0.33646291 -0.20198485 0.48652315 -0.047928605 0.3765963
-0.900735 -0.23166436 -0.24105799 0.23840031 0.6007349 -0.12846668 0.30774206 0.046618927
-0.31320295 0.22749445 -0.6787984 -0.29297063 -0.0013401065 -0.530011 0.3875622 -0.785672
0.101671554 -0.24990809 0.3220479 -0.038418718 0.025556667 0.012372899 -0.24736372 0.20256364
0.23092522 0.018085497 0.05273562 -0.13823329 0.11335162 0.7916514 -0.42636922 -0.57366294
-0.20230879 -0.093757495 -0.04112392 -0.073630825 -0.09706945 0.45778713 0.37260517 0.36708796
0.18630186 -0.5601441 0.071682565 -0.2727322 0.54214185 -0.18762884 -0.4599505 -0.4895836
0.10599245 -0.12047288 0.1613711 -0.49138695 -0.34422967 -0.21928576 -0.18766914 0.031667262
-0.051370304 0.4876151 0.63732547 0.4803437 -0.60333395 0.038522027 0.53982484 -0.45080864
-0.27522498 -0.0747129 -0.29492882 0.20702744 -0.3921562 -0.22510773 0.53043735 -0.053267688
-0.38173208 -0.05568222 -0.14818546 0.40386248 -0.3231404 0.39333403 0.53726953 -0.09724616
0.4255811 0.08787947 -0.045027275 -0.18797913 0.4042424 0.17473778 0.54217297 0.4999455
00000000: 9cde 4c3f 4353 85be ce79 5a3e b442 eb3d
00000010: 6ee4 d3be ea73 88bd 7e88 bebe e3f0 123f
00000020: e0a0 4b3e 4f09 ca3d bdce e5bd 8eaf 0c3f
00000030: 2dab 85be df29 f03e 1da2 00be 284d 0d3f
00000040: 8b23 893e d4f1 de3d 8fa8 94bc 3d11 5abd
00000050: 462c 973e 772b a73e ab95 f03d 8d48 6f3e
00000060: 6a5b a93e 42a3 d1be b7b1 39be 697b 56bf
00000070: 51e7 d83e 00e3 233f 5582 83be d674 513d
00000080: 1db3 2bbc 1390 babe 3852 0f3f 8b82 463f
00000090: 75fc 283e 820b c93d 19c9 153e 530a b1bf
000000a0: 1b9f 05be d8fb cc3e 34d9 83be 8c6d 85bc
000000b0: 93f3 f93e b760 05be a128 a1be a33c 61be
000000c0: 3702 21be 5941 d23e a44c 353d 0f3c 2ebe
000000d0: 8107 29bf 416d bf3e 006f 343e 5023 15bf
000000e0: ba83 f5be 9064 8c3d 1981 76be 6127 7fbe
000000f0: 5741 f03e c15d 2ebf 4926 8d3e 4405 213f
00000100: c744 6ebe 1680 ccbe 74ff cabe 627e 10bf
00000110: 836b d63e 1b61 523d cb3f 8cbe 4a41 723e
00000120: 8a27 8abc db09 09bf 7205 0bbf 81ad eabe
00000130: 5073 9c3e 7455 873e 91f8 73be ab7a 263f
00000140: a398 283e 4f67 e63d 2640 f1bd b38a 113f
00000150: c58e 983d 613d a13e 1f76 d9bc a38f ef3e
00000160: ca18 563e 22bd 63be ce85 103f 077b 1abf
00000170: 8b4b f93e d104 aabe 5d05 763e e139 a6bd
00000180: b12b e0be 112f 73bd c2cf bcbe e012 bebe
00000190: 8e9b 14bd 2f8b 0f3e bcc5 8fbe b4a4 0ebf
000001a0: 661e 783f 88ed e5be c1f0 2fbd e898 42be
000001b0: f6af 86be bcef 293f 6080 e53d 98d4 8abf
000001c0: 3558 ac3e a7df 713c 31fc 893e b01e 443f
000001d0: a098 1e3f cc4b 33bf 5882 d8be da32 32be
000001e0: 92f7 8ebd 9c25 8a3e a1c3 763e e2c5 843b
000001f0: ab40 063f eac6 dc3e 2661 053f e51b 3d3f
00000200: 2f5b e83e b47f cbbe 2d88 9abb 6061 15bd
00000210: cf03 673e d7da 66be 7f40 7c3f 7fd8 713e
00000220: 5bf8 49be 73ab f33e 152a 553e 4c7d 77bf
00000230: 84d1 b63c 9556 393e c0b0 3b3e 39ad 933d
00000240: 1263 84be 3e10 92be 19b8 86be 2a72 143e
00000250: ae79 d93e c00c 07bf 9571 1a3e f7f9 08be
00000260: aa50 67be d99c debe 9c32 71be 2e1d 38bd
00000270: 0d41 8b3d 36b2 edbd c233 e8be f50e bdbe
00000280: fd36 233f fc4f b3be acc9 03bb de44 acbe
00000290: 1ed5 4ebe 9019 f93e c950 44bd 3bd1 c03e
000002a0: 9296 66bf 6c39 6dbe e8d7 76be 361f 743e
000002b0: c3c9 193f c58c 03be 5e90 9d3e 7df3 3e3d
000002c0: 235c a0be 4ef4 683e bbc5 2dbf 3f00 96be
000002d0: 83a6 afba cdae 07bf 8d6e c63e cd21 49bf
000002e0: 2d39 d03d e8e7 7fbe 76e3 a43e f25c 1dbd
000002f0: 375c d13c b3b7 4a3c ea4c 7dbe d86c 4f3e
00000300: a977 6c3e 0928 943c 4e01 583d 078d 0dbe
00000310: e524 e83d aba9 4a3f 114d dabe 93db 12bf
00000320: 092a 4fbe ee03 c0bd 8e71 28bd c2cb 96bd
00000330: 59cc c6bd 1363 ea3e 1bc6 be3e f4f2 bb3e
00000340: eac5 3e3e 9b65 0fbf 4fce 923d 8ea3 8bbe
00000350: cfc9 0a3f c621 40be a27e ebbe b4aa fabe
00000360: 9212 d93d 7cba f6bd 773e 253e 1297 fbbe
00000370: df3e b0be 728c 60be 572c 40be 88b5 013d
00000380: ab69 52bd b0a8 f93e c327 233f 9cef f53e
00000390: 1874 1abf 46c9 1d3d f631 0a3f 64d0 e6be
000003a0: 4aea 8cbe 1403 99bd e900 97be 00ff 533e
000003b0: b3c8 c8be a482 66be beca 073f 382f 5abd
000003c0: 6372 c3be 0a13 64bd eebd 17be 10c7 ce3e
000003d0: a972 a5be 1463 c93e 7f8a 093f ff28 c7bd
000003e0: c4e5 d93e 27fa b33d 856e 38bd 9a7d 40be
000003f0: dcf8 ce3e 76ee 323e d9cb 0a3f dbf8 ff3e

network_body._body_endoder.seq_layers.2.bias f4 [128]
-0.07045286 -0.049500942 -0.05347653 0.014645728 -0.03986381 -0.017245365 -0.009444033 -0.0039222194
0.0005709108 0.012092126 -0.02822855 -0.090957165 -0.025223877 0.006186837 -0.037222728 -0.012971217
-0.059490774 -0.016614623 -0.054630358 -0.055101708 -0.05096385 -0.07952955 -0.011682591 -0.02043826
0.010412907 0.030801047 -0.035001233 -0.07731203 -0.030467095 -0.017016523 -0.091700256 -0.00441338
-0.06375433 -0.05659464 -0.05990471 -0.020468216 0.0054163327 -0.006797625 -0.07685734 -0.024660883
0.060591258 0.025292676 -0.017896233 0.062523805 0.014510537 -0.059842862 -0.0413523 -0.015844373
0.0246316 -0.04145302 0.12134851 -0.021831218 -0.043356176 -0.024525806 -0.03363961 -0.003115055
-0.021215064 -0.016147945 -0.01199257 0.09272666 -0.030546196 -0.10532482 0.0072251684 -0.05709541
-0.026027342 -0.028576316 -0.0022926189 -0.027883941 -0.03953492 -0.009210252 0.013989681 0.05291827
0.011669823 -0.019329593 -0.053159043 -0.012970636 -0.04498282 -0.03479478 -0.02050617 -0.035356525
-0.019525256 -0.033286233 -0.05034807 -0.043737933 0.0012132588 -0.056864385 0.0069325026 -0.050712675
-0.028402159 -0.022022465 0.032861143 -0.013358453 -0.0004100655 0.012641326 0.06715651 -0.016643208
-0.034957744 -0.04199694 -0.011048954 0.020491151 0.046346568 0.021384532 -0.039096057 -0.030070527
-0.031017223 0.0031887046 -0.016237985 -0.015240569 0.048113573 -0.0589415 -0.031637482 -0.0022412045
-0.022085847 -0.043069527 -0.034385733 -0.011210506 -0.03635934 -0.02106476 -0.046854522 -0.06351383
-0.00883385 -0.05387815 0.014823608 -0.0141704315 0.063612595 -0.006172491 -0.011336503 -0.07984214
00000000: 9749 90bd 80c1 4abd 350a 5bbd a3f4 6f3c
00000010: 3c48 23bd 2746 8dbc 25bb 1abc f685 80bb
00000020: 2da9 153a 0d1e 463c 8f3f e7bc c047 babd
00000030: 4ea2 cebc f3ba ca3b dc76 18bd 3a85 54bc
00000040: 99ac 73bd 641b 88bc 15c4 5fbd 54b2 61bd
00000050: 78bf 50bd 64e0 a2bd 5768 3fbc 236e a7bc
00000060: e69a 2a3c 7a52 fc3c 745d 0fbd c555 9ebd
00000070: 2196 f9bc 3c66 8bbc 58cd bbbd 1d9e 90bb
00000080: a191 82bd c8cf 67bd a45e 75bd f6ac a7bc
00000090: 7e7b b13b 9dbe debb 6267 9dbd 9f05 cabc
000000a0: 8a2e 783d 9632 cf3c 1f9b 92bc 7b0c 803d
000000b0: 9abd 6d3c ca1d 75bd 0861 29bd 0fcc 81bc
000000c0: 36c8 c93c a4ca 29bd 9185 f83d 62d7 b2bc
000000d0: 3f96 31bd 58ea c8bc b0c9 09bd f325 4cbb
000000e0: 37cb adbc b248 84bc 7c7c 44bc 7ae7 bd3d
000000f0: 043c fabc 8ab4 d7bd 1bc1 ec3b e0dc 69bd
00000100: 4b37 d5bc e118 eabc c33f 16bb dd6c e4bc
00000110: 5eef 21bd 99e6 16bc fa34 653c d4c0 583d
00000120: c932 3f3c 1859 9ebc 4cbd 59bd ca82 54bc
00000130: e83f 38bd f984 0ebd 8efc a7bc 01d2 10bd
00000140: 6ef3 9fbc 2557 08bd c739 4ebd 8c26 33bd
00000150: 3606 9f3a a1ea 68bd 0c2a e33b 18b8 4fbd
00000160: a5ab e8bc 7568 b4bc 6899 063d 6add 5abc
00000170: 0ffe d6b9 901d 4f3c 5a89 893d 5657 88bc
00000180: da2f 0fbd fc04 2cbd ac06 35bc 0fdd a73c
00000190: e6d5 3d3d 9d2e af3c 3023 20bd 7756 f6bc
000001a0: d517 febc 96f9 503b 8605 85bc 94b3 79bc
000001b0: bd12 453d a46c 71bd 4e96 01bd 2ce1 12bb
000001c0: 61ed b4bc ac69 30bd 0ed8 0cbd 45ac 37bc
000001d0: 88ed 14bd 0190 acbc 87ea 3fbd 8a13 82bd
000001e0: dabb 10bc 56af 5cbd b8de 723c 192b 68bc
000001f0: 5247 823d 9b42 cabb bdbc 39bc 4784 a3bd

network_body._body_endoder.seq_layers.2.weight f4 [128, 128]
-0.06729052 -0.18584493 0.036291357 0.056799524 -0.022090388 0.109233126 -0.12923265 0.018901097
-0.01872502 0.2582004 0.0014873612 0.093991645 -0.0012998639 -0.09985545 -0.15020813 0.07509873
0.06884687 -0.14098898 -0.04835305 0.031230945 -0.1678836 0.05441148 -0.13236867 -0.040439937
-0.069630735 -0.055273473 0.05573488 -0.05579146 -0.05607927 -0.037653934 -0.073752336 0.10101858
-0.08482527 0.033856712 0.06977495 -0.10682004 -0.092901506 -0.16246642 -0.04492197 -0.02475938
0.05990766 0.031180277 0.050079834 -0.14482209 -0.04118596 -0.17115806 -0.12617834 -0.030817825
0.019612744 0.2227835 -0.16004765 0.1602168 -0.018949762 0.07957233 0.011954796 0.024721581
-0.093484305 -0.03436708 -0.040635977 -0.019421373 0.08819619 0.0035570054 0.16939892 0.010413708
-0.015615786 -0.19292024 -0.045206137 -0.07569736 0.035818927 -0.06776404 0.21314132 -0.18905048
0.1720712 -0.0072262213 -0.041905656 -0.12195726 -0.04432029 0.19235134 -0.21496503 -0.16622178
-0.06751945 0.023141809 -0.18729173 -0.13981238 -0.13207276 -0.11103547 -0.10225492 -0.055981
-0.0473542 0.08991354 -0.016708763 0.03414213 0.0076954802 0.25133213 0.007505329 0.055264577
0.020521246 0.1530777 0.039893623 -0.08438928 0.10249936 0.08737855 0.040806536 0.004871294
-0.029227415 -0.11831522 0.11345746 -0.0049399016 0.112701625 -0.091944285 -0.004056295 0.054055907
-0.025617555 -0.12502651 0.10294038 -0.22831874 0.03608297 -0.04202933 -0.1026156 -0.026139777
-0.17686564 0.10231339 0.077958666 -0.03599352 0.007574111 -0.01931016 -0.022670645 -0.099609636
0.0015085713 -0.14118275 -0.11177499 0.038483508 0.0019755603 0.21693404 0.12309759 -0.06208444
-0.08255061 0.2721435 0.058071468 0.035193596 -0.05230563 0.09055133 0.099782996 -0.1403696
-0.11212275 0.01073886 -0.18000406 -0.04251382 0.0034531427 -0.0012455017 -0.04884721 -0.23228595
-0.047931507 -0.19795096 0.18056989 0.0668123 -0.032447714 -0.14644364 -0.019168478 -0.194861
-0.03875265 -0.15486154 0.19207926 -0.06975872 -0.0049617547 -0.010157852 -0.0039161025 0.021608146
-0.06914019 0.013092699 0.15020683 0.23019543 -0.009000081 0.10495914 0.116999745 0.12788048
0.11349079 0.02713446 -0.072547965 -0.04312581 0.06911999 -0.050390422 -0.0151386885 -0.10853661
-0.05942591 0.109232455 -0.0060454034 0.049390294 -0.122791186 0.054036614 0.03239277 -0.15024805
-0.037809603 -0.12106853 0.14385745 -0.006282253 -0.09946475 0.06846007 0.0060087037 -0.15890634
0.03881513 0.072141886 0.0076987944 -0.041973557 0.13960695 0.11014095 -0.06397327 0.060006727
-0.017942315 0.065617315 0.12249671 0.11858969 0.04512604 0.04796799 0.03781234 -0.058007825
0.0038151417 0.18850476 -0.15216714 0.06723489 -0.1226426 0.034889486 0.021296902 -0.04206715
0.0568326 0.041928325 -0.042058807 -0.05399888 -0.004686157 -0.04514903 -0.022933882 -0.11073181
-0.059380233 -0.06449435 0.009193963 0.0057278667 0.32928732 -0.08948921 -0.048634138 -0.042735703
0.045367077 -0.0613174 0.0030878189 -0.19939461 0.12326619 -0.011332285 -0.09000477 -0.042130362
-0.05930484 -0.121837795 -0.042778473 0.03561889 -0.017354153 -0.0498435 -0.11934762 -0.05312258
00000000: 9dcf 89bd 224e 3ebe 3fa6 143d 9ea6 683d
00000010: e7f6 b4bc 9eb5 df3d 9055 04be 79d6 9a3c
00000020: 3765 99bc d832 843e 8ff3 c23a b17e c03d
00000030: 3260 aaba 0481 ccbd 29d0 19be 5dcd 993d
00000040: 96ff 8c3d 6a5f 10be d90d 46bd 0ad8 ff3c
00000050: aee9 2bbe 92de 5e3d a78b 07be 59a4 25bd
00000060: 8f9a 8ebd 7066 62bd 424a 643d 9685 64bd
00000070: 60b3 65bd 033b 1abd 770b 97bd d4e2 ce3d
00000080: dfb8 adbd 56ad 0a3d 2be6 8e3d 77c4 dabd
00000090: 2543 bebd 995d 26be 1a00 38bd 2fd4 cabc
000000a0: bc61 753d c86d ff3c 8320 4d3d 3e4c 14be
000000b0: 9cb2 28bd 0f44 2fbe e534 01be aa75 fcbc
000000c0: e8aa a03c 5c21 643e 88e3 23be df0f 243e
000000d0: 883c 9bbc d1f6 a23d 0cde 433c ea84 ca3c
000000e0: b374 bfbd 7fc4 0cbd e971 26bd 9219 9fbc
000000f0: 34a0 b43d a61c 693b e976 2d3e 429e 2a3c
00000100: 5bd9 7fbc e28c 45be 122a 39bd 3807 9bbd
00000110: deb6 123d dfc7 8abd b841 5a3e 7396 41be
00000120: 6f33 303e f0c9 ecbb 44a5 2bbd bac4 f9bd
00000130: 3189 35bd c0f7 443e cb1f 5cbe 0b36 2abe
00000140: a347 8abd e493 bd3c 67c9 3fbe fa2a 0fbe
00000150: 153e 07be 9166 e3bd 076b d1bd 554c 65bd
00000160: 7af6 41bd 9724 b83d d1e0 88bc 9ed8 0b3d
00000170: 5e2a fc3b 9bae 803e 43ef f53b 1c5d 623d
00000180: 2c1c a83c 67c0 1c3e 7f67 233d 49d4 acbd
00000190: 2feb d13d 86f3 b23d c124 273d 609f 9f3b
000001a0: 556e efbc 404f f2bd 635c e83d e6de a1bb
000001b0: 1cd0 e63d 494d bcbd abea 84bb ba69 5d3d
000001c0: e8db d1bc f306 00be 68d2 d23d 63cc 69be
000001d0: bdcb 133d f226 2cbd 2128 d2bd 1623 d6bc
000001e0: 441c 35be af89 d13d cba8 9f3d f16d 13bd
000001f0: 4030 f83b 5730 9ebc cab7 b9bc 2300 ccbd
00000200: 41bb c53a 3692 10be 49ea e4bd e2a0 1d3d
00000210: 6778 013b f523 5e3e 971a fc3d 414c 7ebd
00000220: 4b10 a9bd 6556 8b3e 59dc 6d3d 2927 103d
00000230: 6e3e 56bd fa72 b93d 075b cc3d 0cbd 0fbe
00000240: 9da0 e5bd 0bf2 2f3c fc52 38be f922 2ebd
00000250: 1f4e 623b 1a40 a3ba 0314 48bd 5edc 6dbe
00000260: d453 44bd a8b3 4abe 50e7 383e e3d4 883d
00000270: e5e7 04bd 52f5 15be 3607 9dbc a489 47be
00000280: 19bb 1ebd 0694 1ebe 6db0 443e a9dd 8ebd
00000290: 3796 a2bb 1f6d 26bc a652 80bb 9103 b13c
000002a0: 5f99 8dbd c382 563c d2cf 193e 5ab8 6b3e
000002b0: 1375 13bc d1f4 d63d 909d ef3d 1af3 023e
000002c0: dc6d e83d 1649 de3c 0794 94bd b0a4 30bd
000002d0: c88e 8d3d 3066 4ebd 4308 78bc 7148 debd
000002e0: 9568 73bd 44b5 df3d 8518 c6bb 7a4d 4a3d
000002f0: f279 fbbd 7f55 5d3d 48ae 043d a0da 19be
00000300: 3ede 1abd c7f2 f7bd 5e4f 133e 5cdb cdbb
00000310: 2db4 cbbd cb34 8c3d a9e4 c43b 58b8 22be
00000320: 9dfc 1e3d 20bf 933d 2b46 fc3b 77ec 2bbd
00000330: 20f5 0e3e 9491 e13d 6b04 83bd 9dc9 753d
00000340: c3fb 92bc 5f62 863d 8edf fa3d 27df f23d
00000350: 15d6 383d 157a 443d 1de1 1a3d 9d99 6dbd
00000360: 7507 7a3b 6407 413e b4d1 1bbe 72b2 893d
00000370: 0b2c fbbd 47e8 0e3d d776 ae3c 9b4e 2cbd
00000380: 4dc9 683d 09bd 2b3d db45 2cbd ee2d 5dbd
00000390: 568e 99bb 30ee 38bd d6df bbbc 5cc7 e2bd
000003a0: b038 73bd 9d15 84bd 47a2 163c d4b0 bb3b
000003b0: 5998 a83e 1e46 b7bd 9734 47bd a20b 2fbd
000003c0: d4d2 393d f427 7bbd 015d 4a3b 1a2e 4cbe
000003d0: fc72 fc3d 0cab 39bc 6c54 b8bd e390 2cbd
000003e0: a2e9 72bd 1886 f9bd 7b38 2fbd 1de5 113d
000003f0: 4c2a 8ebc b328 4cbd 866c f4bd 1097 59bd
