Assets/Brains/Old/CarPractice_run20.onnx (onnx, 103637 bytes, 8 tensors)

action_model._continuous_distribution.log_sigma f4 [1, 2]
0	0xbf803c5c	-1.001842
1	0xbf51accf	-0.8190431

action_model._continuous_distribution.mu.bias f4 [2]
0	0xbb877b86	-0.004134598
1	0x3da9d9ad	0.082934715

action_model._continuous_distribution.mu.weight f4 [2, 128]
0	0x3d679cfe	0.056546204
1	0x3d6d0a4c	0.057871148
2	0xbc81ebf6	-0.015859585
3	0xbda47816	-0.08030717
4	0xbdae9c0d	-0.08525858
5	0x3c84d38d	0.016214157
6	0x3d1e2383	0.038608085
7	0x3ac65a6b	0.0015133148
8	0x3cb543ca	0.02212705
9	0xbd99e266	-0.07513885
10	0x3da5fb76	0.08104603
11	0xbe01cf01	-0.12676622
12	0xbde426a2	-0.11140181
13	0x3dae4a78	0.085102975
14	0xbd3a6933	-0.045510482
15	0xbdb9d21c	-0.09073278
16	0xbdae00fa	-0.0849628
17	0xbddcc8ba	-0.10780473
18	0xbd7e6b23	-0.062113892
19	0x3d1efff7	0.038818326
20	0xbc9db109	-0.019249456
21	0xbd1eaadf	-0.038737174
22	0x3d3965dc	0.045263156
23	0xbd365157	-0.044511165
24	0x3d42f949	0.047601018
25	0x3b6001bd	0.0034180724
26	0xba9d5ccd	-0.0012005806
27	0x3ce93041	0.028465392
28	0xbd8d3bc4	-0.06896165
29	0xbb8d7cc8	-0.0043178536
30	0x3dab88cc	0.08375701
31	0xbd58324f	-0.052782353
32	0x3c620000	0.013793945
33	0xbd148b82	-0.036265858
34	0xbd0d278d	-0.034461547
35	0xbd93fae3	-0.07225587
36	0xbd6c0005	-0.057617206
37	0xbd26b2b3	-0.040697765
38	0xbb6c6299	-0.003606951
39	0xbaf2369b	-0.0018479408
40	0xbd138cf2	-0.036023088
41	0xbd83d624	-0.064373285
42	0xbc9f941f	-0.01947981
43	0x3c4cdee1	0.01250431
44	0xbda0ff0b	-0.078611456
45	0x3d97079f	0.073745005
46	0x3d0a64b4	0.033787444
47	0xbcd9a21e	-0.026566561
48	0xbd904207	-0.07043844
49	0xbd982667	-0.074292
50	0xbc82c73d	-0.015964145
51	0x3d74bc5e	0.059749953
52	0xbd03b331	-0.032153312
53	0x3d14531c	0.03621207
54	0xbce006fb	-0.027347079
55	0x3c6e6a65	0.014551734
56	0x3bb8cefb	0.0056399084
57	0xbd36db79	-0.0446429
58	0xbd0db69e	-0.034597985
59	0xbd409382	-0.047015674
60	0xbd1689e6	-0.036752604
61	0x3cf137cc	0.029445551
62	0xbd0afed0	-0.033934414
63	0xbc6b4487	-0.0143596
64	0x3c998f2a	0.018745024
65	0xbc6448a7	-0.013933337
66	0x3d6036a1	0.0547396
67	0x3d628bbd	0.055309046
68	0x3d760cf0	0.060070932
69	0xbd90c6d4	-0.070691735
70	0x3b01aadf	0.0019785685
71	0xbd8049c8	-0.06264073
72	0x3b98efdf	0.0046672667
73	0x3ce8d697	0.028422637
74	0xbc6af8f1	-0.014341579
75	0x3cc70320	0.024293482
76	0xbd8923a6	-0.066962525
77	0x3d7eed4f	0.062238034
78	0xbd16cb01	-0.036814693
79	0x3c62106d	0.0137978615
80	0xbdd90ad0	-0.105977654
81	0x3d3383ee	0.04382699
82	0xbdc69c8e	-0.09697829
83	0x3d0525ed	0.032506872
84	0x3bee1d88	0.007266704
85	0xbb082ee2	-0.0020779897
86	0xbc92fe8d	-0.017943645
87	0xbd8a930c	-0.06766328
88	0xbc099fd1	-0.00839992
89	0xbc69383f	-0.0142346015
90	0xbd990103	-0.07470896
91	0xbd87d400	-0.06632233
92	0xbd2e2f6d	-0.042525697
93	0xbd087d56	-0.033322655
94	0xbda4ccf8	-0.08046907
95	0x3d3b2ebb	0.045698863
96	0xbd483508	-0.0488787
97	0xbd652dbe	-0.055951826
98	0xbccbbea3	-0.024871176
99	0xbd046280	-0.0323205
100	0x3badd107	0.005304459
101	0xbd5ee1ba	-0.05441449
102	0xba86aefd	-0.0010275539
103	0xbc633c17	-0.013869307
104	0x3d8ccedd	0.068753935
105	0x3d0f446b	0.034977358
106	0xbdda6f7a	-0.10665794
107	0xbb5f7927	-0.0034099312
108	0x3d457afb	0.048212986
109	0xbd43ab9f	-0.047771093
110	0xbd5f94bb	-0.0545852
111	0xbd83da0b	-0.06438073
112	0xbc42ab55	-0.011881669
113	0xbd44dab1	-0.048060123
114	0x3c9f4d65	0.019446084
115	0xbd0a8aef	-0.033823904
116	0x3a2eb480	0.000666447
117	0x3d8aad30	0.06771314
118	0x3cbed4b7	0.02329479
119	0x3c6f61e0	0.014610738
120	0xbb1e49f7	-0.0024152973
121	0xbd353489	-0.044239555
122	0xbbbfb54f	-0.005850471
123	0x3d9c711e	0.07638763
124	0x3d8f7e30	0.0700649
125	0x3cc6de8b	0.024276039
126	0xbc40e268	-0.011772729
127	0xbd207864	-0.039177313
128	0x3d7a8b2f	0.061167892
129	0x3cae3c71	0.021269055
130	0x3c36e43a	0.011162812
131	0x3ab9cc4d	0.0014175266
132	0x3d37c449	0.044864926
133	0x3ca54120	0.020172656
134	0x3cfb7aec	0.030698262
135	0x3cc519ef	0.024060218
136	0xbc15b127	-0.009136475
137	0x3bd6dea9	0.006557305
138	0x3d69b3a8	0.0570561
139	0xbd820973	-0.063494585
140	0x3cc91ed0	0.024550825
141	0xbe0858cf	-0.13315128
142	0xbd844c40	-0.06459856
143	0xbaaeee59	-0.001334618
144	0xbcb77ea7	-0.02239926
145	0xbcc62555	-0.024187723
146	0x3d3a5039	0.045486663
147	0x3bd18e01	0.006395102
148	0x3c1ce0b6	0.00957506
149	0x3c0e4d8a	0.008685479
150	0xbd54aaba	-0.05192063
151	0x3c000e5d	0.0078159245
152	0x3deac0e6	0.11462574
153	0xbd061913	-0.032738756
154	0xbc225f5c	-0.009910431
155	0xbd71384c	-0.05889158
156	0x3c694804	0.014238361
157	0xbc53decd	-0.012931538
158	0x3ba4f34a	0.005033885
159	0x3db59ef9	0.08868212
160	0x3de2a3b4	0.1106638
161	0xbe05c33a	-0.13062754
162	0x3c5abb7f	0.013350367
163	0x3d2d2ac6	0.04227712
164	0x3d6bf555	0.057607014
165	0x3c497d7b	0.012297983
166	0xbd97491c	-0.073869914
167	0x3c057fa8	0.008148111
168	0xbde9e2fd	-0.11420248
169	0xbb984998	-0.004647445
170	0xbd890068	-0.066895306
171	0x3e00f2a2	0.12592557
172	0xbc838064	-0.016052432
173	0xbcf655ec	-0.030070268
174	0xba62b675	-0.0008648404
175	0xbe08c001	-0.13354494
176	0xbe0434ea	-0.1291081
177	0x3b16efaf	0.0023031046
178	0x3df73a3b	0.120716535
179	0xbe0ff7ab	-0.14059322
180	0xbd787707	-0.06066039
181	0xbc249dc2	-0.010047378
182	0xbd0a64d2	-0.033787556
183	0x3b513716	0.0031923703
184	0xbd6ae82a	-0.057350315
185	0xbdb6e9e2	-0.08931328
186	0xbd6f0c58	-0.05836138
187	0xbdae2541	-0.08503199
188	0x3d67c10b	0.056580584
189	0x3d024d0d	0.031811763
190	0xbdf4cff9	-0.1195373
191	0x3c47d250	0.0121961385
192	0x3c12ddc3	0.008964005
193	0x3cc39058	0.02387254
194	0x3c5ea962	0.013590189
195	0xba0c1c63	-0.0005344806
196	0x3cc5822b	0.02410992
197	0x3d224d8f	0.039624747
198	0x3d612a72	0.05497212
199	0xbb39c569	-0.0028346425
200	0xbdcba85c	-0.099442214
201	0x3cb9f1dc	0.022698335
202	0x3cb54565	0.022127816
203	0x3d924f14	0.07143989
204	0xbe0ab19e	-0.13544318
205	0x3c0e98e2	0.008703442
206	0x3b3ea6ff	0.0029091237
207	0xbc88f731	-0.016719433
208	0x3c65c2ad	0.014023465
209	0x3d0d022c	0.0344259
210	0x3d50da78	0.050989598
211	0xbcbf2a4f	-0.023335604
212	0x3df977cf	0.12181055
213	0x3ceec285	0.029145489
214	0xbba89605	-0.005144837
215	0x3d4ad6c1	0.04952121
216	0xbd17c0a5	-0.037048955
217	0xbdcf0b9a	-0.10109635
218	0xbdf5b8f6	-0.11998169
219	0x3c7079a3	0.014677438
220	0xbddf5fb4	-0.10906926
221	0xbdc61f00	-0.096738815
222	0x3bfe583a	0.0077619823
223	0x3bc0968b	0.005877321
224	0xbde80d0e	-0.11330615
225	0xbb8fe888	-0.0043917336
226	0x3cd48a89	0.025944965
227	0x3daad94b	0.083422266
228	0xbd68a03b	-0.056793433
229	0xbdc4ea4e	-0.096150026
230	0x3db0400d	0.08605967
231	0xbe14b367	-0.14521562
232	0x3d925f84	0.071471244
233	0x3ce48125	0.027893612
234	0x3bca975b	0.0061825938
235	0x3de84c47	0.11342674
236	0x3d632fd6	0.05546554
237	0x3c69967d	0.014257071
238	0xbd51f40b	-0.051258128
239	0xbc0f3249	-0.008740016
240	0x3de0f474	0.10984126
241	0xbdc6f4b5	-0.09714643
242	0xbdd79af8	-0.10527605
243	0xbcbc6c38	-0.023000821
244	0x3bf26c32	0.007398152
245	0x3d14858e	0.03626018
246	0x3ba09d3d	0.0049015568
247	0x3c118d62	0.008883806
248	0xbcf010ba	-0.02930485
249	0xbdf7721b	-0.12082311
250	0x3d15349f	0.036427137
251	0x3cf09cd7	0.029371662
252	0xbdb26a8d	-0.08711729
253	0xbd099789	-0.03359178
254	0x3dc3bc59	0.09557409
255	0xbd7f8383	-0.06238128

action_model._discrete_distribution.branches.0.weight f4 [1, 128]
0	0xbb0db6e7	-0.002162391
1	0xbc056011	-0.00814058
2	0x3a3ab1eb	0.0007121849
3	0x3c9d1d6b	0.019179067
4	0x3bb3db5a	0.005488795
5	0x3cc86cb8	0.024465904
6	0xb8d5bda0	-0.00010191952
7	0x3b0a54e7	0.0021107735
8	0x3be1747b	0.0068803406
9	0x3adde45a	0.0016929016
10	0xbad598f3	-0.0016296193
11	0x3a3ac7f3	0.00071251317
12	0xbb27733a	-0.0025550858
13	0x3be5a5bf	0.007008284
14	0x3c9e6238	0.019333944
15	0x3b9b67f3	0.0047426163
16	0xbc12c543	-0.008958164
17	0x3c4a2e1b	0.012340094
18	0xb9bcaccf	-0.00035986907
19	0xbb3e022b	-0.0028992991
20	0xbc523337	-0.012829593
21	0x3a46ab56	0.00075786316
22	0x3b8ea60f	0.004353292
23	0xbb6da7b0	-0.003626328
24	0xbc99298c	-0.018696569
25	0x3bb04c66	0.005380201
26	0x3bfb6aba	0.007672635
27	0x3bccbbed	0.0062479884
28	0x3c53671a	0.012902999
29	0x3c34cc47	0.011035032
30	0x3bbd5a97	0.0057786214
31	0x3b88ed9b	0.0041787154
32	0xbbadcfbf	-0.0053043063
33	0x3c52c683	0.012864712
34	0xbaaaa106	-0.001301796
35	0x3c6b0ab3	0.014345813
36	0xbb27caaa	-0.0025602975
37	0xbbaba729	-0.005238433
38	0x3bed30f8	0.0072385035
39	0xba79b993	-0.0009526249
40	0xbba0e34b	-0.004909908
41	0xbc0ddc55	-0.008658488
42	0xbc31d80c	-0.010854732
43	0x3a23b537	0.00062449597
44	0xbba45491	-0.005014964
45	0xba8df4f2	-0.0010830446
46	0x3c5fa3a8	0.0136498585
47	0xbb202c74	-0.0024440559
48	0x3bdd0add	0.00674568
49	0xbc4a8451	-0.012360648
50	0x3af9384b	0.0019013969
51	0x3afee583	0.0019447062
52	0xbbe1a21b	-0.0068857796
53	0xbc187415	-0.00930502
54	0x3b86932b	0.0041068993
55	0x3bd6701a	0.0065441253
56	0xbb702d63	-0.0036648146
57	0x3bf76aff	0.0075505967
58	0xbb1a33bd	-0.0023529374
59	0xbb7e1103	-0.0038767464
60	0x3c36fd21	0.011168749
61	0xbca84868	-0.020542338
62	0xbc28f2cc	-0.010311794
63	0xbb8343e3	-0.0040058955
64	0xbadba350	-0.0016757045
65	0x3bc01609	0.005862002
66	0xbb453c98	-0.003009593
67	0x3b1f6a60	0.002432488
68	0x3cb51fc9	0.022109883
69	0xbbe6a44d	-0.007038629
70	0xbb94da15	-0.004542599
71	0x3c574a4b	0.013140271
72	0x3c4d73bb	0.012539799
73	0xbc3365f9	-0.010949605
74	0x3bcefe13	0.006316909
75	0xbbfed878	-0.00777727
76	0x3b2c1bb7	0.0026261637
77	0xbc494d98	-0.012286566
78	0xbc6c222d	-0.014412445
79	0xbc15aca3	-0.009135398
80	0xbc0233a9	-0.007946887
81	0xbbf586df	-0.0074928845
82	0xbc058d30	-0.0081513375
83	0xbb57454a	-0.0032847696
84	0xba3e869a	-0.0007267982
85	0x3a9e5870	0.00120808
86	0x3b36a634	0.002787006
87	0x3a30db08	0.00067465054
88	0xbc4f77bb	-0.012662823
89	0xbc44a3c3	-0.012001934
90	0xbbf2ddd0	-0.007411696
91	0x3bf8f513	0.0075975745
92	0x3c3767dc	0.011194196
93	0xba7b8c83	-0.0009595828
94	0x39db5b10	0.00041838782
95	0xbc124d4a	-0.00892956
96	0x3b92e1c2	0.004482479
97	0xbba7338f	-0.005102582
98	0xbbb120cd	-0.0054055215
99	0x3a6537e3	0.00087439845
100	0xbbc76036	-0.0060844673
101	0x3ab8f0da	0.0014109865
102	0xbbb27337	-0.0054458636
103	0xbc20c79b	-0.009813215
104	0x39db22e7	0.0004179694
105	0x3c676f1b	0.014125611
106	0xbaa4fae5	-0.001258698
107	0x3b8a37e5	0.004218089
108	0x3b8f29da	0.0043690028
109	0x3a62af38	0.00086473254
110	0x3b47d426	0.003049144
111	0xbc62fabd	-0.013853726
112	0x3bc619d3	0.006045559
113	0xbc2cd12b	-0.010547916
114	0x3b8d5368	0.0043129213
115	0x3c0ee470	0.008721456
116	0xbb4063d4	-0.0029356377
117	0x3b4d2c2f	0.0031306853
118	0xbc666de8	-0.01406429
119	0xbb71d8eb	-0.0036902975
120	0x3c1281b1	0.008942054
121	0xbb97c5eb	-0.004631748
122	0x3b0e5161	0.0021715986
123	0xbc242558	-0.010018669
124	0xbbdcf5bf	-0.0067431624
125	0xba47b039	-0.0007617507
126	0xbc3cd613	-0.011525649
127	0xbaab01e9	-0.0013046834

network_body._body_endoder.seq_layers.0.bias f4 [128]
0	0xbd82e018	-0.06390399
1	0xbd20ccdc	-0.03925787
2	0x3bda79ac	0.0066673364
3	0x3ccd4590	0.025057584
4	0xbb924255	-0.004463474
5	0xbdd35222	-0.103184
6	0xbd67908a	-0.056534328
7	0xbd76bb9e	-0.06023752
8	0xbe2d6546	-0.16933164
9	0xbd07b2ed	-0.03312962
10	0xba7a3cf4	-0.0009545826
11	0xbc152d02	-0.009104969
12	0xbe2a3917	-0.1662334
13	0xbe208ac2	-0.15677932
14	0xbd258c00	-0.040416718
15	0x3ae97ff4	0.0017814622
16	0xbda6042f	-0.08106267
17	0xbe13e2aa	-0.14441934
18	0xbc480721	-0.012208731
19	0xbdf57148	-0.11984497
20	0xbc2b38bc	-0.010450538
21	0xbe657b51	-0.22410323
22	0xbc304dbf	-0.010760724
23	0xbe35b2d6	-0.17744002
24	0xbda4210f	-0.08014118
25	0xbdb531e7	-0.08847409
26	0xbdbfaa73	-0.093586825
27	0xbdd20c83	-0.10256293
28	0xbc56bce4	-0.0131065585
29	0xbbef58a6	-0.007304269
30	0x3d4c12c9	0.049822602
31	0xbe687e4b	-0.22704427
32	0xbdc8597b	-0.09782692
33	0x3c855d82	0.01627994
34	0xbd848856	-0.064713165
35	0x3cba19bc	0.02271735
36	0xbdcb50cf	-0.099275224
37	0x3b59ccf9	0.0033233745
38	0xbd4d673b	-0.050147276
39	0xbdb4f82c	-0.088363975
40	0xbbab0510	-0.0052191094
41	0x3cd40201	0.025879862
42	0xbd328fbd	-0.04359411
43	0xbe098b95	-0.13432153
44	0xbb3f12c0	-0.0029155463
45	0xbbf4f68d	-0.00747568
46	0xbd509a9c	-0.050928697
47	0xbd2d5f02	-0.042326935
48	0xbd56b716	-0.052420698
49	0x3bc7f3b7	0.006102051
50	0xbdbdb605	-0.09263233
51	0x3d3230ef	0.043503698
52	0xbd3b6006	-0.045745872
53	0xbb972876	-0.0046129776
54	0xbdc7ac3f	-0.0974965
55	0x3cd7d5e6	0.026347112
56	0xbc0b6e98	-0.008510254
57	0xbd8013f6	-0.06253807
58	0xbdc9be6a	-0.09850772
59	0x3c05ce84	0.008166913
60	0xbd5533e8	-0.052051455
61	0x3d181a4b	0.03713445
62	0x3c7840ff	0.015152215
63	0x3c092e5e	0.008372871
64	0x3cd72916	0.026264708
65	0x3cc67e5b	0.024230173
66	0xbce14b47	-0.027501715
67	0xbe81b82e	-0.2533583
68	0xbd483904	-0.0488825
69	0xbc802a97	-0.015645308
70	0xbdd96aac	-0.10616049
71	0x3d4ff19f	0.050767537
72	0xbd46445c	-0.048405036
73	0x3d8ff324	0.07028797
74	0x3c828498	0.015932366
75	0x3d15642a	0.036472477
76	0xbe4519a8	-0.19248068
77	0xbd16850c	-0.036747977
78	0xbd33b53c	-0.04387401
79	0xbd815a8c	-0.063160986
80	0xbd8d95b5	-0.0691332
81	0xbd92dd09	-0.07171065
82	0xbd2f0a00	-0.042734146
83	0xbd9fe822	-0.07807948
84	0x3c7ecb9e	0.015551476
85	0x3c8f5fe3	0.017501777
86	0x3a65c3da	0.0008764841
87	0x3c2bc9f5	0.010485162
88	0x3c6dc821	0.0145130465
89	0xbcb49f35	-0.022048572
90	0x3c866c26	0.016408991
91	0xbcaf0c9c	-0.021368317
92	0xbc840ba8	-0.01611884
93	0x3d173425	0.036914963
94	0xbccd4136	-0.025055509
95	0xbce111be	-0.02747428
96	0x3bef7043	0.007307084
97	0xbddadb14	-0.10686317
98	0xbd29a15b	-0.041413646
99	0xbdc4a7bb	-0.096023045
100	0xbda00d8e	-0.07815085
101	0xbc5ce755	-0.013482888
102	0x3ca453a9	0.020059424
103	0x3d51b93f	0.051202055
104	0xbd9464e8	-0.07245809
105	0x3cc4a28c	0.02400329
106	0x3b3e8c2b	0.0029075246
107	0xbdf60ec7	-0.12014537
108	0xbc9e0c0c	-0.019292854
109	0xbb9dc758	-0.0048150234
110	0xbe8203ac	-0.25393426
111	0xbd1897ae	-0.037254028
112	0xbdb004d9	-0.085946746
113	0xbd580801	-0.052742008
114	0x3c623171	0.013805733
115	0xbcffd9ea	-0.03123184
116	0x3be4a573	0.006977731
117	0xbd8c8049	-0.06860406
118	0xbcb46163	-0.022019094
119	0x3bd93c6a	0.0066295164
120	0xbdd9bbf5	-0.10631553
121	0x3d728fc7	0.059219148
122	0xbd488434	-0.048954204
123	0x3c7ca7f9	0.015420907
124	0xbd755f7e	-0.05990552
125	0x3d708bbb	0.058727007
126	0x3d94d645	0.07267431
127	0xbd63154e	-0.05544024

network_body._body_endoder.seq_layers.0.weight f4 [128, 63]
0	0xbe828577	-0.2549245
1	0x3d5f6157	0.05453619
2	0xbe1aa4f1	-0.15101983
3	0x3c5508d9	0.013002598
4	0xbd39583f	-0.045250174
5	0xba2538a4	-0.00063026906
6	0x3db2341b	0.087013446
7	0x3d8dd870	0.06926048
8	0xbe120759	-0.14260615
9	0xbd28007f	-0.041016098
10	0x3d3e2330	0.046420276
11	0xbed189fd	-0.4092559
12	0xbdf09c2c	-0.117485374
13	0xbe4e2126	-0.20129833
14	0xbd162482	-0.03665591
15	0xbcf438b5	-0.029812196
16	0x3e55d235	0.20880969
17	0x3d3be834	0.045875743
18	0x3d293f13	0.041319918
19	0xbed27202	-0.41102606
20	0xbe4f1e95	-0.2022651
21	0x3d378760	0.044806838
22	0xbd4ff5d4	-0.05077155
23	0x3dbe430e	0.092901334
24	0xbe716f8b	-0.23577707
25	0xbe066963	-0.1312614
26	0x3dd56f36	0.104216024
27	0xbc355221	-0.011066944
28	0x3d5270a7	0.051376965
29	0x3e6af2d6	0.22944197
30	0xbdca675f	-0.09882998
31	0xbdeb7844	-0.11497548
32	0xbd91ea97	-0.071248226
33	0x3d37d9f9	0.04488561
34	0x3dd1bffe	0.10241698
35	0xbe0bd47b	-0.13655274
36	0x3c657419	0.014004731
37	0x3d67a39e	0.056552522
38	0x3e9839ff	0.29731748
39	0x3de47c32	0.11156501
40	0xbe040a02	-0.12894443
41	0x3e4c4170	0.19946837
42	0x3d11f6f0	0.03563589
43	0x3c775d95	0.015097995
44	0xbe742511	-0.23842265
45	0x3d9c98f7	0.07646363
46	0x3e359f16	0.17736468
47	0x3d67c24a	0.056581773
48	0x3d663bd0	0.056209385
49	0x3ca04737	0.019565208
50	0xbcacfd01	-0.021116735
51	0x3e2978d1	0.16549994
52	0x3dd0ca46	0.101948306
53	0x3f05abe5	0.52215415
54	0x3d8c453e	0.068491444
55	0xbd551b4c	-0.052027985
56	0x3d69c8fe	0.057076447
57	0x3d8262f4	0.0636653
58	0x3e738ca7	0.23784123
59	0xbe4df76c	-0.20113915
60	0x3e6cea77	0.23136316
61	0xbd8ef55e	-0.06980394
62	0xbdf15e0f	-0.117855184
63	0xbe61b6ee	-0.22042438
64	0xbd5f4501	-0.054509167
65	0x3d027794	0.03185232
66	0x3d7dc7d1	0.061958138
67	0xbd420d9d	-0.047376264
68	0xbe040876	-0.12893853
69	0x3d740591	0.05957562
70	0x3dcccb36	0.09999697
71	0x3e287a5e	0.1645293
72	0x3cefa03b	0.029251209
73	0xbe5d3e0d	-0.21605702
74	0x3e19cc18	0.15019262
75	0x3d922316	0.07135598
76	0xbe36ac9a	-0.1783928
77	0xbda45d8a	-0.08025654
78	0xbe7f6ddb	-0.2494425
79	0xbe99ac7e	-0.30014414
80	0xbd02bab2	-0.031916328
81	0x3db79284	0.089634925
82	0x3da1cac8	0.079000056
83	0x3d5fbf7d	0.054625977
84	0xbd8d5222	-0.06900431
85	0x3c0ec4bf	0.0087139
86	0xbd0414a7	-0.032246258
87	0xbdbbe34d	-0.091742136
88	0x3e6878a0	0.22702265
89	0xbed7d055	-0.42151132
90	0x3ddbce4f	0.107327096
91	0x3e3c7efb	0.18407814
92	0x3d18e659	0.03732905
93	0x3de4cfa9	0.111724205
94	0xbe9258ab	-0.28583273
95	0x3e7204c5	0.23634632
96	0xbe84aaee	-0.2591166
97	0xbe1ab277	-0.15107141
98	0x3e18c842	0.14920142
99	0xbec94a61	-0.3931456
100	0x3d7a5da3	0.061124455
101	0x3dff28dc	0.12458965
102	0xbea354e1	-0.31900695
103	0xbe00fb9a	-0.12595978
104	0xbe112a55	-0.14176305
105	0xbdbd8c5e	-0.092552885
106	0xbda7055d	-0.0815532
107	0xbb94ab59	-0.004537028
108	0x3e589b20	0.21152925
109	0xbeba3f46	-0.363764
110	0xbcd9f281	-0.026604893
111	0x3e1367ae	0.1439502
112	0xbcb90ec5	-0.02259005
113	0xbb82c34e	-0.0039905673
114	0xbdba72c4	-0.09103921
115	0xbe0b5d3c	-0.13609785
116	0xbde2b572	-0.11069764
117	0x3e552d36	0.20818028
118	0x3c831c30	0.016004652
119	0xbe14c1c5	-0.14527042
120	0xbd851031	-0.06497229
121	0x3ddb739d	0.10715411
122	0x3c2faebc	0.010722812
123	0x3e8f7be1	0.280242
124	0x3d3e6f41	0.04649282
125	0x3d4566cd	0.04819374
126	0x3d549ea1	0.051909093
127	0xbda71d7d	-0.08159921
128	0x3dbebaaf	0.09312951
129	0xbd823aa8	-0.06358844
130	0x3b23fe5b	0.0025023434
131	0xbe82c0eb	-0.2553781
132	0x3c7c5067	0.015400029
133	0x3d884a97	0.06654852
134	0xbdc23649	-0.0948301
135	0xbdd62911	-0.104570515
136	0xbd50ea53	-0.05100472
137	0x3e46374f	0.19357036
138	0xba8031a6	-0.0009780421
139	0x3d650047	0.055908468
140	0x3e447965	0.19186933
141	0x3e4dfe95	0.20116647
142	0xbd380104	-0.044922844
143	0x3dc52d18	0.096277416
144	0x3cbc4919	0.022984074
145	0x3d271733	0.04079361
146	0x3e312712	0.1730006
147	0xbe63c2d5	-0.22242291
148	0xbd21a75c	-0.039466247
149	0xbe78e45f	-0.24305867
150	0x3d9d0f82	0.076689735
151	0xbc59cabf	-0.013292967
152	0xbe187532	-0.14888456
153	0x3d151f03	0.03640653
154	0x3d6e55c6	0.05818727
155	0xbeb68c4a	-0.35653907
156	0x3d9d3ef2	0.076780215
157	0xbd328612	-0.04358489
158	0x3d375652	0.044760056
159	0xbd66b36a	-0.056323446
160	0xbedab194	-0.42713606
161	0x3de6f545	0.1127725
162	0x3e396b8e	0.18107435
163	0x3d30628f	0.043062743
164	0x3ddd7237	0.108128004
165	0xbac61b55	-0.0015114347
166	0x3cf782ec	0.030213796
167	0xbdea33e2	-0.11435677
168	0x3e4819cf	0.19541095
169	0xbdce10aa	-0.10061772
170	0x3d0cbdc6	0.03436067
171	0xbe1c9f8e	-0.1529524
172	0xbebe7141	-0.3719578
173	0xbe0cdd51	-0.137563
174	0xbdd86a0c	-0.10567102
175	0xbe0a742a	-0.13520876
176	0x3e3447fa	0.17605582
177	0x3e47de33	0.19518356
178	0xbe713336	-0.23554692
179	0xbe72a43e	-0.23695466
180	0x3e5d2f4c	0.21600074
181	0x3ebcfef3	0.3691326
182	0xbda70fd1	-0.081573136
183	0x3d17a680	0.03702402
184	0x3b89f5ef	0.004210226
185	0x3efb5371	0.49087098
186	0xbdde5512	-0.108560696
187	0x3e0b3fd1	0.13598563
188	0xbaa93b95	-0.0012911434
189	0x3e580ff5	0.21099837
190	0xbe26ee90	-0.16301942
191	0x3e400e3c	0.1875543
192	0xbe1f7956	-0.1557363
193	0x3df8c53d	0.12146995
194	0x3e09ac9f	0.13444756
195	0xbdbbc92c	-0.0916923
196	0x3e7617cf	0.2403252
197	0x3d18f01e	0.03733837
198	0xbd8376f2	-0.064191714
199	0xbd7f70aa	-0.062363304
200	0x3e841142	0.25794417
201	0x3e4f32cf	0.20234226
202	0x3baa7dd3	0.0052029877
203	0x3dcd30da	0.10019083
204	0x3d79a722	0.060950406
205	0x3e5be82c	0.21475285
206	0xbe5d12c2	-0.21589187
207	0x3e1c9dc0	0.15294552
208	0x3e4b537e	0.19856068
209	0xbd804bd2	-0.062644616
210	0x3c98d0b5	0.018654207
211	0x3dcf66db	0.1012704
212	0xbd4dee1f	-0.050275918
213	0x3e31b767	0.17355119
214	0x3e7b079c	0.24514621
215	0x3e901139	0.2813814
216	0xbde085f7	-0.10963052
217	0xbdff1a69	-0.12456209
218	0xbdc8265f	-0.09772944
219	0xbe362c18	-0.17790258
220	0x3ca3a580	0.019976377
221	0xbcbbe64b	-0.02293696
222	0xba2e55ec	-0.00066503766
223	0xbd533344	-0.051562563
224	0xbc41b996	-0.011824032
225	0x3cbd9d11	0.023146184
226	0x3d8643ef	0.06555926
227	0x3dce1f67	0.10064583
228	0xbd018dc8	-0.031629354
229	0xbe919d77	-0.2844045
230	0x3e9acbd7	0.30233642
231	0xbb017c71	-0.001975801
232	0xbd7fb973	-0.062432718
233	0xbd77568f	-0.060385283
234	0x3e51924c	0.20465964
235	0x3b9f9015	0.004869471
236	0xbd5503a0	-0.05200541
237	0xbd89c7a1	-0.06727529
238	0xbe5e41cd	-0.21704789
239	0xbda14f73	-0.07876482
240	0x3d853930	0.06505048
241	0xbdece26c	-0.11566624
242	0xbf0c2fe8	-0.547606
243	0xbdb1b4f4	-0.08677092
244	0x3d27506f	0.04084819
245	0xbe8b0daa	-0.27158862
246	0xbd32a2e1	-0.043612365
247	0xbe57ab8e	-0.21061537
248	0x3e699346	0.22810087
249	0xbeaa9ce7	-0.33322832
250	0x3d7ab4d3	0.061207604
251	0x3df585af	0.11988389
252	0x3d5cbd5d	0.05389153
253	0xbd39fd49	-0.045407567
254	0x3e538414	0.20655853
255	0x3d704911	0.05866343

network_body._body_endoder.seq_layers.2.bias f4 [128]
0	0xbcc531b5	-0.024071554
1	0xbc98c1e3	-0.01864714
2	0xbe0f6d26	-0.1400648
3	0xbcc12711	-0.023578199
4	0x3d79f96e	0.06102889
5	0xbd499133	-0.04921074
6	0xbbd560b6	-0.006511773
7	0xbc95730b	-0.018243333
8	0xbdc3d047	-0.0956121
9	0xbcc02d1f	-0.023459015
10	0x3cb6566b	0.022258004
11	0x3c973db8	0.018462047
12	0x3d2d638c	0.042331263
13	0xbdd1f1fd	-0.10251234
14	0xbd0ab647	-0.03386524
15	0xbd0a9a03	-0.033838283
16	0xbc272a48	-0.010202952
17	0xbd131ef1	-0.03591818
18	0xbcd85812	-0.026409183
19	0xbe3c9253	-0.18415193
20	0xbdcdaf0b	-0.100431524
21	0xbd92a4fa	-0.07160373
22	0xbdf2a250	-0.11847365
23	0x3c805ea7	0.015670134
24	0x3d7b1e4b	0.061308187
25	0xbe0c0d06	-0.13676843
26	0xbd8d80c4	-0.06909326
27	0xbd29a67d	-0.04141854
28	0xbaafc474	-0.0013409988
29	0xbdd91172	-0.105990306
30	0xbcd21213	-0.025643384
31	0xbd008e06	-0.031385444
32	0x3d34c244	0.04413058
33	0x3c12fe8f	0.008971824
34	0xbd5b8f24	-0.053603306
35	0xbbd7a9d2	-0.0065815235
36	0x3d2efd2d	0.042721916
37	0xbd3ad6da	-0.045615055
38	0xbd9c452c	-0.07630381
39	0xbdcb21f0	-0.099185824
40	0xbbb87e4c	-0.00563029
41	0xbd1b3910	-0.037896216
42	0xbde33ce6	-0.110956
43	0x3d6da6ac	0.05802028
44	0xbb9ea405	-0.00484133
45	0x3c8db362	0.01729745
46	0xbe206bec	-0.15666169
47	0x3b9be92d	0.0047580213
48	0xbdbac5f1	-0.091197856
49	0xbd313ef6	-0.043272935
50	0x3d6cf316	0.057849012
51	0xbdb9a942	-0.090654865
52	0xbd252edf	-0.040327903
53	0x3c772786	0.015085107
54	0xbcc53e77	-0.024077637
55	0xbd938110	-0.07202351
56	0xbdca3a1b	-0.09874364
57	0xbc8fd1ad	-0.017556036
58	0xbb879822	-0.0041380087
59	0xbd40e235	-0.047090728
60	0xbcbb23b9	-0.022844182
61	0xbb482237	-0.0030537972
62	0xbc4d24a6	-0.012520945
63	0xbd7b81dc	-0.06140314
64	0xbd56dce8	-0.052456766
65	0xbc803cdb	-0.015654018
66	0xbcd76065	-0.026291082
67	0xbbbf23e7	-0.0058331373
68	0xbb452abf	-0.0030085293
69	0x3d1bf26e	0.038072996
70	0x3cba31cc	0.022728823
71	0xbd1a59ee	-0.03768342
72	0xbd3fab9d	-0.046794523
73	0xbd39b32d	-0.04533689
74	0xbc8a0676	-0.016848784
75	0x3cd8cc5e	0.026464637
76	0xbd9e294a	-0.07722719
77	0xbd12c879	-0.035835717
78	0xbd505b24	-0.05086817
79	0x3cba3862	0.022731964
80	0x3d025799	0.03182182
81	0xbce67582	-0.028132204
82	0x3ce65b3e	0.02811968
83	0xbe82671d	-0.25469294
84	0x3d77e2b1	0.060518924
85	0x3cb7eb81	0.022451164
86	0xbdb95fac	-0.09051451
87	0x3d406586	0.04697182
88	0xbde673d1	-0.11252559
89	0xbd39e69e	-0.04538595
90	0xb89aa5fe	-7.374211e-05
91	0xbcd74748	-0.026279107
92	0xbc35d9b4	-0.011099268
93	0xbcb6b4c9	-0.022303002
94	0x3c29a73f	0.010354816
95	0xbbf0867e	-0.0073402515
96	0x3cad2954	0.02113787
97	0xbca7d590	-0.020487577
98	0xbd8d4b31	-0.06899107
99	0x3d56ed46	0.052472375
100	0xbce014ad	-0.027353609
101	0xbce38c6d	-0.027776921
102	0x3cf21aca	0.02955379
103	0xbbd76a6e	-0.0065739667
104	0x3cdc7d67	0.026915265
105	0x3b1ec555	0.0024226506
106	0x3d225f3a	0.039641596
107	0x3d80d09b	0.06289788
108	0x3cae51f3	0.02127931
109	0xbcd708f5	-0.026249388
110	0xbd0c1cb4	-0.03420706
111	0xbcc33956	-0.02383105
112	0x3d8b5874	0.068039805
113	0xbdd03970	-0.10167205
114	0xbd214ee1	-0.039381865
115	0xbcce9511	-0.025217565
116	0xbd4cffb2	-0.050048538
117	0xbc524844	-0.012834612
118	0xbdf33df8	-0.11877054
119	0xbd46edfb	-0.0485668
120	0xbd4ec54f	-0.050481137
121	0x3b19d360	0.0023471937
122	0xbd564b52	-0.052317925
123	0x3c42308b	0.011852394
124	0xbcdbee6a	-0.026847083
125	0xbe64e847	-0.22354232
126	0x3d74622b	0.059663933
127	0xbd9e80dd	-0.077394225

network_body._body_endoder.seq_layers.2.weight f4 [128, 128]
0	0xbddcc3a8	-0.10779506
1	0x3dea6c91	0.11446489
2	0xbdfa38ef	-0.122178905
3	0x3e5083b7	0.20362745
4	0x3e1a701b	0.15081827
5	0x3d92d678	0.07169813
6	0xbd174747	-0.03693321
7	0x3e407ace	0.18796846
8	0x3d0924d7	0.0334824
9	0xbd04a430	-0.032383144
10	0xbddd5cd6	-0.10808723
11	0x3de13445	0.10996298
12	0x3d89599d	0.067065455
13	0x3da076ba	0.07835145
14	0xbd712699	-0.0588747
15	0x3e602522	0.21889165
16	0xbdcce257	-0.100041084
17	0xbde0be21	-0.10973764
18	0xbc8c4a83	-0.017125374
19	0xbd45a596	-0.04825362
20	0x3e747d11	0.23875834
21	0x3d5c6665	0.05380859
22	0xbe8e7cab	-0.2782949
23	0x3c4de595	0.012566944
24	0x3c586574	0.013207782
25	0x3d6828c8	0.056679517
26	0xbc08eee2	-0.008357735
27	0xbdda4e00	-0.106594086
28	0xbd4c3ca9	-0.049862538
29	0x3e6952c9	0.22785486
30	0x3db803b1	0.08985079
31	0x3b8567e7	0.004071224
32	0xbd9ea378	-0.07746023
33	0x3ca66a42	0.02031434
34	0xbcbc7cf4	-0.023008801
35	0xbc6f449b	-0.014603759
36	0x3d58ba13	0.05291183
37	0xbc18265b	-0.009286488
38	0xbcc42342	-0.023942593
39	0xbd3fe5c0	-0.046849966
40	0xbe1e3f95	-0.15453942
41	0xbbe2ed92	-0.0069252932
42	0xbc584baa	-0.0132016335
43	0xbe05e5aa	-0.13075891
44	0xbd8bab1e	-0.068197474
45	0x3d8f695c	0.070025176
46	0x3dedf3ee	0.116187915
47	0x3e103d5f	0.14085911
48	0xbd1f3b79	-0.038875077
49	0xbd947d3f	-0.07250451
50	0x3ca59daa	0.020216782
51	0xbdb8aac8	-0.09016949
52	0xbd188744	-0.037238374
53	0xbd4aea0c	-0.04953961
54	0xbd3c4a46	-0.04596927
55	0xbd36ffed	-0.044677664
56	0xbe4a499b	-0.19754641
57	0xbac46b5a	-0.0014985607
58	0xbd1205a5	-0.035649914
59	0xbdbc087c	-0.09181306
60	0x3e26604f	0.16247676
61	0x3caf5d1d	0.021406705
62	0xbd1eaf79	-0.038741563
63	0x3d8d182d	0.06889377
64	0x3d36a35f	0.044589397
65	0x3e0d788a	0.13815513
66	0xbe5eacde	-0.21745631
67	0x3d873766	0.06602363
68	0xbddc22ef	-0.107488506
69	0xbdb090aa	-0.086213425
70	0x3d526c3b	0.051372748
71	0x3e2aeb0a	0.16691223
72	0x3e21f2ab	0.15815227
73	0x3e4b4f7a	0.19854537
74	0xbe5b409a	-0.21411362
75	0xbc9a95ae	-0.018870201
76	0x3d9940e2	0.074830785
77	0xbd33bdad	-0.04388206
78	0xbcb21fba	-0.021743644
79	0xbe3ffe23	-0.18749289
80	0x3d8c18b7	0.068406515
81	0x3c9b9e06	0.01899625
82	0xbdaa72da	-0.083226874
83	0xbe461184	-0.19342619
84	0x3d942b24	0.07234791
85	0x3d54e29d	0.051973928
86	0xbc42142b	-0.011845629
87	0x3be801ed	0.0070803077
88	0x3d1ce4af	0.038304027
89	0x3dae8f8a	0.08523472
90	0x3d822f74	0.06356707
91	0x3e03fa66	0.12888488
92	0x3c7a8bca	0.015292117
93	0x3e4d1c94	0.20030433
94	0xbe32c8f7	-0.17459475
95	0x3da1790d	0.07884417
96	0x3d46725c	0.048448905
97	0x3b8ebb5c	0.004355831
98	0x3e4c7b24	0.1996885
99	0xbd69f79c	-0.057120904
100	0xbcf3ba92	-0.02975205
101	0xbd4fc782	-0.050727375
102	0x3d5b90a6	0.053604744
103	0x3c89fa88	0.016843095
104	0xbd761f99	-0.060088728
105	0x3d3e454b	0.0464528
106	0x3daa5bb9	0.08318276
107	0x3d30a9c5	0.043130655
108	0xbc59bd57	-0.013289771
109	0xbe4c4626	-0.19948635
110	0x3dd290c7	0.1028152
111	0x3de77575	0.113017
112	0x3e568bea	0.2095181
113	0xbdd44136	-0.103640005
114	0xbdc6ceb7	-0.097073965
115	0xbc51513f	-0.012775718
116	0xbdb67410	-0.08908856
117	0xbe401382	-0.18757442
118	0xbd6c4a1c	-0.057687864
119	0x3e0ee062	0.13952783
120	0xbe3c5b7d	-0.18394275
121	0x3dae3ff6	0.08508293
122	0x3d760e2e	0.060072117
123	0x3ea27399	0.3172882
124	0x3ca9bcee	0.020719972
125	0xbd5934cd	-0.05302887
126	0x3dc7b3e4	0.09751108
127	0xbe26286f	-0.16226362
128	0x3dbb5c35	0.091484465
129	0xbe567b9b	-0.20945589
130	0x3e2030c7	0.15643607
131	0x3b6f4c21	0.0036513882
132	0xbdadb074	-0.084809214
133	0xbdd5ea8b	-0.10445126
134	0x3d5cd572	0.053914495
135	0x3cf5e148	0.030014649
136	0x3b82db7d	0.00399345
137	0x3d996958	0.07490796
138	0xbe2a9520	-0.16658449
139	0x3dc86ff5	0.09786979
140	0xbe7c812a	-0.24658647
141	0x3e1e6b0e	0.15470526
142	0x3d1f3ccb	0.038876336
143	0x3e2a5e1f	0.16637467
144	0x3d798130	0.06091422
145	0xbe4eab1d	-0.20182462
146	0xbde57997	-0.11204832
147	0xbdea84ed	-0.11451135
148	0xbd9d0699	-0.07667274
149	0xbd4aa4ce	-0.049473576
150	0xbe215762	-0.1575599
151	0x3b95ff09	0.0045775217
152	0xbde7d123	-0.113191865
153	0xbde2bc85	-0.110711135
154	0xbc44d513	-0.0120136915
155	0xbdac1ff9	-0.08404536
156	0xbd220f5b	-0.039565425
157	0x3db8f54d	0.090311624
158	0xbe86498b	-0.26227984
159	0xbe0d796e	-0.13815853
160	0xbe100247	-0.14063369
161	0x3e422a7d	0.1896152
162	0x3e5ab72d	0.21358939
163	0x3e2e97a6	0.17050037
164	0x3db65752	0.08903374
165	0x3da84d60	0.08217883
166	0xbdb2bc08	-0.0872727
167	0x3d0f265e	0.0349487
168	0xbd08b8a7	-0.033379223
169	0x3c31136a	0.010807851
170	0xbd028263	-0.031862628
171	0xbdbafc1a	-0.09130116
172	0xbe2f7fff	-0.1713867
173	0xbde397c0	-0.111129284
174	0xbce0878a	-0.02740838
175	0x3e0bf4e5	0.13667639
176	0xbdfd453b	-0.1236672
177	0x3e4e5f14	0.20153457
178	0x3d10e42d	0.035373855
179	0xbde92f5a	-0.11385985
180	0x3d2f4fd8	0.042800754
181	0x3e2755bb	0.16341297
182	0xbdaae307	-0.08344083
183	0x3de7818b	0.11304005
184	0xbdfca8e6	-0.12336902
185	0xbdb8f185	-0.09030441
186	0x3c8b9748	0.01703991
187	0x3e274b3f	0.16337298
188	0x3dc1f01b	0.094696246
189	0x3e460b18	0.1934017
190	0xbcfbca75	-0.030736187
191	0xbd72afa3	-0.05924953
192	0x3da44624	0.08021191
193	0x3e1ae56e	0.15126583
194	0xbdc2c191	-0.09509576
195	0x3d961eae	0.073300704
196	0x3dc8e329	0.09808952
197	0xbe60c734	-0.2195099
198	0xbd304633	-0.043035697
199	0x3dc17fde	0.09448217
200	0xbe047d5b	-0.12938444
201	0x3d99368d	0.07481108
202	0xbdc9b852	-0.098496094
203	0xbc97eda8	-0.01854594
204	0x3e8a344c	0.26993024
205	0x3dcd5097	0.10025137
206	0x3d9bdf92	0.07611002
207	0x3e32bdd7	0.1745523
208	0x3d940af3	0.07228651
209	0xbdc5faed	-0.09667001
210	0xbe664d6a	-0.22490469
211	0xbcb5ccf8	-0.022192463
212	0xbb476562	-0.003042542
213	0x3b9181fa	0.0044405432
214	0xbd589ff7	-0.05288693
215	0x3d99d205	0.07510761
216	0xbe10e721	-0.14150669
217	0xbe18f85b	-0.1493849
218	0xbe1f3932	-0.15549162
219	0x3db22af3	0.08699598
220	0x3cbee940	0.023304582
221	0x3e250a75	0.1611727
222	0xbe099ff8	-0.1343993
223	0x3df7ec00	0.1210556
224	0xbcf5b299	-0.029992389
225	0x3d803805	0.06260685
226	0x3dd3947a	0.10331054
227	0xbc2ea6d2	-0.01065989
228	0x3d00992f	0.031396087
229	0xbd8fa209	-0.07013328
230	0xbe47c56e	-0.19508907
231	0x3d3fdbad	0.04684036
232	0xbd1389be	-0.036020033
233	0xbe8016d3	-0.25017413
234	0xbdf47886	-0.119370505
235	0xbe0f1bcf	-0.13975452
236	0xbdf94fe9	-0.12173445
237	0x3bca8b48	0.0061811544
238	0xbc195e1f	-0.009360819
239	0x3e14b332	0.14521483
240	0x3e068a64	0.1313873
241	0xbcddcfcb	-0.027076622
242	0xbd8b3da5	-0.06798867
243	0xbe654bd0	-0.22392201
244	0xbd5f016e	-0.054444723
245	0x3c40c2f5	0.011765231
246	0x3d742700	0.059607506
247	0x3e26f7d7	0.16305481
248	0xbd901a30	-0.07036245
249	0xbce52797	-0.02797298
250	0x3c877142	0.016533498
251	0x3e38845f	0.18019246
252	0x3da62a78	0.08113569
253	0xbbf190aa	-0.0073719816
254	0x3dc27315	0.094946064
255	0x3c3683b2	0.011139797
