Assets/Brains/CarPractice_run27-6.onnx (onnx, 107354 bytes, 15 tensors)

85 f4 [25]
0.18125743 0.03610474 0.0008164892 0.0058304565 0.06711058 0.2569101 0.042228665 0.0008164892
0.19768402 0.18952075 0.23745713 0.029168492 0.0008164892 0.217858 0.2020951 0.42520443
0.06700587 0.0008164892 0.2778709 0.23946838 0.3615581 0.049502436 0.0008164892 0.28425738
0.24884892
00000000: 8c9b 393e 90e2 133d aa09 563a 6a0d bf3b
00000010: 4671 893d b889 833e f7f7 2c3d aa09 563a
00000020: ae6d 4a3e ba11 423e f627 733e c3f2 ee3c
00000030: aa09 563a 2b16 5f3e 05f2 4e3e 65b4 d93e
00000040: 603a 893d aa09 563a 1845 8e3e 3337 753e
00000050: 251e b93e 11c3 4a3d aa09 563a 2f8a 913e
00000060: 40d2 7e3e

88 f4 [25]
0.46035433 0.4971752 0.0008164892 0.038077638 0.05017954 0.4999355 0.23041502 0.0008164892
0.29363605 0.28230414 0.46006826 0.3042465 0.0008164892 0.25565976 0.24582458 0.46777558
0.10751621 0.0008164892 0.29279152 0.282969 0.48866183 0.15518138 0.0008164892 0.25872904
0.2474936
00000000: 90b3 eb3e bf8d fe3e aa09 563a 4cf7 1b3d
00000010: 1089 4d3d 8cf7 ff3e eaf1 6b3e aa09 563a
00000020: 7757 963e 2b8a 903e 118e eb3e 32c6 9b3e
00000030: aa09 563a d6e5 823e 70b9 7b3e 4880 ef3e
00000040: 7531 dc3d aa09 563a c5e8 953e 50e1 903e
00000050: e231 fa3e dee7 1e3e aa09 563a 2278 843e
00000060: f66e 7d3e

91 f4 [15]
21.435831 4.055842 16.088306 3.9193332 0.057558782 7.153516 0.11228324 0.23003496
0.053241234 0.17948738 0.38181984 0.22306556 0.4836044 0.4727801 0.0008164892
00000000: 957c ab41 75c9 8140 dab4 8041 5bd6 7a40
00000010: c2c2 6b3d 9ae9 e440 c1f4 e53d 498e 6b3e
00000020: 7b13 5a3d 8acb 373e e47d c33e 4c6b 643e
00000030: ff9a f73e 3c10 f23e aa09 563a

action_model._discrete_distribution.branches.0.bias f4 [3]
0.1358841 -0.08547135 -0.0536539
00000000: 3425 0b3e 9a0b afbd 31c4 5bbd

action_model._discrete_distribution.branches.0.weight f4 [3, 128]
0.17009601 -0.011542552 0.0057710335 -0.020107355 0.062035654 0.12105322 0.105592415 -0.003543254
0.010864242 0.018142954 0.060639948 0.1018066 0.18048142 0.20930368 -0.05010382 -0.061981034
0.011120913 -0.1033654 -0.07746507 0.0861636 -0.1408761 0.4057348 0.040128287 0.030338584
0.028586512 0.06314657 0.14310218 0.077985406 0.048288483 0.003940727 -0.0927629 -0.139087
0.02800142 -0.15830103 0.18885472 -0.005056551 0.27615604 -0.07166206 0.14995687 0.057112455
-0.18109079 0.0944005 0.07819154 0.059987195 -0.005911304 0.25312278 0.16350754 -0.087864324
0.15732925 0.14268047 0.106041476 0.06965543 0.07134221 -0.16803385 0.114622936 -0.27865225
-0.008565769 -0.015063432 -0.15741251 0.26653185 -0.045564298 0.130065 -0.0005034604 -0.17094615
0.008363841 -0.24720474 0.021438006 -0.17836481 -0.038815107 0.10549021 -0.009133132 0.12792382
-0.05894614 0.093945764 0.16754977 0.051924426 0.012489311 0.010233913 0.08109407 0.07749096
0.11491141 -0.059135146 0.03280615 -0.23946412 -0.070976704 0.096180186 -0.028666884 0.24012336
-0.0449001 0.024134919 -0.027655482 0.09957447 -0.029170398 0.0058359965 -0.05840198 0.11804592
0.098855466 -0.20126842 -0.03140628 -0.05498379 -0.0043999203 -0.12674631 0.11503515 -0.09777862
0.04748413 0.08975169 0.085604265 0.011061333 0.1776481 0.14411044 -0.08399913 -0.24847564
0.117702074 0.310483 0.034936287 0.049414635 0.040428374 0.090333596 0.07966797 -0.047061283
0.010205093 -0.21604194 -0.06862521 0.052268077 0.026621439 0.08651979 0.2395093 0.20059906
-0.29659107 0.117605366 0.19809894 0.039957356 -0.07065334 0.09291271 0.054205477 0.08840761
-0.02234725 0.05529017 0.08234514 -0.12015836 -0.108558916 -0.27590623 0.052569434 0.025199581
0.09804149 0.11215967 0.09331046 -0.070155576 0.050273113 -0.1786945 -0.107037425 -0.05001981
-0.09569008 0.1628252 0.04579905 0.18570559 -0.00901447 -0.018992793 0.013305182 0.14858882
-0.06713459 0.08937372 -0.007235194 0.090549804 -0.12933493 0.08636334 -0.058581658 -0.026403079
0.06876991 -0.1287244 0.017919485 -0.0060854214 0.14300784 -0.29186332 -0.25419354 0.06448097
0.01465343 -0.24302645 0.011116362 0.0038094046 0.010159463 0.11336134 0.027120393 0.121113636
0.015624809 0.05222806 0.04975955 -0.25959843 0.01134676 -0.025641233 0.052251715 0.09100856
-0.04277707 0.15443765 0.01963359 0.09638765 -0.090865314 -0.050225057 0.05304087 -0.08113275
0.10627098 0.14874128 -0.06556385 0.033148326 0.16792376 0.0028003159 0.07887237 -0.18450762
0.012409986 0.082117006 -0.06876547 0.114313304 0.008234923 0.1647662 -0.1292296 -0.34020764
0.06320804 -0.017256752 0.077855654 0.014102447 0.10742638 0.0913148 -0.066586554 -0.057494387
-0.009018128 0.1005541 0.111802466 0.09279895 -0.09739621 0.17228311 -0.08973894 -0.012271061
0.058937095 -0.033063505 -0.18897367 -0.14526041 -0.21744758 0.04957918 -0.060810957 0.13865268
0.00029487026 -0.2916596 0.049351938 -0.08159192 -0.056480847 -0.07810021 0.054323804 -0.06730399
0.122091345 0.24753904 0.13729222 0.044420402 0.10149425 0.090218484 -0.14196496 -0.23875694
00000000: a62d 2e3e f91c 3dbc f01a bd3b 2eb8 a4bc
00000010: 1919 7e3d c0ea f73d d640 d83d f035 68bb
00000020: efff 313c 88a0 943c 9861 783d fb7f d03d
00000030: 1fd0 383e b453 563e aa39 4dbd d3df 7dbd
00000040: 7d34 363c 3db1 d3bd 02a6 9ebd 8b76 b03d
00000050: d341 10be 79bc cf3e 8f5d 243d 9f88 f83c
00000060: 432e ea3c fd52 813d 6189 123e d0b6 9f3d
00000070: 25ca 453d 3721 813b 7afa bdbd d36c 0ebe
00000080: 3c63 e53c aa19 22be 2263 413e 6db1 a5bb
00000090: 5364 8d3e 8fc3 92bd 4b8e 193e c0ee 693d
000000a0: dd6f 39be 0d55 c13d e322 a03d 22b5 753d
000000b0: 9db3 c1bb 4f99 813e 856e 273e 36f2 b3bd
000000c0: eb1a 213e d41a 123e 462c d93d 82a7 8e3d
000000d0: dd1b 923d 1111 2cbe 6ebf ea3d 82ab 8ebe
000000e0: 7057 0cbc 9dcc 76bc bf30 21be dd76 883e
000000f0: a1a1 3abd c22f 053e a8fa 03ba 820c 2fbe
00000100: 7e08 093c 3d23 7dbe c29e af3c 44a5 36be
00000110: 97fc 1ebd 400b d83d 22a3 15bc 76fe 023e
00000120: 8271 71bd a366 c03d 2b92 2b3e b5ae 543d
00000130: f89f 4c3c 24ac 273c a614 a63d 95b3 9e3d
00000140: ac56 eb3d b237 72bd be5f 063d 1536 75be
00000150: 3c5c 91bd 1efa c43d d0d6 eabc e6e2 753e
00000160: 2be9 37bd 98b6 c53c c08d e2bc b3ed cb3d
00000170: c2f6 eebc e33b bf3b ea36 6fbd 0fc2 f13d
00000180: bc74 ca3d 4f19 4ebe dfa3 00bd af36 61bd
00000190: 352d 90bb c9c9 01be 8c97 eb3d 2840 c8bd
000001a0: b87e 423d bccf b73d 4a51 af3d 983a 353c
000001b0: 62e9 353e b091 133e bc07 acbd 6670 7ebe
000001c0: c90d f13d a1f7 9e3e 5a19 0f3d 0067 4a3d
000001d0: 3998 253d d200 b93d f628 a33d 55c3 40bd
000001e0: 4333 273c 193a 5dbe 608b 8cbd 0d17 563d
000001f0: 3415 da3c 4a31 b13d ed41 753e d769 4d3e
00000200: c9da 97be 15db f03d 73da 4a3e 53aa 233d
00000210: b3b2 90bd 0549 be3d 9006 5e3d 0d0f b53d
00000220: 9411 b7bc f277 623d 92a4 a83d 9615 f6bd
00000230: 2354 debd 9543 8dbe 0c53 573d 5a6f ce3c
00000240: fac9 c83d f8b3 e53d 8e19 bf3d baad 8fbd
00000250: 2eeb 4d3d b1fb 36be 7036 dbbd 93e1 4cbd
00000260: 29f9 c3bd a6bb 263e c997 3b3d 9b29 3e3e
00000270: 6db1 13bc c696 9bbc fafd 593c ab27 183e
00000280: dc7d 89bd 9209 b73d 3515 edbb 2d72 b93d
00000290: 6070 04be 43df b03d 52f3 6fbd 454b d8bc
000002a0: 3dd7 8c3d 54d0 03be e2cb 923c 3768 c7bb
000002b0: a670 123e 1c6f 95be a825 82be 990e 843d
000002c0: f114 703c eddb 78be 6721 363c 34a7 793b
000002d0: e073 263c fd29 e83d 962b de3c 6d0a f83d
000002e0: 33ff 7f3c 17ed 553d abd0 4b3d 16ea 84be
000002f0: c3e7 393c 900d d2bc e505 563d b262 ba3d
00000300: 0237 2fbd e724 1e3e 9fd6 a03c e366 c53d
00000310: 9817 babd cab8 4dbd 6241 593d ed28 a6bd
00000320: 99a4 d93d a24f 183e 5746 86bd 8ac6 073d
00000330: 35f4 2b3e 8185 373b d687 a13d 91ef 3cbe
00000340: 4153 4b3c f62c a83d e9d4 8cbd 181d ea3d
00000350: c5eb 063c 79b8 283e c454 04be b22f aebe
00000360: 3873 813d 085e 8dbc c972 9f3d f30d 673c
00000370: 5d02 dc3d 4103 bb3d 885e 88bd 3c7f 6bbd
00000380: c5c0 13bc 4fef cd3d b1f8 e43d 600d be3d
00000390: aa77 c7bd fc6a 303e 0dc9 b7bd 8f0c 49bc
000003a0: 0668 713d 996d 07bd 5082 41be 25bf 14be
000003b0: 94aa 5ebe 8a13 4b3d e914 79bd f8fa 0d3e
000003c0: d198 9a39 6854 95be 4225 4a3d aa19 a7bd
000003d0: 7658 67bd 01f3 9fbd a382 5e3d add6 89bd
000003e0: 070b fa3d e07a 7d3e 5596 0c3e 2bf2 353d
000003f0: 38dc cf3d 78c4 b83d 435f 11be b37c 74be

action_model._discrete_distribution.branches.1.bias f4 [3]
0.021671765 -0.12215189 0.11766554
00000000: fc88 b13c c52a fabd a1fa f03d

action_model._discrete_distribution.branches.1.weight f4 [3, 128]
-0.154938 0.21964386 0.16513775 0.050787583 0.17850275 0.1119019 -0.14705251 0.14915399
0.11657047 0.27270198 0.15854245 -0.003018963 0.18283027 -0.034659892 -0.3500152 0.08113383
0.17398815 -0.11639848 -0.07552907 0.12890354 -0.17749125 -0.0046685403 0.037378266 0.113988616
-0.028108647 -0.036148917 0.018571546 0.045372456 -0.30564293 -0.15743849 0.13999751 -0.20135906
-0.15027912 0.08739926 0.10614213 -0.22963993 -0.076966956 -0.2329877 -0.18074769 0.044731017
0.016727922 0.024633816 -0.23471084 -0.23927453 -0.011077339 -0.089949176 0.037497472 0.0930349
0.24445796 -0.04028948 -0.058991596 0.069077045 -0.44197616 0.09774037 0.012768093 -0.0653113
0.14563473 0.15820737 0.07611441 0.01293011 -0.2516744 0.21063425 0.11273855 0.04610876
0.09476113 0.16191617 0.038995314 -0.01742853 0.09336495 0.08854977 0.03660841 -0.1360736
0.19550125 0.185603 -0.08806167 -0.025455503 -0.0813426 -0.30768725 0.07966428 0.024306327
0.023762127 0.14216092 -0.03583492 -0.023363128 -0.26142922 -0.05433339 0.14184691 0.062465105
0.078919 -0.011210935 -0.3949496 -0.026677452 0.049703907 0.08614638 0.047093295 -0.13411321
0.24551016 -0.023110418 -0.23513325 -0.097397126 0.21778071 -0.030674124 0.1818186 0.21481606
-0.09231631 -0.19081134 -0.080683574 -0.31591627 0.0044428124 0.047427297 0.17368147 0.04514982
-0.02929223 0.0048550703 -0.27421725 0.036157485 0.027433066 0.18087041 0.10572395 0.10736479
0.0944636 0.08545761 0.061549123 0.048106935 0.14671877 0.10626465 -0.039014854 0.016728295
0.07973218 -0.06775579 -0.15593995 0.016572524 0.050571136 0.008513935 -0.10292693 0.0032644924
0.039238427 -0.17207737 0.0069861845 -0.18762273 -0.08742252 -0.09299777 0.23961233 -0.0025563713
-0.17796797 0.14364198 0.24219258 0.14746158 0.22531368 -0.017761508 -0.04250524 0.066013366
0.06649193 0.068683185 0.1278274 0.054433085 0.21064115 0.23602155 -0.018377937 0.08981396
0.16363393 0.023228956 0.039624993 0.111740924 0.021353591 0.14171904 0.1783738 0.08500491
0.11048076 0.074524544 0.21895558 0.22077118 0.14903037 0.02453104 0.1147158 0.008727984
-0.32494554 -0.1390593 0.21652041 0.17560394 0.17720006 -0.11597365 0.12323487 0.074110724
0.03145481 -0.1620243 0.05582782 -0.004487494 0.0746205 -0.15870129 0.059942182 0.12818243
0.016470186 0.09532345 0.1318651 0.059341498 0.018481277 0.12471781 0.12250331 -0.1892463
-0.07831417 -0.21101385 -0.082798734 0.05722859 0.11867865 0.17190918 0.08785835 0.11486547
0.182663 0.002319802 0.07130556 0.08062935 -0.13448396 0.10181287 -0.0100320615 -0.16717495
0.038033694 0.06896176 0.2693029 0.17109673 -0.10608303 0.096003294 0.029058063 0.071495995
-0.20608476 0.04574324 0.12166922 -0.09634526 -0.0858433 -0.10041346 0.0043205447 -0.11652118
0.077247865 0.16129711 0.095235065 0.036056798 0.033037208 -0.1025952 -0.043798696 0.026053384
0.15558465 -0.17298359 0.04767906 0.02489273 0.06505742 -0.007915139 0.12749913 -0.04538782
-0.18465199 -0.021770548 0.104652554 0.107492365 0.01188809 0.083711185 -0.18871385 0.14735544
00000000: 11a8 1ebe 52ea 603e df19 293e a406 503d
00000010: 6dc9 363e d32c e53d ef94 16be d3bb 183e
00000020: 80bc ee3d 989f 8b3e f458 223e cbd9 45bb
00000030: dc37 3b3e 88f7 0dbd 3135 b3be 7e29 a63d
00000040: f329 323e 5462 eebd fcae 9abd 4aff 033e
00000050: 44c0 35be 8efa 98bb f419 193d dd72 e93d
00000060: 1b44 e6bc e310 14bd 5b23 983c 78d8 393d
00000070: 3b7d 9cbe 8e37 21be 825b 0f3e 1231 4ebe
00000080: c5e2 19be 62fe b23d 0c61 d93d bb26 6bbe
00000090: daa0 9dbd 5494 6ebe ec15 39be df37 373d
000000a0: ff08 893c dbcc c93c 0a58 70be 6204 75be
000000b0: ba7d 35bc 4637 b8bd f396 193d 1589 be3d
000000c0: 3053 7a3e 9506 25bd 2ca1 71bd 4478 8d3d
000000d0: b34a e2be 1a2c c83d 4331 513c eec1 85bd
000000e0: 4521 153e 1d01 223e dfe1 9b3d d0d8 533c
000000f0: 78db 80be 81b0 573e 78e3 e63d 8adc 3c3d
00000100: 2012 c23d 5acd 253e 8db9 1f3d 47c6 8ebc
00000110: 1f36 bf3d 9559 b53d b3f2 153d e156 0bbe
00000120: 7b31 483e b60e 3e3e ad59 b4bd 0f88 d0bc
00000130: f396 a6bd 2f89 9dbe 0727 a33d 101e c73c
00000140: cba8 c23c a292 113e a3c7 12bd 0864 bfbc
00000150: 0dda 85be b08c 5ebd 5140 113e 69db 7f3d
00000160: 49a0 a13d 12ae 37bc d536 cabe ac8a dabc
00000170: 5396 4b3d 836d b03d e6e4 403d f954 09be
00000180: 0467 7b3e 0f52 bdbc c5c6 70be 2578 c7bd
00000190: e801 5f3e 4d48 fbbc a82e 3a3e bef8 5b3e
000001a0: 5510 bdbd 0c64 43be 6e3d a5bd c7bf a1be
000001b0: 0395 913b 2043 423d 8ed9 313e 05ef 383d
000001c0: 42f6 efbc 4817 9f3b 3466 8cbe df19 143d
000001d0: 4fbb e03c 1836 393e cc85 d83d 12e2 db3d
000001e0: 2276 c13d 6604 af3d ef1a 7c3d c70b 453d
000001f0: 723d 163e 48a1 d93d 0ace 1fbd c709 893c
00000200: a04a a33d 8cc3 8abd b9ae 1fbe 1ac3 873c
00000210: ae23 4f3d 087e 0b3c 5bcb d2bd 18f1 553b
00000220: 79b8 203d 0d35 30be 5dec e43b 2c20 40be
00000230: 940a b3bd 9d75 bebd ef5c 753e cb88 27bb
00000240: 3c3d 36be e216 133e 5501 783e 2b00 173e
00000250: a1b8 663e 9580 91bc f919 2ebd 0432 873d
00000260: ec2c 883d c5a9 8c3d 30e5 023e 3af5 5e3d
00000270: 50b2 573e a2af 713e 548d 96bc 62f0 b73d
00000280: a78f 273e a74a be3c d14d 223d 6dd8 e43d
00000290: baed ae3c cc1e 113e 9fa7 363e 0e17 ae3d
000002a0: bd43 e23d 53a0 983d e435 603e d711 623e
000002b0: 6b9b 183e 52f5 c83c 1ef0 ea3d d1ff 0e3c
000002c0: 435f a6be 9065 0ebe 87b7 5d3e 85d1 333e
000002d0: ef73 353e 9883 edbd 9062 fc3d 5dc7 973d
000002e0: c2d6 003d b3e9 25be b6ab 643d d40b 93bb
000002f0: a2d2 983d 9782 22be ef85 753d 4142 033e
00000300: 7cec 863c f138 c33d a507 073e 1210 733d
00000310: 0c66 973c 0d6c ff3d 04e3 fa3d c8c9 41be
00000320: 2e63 a0bd 0414 58be 6292 a9bd 8768 6a3d
00000330: cb0d f33d f608 303e 14ef b33d 963e eb3d
00000340: 020c 3b3e d207 183b a608 923d 0021 a53d
00000350: 2ab6 09be 4483 d03d 845d 24bc e92f 2bbe
00000360: 38c9 1b3d d33b 8d3d 12e2 893e fb33 2f3e
00000370: 0f42 d9bd 609d c43d 2d0b ee3c 7e6c 923d
00000380: e207 53be 435d 3b3d b62d f93d aa50 c5bd
00000390: 9dce afbd 92a5 cdbd 5b93 8d3b a8a2 eebd
000003a0: 2134 9e3d 122b 253e 9a0a c33d 4bb0 133d
000003b0: 0652 073d 6f1d d2bd 4366 33bd e86d d53c
000003c0: 9551 1f3e 9c22 31be 1e4b 433d d7eb cb3c
000003d0: d33c 853d 80ae 01bc 228f 023e 94e8 39bd
000003e0: 6915 3dbe 2658 b2bc 1454 d63d f524 dc3d
000003f0: 43c6 423c c570 ab3d 343e 41be 58e4 163e

discrete_action_output_shape f4 [1, 2]
3.0 3.0
00000000: 0000 4040 0000 4040

network_body._body_endoder.seq_layers.0.bias f4 [128]
-0.09207519 0.017966036 -0.011924467 0.16885878 -0.010863423 -0.08706451 -0.08118247 -0.05300619
0.03251291 -0.13409893 0.08099356 -0.09783624 0.14120544 -0.028164843 -0.04762502 -0.067102626
0.07227187 -0.07490299 0.07430269 -0.054838676 0.010067849 2.259961e-05 0.023321316 -0.012930188
0.018960023 -0.11412007 -0.036106914 -0.14284511 -0.04365413 -0.060170002 -0.08447235 0.0731232
0.018151062 -0.09006986 0.015735626 -0.11048855 -0.058471724 -0.046057228 0.15014757 -0.12130201
-0.005464606 0.0388529 0.050574385 0.03862993 -0.1084643 -0.025397506 -0.051248357 0.044713937
0.0761368 -0.16019699 0.008494769 0.00030225675 0.15224639 0.1819097 -0.06438151 -0.018920472
0.067923516 0.06789405 0.04596063 -0.051878493 -0.06795941 -0.045560002 0.09721283 0.036486086
0.081648044 0.01668836 -0.026965901 0.11307177 0.16831113 0.15158094 -0.12170642 -0.021470712
0.02084026 0.07907549 0.0020067985 0.11794855 -0.044772293 0.047002528 -0.025663592 0.039723426
0.040525284 0.08534667 0.019244751 -0.004060794 0.0023224587 -0.008402702 0.058647756 0.0007905911
0.014944242 -0.07620075 -0.089799434 -0.12635736 -0.2174401 0.11376817 0.14661779 -0.10794324
-0.06830257 -0.16085763 0.021866675 0.039758086 -0.093007885 -0.023355165 -0.0685846 0.024500042
0.078326106 0.026950708 -0.08259532 0.066234566 0.09116237 0.020523839 0.049810022 0.07335458
0.049156465 0.050490115 -0.02443863 0.057118993 0.043090228 -0.0014547637 0.12509008 -0.010143467
0.06270204 -0.12534632 -0.19837162 -0.00982381 0.019144442 0.085342325 -0.21419226 0.1230768
00000000: eb91 bcbd 822d 933c d75e 43bc 51e9 2c3e
00000010: 80fc 31bc e14e b2bd ff42 a6bd 051d 59bd
00000020: 422c 053d 3b51 09be f4df a53d 5e5e c8bd
00000030: 2998 103e f5b9 e6bc 7412 43bd 1a6d 89bd
00000040: 4603 943d bd66 99bd 022c 983d 859e 60bd
00000050: 9ff3 243c 4b94 bd37 580c bf3c 24d9 53bc
00000060: 0d52 9b3c c9b7 e9bd d8e4 13bd fd45 12be
00000070: acce 32bd d274 76bd d7ff acbd 9ec1 953d
00000080: 89b1 943c 8c76 b8bd 00e8 803c d247 e2bd
00000090: 0c80 6fbd 81a6 3cbd 49c0 193e 306d f8bd
000000a0: 7010 b3bb 3824 1f3d 1627 4f3d 6b3a 1e3d
000000b0: 8822 debd 6e0e d0bc cce9 51bd f625 373d
000000c0: 9ced 9b3d ae0a 24be a52d 0b3c 3778 9e39
000000d0: 7ae6 1b3e 8946 3a3e 74da 83bd 1bff 9abc
000000e0: 7c1b 8b3d 090c 8b3d 3741 3c3d 8b7e 54bd
000000f0: 4e2e 8bbd 209d 3abd 8517 c73d 6f72 153d
00000100: 1737 a73d 07b6 883c 98e7 dcbc 2c92 e73d
00000110: c159 2c3e 0938 1b3e 3741 f9bd 59e3 afbc
00000120: 31b9 aa3c 55f2 a13d 7e84 033b 028f f13d
00000130: 2763 37bd b985 403d 743c d2bc 08b5 223d
00000140: d7fd 253d 3cca ae3d 2ba7 9d3c 6910 85bb
00000150: 6434 183b 7dab 09bc a138 703d ac3f 4f3a
00000160: b2d8 743c 240f 9cbd c4e8 b7bd d363 01be
00000170: 9ea8 5ebe 49ff e83d f922 163e 5811 ddbd
00000180: 38e2 8bbd ddb7 24be be21 b33c 60d9 223d
00000190: eb7a bebd 5553 bfbc 1576 8cbd 50b4 c83c
000001a0: 7069 a03d bbc7 dc3c bc27 a9bd fda5 873d
000001b0: 56b3 ba3d 9c21 a83c 9805 4c3d ed3a 963d
000001c0: 4a58 493d b9ce 4e3d 8633 c8bc 9bf5 693d
000001d0: 617f 303d c5ad beba 9d17 003e c930 26bc
000001e0: ed69 803d c95a 00be ee21 4bbe 0cf4 20bc
000001f0: ced4 9c3c f5c7 ae3d 3755 5bbe b00f fc3d

network_body._body_endoder.seq_layers.0.weight f4 [128, 65]
0.1064217 -0.1556224 0.04224618 -0.033981502 -0.16957684 -0.1483118 0.08639636 0.0033793836
-0.10532028 -0.006679043 -0.15167773 0.17887504 -0.11610511 -0.04871693 -0.2084288 0.25017422
-0.035825577 0.011292279 -0.13429236 0.020871934 0.27131146 -0.063877165 0.0053361747 -0.2903112
0.053982195 -0.34070718 -0.26888457 0.113164715 -0.17483915 -0.024896448 -0.06588044 -0.020928431
0.0077129873 0.051156938 0.007708655 -0.10638869 0.121753514 -0.13002622 0.12983505 -0.0073841917
-0.19131827 -0.3459889 -0.09671708 -0.02008175 0.04038814 -0.0025677513 0.01616258 -0.09509387
-0.07904729 -0.12131726 -0.21856323 0.27400476 0.19407599 -0.3759117 0.39759257 -0.042446252
0.025804617 -0.09710463 0.038410217 -0.19045219 -0.4781886 -0.06749117 -0.27677035 -0.10590807
0.074127294 0.008502477 -0.0057265735 -0.053780485 -0.022537414 0.10883021 -0.2721537 -0.047453858
0.18338713 -0.03821711 0.1199413 0.09974599 -0.054376118 0.0063834097 -0.03769772 -0.20089789
0.11680692 0.17245544 0.26424846 0.107553296 0.16269393 -0.024025522 -0.07061354 0.10543014
-0.039125893 0.067066215 0.122027345 0.020385189 -0.034061037 -0.09940154 -0.37139544 -0.13980028
-0.42722088 -0.21978524 0.38704425 0.012582641 -0.026286978 -0.14503895 0.103777796 0.19591402
-0.052631166 -0.11682005 0.21563199 0.115861736 0.07627043 0.009525164 -0.15405338 -0.2607273
0.17722942 0.049193814 0.13311517 0.5251981 -0.035737026 -0.1965393 -0.03528479 0.012841852
-0.08178474 -0.11302657 -0.25416642 -0.080201626 -0.052770093 0.30802333 0.34115213 -0.41928723
0.3745797 -0.09841255 -0.15033598 -0.12179647 0.15386795 0.27607718 0.25356144 0.25215116
-0.05397165 -0.05981032 -0.038688313 -0.12984467 0.19313599 -0.22408792 0.073713675 0.34055534
0.32058832 -0.20273612 0.17330487 -0.12160548 -0.17521815 -0.23660232 0.30667192 0.11711377
-0.08947887 -0.045295075 0.047760136 -0.008048692 0.07648944 -0.109161176 0.1306401 -0.202765
-0.0072584953 -0.064009674 -0.014045034 0.012545429 -0.07588887 0.16018915 0.049714588 -0.07688701
0.04913947 0.036827467 -0.12400789 0.13308968 0.07792044 -0.21933681 -0.18785962 -0.004736312
0.00032128577 -0.037620194 -0.09685596 -0.18073854 0.07937556 0.02953732 -0.295364 -0.092890136
-0.07208906 0.25741056 -0.088447824 -0.11542057 -0.0512087 0.08812784 0.20815971 -0.030249596
-0.28531525 -0.15570506 0.0007761351 0.16757907 -0.11817345 -0.04967407 -0.060622953 -0.07932335
0.2159201 -0.33222318 0.013147614 -0.18804963 0.12018657 0.29625398 -0.32706618 0.12051612
-0.20629875 -0.03602496 0.0540934 -0.29358396 0.01753969 -0.006349604 -0.29431883 0.017661925
0.034815375 -0.24801378 -0.032985922 0.06645487 -0.17945167 0.24035005 0.13670036 -0.07279982
0.37134686 0.12167473 0.0072888536 -0.08233999 0.0682002 0.07035608 0.15737794 -0.025051476
-0.13980904 -0.05007125 0.21697153 0.35419318 -0.26079306 0.23687816 -0.028012373 -0.25259605
-0.025763357 0.18850371 0.042899076 -0.13145535 -0.19311273 -0.3161016 -0.1580899 0.111813575
0.19560741 0.27118003 -0.17590977 -0.022342088 0.077898115 -0.24349126 0.18993995 -0.5511034
00000000: 9ff3 d93d 7a5b 1fbe 550a 2d3d 3030 0bbd
00000010: 8da5 2dbe 0cdf 17be 93f0 b03d a678 5d3b
00000020: 29b2 d7bd e0db dabb 6851 1bbe 052b 373e
00000030: 84c8 edbd 678b 47bd 5c6e 55be d616 803e
00000040: d7bd 12bd 4003 393c f083 09be 9efb aa3c
00000050: 56e9 8a3e 08d2 82bd 14db ae3b aba3 94be
00000060: 6f1c 5d3d 2c71 aebe 3dab 89be e7c2 e73d
00000070: 0909 33be a3f3 cbbc 53ec 86bd 1a72 abbc
00000080: 3abd fc3b f089 513d e398 fc3b 50e2 d9bd
00000090: e859 f93d 9825 05be 7bf3 043e 17f7 f1bb
000000a0: f0e8 43be 7525 b1be 9b13 c6bd 7b82 a4bc
000000b0: 096e 253d b847 28bb 6367 843c 93c0 c2bd
000000c0: 8ce3 a1bd 2f75 f8bd 0acf 5fbe 5a4a 8c3e
000000d0: dbbb 463e 8077 c0be 4191 cb3e 1fdc 2dbd
000000e0: 3464 d33c cbde c6bd 0854 1d3d e605 43be
000000f0: 23d5 f4be cf38 8abd d8b4 8dbe 55e6 d8bd
00000100: 0dd0 973d f94d 0b3c fba5 bbbb ed48 5cbd
00000110: 62a0 b8bc 60e2 de3d bb57 8bbe fa5e 42bd
00000120: d6c9 3b3e 8b89 1cbd c9a3 f53d a047 cc3d
00000130: 7eb9 5ebd ec2b d13b ed68 1abd 2db8 4dbe
00000140: 7738 ef3d 2998 303e 934b 873e e744 dc3d
00000150: 3d99 263e 2cd1 c4bc d59d 90bd c2eb d73d
00000160: 7942 20bd 035a 893d 79e9 f93d d7fe a63c
00000170: 9683 0bbd 0993 cbbd 8b27 bebe ce27 0fbe
00000180: b2bc dabe 620f 61be aa2a c63e 6c27 4e3c
00000190: ca57 d7bc 1785 14be 7489 d43d af9d 483e
000001a0: c793 57bd 5a3f efbd a2ce 5c3e eb48 ed3d
000001b0: ac33 9c3d 6f0f 1c3c 2bc0 1dbe 0c7e 85be
000001c0: a17b 353e 747f 493d 584f 083e 6273 063f
000001d0: fd60 12bd 9941 49be c986 10bd a266 523c
000001e0: c27e a7bd 797a e7bd 1a22 82be c040 a4bd
000001f0: 7425 58bd 3cb5 9d3e 7eab ae3e d1ac d6be
00000200: e9c8 bf3e 858c c9bd adf1 19be 6d70 f9bd
00000210: 8f8f 1d3e fd59 8d3e ced2 813e f519 813e
00000220: 6011 5dbd abfb 74bd a377 1ebd 00f6 04be
00000230: 71c5 453e 4e77 65be 32f7 963d 455d ae3e
00000240: 2724 a43e 0f9a 4fbe d576 313e 4b0c f9bd
00000250: 636c 33be e147 72be 1a04 9d3e 58d9 ef3d
00000260: b340 b7bd 5487 39bd 22a0 433d a9de 03bc
00000270: 7fa6 9c3d e58f dfbd 85c6 053e a1a1 4fbe
00000280: acd8 edbb 8117 83bd 241d 66bc 588b 4d3c
00000290: a06b 9bbd a008 243e 86a1 4b3d f076 9dbd
000002a0: 7846 493d 66d8 163d d9f7 fdbd a948 083e
000002b0: c094 9f3d d499 60be 465e 40be 1133 9bbb
000002c0: 3f72 a839 a217 1abd 6b5c c6bd 8613 39be
000002d0: a78f a23d 40f8 f13c f339 97be 2f3d bebd
000002e0: 6ea3 93bd 51cb 833e 2224 b5bd 9f61 ecbd
000002f0: 37c0 51bd 5e7c b43d d227 553e 00ce f7bc
00000300: d714 92be 2671 1fbe 8b75 4b3a d999 2b3e
00000310: ec04 f2bd 0a77 4bbd c64f 78bd 4874 a2bd
00000320: 291a 5d3e 2819 aabe 1769 573c 1590 40be
00000330: 6024 f63d 9aae 973e 3875 a7be 28d1 f63d
00000340: fb3f 53be e98e 13bd 0a91 5d3d a350 96be
00000350: 65af 8f3c 5710 d0bb f5b0 96be beaf 903c
00000360: 919a 0e3d 53f7 7dbe 3f1c 07bd 7e19 883d
00000370: 2ec2 37be 531e 763e 2efb 0b3e 1218 95bd
00000380: 2d21 be3e 9a30 f93d 56d7 ee3b dea1 a8bd
00000390: 8cac 8b3d d916 903d af27 213e c138 cdbc
000003a0: 1a2a 0fbe 8317 4dbd c92d 5e3e cf58 b53e
000003b0: ab86 85be 3090 723e 347a e5bc 4554 81be
000003c0: ad0d d3bc 1e07 413e f1b6 2f3d 3b9c 06be
000003d0: 58bf 45be 12d8 a1be 52e2 21be 84fe e43d
000003e0: 4f4d 483e 1cd8 8a3e b121 34be c106 b7bc
000003f0: 0c89 9f3d c655 79be 9e7f 423e 1d15 0dbf

network_body._body_endoder.seq_layers.2.bias f4 [128]
0.009629261 0.013764337 0.09380398 -0.09445235 -0.15376127 0.135384 0.14962076 0.098284185
-0.19390178 -0.042468764 -0.037497744 0.016115664 0.107397206 0.14325991 -0.00045529418 -0.09568521
0.101447664 -0.03141581 -0.021803955 -0.109816745 0.03742754 0.14223498 -0.0476377 -0.06803234
-0.12634847 -0.05325127 -0.032157816 -0.0064249863 -0.020874463 -0.16607375 -0.0834835 -0.014383579
-0.17209709 -0.17319119 0.034856886 -0.00655059 0.05524306 0.0134157045 -0.059737526 -0.069411166
-0.09546191 0.05021427 -0.01214965 -0.0093693705 -0.028681632 0.12785916 -0.0863517 -0.0420954
0.12930381 0.15278576 -0.018134452 -0.11763085 0.10320073 -0.11528943 0.0026154257 0.06901955
-0.07489849 -0.07950622 -0.10445631 0.04186698 0.041579332 0.047406908 -0.14493261 -0.042232502
-0.084263735 -0.13604584 -0.14294304 -0.013036585 -0.15904605 -0.10987407 -0.041173495 0.049271826
-0.029731883 0.08752759 0.124447055 -0.08377023 0.05518869 -0.02463299 -0.034151793 -0.03255651
-0.0017341683 -0.19531645 -0.012344844 -0.01701711 0.10145021 0.03708056 -0.08464605 0.071214795
-0.073305205 -0.12408494 0.028499393 -0.019114835 0.008195473 -0.059796296 -0.10380869 0.041964438
0.14192115 -0.085245684 0.0006698902 0.10300388 -0.006213052 0.06268617 -0.091872804 -0.01875908
0.0893562 -0.014630446 -0.17692243 0.033721596 -0.06538391 0.056304447 -0.18919687 -0.09088159
0.007625882 0.2047436 -0.05956125 -0.15730977 -0.09490266 -0.19584857 0.027159331 -0.07621096
0.0021758273 0.02862602 0.031414133 -0.16129354 0.02613359 -0.0055698766 0.14578646 -0.046739787
00000000: 0cc4 1d3c d083 613c 4d1c c03d 3c70 c1bd
00000010: 9873 1dbe 1aa2 0a3e 2f36 193e 3849 c93d
00000020: 308e 46be baf3 2dbd 3c97 19bd ff04 843c
00000030: 11f3 db3d bab2 123e 8db4 eeb9 9bf6 c3bd
00000040: cbc3 cf3d ddad 00bd 359e b2bc 9ae7 e0bd
00000050: 9f4d 193d 0ca6 113e c01f 43bd 8a54 8bbd
00000060: 7e61 01be 011e 5abd eab7 03bd b188 d2bb
00000070: ec00 abbc 3d0f 2abe 66f9 aabd 1aa9 6bbc
00000080: 383a 30be 0859 31be 18c6 0e3d 55a6 d6bb
00000090: 8c46 623d 8bcd 5b3c 56af 74bd 7127 8ebd
000000a0: 8981 c3bd 7aad 4d3d 530f 47bc fd81 19bc
000000b0: bef5 eabc 83ed 023e 29d9 b0bd 3a6c 2cbd
000000c0: 3868 043e df73 1c3e b48e 94bc 71e8 f0bd
000000d0: e85a d33d dd1c ecbd 9067 2b3b 1f5a 8d3d
000000e0: 6164 99bd 28d4 a2bd 31ed d5bd b67c 2b3d
000000f0: 174f 2a3d bf2d 423d 3769 14be fdfb 2cbd
00000100: 7792 acbd 9a4f 0bbe a95f 12be 6797 55bc
00000110: f8dc 22be a805 e1bd 8aa5 28bd 41d1 493d
00000120: 4790 f3bc aa41 b33d 19de fe3d ba8f abbd
00000130: 890d 623d 20cb c9bc c0e2 0bbd fa59 05bd
00000140: 084d e3ba 0901 48be 0742 4abc 7767 8bbc
00000150: 21c5 cf3d c9e1 173d e95a adbd 10d9 913d
00000160: 0a21 96bd 3f20 febd 8f77 e93c b796 9cbc
00000170: 4e46 063c f6ec 74bd a799 d4bd e7e2 2b3d
00000180: c753 113e 4a95 aebd 929b 2f3a b3f3 d23d
00000190: dc96 cbbb 9b61 803d cf27 bcbd a4ac 99bc
000001a0: 6200 b73d 8ab4 6fbc 272b 35be a81f 0a3d
000001b0: 00e8 85bd 7e9f 663d d3bc 41be 2120 babd
000001c0: 89e2 f93b 4ea8 513e 7ff6 73bd d015 21be
000001d0: 535c c2bd 878c 48be 3f7d de3c 7e14 9cbd
000001e0: 5398 0e3b 1d81 ea3c 1bac 003d 222a 25be
000001f0: 1c16 d63c 8383 b6bb 0c49 153e 3872 3fbd

network_body._body_endoder.seq_layers.2.weight f4 [128, 128]
0.011457579 -0.11298655 0.12507376 0.055010874 -0.05927553 -0.10255684 0.25547296 -0.11923024
0.19125745 -0.21460727 -0.059852358 0.11058089 0.032188028 -0.27328977 0.012494787 -0.0821635
0.30329186 -0.22775531 0.027735213 0.017100738 0.12875931 -0.10375871 -0.09058404 0.035895795
-0.0060608103 -0.09866207 -0.14838454 0.11399289 0.044109456 -0.28376073 -0.025172096 0.08660969
0.17036545 -0.26800856 -0.026196798 -0.34391907 -0.10479082 0.102623425 -0.12645987 -0.04986827
0.04067874 -0.19322786 -0.09749103 0.15884525 -0.035348583 0.092925526 0.1657092 -0.4373758
-0.1607772 0.10342314 0.12157686 -0.021879412 0.13531823 0.2134262 -0.08607766 -0.0848829
0.3095829 0.16274796 -0.14850149 -0.31969687 -0.082839474 -0.027821977 0.25206065 0.08822489
0.116692 0.0217093 0.06351307 0.14646026 0.030750688 0.243815 -0.08259006 0.039209187
0.030689564 0.16397263 -0.12986046 -0.24464017 -0.114379555 -0.12551439 0.116059005 0.2564327
-0.37110025 0.13884126 0.058182947 0.04743971 -0.25911897 0.11817751 0.11918452 -0.1683722
-0.047272567 0.0656005 -0.0801083 -0.052710578 -0.0028122992 0.132164 -0.013659267 0.09319448
0.08175056 -0.29009533 0.17990744 0.035299342 0.036209416 0.08996863 0.12434203 -0.087998755
-0.08732277 -0.063946985 -0.22977185 -0.021983854 -0.39198047 0.25907084 0.30741897 -0.061775535
0.06234279 0.24781121 0.16925493 -0.0502697 -0.16398485 -0.17466255 -0.044445325 -0.020714644
-0.16797003 -0.21810809 -0.10811867 0.008455921 0.13933727 0.044752132 -0.06631905 0.30258393
0.15363546 -0.20972016 -0.19267088 0.10686312 -0.024123166 0.00775864 -0.17856307 0.16173735
-0.3287424 0.140654 -0.19851615 -0.08620864 0.12586588 0.024348827 -0.23334616 -0.054472454
-0.3823356 -0.154299 -0.16421053 -0.062074844 0.15533406 0.44056147 -0.2545973 0.21339612
0.16707776 0.18343782 0.055205166 -0.09052898 -0.18766229 0.18747629 0.074105315 0.04131178
-0.019117376 0.0996619 -0.02258742 0.25198072 0.24630228 -0.199194 -0.16989432 0.08426142
0.14905958 -0.16258207 -0.17191148 -0.018767485 -0.013159569 -0.0890567 0.2971046 -0.09635135
0.08741683 0.018121874 0.05796968 0.1488763 0.006921508 -0.05368423 0.13300878 -0.1520544
-0.10642215 -0.05828692 0.29362112 -0.03657994 0.13998604 0.012162707 0.06467407 0.020656446
0.064388156 0.025213521 0.011146377 -0.17509311 0.18957545 -0.14471555 0.06116792 0.19562423
0.28639236 -0.05703573 -0.13031547 0.10252291 0.07648779 0.13633692 0.25029272 -0.21248439
-0.008174248 -0.11835061 -0.53290707 -0.07547282 0.48198295 0.11598486 -0.14276582 0.053827144
0.014220239 0.06282542 0.057234827 -0.029638875 -0.07684273 -0.012287601 0.20010974 0.13990942
-0.22940202 -0.106310494 -0.10849596 0.023985552 -0.07324382 0.16797644 -0.045647603 0.056754045
0.31839338 -0.18515821 0.17453545 0.1023269 -0.060073126 -0.15119405 -0.22529927 0.083579175
0.17504503 0.08807373 0.24294187 -0.028666975 0.14902645 0.043982696 -0.0727062 0.0016849829
0.4381323 0.03206894 0.06515748 0.0415917 0.115635626 -0.24170917 -0.08390338 0.20290692
00000000: 92b8 3b3c 7e65 e7bd 5613 003e 1553 613d
00000010: e6ca 72bd 5209 d2bd 5acd 823e fc2e f4bd
00000020: fed8 433e 02c2 5bbe bf27 75bd 3c78 e23d
00000030: 98d7 033d a3ec 8bbe efb6 4c3c 5645 a8bd
00000040: 1249 9b3e b038 69be f534 e33c d916 8c3c
00000050: 7bd9 033e 727f d4bd 2084 b9bd 7807 133d
00000060: c399 c6bb 570f cabd 1ef2 17be 1b75 e93d
00000070: 1eac 343d 1649 91be b635 cebc 6c60 b13d
00000080: 4874 2e3e 6b38 89be ab9a d6bc 2916 b0be
00000090: 929c d6bd 3b2c d23d b27e 01be ac42 4cbd
000000a0: c09e 263d 86dd 45be 61a9 c7bd 54a8 223e
000000b0: adc9 10bd bd4f be3d acaf 293e b9ef dfbe
000000c0: c7a2 24be 83cf d33d 4afd f83d 743c b3bc
000000d0: dd90 0a3e 668c 5a3e 7c49 b0bd 16d7 adbd
000000e0: a681 9e3e 67a7 263e c610 18be 4faf a3be
000000f0: bea7 a9bd eaea e3bc 180e 813e 40af b43d
00000100: 37fc ee3d b4d7 b13c 2413 823d aef9 153e
00000110: dee8 fb3c a4aa 793e fa24 a9bd d099 203d
00000120: ae68 fb3c 71e8 273e 24fa 04be f482 7abe
00000130: d43f eabd d886 00be 58b0 ed3d 264b 833e
00000140: da00 bebe 672c 0e3e 3e51 6e3d 2450 423d
00000150: 3eab 84be 0d07 f23d 0317 f43d c369 2cbe
00000160: e1a0 41bd 8e59 863d d20f a4bd 0ce7 57bd
00000170: 8d4e 38bb 0056 073e 1ecb 5fbc bfdc be3d
00000180: d66c a73d 6087 94be a839 383e 0b96 103d
00000190: 5350 143d 7941 b83d 09a7 fe3d b138 b4bd
000001a0: 48d6 b2bd a3f6 82bd 5049 6bbe 7c17 b4bc
000001b0: aab1 c8be efa4 843e 0566 9d3e 5808 7dbd
000001c0: 275b 7f3d 39c2 7d3e 2a51 2d3e 9ae7 4dbd
000001d0: a5eb 27be bdda 32be 4d0c 36bd c2b1 a9bc
000001e0: 5600 2cbe ba57 5fbe 526d ddbd b48a 0a3c
000001f0: 6eae 0e3e 034e 373d 48d2 87bd 48ec 9a3e
00000200: 9d52 1d3e e2c0 56be 844b 45be 0ddb da3d
00000210: f29d c5bc 313c fe3b 3dd9 36be 7a9e 253e
00000220: ed50 a8be 9a07 103e d147 4bbe 288e b0bd
00000230: fce2 003e 3177 c73c 4cf2 6ebe 821e 5fbd
00000240: 7ec1 c3be 8f00 1ebe ce26 28be 3142 7ebd
00000250: e40f 1f3e 4691 e13e 945a 82be 8384 5a3e
00000260: 6f16 2b3e 20d7 3b3e d01e 623d 4267 b9bd
00000270: 8b2a 40be c9f9 3f3e 87c4 973d 8b36 293d
00000280: 0b9c 9cbc 8a1b cc3d 4109 b9bc 9e03 813e
00000290: aa36 7c3e 83f9 4bbe c7f8 2dbe 4091 ac3d
000002a0: 13a3 183e ea7b 26be 9009 30be 45be 99bc
000002b0: 3c9b 57bc 5c63 b6bd 181e 983e db53 c5bd
000002c0: 9807 b33d 5374 943c 9d71 6d3d 0773 183e
000002d0: d1cd e23b ffe3 5bbd 7433 083e 26b4 1bbe
000002e0: dbf3 d9bd 44be 6ebd 8255 963e d9d4 15bd
000002f0: 8058 0f3e 1746 473c d773 843d b537 a93c
00000300: f0dd 833d 968c ce3c 4b9f 363c 9c4b 33be
00000310: 1120 423e 5030 14be 368b 7a3d b851 483e
00000320: 05a2 923e 4c9e 69bd 6b71 05be 88f7 d13d
00000330: a1a5 9c3d e89b 0b3e 5e26 803e 8295 59be
00000340: 48ed 05bc ce61 f2bd 996c 08bf 7e91 9abd
00000350: 78c6 f63e 7889 ed3d 3431 12be da79 5c3d
00000360: 01fc 683c 9daa 803d 116f 6a3d 3acd f2bc
00000370: b95f 9dbd ef51 49bc 91e9 4c3e 6a44 0f3e
00000380: 5de8 6abe 51b9 d9bd 2133 debd 597d c43c
00000390: db00 96bd 0402 2c3e fbf8 3abd ee76 683d
000003a0: 7504 a33e 1d9a 3dbe 6cb9 323e c490 d13d
000003b0: 3d0f 76bd 9dd2 1abe dab4 66be 8f2b ab3d
000003c0: 013f 333e 0060 b43d c1c5 783e 01d7 eabc
000003d0: 649a 183e 3327 343d fde6 94bd a5da dc3a
000003e0: e052 e03e b95a 033d 4971 853d 0f5c 2a3d
000003f0: 5fd2 ec3d 9c82 77be 89d5 abbd d5c6 4f3e

network_body.observation_encoder.processors.0.normalizer.running_mean f4 [25]
0.96599656 0.0013046548 0.0 3.3332744e-05 0.11418129 0.92894536 0.0017859773 0.0
0.040737785 0.17134093 0.9400187 0.0008513157 0.0 0.049957827 0.17217578 0.7630527
0.004509909 0.0 0.08431764 0.259875 0.84536445 0.00245529 0.0 0.088661425
0.22006105
00000000: 8d4b 773f f300 ab3a 0000 0000 c3ce 0b38
00000010: e1d7 e93d 5dcf 6d3f 7417 ea3a 0000 0000
00000020: aadc 263d ff73 2f3e 11a5 703f d42a 5f3a
00000030: 0000 0000 94a0 4c3d d94e 303e 6c57 433f
00000040: dcc7 933b 0000 0000 baae ac3d 560e 853e
00000050: ce69 583f eee8 203b 0000 0000 1f94 b53d
00000060: af57 613e

network_body.observation_encoder.processors.1.normalizer.running_mean f4 [25]
0.3048947 0.44688442 0.0 0.0014519842 0.054087464 0.5080857 0.056251746 0.0
0.09530572 0.13297383 0.30420303 0.10322018 0.0 0.07029758 0.11062926 0.67659456
0.01169515 0.0 0.09469323 0.12648621 0.60585934 0.02468943 0.0 0.07214216
0.11554965
00000000: 281b 9c3e 09ce e43e 0000 0000 8150 be3a
00000010: d18a 5d3d e811 023f 3b68 663d 0000 0000
00000020: a52f c33d 4b2a 083e 80c0 9b3e 1a65 d33d
00000030: 0000 0000 2df8 8f3d 9891 e23d 4d35 2d3f
00000040: 049d 3f3c 0000 0000 86ee c13d 9a85 013e
00000050: 9919 1b3f 7d41 ca3c 0000 0000 45bf 933d
00000060: 4ba5 ec3d

network_body.observation_encoder.processors.2.normalizer.running_mean f4 [15]
-16.269424 -0.50214756 24.221264 -1.8494828 0.34705055 -1.3336389 0.019894078 -0.11168022
-0.008448849 0.94153273 -0.08712418 -0.14486393 0.73621345 -0.33731657 0.0
00000000: c827 82c1 be8c 00bf 26c5 c141 dabb ecbf
00000010: 9cb0 b13e aeb4 aabf e8f8 a23c 99b8 e4bd
00000020: 0b6d 0abc 4a08 713f 296e b2bd 3657 14be
00000030: 7c78 3c3f c2b4 acbe 0000 0000
