Assets/Brains/CarPractice_run27.onnx (onnx, 108915 bytes, 15 tensors)

85 f4 [25]
00000000: 6b44 ec3b 3b12 833a 3b12 833a 3b12 833a
00000010: 4480 1d3e 104b 513d 3b12 833a 3b12 833a
00000020: 48da c13b b0ad 223e fbb9 863d 3b12 833a
00000030: 3b12 833a 3b12 833a debe 1f3e 54b6 c63e
00000040: 3b12 833a 3b12 833a 7b5b 333d a003 c13d
00000050: 247d c73e d886 203b 3b12 833a 2b57 033d
00000060: 73ba be3d
0.0072103045 0.000999994 0.000999994 0.000999994 0.1538096 0.051096976 0.000999994 0.000999994
0.0059159137 0.15886569 0.06578442 0.000999994 0.000999994 0.000999994 0.15600154 0.3881098
0.000999994 0.000999994 0.043788414 0.094245195 0.38962662 0.0024494436 0.000999994 0.03206555
0.09312906

88 f4 [30]
00000000: 7e14 9a3e 3045 c73e 3b12 833a 3b12 833a
00000010: 3b12 833a 81be 9f3e f7e2 ff3e 3925 e03e
00000020: 3b12 833a 3b12 833a 3b12 833a e9e7 3a3e
00000030: a0dd ff3e 75a7 df3e 3b12 833a 3b12 833a
00000040: 3b12 833a 29a5 383e acfb ec3e 04ca c23e
00000050: 3b12 833a 3b12 833a 3b12 833a e3d8 e53d
00000060: 6eac eb3e c1f8 ad3e 3b12 833a 3b12 833a
00000070: 3b12 833a 3b2a d83d
0.3009376 0.38919973 0.000999994 0.000999994 0.000999994 0.3120003 0.49977848 0.437784
0.000999994 0.000999994 0.000999994 0.18252529 0.49973774 0.43682447 0.000999994 0.000999994
0.000999994 0.18031754 0.4628576 0.3804475 0.000999994 0.000999994 0.000999994 0.112230085
0.4602999 0.33978847 0.000999994 0.000999994 0.000999994 0.1055493

91 f4 [13]
00000000: 199c 8740 8c8a 923a 06d2 993c 09e3 2f40
00000010: 2e74 b73c 62cc 1341 9e34 183b f850 a23d
00000020: 016c 123c e846 2d3c 5634 8143 3b12 833a
00000030: ec00 8541
4.237805 0.0011180206 0.018776905 2.7482321 0.022394266 9.237398 0.0023224722 0.079256
0.008936883 0.010575987 258.40887 0.000999994 16.62545

action_model._discrete_distribution.branches.0.bias f4 [3]
00000000: 961c 1a3e f9eb 33bd d229 76bd
0.15049967 -0.043926213 -0.060098477

action_model._discrete_distribution.branches.0.weight f4 [3, 128]
00000000: cf31 e73d cd3c fd3d 91c2 3f3d 7f63 873d
00000010: 5de6 603d 5a2d 8cb9 6c8b 6d3d 02ab 82bd
00000020: 0007 b3bd 831a 05be 7877 7fbd eeb4 b13d
00000030: a488 033e a961 4b3e 3bc2 033e c7df aabc
00000040: 2bc3 243e 3364 bdbd 1acb c4bd cf04 2c3e
00000050: 9ff6 023e 1360 f53d 6cf7 153d 05f9 46bc
00000060: 36b2 1f3d 87dd 8a3d 028b 153e 1595 333c
00000070: 896c 8c3d 6b39 d83d f981 b43d 4f20 a73d
00000080: 6ab5 aebd e97e 0e3e 444d 2c3d c5f8 a53d
00000090: 22fe 1a3b 53a9 0d3e bf9a b03c 8fe2 0dbe
000000a0: ecda 313d 15e5 c4bd 2390 03ba 70cc a53d
000000b0: 2f45 b3bc 10f5 ce3d c41c d8bb e657 13be
000000c0: 440b 283e 8827 8a3e 013c 67bd d7c7 16be
000000d0: 8ef3 1a3e 1f65 ab3c 92ff bb3d 73e4 95bd
000000e0: 6eab 9c3d e40f 44bd f9cc c43d 4b4b 6e3d
000000f0: e33d 6c3c ba04 923e 5667 413e 6fe6 d13d
00000100: 26d4 8b3d 1548 933d 614e 1c3d eabc 39bd
00000110: bf66 0c3e dd8a eb3d a1dd 303e ed85 743d
00000120: 3305 533e 7cd5 66be f436 443e 7bdf 003e
00000130: de73 2c3d 3c95 00be 571e 223e 3e7c 11be
00000140: bc8d d03c 343f 113e ab16 22bd 5bfd 483c
00000150: 8c6a 4fbd 5b23 06bd 4ebd dbbd 1155 94bd
00000160: f341 893d d374 423e 8f89 8e3d 4b04 8f3e
00000170: 03f7 083e f266 763e 930c 6c3c 0d1d 223e
00000180: b1ee 4c3d 5338 2e3e 1723 22bc a95f a13d
00000190: 9ed9 f43d ed54 1e3c 649a e13d 231d 343e
000001a0: 3408 c9bd cf42 343e c7c4 bdbc ac3f a43d
000001b0: 15e2 4abc bd94 453d fea2 4a3d f7ef 3e3e
000001c0: 0a98 9b3d e574 4c3e 6cca 273d 42ce 133d
000001d0: 520a c8bd fe52 75bc 2ebf a1bd a16b 69bc
000001e0: 30fb e1bc c26a 12bd ae5a 963d 89a2 503e
000001f0: 5838 833e 25c6 263e fd54 d93c d7c1 2ebb
00000200: 9d61 e3bd 7ecb 37be e478 28be f63a 3b3d
00000210: c868 88bd 6e5e c0bd c547 dd3d c2a4 033e
00000220: ef9c 5e3e adbd 28bb 3a3d 15be e917 0ebd
00000230: 4637 62be 58a1 edbd 63c4 28be 31a0 b13d
00000240: 8a1c 47bc 208d af3c 27f9 ecbb 9eec 82bd
00000250: 6988 45be 935d d2bd 3fa6 223d ded0 3f3d
00000260: 8b4f a0be 0bf0 c93d ad36 823d fe39 d03c
00000270: bfff 89bd 6daa b4bd b229 18bd c85b 3fbd
00000280: 1010 fe3d 4058 8ebd 591a 0dbe 1afb bcbc
00000290: 3e28 023e ee68 4abe f83a 11be 2169 8cbd
000002a0: 03a4 2fbd 1808 413e d175 4e3e 89c0 07be
000002b0: e94c 6ebd 4570 3abe 880f df3d 6d53 9f3d
000002c0: 9a79 a03c 09e0 38be 96bf 30bd e8c1 443e
000002d0: bdab dfbd bcb9 83bd 0a66 64be ddde c43c
000002e0: 914c 48be e74d 94bd 7e97 0abe c2de f23c
000002f0: a553 733c 6265 f9bd d7ae fbbd 5fa2 20bd
00000300: ee84 e2bd 5be3 84be d136 be3d 567e 9bbd
00000310: 79f8 bfbd 40c0 10bc 2172 24be 7bfa 2ebe
00000320: 08d1 6dbd 6104 133e 9a16 cfbd 58a8 cabd
00000330: 14e3 2cbd 79dd 96bd 1000 68bd 1d65 44bc
00000340: 0384 8e3d 3705 85bd 4077 0f3e c9d7 893d
00000350: ca94 d43d e6d1 cd3c e6de 3d3e ca21 893b
00000360: 6380 74be 2b34 e5bd 8eab 02bd f5d1 8cbe
00000370: d8a9 a0bd 4ab3 13be 4484 7dbb 0691 66be
00000380: aa49 52bd fa1e 7abd 0ab2 193e 629e 31bd
00000390: 8148 f8bc 20b5 1bbe 623d 02bd ddd6 a7bd
000003a0: de92 173e 4195 01be 6896 43bc e56b 4fbd
000003b0: 7e2f 91bd b48b af3c 9722 fabd 331a 1bbd
000003c0: b1f2 343d 3ec5 f7bd ba5b bebd 070e 923d
000003d0: 00c7 1fbe b5db 7fbd e358 7d3d 8587 abbd
000003e0: c3d5 0cbd b1ea 05bd 0ac2 2abd 1cd7 68bd
000003f0: 5cdb 45be 8f03 25be 9048 2cbd 453a 75bd
0.11288797 0.123651125 0.046816412 0.06610774 0.05490719 -0.0002673667 0.05799429 -0.063802734
-0.087415695 -0.12998395 -0.062369794 0.08677088 0.12845093 0.19861473 0.12867062 -0.020858658
0.16090076 -0.09247627 -0.09609051 0.1679871 0.12789391 0.11981215 0.036612913 -0.012144332
0.038988315 0.06780534 0.14603809 0.010960837 0.06856639 0.105578266 0.08813853 0.08160459
-0.08530696 0.139156 0.042065874 0.0810409 0.002365001 0.13834123 0.021558164 -0.13855956
0.04342167 -0.096140064 -0.00050187315 0.08095634 -0.021883575 0.10105336 -0.006595226 -0.14389
0.16410547 0.26983285 -0.05645371 -0.1472467 0.15131971 0.020922242 0.091796055 -0.07318964
0.07649885 -0.047866717 0.09609408 0.058177274 0.014419052 0.2851923 0.18887076 0.1024903
0.068275735 0.07191483 0.038160685 -0.045346178 0.1371107 0.115010954 0.17272045 0.059698034
0.20607452 -0.22542375 0.19161588 0.12585251 0.042102687 -0.12556928 0.15831886 -0.14207551
0.02545821 0.14184266 -0.0395724 0.012267436 -0.05063872 -0.03274856 -0.107294664 -0.07242788
0.06702032 0.18989877 0.06959831 0.27932963 0.13375477 0.24062708 0.014407295 0.15831394
0.05003232 0.17013673 -0.009896061 0.07879574 0.1195557 0.009663803 0.11015776 0.1758924
-0.09816018 0.1760361 -0.02316512 0.08019957 -0.012383004 0.04823755 0.049471848 0.18646227
0.075973585 0.19966467 0.04096453 0.036085375 -0.097675934 -0.0149734 -0.07897793 -0.014246852
-0.027585596 -0.035746343 0.073415145 0.20374502 0.25628924 0.16286524 0.026529783 -0.002666583
-0.11102603 -0.1794872 -0.16452366 0.045710526 -0.066606104 -0.09393011 0.108047046 0.12855819
0.21739553 -0.0025747821 -0.14574137 -0.03469077 -0.22091398 -0.116030395 -0.16481166 0.08673132
-0.0121528 0.021429598 -0.0072318497 -0.063927874 -0.19290318 -0.10271754 0.039709326 0.04683005
-0.31310686 0.09860238 0.06358085 0.025418278 -0.06738233 -0.08821569 -0.03714914 -0.04671839
0.124054074 -0.06950426 -0.13779582 -0.023068953 0.12710664 -0.1976659 -0.14182651 -0.06855989
-0.042881023 0.18850744 0.20162131 -0.1325704 -0.058178816 -0.1820689 0.10891634 0.07779584
0.019589234 -0.18054213 -0.04315146 0.19214594 -0.10921428 -0.064319104 -0.2230455 0.02403205
-0.19560458 -0.07241421 -0.13534352 0.029647235 0.014851485 -0.1217754 -0.122892074 -0.03921735
-0.110605106 -0.25954708 0.09287799 -0.07592456 -0.09373564 -0.0088348985 -0.16059162 -0.17087738
-0.058060676 0.14357139 -0.10111733 -0.0989539 -0.042208746 -0.07366461 -0.056640685 -0.011986998
0.06958773 -0.06495135 0.14010334 0.06730611 0.10379942 0.025124501 0.1854206 0.004184936
-0.238771 -0.11191591 -0.03190189 -0.27503935 -0.07844895 -0.14423862 -0.0038683573 -0.2251626
-0.051339783 -0.061064698 0.15009323 -0.043363936 -0.03030801 -0.15205812 -0.03179682 -0.08195279
0.14802119 -0.12654592 -0.011937715 -0.050640006 -0.070891365 0.02142892 -0.12213629 -0.037866782
0.04417676 -0.12098168 -0.09294839 0.07131582 -0.15603256 -0.06246539 0.061852347 -0.08375458
-0.034383547 -0.032694522 -0.041688956 -0.05684577 -0.1932196 -0.16114639 -0.04206139 -0.059870023

action_model._discrete_distribution.branches.1.bias f4 [3]
00000000: 28a4 36bd eb89 203c 9dc7 983d
-0.044590145 0.009798507 0.07459948

action_model._discrete_distribution.branches.1.weight f4 [3, 128]
00000000: 4cab 753d 78e0 933d 7403 32be 5ee9 0c3d
00000010: 5767 833d 9e5e ddbb f40e 70be 46a0 88bd
00000020: b4b9 a1bd 8e0a aa3d 5039 053e e13b 9d3d
00000030: 60f6 353d 0499 75be 296c 97bd 488e 34be
00000040: d3f2 8cbd 8caa d9bc c19c 193e b31b 8abd
00000050: c590 9b3d 56b5 c1bd 48b6 26be ab4c 07bd
00000060: 24f2 ffbd 6e48 69bd ccfb aabb f58d 083e
00000070: 1692 6b3d 6518 b23d 843b 82bd dafc 243e
00000080: d5eb 76be 9830 db3d b93e 92bc 0b0d c0bc
00000090: 826e 28be fe6b 213d f93f 633b 7c06 da3c
000000a0: 2ab4 e83d 4fbc 0a3d 0b17 18be 64bc ccbd
000000b0: 19b0 2b3d 6ba1 c4be 1793 1e3d d3bc b13e
000000c0: 6040 8d3d 51b9 223d 1255 5fbd 2d4c 643e
000000d0: 1a51 29bd 0a1f cfbd 86b5 e8bc cf0b f2bc
000000e0: c646 933b 1b7b afbd 5032 ca3d 6318 1c3e
000000f0: 79d1 5e3e ed1d 8ebd efe1 13bd 0adf f7bd
00000100: 7241 753d 65a4 233a 6727 82be 9215 68bd
00000110: 768a 87be e558 2cbc cd43 8b3c 0425 65bc
00000120: 7462 dd3d fa67 5a3e c1b0 58bd 46a4 973d
00000130: 74ba aabc 1d13 0dbc e734 b93d 6a64 fb3d
00000140: 32b7 813d 64ee 13be 5248 913d 95a2 25be
00000150: d2d2 c83c 4354 133e 6fd1 913d e4bd 9cbd
00000160: 5773 f0bd 4a11 133e f4a6 9e3c 11d0 933d
00000170: 5e1f 933d 144e dfbb 7811 0f3e a447 a8bb
00000180: e763 50be b334 fbbd b3f8 653d 0807 43bb
00000190: f199 663d c2eb 4abd 7b37 ef3a 4653 e9bb
000001a0: 9360 963d 1e40 c33c b81a d63d 4083 933e
000001b0: 61f2 a5bc 7386 94bb 9b35 8cbd 0ac3 e83d
000001c0: 362f df3c 4b2d e4bc 6a72 99bd c06c 993d
000001d0: eb47 89bd 2b4d 153e 1ece 9e3e c47d 70bd
000001e0: b796 3d3d 2282 8c3e 805b a23d 98fc d83d
000001f0: 277a c13d 37e2 48be c49d dcbd 84c5 68bb
00000200: 53e2 503c d754 fdbd 1e2e 9a3d 059b 6f3c
00000210: d64c 933d 87ae 8f3d 82b7 343e 6c29 033e
00000220: c919 833c 7d49 963d 3ae3 d8bc 2fe3 0dbe
00000230: 8393 1b3a 32d3 ad3d 1bdf 883d 0a59 413e
00000240: d3bf 943d 02f1 013e 72fe a0bd 0f6f 383d
00000250: 59bc 7e3d a648 71bc d04d 0b3e d50b e7bd
00000260: 687a 543d ddcf b23c 02a3 ff3d fc20 90bd
00000270: 8328 acbd 3282 b43d 0b19 033e 5336 c8be
00000280: f0d9 493e 84ba 41be b34f 9f3d 3490 ab3d
00000290: 3604 e03c b5bb 353d ebfc 683d eff8 7abd
000002a0: 2a57 47be c175 6e3c 653f 9e3d 8a43 b73c
000002b0: 8104 4e3d 230e 003e 4c69 efbd c799 2abe
000002c0: d119 99bd 7137 153d 1c07 b53d a63e c1bd
000002d0: 1feb 053e e542 833d 5b13 343c 40b0 3d3e
000002e0: 44d5 393d 42af 1a3d f994 093d 42d4 0abe
000002f0: 12de aabd 885b 86bd 158b b8bd a48c 2a3e
00000300: 1c71 073d ec77 453d b420 6d3e 70c1 253e
00000310: bfec d73d 6356 f23d 83d5 e43c fc27 a43d
00000320: 0879 06be 8345 a5bd 2735 8c3c d35f 0cbe
00000330: bcc0 d33d 3700 93bd 9702 56be 5756 eabc
00000340: c852 54be b4aa e33d 0de8 3abe 1aa2 d5bc
00000350: 9407 50ba 877a abbd ec61 49be a407 1b3e
00000360: 48fd 283e 99f5 bbbe c3db 623d de62 d3bd
00000370: 1436 8dbe a29b 5abe 065b aabd 0532 883d
00000380: 168a 9c3d d028 ac3d f8f2 5e3d e409 a73d
00000390: 0764 003d 0044 5fbd 33e6 2abe 701b 29be
000003a0: ba21 3fbc 6282 393d 2afe 92bd 91d9 54be
000003b0: f47e 543b ba9b 4abd c41c 913d 9533 4cbe
000003c0: 1393 1dbe c4c9 4cbc 43f4 903d 9eed bebd
000003d0: 0247 28bd 2b05 b8bd 2b93 fdbd 27b2 cd3b
000003e0: c4d3 253d b9e2 30be cad8 37be 50d6 4bbc
000003f0: c3fa 46be c156 d83d c1dc 683d c57f 1abd
0.059977815 0.072205484 -0.1738413 0.034402244 0.06416195 -0.006755664 -0.23443204 -0.06671195
-0.07896748 0.083027944 0.13010144 0.076774366 0.044424415 -0.23984152 -0.07393677 -0.17632401
-0.068822525 -0.02657058 0.15001203 -0.067435645 0.07595972 -0.09458415 -0.16280472 -0.0330321
-0.124973565 -0.05695384 -0.005218005 0.13335402 0.057512365 0.08696059 -0.06359008 0.1611208
-0.241134 0.10702628 -0.017852174 -0.02344372 -0.16448405 0.03940963 0.0034675582 0.02661442
0.113624886 0.03387099 -0.1485254 -0.0999687 0.041915987 -0.38404402 0.038714495 0.34714374
0.06897044 0.039727513 -0.05452449 0.22294684 -0.04133711 -0.10113342 -0.02840687 -0.029546646
0.004494521 -0.085684024 0.098728776 0.15243678 0.21759595 -0.06939302 -0.03610414 -0.12103088
0.059876867 0.0006242453 -0.25420687 -0.056661196 -0.26472825 -0.010519241 0.017000103 -0.013985876
0.10809794 0.21328726 -0.05290294 0.074043795 -0.02084086 -0.008610514 0.090432934 0.12275012
0.0633377 -0.14446408 0.07093872 -0.16175301 0.02451459 0.14387612 0.071200244 -0.07653406
-0.11740749 0.14362064 0.019366719 0.0721742 0.07183717 -0.0068147276 0.13971508 -0.0051354934
-0.2035061 -0.12265911 0.05614538 -0.002975883 0.056299154 -0.049541242 0.0018250787 -0.0071205227
0.07342639 0.023834284 0.10454315 0.28811073 -0.020257177 -0.004532629 -0.06846162 0.11365326
0.027244192 -0.027853629 -0.07492526 0.074914455 -0.067031704 0.14580218 0.3101663 -0.05871369
0.04628631 0.27443033 0.079276085 0.105950534 0.09447127 -0.19617544 -0.10772279 -0.003551812
0.012749272 -0.123696975 0.075283274 0.014624362 0.0719239 0.0701571 0.17648128 0.1280877
0.016003506 0.073382355 -0.026475538 -0.13856195 0.0005934762 0.08487548 0.06683179 0.18881622
0.0726315 0.12689593 -0.078610316 0.04502779 0.06219134 -0.014726793 0.13603902 -0.11281554
0.05187455 0.021827633 0.12482263 -0.07037541 -0.084061645 0.08813895 0.12802522 -0.39103946
0.19712043 -0.18918806 0.07778873 0.08377114 0.027345758 0.044368464 0.056881826 -0.061272558
-0.19466844 0.014554442 0.07726935 0.022371072 0.050297264 0.12505393 -0.11690006 -0.16660224
-0.07475627 0.036429826 0.08839247 -0.09435777 0.13077973 0.064092435 0.010990943 0.18524265
0.0453694 0.037764795 0.033589337 -0.13557532 -0.08343138 -0.06560427 -0.09010903 0.16655213
0.033066854 0.04821007 0.23157007 0.16187072 0.105432026 0.11832883 0.027933842 0.08015439
-0.13132107 -0.08069899 0.017115189 -0.13708429 0.103394955 -0.07177775 -0.20899425 -0.028605623
-0.20734704 0.111165434 -0.18252583 -0.026078273 -0.00079356995 -0.083729796 -0.1966626 0.15139633
0.16502869 -0.36710814 0.055385362 -0.10321592 -0.2758032 -0.21348432 -0.083181426 0.066501655
0.07643525 0.08406222 0.05443093 0.08156183 0.031345394 -0.05450821 -0.16689377 -0.16514373
-0.011665756 0.04529036 -0.07177384 -0.2078612 0.0032424303 -0.04946492 0.07085565 -0.19941552
-0.15388136 -0.012499277 0.07077839 -0.09322666 -0.041083343 -0.08985361 -0.12381586 0.006277341
0.04048516 -0.17273988 -0.17953792 -0.012441233 -0.19431596 0.10563422 0.056851152 -0.037719507

discrete_action_output_shape f4 [1, 2]
00000000: 0000 4040 0000 4040
3.0 3.0

network_body._body_endoder.seq_layers.0.bias f4 [128]
00000000: ff79 793d 422f 9f3b e1a6 a8bd c01f 51bd
00000010: da74 fb3b 70f0 113d 421c c33c 2131 45bd
00000020: abcc 55bd e270 eeb8 4f17 ba3c 0c52 ec3c
00000030: 9599 c33d 1aaf 943d 6889 553d 97a4 c1bd
00000040: 81a6 413e 70be eb3d 45a4 ffbd 5eeb 263d
00000050: 9d89 8bbd 3806 663e 5bf5 973c 9a19 be3d
00000060: 3016 f93c 3bbe 163e 85f2 7c3e e2b0 50bd
00000070: db62 d43d 40ae 1a3e 8fa9 1fbe 769c 2e3e
00000080: fbf8 05bd 5609 3abd 72ca a93e 2385 df3d
00000090: db04 193d ed27 3e3d 4a21 4cbd 42ea 403c
000000a0: 5bfb bc3d 0c08 7e3e 4f6a b33c 904e 4b3d
000000b0: 5a3c 6a3a 0f30 543e ebfd b13c 15c4 8ebd
000000c0: f3be 203e f60d ed3d 635b bdbc 1a1e bdbd
000000d0: e177 8d3d 7a62 b53d 467c 163e d88c 313e
000000e0: 759f ef3b 080b c7bc babc 5a3e 7c3a c9bd
000000f0: d905 d9bd 5606 38bd ab7e 5bbd bece 1b3d
00000100: 635d 9abd 0680 17be 77b3 143e 3866 653e
00000110: 1748 ac3c fabb 0dbd 4786 07be 27ca d03d
00000120: b55e 19bc 47fd f3bd 89d5 bcbd f3b4 41bd
00000130: 26b9 8d3e 22a5 a2bd b4c6 f53d d8b0 5a3d
00000140: af44 09bd 15c1 3c3e bf92 503e 795e 833e
00000150: 02a1 2b3c 465a 563e c94a d93d 8ca6 953e
00000160: 752f 383c ac46 85bc 3d7b 02bc 954c 17bb
00000170: f691 ff3d b2da 053e f4d1 923d da96 a73e
00000180: ca83 093e c200 f43b 0110 d1bc 03c2 17bd
00000190: 21f6 e5bd 2a3e 843d 13bb cbbd 98d4 563e
000001a0: bd8f 05be 7b7c 36bd e172 8b3d 130a 613d
000001b0: fcd8 c4bd b907 67bb fefb 683e f28b a1b9
000001c0: 3099 3f3a 36ae 893d 4d47 d8bc 16b4 9b3d
000001d0: 1704 5e3b 0770 02be 4d5a 063e 5f74 263e
000001e0: 3151 283d 5f5d 713d c783 8ebd e317 2ebd
000001f0: 9305 1fbe 03c3 06bc dab8 873e f52e 3c3e
0.06090736 0.0048579285 -0.082349546 -0.05105567 0.007673842 0.03562969 0.023817185 -0.048142556
-0.05219714 -0.000113697504 0.022716193 0.028847717 0.09550778 0.072599605 0.052132994 -0.09455221
0.18911172 0.115109324 -0.12482504 0.040751807 -0.06813357 0.2246331 0.018549612 0.09282227
0.030406088 0.14721005 0.24701889 -0.05094994 0.10370418 0.15105534 -0.15592025 0.17051873
-0.03270815 -0.04541906 0.33162266 0.10914066 0.037358146 0.046424795 -0.049836434 0.011774601
0.0922763 0.24807757 0.021901278 0.04963547 0.00089353847 0.20721458 0.021727523 -0.069709934
0.15697841 0.115749285 -0.023114866 -0.09234257 0.06907631 0.088566735 0.14695844 0.17338884
0.00731271 -0.024297252 0.21361056 -0.09825608 -0.105968185 -0.044927917 -0.053587597 0.03803896
-0.07537343 -0.14794931 0.14521585 0.22402275 0.021030469 -0.034603097 -0.13234816 0.101948075
-0.009360959 -0.11913543 -0.09220416 -0.047291707 0.2768032 -0.07941653 0.1200079 0.053391308
-0.033512767 0.1843303 0.20368479 0.25658014 0.010475399 0.20932874 0.10609967 0.29228628
0.011241783 -0.01626905 -0.007963953 -0.0023086418 0.12479012 0.13071707 0.07168952 0.32732278
0.1342918 0.0074463794 -0.025520327 -0.03705026 -0.11228586 0.06457169 -0.09947791 0.20979536
-0.13043113 -0.044552308 0.06809021 0.05494125 -0.09611699 -0.0035252406 0.22752377 -0.0003081258
0.00073088985 0.06722681 -0.026401186 0.07602708 0.003387695 -0.12738048 0.13120385 0.1625533
0.041093055 0.058926936 -0.06958728 -0.04250325 -0.1552947 -0.008225205 0.26508218 0.18377288

network_body._body_endoder.seq_layers.0.weight f4 [128, 68]
00000000: ad9c 133d 8469 003d 2bce 7ebe 2378 3d3e
00000010: 41fb d83d 1cf9 b1bc 12e6 a9be 5c22 c8bd
00000020: 7d7c 59bd b4be 3e3d 4ee9 853d b952 a23b
00000030: 9dd8 0c3e 6cfe 2f3e f0c7 c53d ae9c 2cbd
00000040: f3fd 40bd 2865 823d 2f67 bc3b 7450 8cba
00000050: 51bd f8bd 0786 e63d 468d 093e da67 3f3e
00000060: ff17 5ebe 36d7 d9bc 2d3d b33e c20a 6f3d
00000070: cfc4 19be 2179 f03b 8dbb 303e 929c e33c
00000080: 60d7 93be 384b 913e 04fe dbbc 27d5 cdbd
00000090: 5206 5a3e 5197 c83c 3e72 81bd 2d27 44be
000000a0: fdd9 743d 3b3e abbb d5b1 6b3e c7e6 0dbd
000000b0: a852 37bd 13b8 b13d 28a6 843d f440 2bbe
000000c0: acda 8cbd 2bed 993d 445b 2fbe 327f 4dbd
000000d0: 2a75 f6bd 71fd 283e f90d abbd eba0 3ebc
000000e0: 6c34 cab9 3bb3 0cbd 0d2f ddbd 18c5 723e
000000f0: 8303 92bd aece 073e 29e0 3ebe 060a eb3c
00000100: fce9 b1bd 72a1 413e 2ef5 553e ae3a fe3d
00000110: 5a95 0fbe 0412 a03d a088 34be 8899 1d3e
00000120: 46b2 133e 0a5d dbbc 0ad2 143c 3d08 65be
00000130: 2cd9 68be c471 a0bd 1ba7 c83d 7ff1 923d
00000140: e1ef da3b 6c14 10be ba81 2c3e be5f e5bd
00000150: d781 6ebd 3674 79bd 79e0 04bd f93b 0fbd
00000160: b747 a43d 0cd9 d73c 2de2 20bc 14c1 31bb
00000170: 3b51 483d 1961 e33d dcef 8e3e e2c3 833d
00000180: b886 0c3e 03bb 4ebd bd67 1a3d 715a 7e3e
00000190: 4654 533e 23ec 73bd 462c 64bd 2a9b c43e
000001a0: 11bb 0f3e 7a04 a0bd f9db 213e a79b c7bd
000001b0: df1d 3b3d dbd7 db3a f9c2 503c 16bc a33d
000001c0: a19d 3abe fe9e 66bc d39d bb3d c9ec 59be
000001d0: 759f 9abd f548 b6bd 3268 e7bd 6e6b 6fbe
000001e0: f70c d0bd 735b 0bbe 4773 81bd 70a0 013e
000001f0: 439b b43c abaf 62bd deb3 133e 810d a13d
00000200: 7833 5d3d e417 adbd ec9c d83e a634 503e
00000210: c083 423d a8bc 073e 2597 f9bd 62a4 2dbe
00000220: 7641 1abe 88ca 4b3e 96a6 d1bd 164a 93bd
00000230: 23da b73e 7ac0 d5bd 52bc 863c 8fe1 3dbe
00000240: 5efb 4c3c dfdc 68be 748b afbb bc18 e2bc
00000250: f619 493e e6be 99bd e814 cc3b 1355 fbbd
00000260: a4d6 853c ea35 d83c 7d74 c9bd 08f7 103d
00000270: cbb9 3fbb 86a2 26be 87c3 123d 9320 803d
00000280: 4069 133e 1cfb 4fbc 1f81 90bd 1c65 703d
00000290: 896c a23d f716 82bd 0a41 91bd 8c8c 813d
000002a0: 7dfc dd3d 4824 a53d 2573 8d3d fb81 103e
000002b0: c086 cc3d 978c 3dbe 92f9 293e b56d 52be
000002c0: 44e1 55bd d19b 433c 9485 98be 8a7c 5dbd
000002d0: f10d 8cbd e064 82bd b969 703d 9e3c 213e
000002e0: a21f 0ebe 8a5e a4bd a904 773e 1873 233e
000002f0: dcf2 9d3e f944 abbd c62c 623d ca38 4f3e
00000300: dfa9 363e d0df 3dbe 7ca5 41be a9c9 3fbe
00000310: ab92 46bd 8c9d 763d 95ee 55bd 6dea e33e
00000320: 7d21 19bc f41c 683e 8a11 50be 37a5 1bbe
00000330: c661 f03d 3769 9a3d b852 20bc 05e1 f1bd
00000340: 5d5d 1e3d 6d7a 0f3b d4ee c33c 8718 113e
00000350: 8606 48be 15b3 99be c66a 76bd de5b 013c
00000360: 5666 b33d 9dc5 5dbe 60fa 3cbd bc16 323d
00000370: 2f50 0c3d bc09 fc3d 0b0d dfbd 090c 233d
00000380: b9e9 4abc d82a d13d 8dd6 643e 4f94 19bd
00000390: b314 ebbd 105e 023d 6dd9 19be 1b0b b33c
000003a0: 7fad c83d a4c9 8f3d 10fa 6fbd 9d89 29be
000003b0: 27e7 b93d 2d8a 293e c4d4 b03d 92cc 9f3c
000003c0: b2d6 21bd 01fc 24be 18e4 5a3e 3e74 7bbd
000003d0: 23ec 1ebd ebf4 413d 284b 4ebe 8e29 b8bd
000003e0: 255e 7d3e 09f6 f1bc 5b23 be3b d58e 63bd
000003f0: cc30 e9bd e560 bb3d 572b 4dbe 5f89 1b3d
0.03603809 0.031350628 -0.24883334 0.1850286 0.10594798 -0.02172523 -0.33183342 -0.097721785
-0.053097237 0.046568587 0.0653864 0.004953709 0.13754506 0.17186898 0.09657276 -0.04214161
-0.047117185 0.0636695 0.005749605 -0.0010705129 -0.12145484 0.112560324 0.13432798 0.1869196
-0.21688841 -0.026591878 0.3500761 0.05835987 -0.15016483 0.0073386584 0.17259045 0.02778462
-0.28875256 0.283777 -0.026854523 -0.10050421 0.21291474 0.024486216 -0.06320618 -0.1915557
0.059778202 -0.0052259243 0.23017056 -0.034643915 -0.04475656 0.086776875 0.06477004 -0.16723996
-0.06877646 0.07515939 -0.17124659 -0.05017013 -0.12034066 0.1650293 -0.083522744 -0.0116350455
-0.000385675 -0.034350615 -0.1079999 0.23707998 -0.07129576 0.13262436 -0.18640198 0.028691303
-0.08687207 0.18909243 0.2089431 0.12413536 -0.14021817 0.07815936 -0.17630243 0.15390599
0.14423475 -0.026777763 0.00908328 -0.22366424 -0.22739094 -0.07834199 0.09797498 0.07174968
0.006681428 -0.1407029 0.16846362 -0.11199902 -0.058229294 -0.060901843 -0.032440636 -0.034969304
0.08021491 0.026348613 -0.0098195495 -0.002712314 0.048905592 0.11102504 0.27917373 0.06433846
0.13723266 -0.050471317 0.03769659 0.24839188 0.20637617 -0.05955137 -0.055706285 0.3839963
0.14036204 -0.07813354 0.15806569 -0.09746485 0.045682784 0.0016772704 0.012741798 0.07994859
-0.18224193 -0.014075993 0.09160962 -0.21281733 -0.07549945 -0.08900634 -0.112991706 -0.23380825
-0.10158723 -0.13609104 -0.063208155 0.12658858 0.02204669 -0.05534331 0.14424083 0.07863904
0.054004163 -0.084518224 0.42307222 0.20332584 0.047488928 0.1325556 -0.12187032 -0.16957238
-0.15064034 0.19901478 -0.10236852 -0.07191865 0.35908613 -0.104371026 0.01644722 -0.18543075
0.0125111025 -0.22740506 -0.0053572003 -0.027599685 0.1963881 -0.07507114 0.006228078 -0.12272086
0.0163377 0.026392896 -0.098366715 0.035391837 -0.0029255028 -0.16272935 0.035831 0.06256213
0.14395618 -0.0126941465 -0.07055878 0.058690175 0.07930858 -0.063520364 -0.07092483 0.06325635
0.10839174 0.08063561 0.06906728 0.14112084 0.09986639 -0.18510662 0.1659911 -0.20549662
-0.052216783 0.011939005 -0.29789412 -0.054073848 -0.068385966 -0.06366897 0.058694575 0.1574578
-0.13879254 -0.080258444 0.24122871 0.15961874 0.3084935 -0.08362765 0.05521848 0.20236507
0.17838238 -0.18542409 -0.18910784 -0.18729271 -0.048479717 0.060208842 -0.052229483 0.4451479
-0.009346363 0.22667295 -0.2031919 -0.15199743 0.11737399 0.075395994 -0.009785347 -0.11810497
0.038663257 0.002189304 0.023917593 0.14169513 -0.19533738 -0.3001944 -0.06016042 0.007895438
0.087597534 -0.21657415 -0.046137214 0.043478712 0.034256157 0.12306544 -0.108911596 0.0398064
-0.012384825 0.1021325 0.2234747 -0.037494954 -0.114785574 0.031827986 -0.15024348 0.021855881
0.09798717 0.07020882 -0.058588088 -0.16556402 0.09077292 0.16556616 0.08634332 0.019506726
-0.03951139 -0.16111757 0.21376073 -0.061390154 -0.038799416 0.047352713 -0.20145857 -0.08992301
0.24742945 -0.029536264 0.0058025545 -0.055556137 -0.113862604 0.091493405 -0.20036064 0.037972804

network_body._body_endoder.seq_layers.2.bias f4 [128]
00000000: fcbf ec3c 606c 803d 5d3f 1f3d f66f 5dbd
00000010: 726c 763d a791 0bbd 29c8 363d 4eb4 e6bc
00000020: 343c e3bc d560 3b3d 6062 07bd 85e9 873d
00000030: b5a7 433d 5291 0c3e 07a7 c8bb 2b83 893c
00000040: ef17 2c3d 3bf5 863d 15ca 72bd 6b14 f03d
00000050: 21a4 283d daf3 923d 174e bd3d bec4 aabd
00000060: 2e62 093d d0f0 8c3d a14f 223e 752f 27bb
00000070: 6eeb f83c 08ed a63d 86f6 7d3d 22a3 f53d
00000080: 2485 6a3d 2ece 273e 0331 d6bc 031d e4bb
00000090: 33db 953d ad2d 303d 1610 003d a519 8bbd
000000a0: 822a 1bbd 9ec7 8e3d d29c de3c 8dcf 33bd
000000b0: c189 7a3d 112f 703d d1b9 e83c c458 243d
000000c0: ae80 333e 712a 263e 5447 8ebc 94b7 a63d
000000d0: 5ef1 8a3d a24f cbbd d034 e2bd 8dd7 513d
000000e0: dbbd b73c eeb6 9fbd 9242 913d d162 2c3c
000000f0: 4a57 473c dd0d e73d 8f77 523d f8ec 173d
00000100: f4e3 fa3c 8a3b 2bbd 4a6d ac3d 44fd 583d
00000110: 92cb 023e c9c1 b73b 7715 053e b0db 3f3d
00000120: 3ab7 453e acaf 283c b3e2 d53d 7853 c73d
00000130: dda2 7abc 54fe 73bc 38f1 e33d 8284 3dbd
00000140: 9e5e 36bd 2182 aa3d 9ae8 0f3d 9cbe 0c3d
00000150: 6bd6 4d3b 3ad0 b1bc f6ca b53b 9719 a23c
00000160: de7c 8e3d 129e 293e 9f9d 22bc af0a 333e
00000170: 21c3 703d 1324 023e 8012 86bd 2afd 7a3d
00000180: ffc2 193e 46d2 413e c5e4 b4bd cf96 cc3d
00000190: 2604 8c3d 7901 15bd 601f a63d f1bc fd3c
000001a0: 062f 6d3c af17 013e cbe0 cabd b629 0a3e
000001b0: 4fd7 f6bd 8c2f 4a3d 8d93 da3d b2a5 2f3e
000001c0: ef1a b9bc 0bae d03d a854 cbbc ff26 d1ba
000001d0: 7692 563a 7e4a d7bd 9651 e83c 3bb6 8f3c
000001e0: ca4c 68bd 4161 bb3d cc93 3d3d 3d15 663e
000001f0: 013b 2f3e a90b e23d 0ca6 56bd c39a aabd
0.028900139 0.06270671 0.038878787 -0.054061852 0.060162015 -0.03407445 0.04462448 -0.028162148
-0.027738668 0.045746643 -0.033052802 0.06636337 0.04776736 0.1372731 -0.006123427 0.016786179
0.042015012 0.06589743 -0.05927475 0.117226444 0.04117215 0.07175417 0.0924341 -0.08338307
0.033540897 0.06881869 0.15850689 -0.0025510464 0.0303857 0.08150679 0.06200268 0.11994006
0.05725588 0.16387245 -0.026146417 -0.0069614663 0.073171996 0.04301231 0.03126534 -0.06792001
-0.037882335 0.06971668 0.027174387 -0.043899108 0.06116653 0.058638636 0.028408917 0.040123716
0.17529556 0.16227128 -0.017367996 0.081404835 0.067843184 -0.09927298 -0.110452294 0.051230956
0.022429397 -0.07798563 0.070927754 0.010521607 0.012166807 0.11281941 0.05138355 0.037091225
0.030626275 -0.041804828 0.08419283 0.052975908 0.12772968 0.005607818 0.1299647 0.04684037
0.19308177 0.01029579 0.1044363 0.09732717 -0.015297619 -0.0148921795 0.11129993 -0.046268947
-0.044523828 0.08325601 0.035133936 0.034361467 0.003140832 -0.021705735 0.0055478765 0.019787593
0.0695741 0.16564205 -0.009925275 0.17484544 0.05877984 0.12709074 -0.06546497 0.061276592
0.15015791 0.18927869 -0.08832697 0.09989702 0.06836729 -0.036378358 0.08111453 0.030973883
0.014476543 0.12606691 -0.09906157 0.13492474 -0.120527856 0.04936175 0.10672674 0.17153051
-0.02259585 0.10189446 -0.02482064 -0.0015957056 0.00081852765 -0.10512255 0.028359216 0.017542949
-0.056713857 0.09149409 0.04628353 0.2246904 0.17112352 0.1103738 -0.05240445 -0.083303

network_body._body_endoder.seq_layers.2.weight f4 [128, 128]
00000000: a3d4 b23c 2a04 3b3e 3cdf cf3d 3282 113e
00000010: 87ab 14be 8e24 b63c 8e94 e7bd c32e 8dbe
00000020: cfac 5dbd b861 d63d 853a 57be 498d 31be
00000030: 82b2 f13d 7593 6b3d 5b06 a8be ec91 8f3d
00000040: aa06 6a3e f7f2 de3d 5113 173d 67ff 273d
00000050: ca72 19be 5356 1b3d 6077 bbbe b626 04bb
00000060: 5d62 25be 0306 a1be 9cec 8abd a9b0 50be
00000070: 139b a23d f862 a43d 0227 44bd 8185 87bc
00000080: 1ff8 6a3d e76b 05be 856a 913d 3255 d1bb
00000090: 26e0 d1bd d99d 843d e815 1e3c 7f12 3a3d
000000a0: 9213 513e 2c29 773e 0c73 e3bd c9b5 3d3d
000000b0: 1e97 c3bd e7f8 3f3e c2f3 373d 6ea7 263d
000000c0: fa01 9a3d d50d 3abe bcb7 2a3e 4006 3f3d
000000d0: ce41 cabd ade8 b03a b82f d43d 9c13 ed3a
000000e0: c564 703d 8f2f f23d ac15 93bd 5fa0 823c
000000f0: fe51 dcbc 17c4 acbc b203 843d 577d 363e
00000100: 4694 8f3c 7eee c0bd ed53 c9bd 2fef 473e
00000110: 1091 893d 6b51 ea3d 6e0b d2bb b5d4 d93d
00000120: 80fd f8bd 972e 2abd 8320 80ba e4cf 323d
00000130: 9e24 23be 1075 1c3e 061e d7bd b80f cf3d
00000140: 8715 2fbe 11db 06bd 92cc 373e 8061 d73d
00000150: e485 2cbe 3345 68bb f4e5 533e 1dac 543d
00000160: d835 6f3e 035f 993d f31b 01be 23d1 89bd
00000170: 949c 9c3d 2ae9 77bd f1c8 823d 5542 9abb
00000180: 6351 503d 9ead 9bbd e198 b33d 9194 0bbe
00000190: 417f 603e 9171 433e 6d4a c83d e2e8 983e
000001a0: 711c 0fbd 4a99 fd3c a763 babd ff86 343e
000001b0: a4b2 88bc 9974 17ba c792 4cbc 6873 f43d
000001c0: 12ce f43d dcea c53d a0b3 40bd 6cc4 9c3d
000001d0: 0376 bdbd 7673 58be da9c a8bc 774c 913d
000001e0: 1230 8a3b 7ef7 0e3e b1b1 eb3d 5c78 d6bd
000001f0: 7e28 133d a26c 39bd 58a4 68bc 6428 713e
00000200: 281d c5bd 6704 183e ed0a 86bd 9fa8 2b3e
00000210: 4acd d93d e669 563c 9183 1d3d 0b58 92be
00000220: 27f8 c9bc 7923 923e 6e1a 3b3e f12d 33be
00000230: e805 c43d c8da 3f3e 6038 12be 3bfd 93bd
00000240: 65f5 e1bc 7475 cabb 3643 b63d 68e8 083e
00000250: dbf1 dcbd b8ac 443d 5f21 19be 4be8 1bbc
00000260: 3e84 7b3e cca6 b8be 4c6e dd3d ea30 3bbe
00000270: 2459 193e d1b2 553c 499e ca3d 98aa eb3b
00000280: 844a c3bd c2af 2dbe 1721 913e bc24 123e
00000290: 51b9 273e cf91 493d 6baf fe3d 8e18 3dbc
000002a0: b91c 39be a74a c43e 84d6 d4be 6f5d 27be
000002b0: dc4d 1cbd a3d4 02bd dc9d e5bd b0fa 6a3d
000002c0: 1ab9 7a3c cf41 75bd 997e 003e e512 aebd
000002d0: 886a 21bd e9b3 cebb 0d44 11bd fe4e 9d3d
000002e0: 50a6 86bd dbc8 18be c977 ad3d 3e12 ee3d
000002f0: 9142 a83c ed17 e9ba d25f 15be 97a1 873e
00000300: f639 d03d eda4 c33d b290 7cbd da1d 2ebe
00000310: bd12 2fbd 8277 39be c8ce f3bc 6bbf 8a3e
00000320: f7be debc b549 81be bc74 793d cbb1 1f3c
00000330: 6b5a 0c3e a090 823e da84 9cbc 5e90 2dbe
00000340: f33b 363e bade 8b3e 6a71 3c3e e608 763e
00000350: c42c 63be 80a5 e2bd 9c4f 883d a586 bd3d
00000360: 827f 583d f7d9 173e e44f eebe 50d7 4d3e
00000370: 5c9f 733d 7f66 d93d 192c eabd 08c6 963c
00000380: 3ff0 853d 9726 343e a238 243e 92ac 42bd
00000390: 8c0b 943e 0e82 a8bc ae3a 66bd 3f64 113e
000003a0: 003c 4cbd 2422 4fbe 1c6c 47be 13dd 15be
000003b0: 373b 69bd b89a 99bb 6582 353e 1e28 4c3e
000003c0: 9f27 793d 3fb8 843e 3c95 c1be 4951 c63d
000003d0: 173f a03b 8d7a e8bd ff78 c2bd 72b7 30be
000003e0: 1245 2abe fb1c 3d3e aea4 cfbd 2638 09be
000003f0: c669 85be bffb 3cbe a1bd b0bd d277 873e
0.021829909 0.18263307 0.101500005 0.14209822 -0.14518557 0.022234228 -0.113076314 -0.2757474
-0.05411988 0.10467857 -0.21018417 -0.17339052 0.11801626 0.057513673 -0.3281735 0.07010254
0.22854105 0.108861856 0.036883656 0.041015055 -0.14985195 0.037924122 -0.36614513 -0.0020164675
-0.16150804 -0.314499 -0.06783411 -0.2037989 0.07939734 0.08026689 -0.047888763 -0.016543152
0.057365533 -0.13029443 0.07100395 -0.00638833 -0.10247831 0.064754196 0.009648778 0.045427795
0.20417622 0.241368 -0.11105928 0.046315942 -0.09550308 0.18747292 0.0449102 0.040687017
0.07519908 -0.18169339 0.16671652 0.04663682 -0.098758325 0.0013497077 0.10360664 0.0018087509
0.05868985 0.11825477 -0.07181868 0.015945612 -0.026894566 -0.021089597 0.06446017 0.17821251
0.017526757 -0.09420489 -0.09830461 0.19524835 0.067171216 0.114413105 -0.006410054 0.10636274
-0.12157726 -0.041548338 -0.0009775314 0.04365529 -0.15931937 0.15279031 -0.105037734 0.1011042
-0.17098056 -0.03292376 0.17949131 0.105166435 -0.1684795 -0.0035441637 0.20693189 0.051921953
0.23360384 0.07488825 -0.12608318 -0.06729343 0.076470524 -0.060525097 0.06385983 -0.0047076144
0.050858866 -0.07601474 0.08769394 -0.13630892 0.21923544 0.19086291 0.097798206 0.29865175
-0.034939233 0.030956883 -0.091010384 0.17629622 -0.016686745 -0.0005777567 -0.012486166 0.119360745
0.11953367 0.096639365 -0.047046304 0.07654652 -0.092510246 -0.21137795 -0.020582605 0.07094663
0.004217156 0.13961598 0.11508501 -0.104721755 0.03592729 -0.045269616 -0.014199339 0.23550564
-0.09624702 0.1484543 -0.06545053 0.16763543 0.10634859 0.013086772 0.03845555 -0.28582796
-0.024654461 0.28542688 0.18271801 -0.17497994 0.09571439 0.18735802 -0.14279318 -0.07226034
-0.027582834 -0.0061785523 0.08899538 0.13369906 -0.10788318 0.04801628 -0.14954136 -0.009515832
0.24562165 -0.36064756 0.10812053 -0.18280378 0.1497541 0.013043121 0.09893472 0.007191967
-0.09535697 -0.16961578 0.28345558 0.14271826 0.16379286 0.04921132 0.12435802 -0.011541499
-0.18077363 0.38338205 -0.41569912 -0.16344236 -0.03816019 -0.031941067 -0.1121175 0.05736798
0.015302921 -0.059877213 0.12548293 -0.084996976 -0.039408237 -0.006308068 -0.03546529 0.07681082
-0.0657469 -0.1492037 0.08470113 0.11624573 0.020539554 -0.001778362 -0.14587334 0.2649047
0.10167305 0.095529415 -0.06166143 -0.17003575 -0.04274248 -0.18111995 -0.029761687 0.27099165
-0.027190669 -0.25251547 0.060902342 0.009746979 0.13706367 0.25500965 -0.019106317 -0.16949603
0.17796306 0.27318364 0.18402639 0.24026832 -0.22185045 -0.11066723 0.06655809 0.09254197
0.052855976 0.1482924 -0.46545327 0.20101666 0.05947815 0.10615253 -0.11434192 0.018404976
0.06539964 0.17592846 0.16037229 -0.047527857 0.2891506 -0.020569827 -0.056208305 0.14198397
-0.049861908 -0.20227867 -0.19474834 -0.14635114 -0.056941237 -0.0046876334 0.17725523 0.19937178
0.0608288 0.2592182 -0.3780917 0.09683473 0.0048903334 -0.113515 -0.094957344 -0.17257479
-0.1662791 0.18468086 -0.10138832 -0.13400325 -0.2605726 -0.18455409 -0.08629919 0.26458603

network_body.observation_encoder.processors.0.normalizer.running_mean f4 [25]
00000000: 94f3 7f3f 0000 0000 0000 0000 0000 0000
00000010: 0e89 663e bc55 7f3f 0000 0000 0000 0000
00000020: dc9a 0e38 a63c 683e abe3 7e3f 0000 0000
00000030: 0000 0000 0000 0000 e3e5 643e 20b3 503f
00000040: 0000 0000 0000 0000 e8a7 fb3a 203c 3a3e
00000050: 1838 503f 36c5 a736 0000 0000 91bd 863a
00000060: 08cd 3a3e
0.99981046 0.0 0.0 0.0 0.2251322 0.99740195 0.0 0.0
3.3999662e-05 0.22679386 0.99566144 0.0 0.0 0.0 0.2235332 0.81523323
0.0 0.0 0.001919982 0.18186998 0.8133559 4.999946e-06 0.0 0.0010279884
0.18242276

network_body.observation_encoder.processors.1.normalizer.running_mean f4 [30]
00000000: 333a ce3d a35a 503f 0000 0000 0000 0000
00000010: 0000 0000 3ec8 cd3e a2d3 033f f651 843e
00000020: 0000 0000 0000 0000 0000 0000 2c7e 7c3e
00000030: 5e2d 043f 226e 833e 0000 0000 0000 0000
00000040: 0000 0000 82a6 783e 9f6a 303f c8c6 333e
00000050: 0000 0000 0000 0000 0000 0000 017f 3d3e
00000060: 34fb 313f c164 083e 0000 0000 0000 0000
00000070: 0000 0000 d745 3c3e
0.10069694 0.813883 0.0 0.0 0.0 0.40191835 0.514948 0.2584378
0.0 0.0 0.0 0.24657506 0.51631725 0.25669962 0.0 0.0
0.0 0.24282268 0.6891269 0.17556298 0.0 0.0 0.0 0.1850548
0.6952393 0.13319685 0.0 0.0 0.0 0.18386017

network_body.observation_encoder.processors.2.normalizer.running_mean f4 [13]
00000000: 0127 12be 95fe ffbe f0fe 9541 a353 48bd
00000010: 2d55 ab3e 667e b740 1291 07bb 6cc7 6cbb
00000020: a286 9e36 b92b 7f3f 44f9 ca43 0000 0000
00000030: 28ff 103f
-0.14272691 -0.49998918 18.749481 -0.048907887 0.3346342 5.7341795 -0.0020685834 -0.0036129607
4.7244403e-06 0.9967609 405.9474 0.0 0.5663934
