Assets/Brains/CarPractice_run26.onnx (onnx, 108915 bytes, 15 tensors)

85 f4 [25]
00000000: b15c b93a 5d12 833a 5d12 833a 5d12 833a
00000010: 1028 1e3e c464 c03c 5d12 833a 5d12 833a
00000020: 5d12 833a b59f 183e e339 8b3c 5d12 833a
00000030: 5d12 833a 5d12 833a b603 183e f47c aa3e
00000040: 5d12 833a 5d12 833a 8c1a 1f3d 97e1 9a3d
00000050: b959 ac3e 5d12 833a 5d12 833a 46e3 433c
00000060: 3c1b 863d
0.0014142004 0.000999998 0.000999998 0.000999998 0.1544497 0.023485549 0.000999998 0.000999998
0.000999998 0.14904673 0.016995376 0.000999998 0.000999998 0.000999998 0.14845166 0.33298457
0.000999998 0.000999998 0.038843676 0.07562559 0.33662203 0.000999998 0.000999998 0.011956042
0.06548163

88 f4 [30]
00000000: 885c c03e b81e ca3e 5d12 833a 5d12 833a
00000010: 5d12 833a b072 a33e 6cfb ee3e f2ec da3e
00000020: 5d12 833a 5d12 833a 5d12 833a 1c19 293e
00000030: ab14 f53e ce76 df3e 5d12 833a 5d12 833a
00000040: 5d12 833a 4acc 4d3e ff1f d73e 79cb 843e
00000050: 5d12 833a 5d12 833a 5d12 833a 29e2 a33d
00000060: 6dbb de3e f391 b33e 5d12 833a 5d12 833a
00000070: af5c b93a 246a c63d
0.37570596 0.39476562 0.000999998 0.000999998 0.000999998 0.31923437 0.46676195 0.427589
0.000999998 0.000999998 0.000999998 0.16513485 0.4786733 0.43645328 0.000999998 0.000999998
0.000999998 0.20097461 0.420166 0.25936487 0.000999998 0.000999998 0.000999998 0.08002121
0.4350237 0.35072288 0.000999998 0.000999998 0.0014142002 0.096882135

91 f4 [13]
00000000: 2adc ef3f b48a 923a 32d1 993c 728c a43f
00000010: 7da7 b43c 4458 1441 0951 1c3b 1c26 483d
00000020: 48a6 f63b 11b7 e93b 2171 be43 5d12 833a
00000030: 105c 9241
1.8739064 0.0011180253 0.01877651 1.285536 0.02205252 9.271549 0.0023852012 0.04886447
0.0075271465 0.007132419 380.88382 0.000999998 18.294952

action_model._discrete_distribution.branches.0.bias f4 [3]
00000000: 3921 d33d 24ac 60bd 540d 23bd
0.10309071 -0.054851666 -0.039807633

action_model._discrete_distribution.branches.0.weight f4 [3, 128]
00000000: a50b b33d 0ae4 97bd 9614 143c e1ad 083e
00000010: de31 07bd d1d6 533d 6c88 6b3e 5cba 853d
00000020: 5cba 273d 4690 113e a17c 7e3e 1b6f b73d
00000030: 2cfb 5dbe 0d45 093d fa56 1a3e 718f 3dbe
00000040: 5e18 873d 065e 9f3b 191a e63a 7e4d 923d
00000050: df71 5bbe 799c 9b3d 2b77 283e 7c7b 5f3d
00000060: ebc7 25be a7c8 123e 7a50 04bc 39e6 ccbc
00000070: ea64 c63d 515a c53a c673 bc3d 3d0b 8f3b
00000080: 27af d33d 1920 e93b 0655 033d 07cb cd3d
00000090: 6d22 713d 1862 953d 4435 3c3e 8aba 373e
000000a0: fd09 c13e e2ed 293e ebd9 993e 2e29 333d
000000b0: b9a2 453d 64c9 05be 8a69 793d 4407 cb3e
000000c0: c649 4fbe caf0 d13d 16ec 073e d5b0 923e
000000d0: fc06 31bb dee8 15bd 943b 5e3d 1bd3 5c3e
000000e0: b1b6 9cbd a285 053e 1544 003c 2f8b 8f3e
000000f0: ea3b ef3d 0660 cebd 71a1 9abd b8b6 d23d
00000100: 1391 5e3c 00f3 063e 95f8 ed3d 01f1 cdbd
00000110: fde4 8abe 6b42 633c 3d18 92bd 6d04 513e
00000120: b9ec fcbd 6734 6fbd 15a3 2cbc 3418 9abe
00000130: 2931 3c3b 48b9 05be f199 13be 09b4 483d
00000140: 5240 5c3d 30e1 ac3d d384 d83d 0e4c 1d3d
00000150: a89f e33c d8be 2e3e a3e7 933c cfb5 be3e
00000160: 4a8f 69be 7f4b 293e 047b 8abe e6a6 cbbd
00000170: 4a26 cb3d 0cf4 643e bae2 b53d 2a23 b3be
00000180: 9feb 793e bcec a23e fa29 813e 62cf 5a3d
00000190: 04a7 e13b c05f 673b 2497 7c3c 3618 003e
000001a0: a3ff ec3d 9bf7 393d 831a 41be 538d 5e3d
000001b0: db65 47be a30f 20bc cb90 f73d 15b1 87be
000001c0: 4528 c6ba 8c51 b03e b9af 863e fea5 26bb
000001d0: 7893 273e c37d f03d 0650 0bbc 3531 c7bd
000001e0: 0a1b fbbc 92d4 c4bd 0390 263e ad2c c3bd
000001f0: 9da4 94be d1ad d2bd a58c b2bd 6ea5 8e3e
00000200: f41c 87be 7084 a53c 4ee4 de3d 9f01 90bc
00000210: b371 aa3d 794c 7d3d 53a9 8abd 02d8 723d
00000220: 4920 b33d be89 91bc 340f b9bd 29d9 78be
00000230: 8d00 363e 2bfa 773d 2fc0 08bd f5e5 9a3d
00000240: 35c8 a73d e6e3 9fbc 7fbd ad3d 66dd 6c3b
00000250: 60d1 e43d d446 38bd 74d3 95bd 47fd b33c
00000260: 4561 d93d 466a c9bb fbfd 8d3d 736a 3a3d
00000270: 8409 053d f300 cb3d 1b6a 65be 855d 073e
00000280: 09ef 62be 8af5 38be 9621 62be c7d3 1bbc
00000290: 774d 8abe 09eb 1638 9736 78be d6ba 45be
000002a0: 6117 a2be e493 88be ee83 00be e375 bf3d
000002b0: 4587 98bc 8ff6 fbbd c9ea 853c 5763 07be
000002c0: 2ac6 0a3d ea66 7bbe dd37 25be 1c09 0ebe
000002d0: 695b 0b3d 6549 d63d 464c 463c 60ae 14be
000002e0: 5a3b 173e 67f8 4ebe ea0c 293d 908c 4fbe
000002f0: ca3e 8abe 82c4 8bbb 0b9b cfbd 1b96 2ebe
00000300: 487e 773d 34ba e9bc 8fa3 83be af20 1f3e
00000310: 1609 473e 9cef d63c 3a28 fd3c dfbf 05be
00000320: 9ca4 0fbe e15a 013e 80ff 953d 867c 6b3e
00000330: e196 8fbd 8712 e73d ee5e ab3d 1e87 dc3c
00000340: 2afe bb3d a040 9e3d d9d4 42bd c0d7 253d
00000350: f65f cb3d 6459 83be 518c 983d ba4e b1be
00000360: a786 7e3d c12c bfbe 98c9 c53d ebc9 d43c
00000370: e261 92bd ef5b a7bd 8456 13bd d7d5 3d3e
00000380: 1ae6 7dbd b1f9 77be 680f 8cbe 0c88 333d
00000390: 7834 aa3d 55d6 e53d 8f12 103e dff2 18be
000003a0: e42e 26be 00ff c13d 0fc6 9f3d 18b7 103d
000003b0: 458f 0dbd 40e7 17be d30e 04be 3585 f23d
000003c0: 3721 9a3d a207 8dbe e0b0 1abe 603d c83d
000003d0: f567 54be 7e3b 7cbb 12aa de3d 582d 7e3d
000003e0: 4231 b53d 13a6 833c fbcf 51bc ad25 2bbe
000003f0: fb24 723e 7c08 523c 6c12 a13d c9a9 e7bd
0.087424554 -0.07416542 0.009038111 0.1334758 -0.03300654 0.051718537 0.2300126 0.06529686
0.04094921 0.14215192 0.2485223 0.089567386 -0.21677846 0.033513118 0.15072241 -0.1851175
0.065964445 0.0048635034 0.0017555385 0.07143687 -0.21430157 0.07598204 0.16451709 0.054561123
-0.16189544 0.14334355 -0.008075828 -0.025012122 0.096872166 0.0015056824 0.092017695 0.0043653534
0.10336142 0.007114422 0.032063507 0.1004849 0.05887072 0.072941005 0.18379694 0.17942253
0.37702933 0.16594651 0.3004907 0.043740444 0.048250888 -0.13065106 0.060891666 0.3965398
-0.20242986 0.10251005 0.13273653 0.28650537 -0.002701222 -0.036599033 0.054256037 0.21564905
-0.07652033 0.13039258 0.007828732 0.28035876 0.116813496 -0.10076909 -0.07550324 0.10288757
0.013584393 0.13178635 0.11619679 -0.100557335 -0.2712783 0.013870816 -0.07133529 0.20411845
-0.12349839 -0.058399584 -0.010536929 -0.3009659 0.0028715825 -0.1305896 -0.14414193 0.04899982
0.053772278 0.084413886 0.10572209 0.03840261 0.027786091 0.17064989 0.018054789 0.37248084
-0.22808567 0.16532706 -0.27046978 -0.09943943 0.099194124 0.22358721 0.08881135 -0.34987766
0.24406289 0.3182124 0.25227338 0.053420432 0.006886365 0.0035304874 0.015416894 0.12509236
0.11572196 0.04540215 -0.1885777 0.054333996 -0.19472449 -0.009769353 0.12088164 -0.2650229
-0.0015118202 0.34437215 0.2630594 -0.002542853 0.16364849 0.11742737 -0.008502966 -0.09726182
-0.030652542 -0.09610857 0.16265874 -0.095300056 -0.2903184 -0.10287059 -0.08718232 0.27860588
-0.26389277 0.020204753 0.108833894 -0.017578898 0.08322468 0.061840508 -0.06770577 0.059288032
0.08746392 -0.017765876 -0.09036103 -0.2430159 0.17773648 0.060541313 -0.033386406 0.07563392
0.08192483 -0.01951785 0.08483409 0.0036142706 0.111727476 -0.044989422 -0.07315722 0.021971358
0.10614256 -0.006146702 0.069332086 0.045511674 0.032479778 0.099122904 -0.22403757 0.13219269
-0.22161497 -0.18062416 -0.22083125 -0.009510941 -0.27012226 3.598168e-05 -0.24239574 -0.19309554
-0.31658462 -0.26675332 -0.12550327 0.09348657 -0.018619189 -0.12302887 0.016347306 -0.13221489
0.03388039 -0.24550977 -0.16134591 -0.13870662 0.034022722 0.10463218 0.012103146 -0.14519644
0.14768735 -0.20211945 0.04127208 -0.20268464 -0.2700103 -0.004265369 -0.10136994 -0.17049448
0.060423166 -0.028531171 -0.25710723 0.15539812 0.1943706 0.026237302 0.03090297 -0.13061474
-0.14027637 0.12632324 0.073241234 0.2299672 -0.070112 0.11282831 0.08367716 0.026919898
0.09179337 0.0772717 -0.04756627 0.04048896 0.099304125 -0.25654137 0.07448638 -0.34630376
0.062140133 -0.37338832 0.096575916 0.025975188 -0.07147576 -0.08171832 -0.03597118 0.18538605
-0.06198702 -0.24216343 -0.27355504 0.043830916 0.08310789 0.11222521 0.1406958 -0.14936398
-0.16228825 0.094724655 0.078014486 0.03533086 -0.03456046 -0.14834309 -0.1289628 0.118418135
0.075258665 -0.27544886 -0.15106535 0.09777331 -0.20742781 -0.0038487609 0.10872282 0.062054962
0.08847286 0.016070401 -0.012805934 -0.16713591 0.2364692 0.012819406 0.07864842 -0.11311681

action_model._discrete_distribution.branches.1.bias f4 [3]
00000000: a08d bebc bd62 8bbd 9b9d 8e3d
-0.023260891 -0.06805942 0.069636546

action_model._discrete_distribution.branches.1.weight f4 [3, 128]
00000000: 35d0 633d 4192 68be 7bee 6abe 88e5 6bbc
00000010: f5e0 073e 98e7 0c3e 6b82 f2bd 36c1 94be
00000020: bda8 ecbd 04fb ea3c 0659 a1bd 4b9c 193e
00000030: 2867 de3d ab1b 993d f172 88be 58a9 2abe
00000040: 43e9 d1bc 0eeb 233b 2a34 24be 4169 f33b
00000050: 4b01 19bd d5a7 82be 8d5f 81be b4af 69be
00000060: 8357 243e bb55 2fbc 169d 9fbe 11f4 5cbc
00000070: 9f34 cc3d a98a 64be 51a5 f43d 2a48 8ebd
00000080: 47b0 eb3d 18c6 573e 6504 f23c ea31 d03d
00000090: 8a59 873e afb8 05be a7db ff3d 36fb 9c3d
000000a0: eec5 e2bd f5c7 ae3d 8137 a6bd ad81 b1bd
000000b0: 8648 6bbe ffc0 a53e f80b 6e3d ee67 073c
000000c0: 709b 34bc bed7 953e 4af5 0c3e e7f3 223c
000000d0: f143 f4bd c0ea 18be 8092 85be da13 f83c
000000e0: eed3 8e3b d706 b53c 798b 43be 201e 0a3d
000000f0: d50d 553e a005 d9bd 70bb b53d de7f 233e
00000100: c64f 5cbd 5621 e93d 9f0e 6d3e 58d6 4b3c
00000110: ff11 fa3d 8491 be3d 8856 5abe 38c8 89be
00000120: 3bc5 a23e 00f8 2fbe 6e8d e53d 31ab a43a
00000130: 9293 ffbc 1287 dbbd 7cb0 2b3e 044c 64be
00000140: 407c bfbd 1760 223d 150f 9dbe c993 9dbe
00000150: 4c4c b93d 2bc0 3e3e fdef 363d 7ca6 fdbd
00000160: 85c4 a83d 4121 063e e0a6 2bbe 4608 8dbe
00000170: 7f25 d13c 7f75 80bd 1dec db3d 4fc0 6c3d
00000180: d960 c7bc 0148 613c 672f d73d 5c52 603d
00000190: 7369 0e3e 306e 82bd 9ed9 963d cb3c 26bd
000001a0: 30ae ec3d 9088 14bd 8936 f8bc 33fb 77be
000001b0: a7fe 363c 5eb4 863e bf03 3a3d a87d 413d
000001c0: a8ea 303d 43ea 163d 485c 02be 8c5b dfbd
000001d0: 3a52 473e 54dd aa3d f470 2a3c 9fba 38be
000001e0: 2335 293e 3a21 903c fd0a 4cbe 9a26 8f3e
000001f0: cd95 b4bd 0f65 e1bd f9f7 633e e1d3 06be
00000200: 9fa6 ed3c 1868 423e 6ff9 8a3c 1742 09be
00000210: d6ff 56be 6df6 97be 9983 e43c 11d1 2a3e
00000220: 62ba 1bbe d9c7 c1bd 0b64 213d 779e 6abd
00000230: 61de f7bc a1d1 bfbb daa5 bf3d d6ce 133e
00000240: f8fc 5ebe 7f11 1b3e 0ef7 8a3d 33be 9ebd
00000250: 8ab9 593c 3745 253e d671 283e 265c e73d
00000260: 3a11 41bc 299d 203e 04a2 e63d 11c2 b73d
00000270: 74d5 833b be16 023d eed4 ffbc 9b7e 78bd
00000280: a898 9cbd 02ee 1bbe efe6 083a 792d bc3b
00000290: f585 5abe 3592 aebd 364b 6cbd 423d 18bc
000002a0: 6012 af3d e116 93bd eaa4 1e3e 8dbb 37bd
000002b0: e145 043d e820 5abe 0b39 87be 05fe 573d
000002c0: 6522 9f3d 03bf 2cbe 0929 16be c047 aebc
000002d0: 3888 be3d 1d6c 673e e77c 853d 7d83 3d3d
000002e0: 264b b13b e571 8dbd f767 3b3e a3fc 903d
000002f0: 50ea 0fbe 1b23 d03d 1bbb c7bc d3a3 d1bd
00000300: 39cd 433e df3e dbbe 5ab5 e7bd 39a9 f4bd
00000310: 82b5 a43d 62a8 3fbe c97d fd3d 67e6 3dbc
00000320: 5414 13be 3566 893e 143f cabe f477 1d3e
00000330: 0107 113e 251d ce3d b107 27be dd9e 973d
00000340: 890e 7bbe a928 e83d 586f 1d3e dec2 883d
00000350: 7bb5 afbe c79f f1bd 80f6 f0bd 0c9c 323d
00000360: b500 c0ba ae94 47bd 41ca 393e 2d5f 123e
00000370: aea7 0d3d 415e 503d d2cc 43be d258 10bc
00000380: 80dc e83d 7122 183b 26ad 0ebd 1a05 76be
00000390: 3f5a f9be b54d 6ebd 02f1 5abe 2de0 393d
000003a0: 6787 82bd 7cd2 afbe 871d fb3d 7ccd 54bd
000003b0: e525 cd3d c7af 37be e4d5 cb3c eab6 0f3d
000003c0: d5ed 6bbe 6ac7 52bc 4bd1 403e 28a7 243d
000003d0: e6cc 88bd bedf e0be f8a3 7b3d d016 7d3d
000003e0: 938b b7be c1f9 2a3d 6af0 483e b9e0 8ebd
000003f0: 5d53 9b3c 6815 593e 1fd7 e0bd 59f5 db3d
0.055618484 -0.22712041 -0.22942536 -0.014397986 0.13269408 0.13760221 -0.118412815 -0.29053658
-0.11555622 0.028684147 -0.07878308 0.15001027 0.10859519 0.0747598 -0.26650193 -0.16666162
-0.025623923 0.002501193 -0.16035524 0.0074283187 -0.03735475 -0.2551867 -0.25268212 -0.22820932
0.16049008 -0.010701592 -0.31174535 -0.013485924 0.09970974 -0.2231852 0.11945594 -0.06947358
0.115082316 0.2107166 0.029543111 0.1016577 0.264355 -0.13058732 0.12493067 0.07665102
-0.11072908 0.085342325 -0.08116055 -0.08667312 -0.22976884 0.32373807 0.058116883 0.008264525
-0.011023387 0.2926616 0.13765445 0.009945846 -0.11927021 -0.149333 -0.26088333 0.030282903
0.00435876 0.022097988 -0.19096173 0.033720136 0.20806058 -0.10596776 0.088736415 0.15966746
-0.053787015 0.113833115 0.23150109 0.01244124 0.12210464 0.09305099 -0.21322072 -0.26910567
0.317911 -0.17184448 0.11208616 0.0012563226 -0.031198297 -0.10719122 0.16766542 -0.22294623
-0.09349871 0.03964242 -0.3067557 -0.30776814 0.090477556 0.18627994 0.044662464 -0.1238527
0.08240608 0.13098623 -0.16762877 -0.27545375 0.025530575 -0.062724106 0.107383944 0.057800587
-0.024338173 0.013750077 0.10507088 0.054766044 0.13907413 -0.06368673 0.07365726 -0.04058532
0.11556661 -0.03626305 -0.030299442 -0.24216919 0.011169112 0.26309484 0.04541373 0.047238976
0.043192536 0.036844503 -0.12730515 -0.10906133 0.1946496 0.08342996 0.010402907 -0.1803994
0.16524176 0.017593969 -0.19926067 0.27959138 -0.08817635 -0.110056035 0.22262563 -0.13166763
0.029010115 0.18985021 0.016964642 -0.13404118 -0.20996031 -0.29680195 0.027894782 0.16681315
-0.15207818 -0.09461946 0.03940205 -0.05728003 -0.030257406 -0.005853847 0.093578056 0.1443437
-0.21776187 0.15143393 0.06785403 -0.07751121 0.013288865 0.16139685 0.16449675 0.11296873
-0.011783892 0.15684952 0.11261371 0.08972562 0.0040232483 0.03175997 -0.031229462 -0.060667615
-0.07646304 -0.15227512 0.00052224 0.0057427255 -0.21340163 -0.085239805 -0.057688914 -0.009291949
0.08548427 -0.07182098 0.15492597 -0.044856597 0.032293204 -0.21301615 -0.26410708 0.052732486
0.07770232 -0.1686974 -0.14664091 -0.021274447 0.093033254 0.22599836 0.06517964 0.046267975
0.0054105697 -0.06906489 0.18301378 0.07079437 -0.14054227 0.10162946 -0.024381211 -0.10236325
0.19121255 -0.42821404 -0.11313887 -0.11946339 0.08042432 -0.18716577 0.12377507 -0.011590577
-0.14363223 0.2683579 -0.3950125 0.1537779 0.14162828 0.10064153 -0.16311528 0.07403348
-0.24517263 0.1133588 0.15374506 0.06677793 -0.34318146 -0.11798053 -0.11765766 0.04360585
-0.0014648648 -0.048725776 0.1814356 0.14294119 0.03458374 0.050871138 -0.19121101 -0.008810239
0.11370182 0.0023213888 -0.034833096 -0.24025384 -0.48701665 -0.058179576 -0.21381 0.045379806
-0.06373482 -0.34340274 0.12261491 -0.051953778 0.100169934 -0.17938147 0.024882264 0.03508655
-0.23039944 -0.012864927 0.18829839 0.040198475 -0.06679706 -0.43920702 0.06143567 0.061789334
-0.35848674 0.04174209 0.1962296 -0.06976456 0.01896065 0.21199572 -0.10978531 0.10740156

discrete_action_output_shape f4 [1, 2]
00000000: 0000 4040 0000 4040
3.0 3.0

network_body._body_endoder.seq_layers.0.bias f4 [128]
00000000: d0a8 32bd 5e93 dc3d dc30 c93d abd4 803d
00000010: 63f8 463d 7ce0 033e 2c0d 033e 9c82 2abe
00000020: 22a1 c1bd bdc9 493d 9a89 143d c195 59bc
00000030: 71f1 713d ed11 6b3d 3e6f de3d 88c7 3b3d
00000040: 3b2b cf3c 484d 6c3c e444 f73c 1ce1 0e3e
00000050: e472 be3d 6366 163d 3c95 1e3e bff0 ac3a
00000060: bc24 0a3e 2eca f13b 1829 bf3d e358 243e
00000070: ac54 233e 819f 063e c24d edbd 8195 31bd
00000080: 83cf 9a3d 32c2 33bd 6d3c 513d d958 033e
00000090: 7192 f3bc aca5 673d 0039 703c 8bc5 123e
000000a0: df65 1cbe 7a82 3c3c a4a8 173e e0ec f63d
000000b0: 9109 f43d 1d1c 9dbd 748e 26bd a7d4 023e
000000c0: eac9 02bc ffd3 783d 4c1d e23d 00d6 c43d
000000d0: 1f5d 9c3d eafc d83d 8253 36bc 883d b73b
000000e0: e244 163d ce42 c6bd 2ec0 673d 5ca4 58bc
000000f0: 5168 103e 4ec2 a43d 4c00 0abe 5275 4e3d
00000100: ea6e 043e bb98 84bc b226 30bd eeff 283c
00000110: 378d 2c3d 24dd 143d ed82 3ebd fee3 ac3d
00000120: 5cde c83d 0be1 983d 712d 45bd 6d62 273c
00000130: 7c87 43bc 93ca 8a3d 34e9 bc3d e238 1a3e
00000140: 3829 e9bc d879 1c3b a854 9f3c 2c6d 77bd
00000150: 4253 1a3d deab 0d3c 2f36 40be 2076 533d
00000160: e6f0 ea3d b9c5 81bc 11eb 65bb 8efd b83c
00000170: 6f7b 90bd 9f59 233e 28f0 c73d a67e bb3d
00000180: 9f34 9a3a 4058 3e3d fcdb b83d 89ff fc3c
00000190: 395a a63b ee5c 943d 340e 833d c713 2f3e
000001a0: 11a0 f2bb 1822 20bc 848b 75bd 4a10 7ebc
000001b0: a1a4 4bbd b1a5 ea3d fafe fc3c 1461 0dbd
000001c0: c3ed ed3c 389f 1d3e ac25 a13d c23e b2bd
000001d0: cf0e 253e aa67 9b3d 8db2 bd3d 906b 1d3e
000001e0: 32ed 68bd 4975 7f3d 642c 663d 88e7 f53b
000001f0: a59c 3ebd 652f c0bd 57a2 aabc a80e 083e
-0.043618023 0.107702956 0.09823772 0.06290563 0.048576724 0.12878603 0.12797993 -0.16651386
-0.09454562 0.04926466 0.03626404 -0.013280333 0.059068147 0.057390142 0.108610615 0.045844585
0.025289169 0.014422722 0.030184217 0.1395306 0.092992574 0.036718737 0.15486616 0.0013194307
0.13490576 0.007378838 0.0933401 0.16049533 0.15950269 0.13146783 -0.11587097 -0.04335547
0.07559111 -0.04388637 0.051083017 0.12826861 -0.029732915 0.05655448 0.014662027 0.14333169
-0.15273236 0.011505717 0.14810425 0.12056899 0.11915887 -0.07671378 -0.040663198 0.12776433
-0.00798271 0.06074905 0.11040744 0.0961113 0.07634949 0.105951145 -0.011128308 0.005592052
0.036686786 -0.09680711 0.05657976 -0.01322278 0.14102294 0.08044873 -0.13476676 0.050404854
0.12932935 -0.016186109 -0.043005653 0.010314925 0.04212686 0.03634371 -0.04651158 0.084419236
0.09808037 0.074647985 -0.04813904 0.010216338 -0.011934157 0.06776919 0.092241675 0.15060762
-0.028462037 0.0023876335 0.019449547 -0.06040685 0.037677057 0.008646933 -0.1877067 0.051626325
0.11471729 -0.015841352 -0.0035082737 0.022581842 -0.07054793 0.15952156 0.09762603 0.09155016
0.001176495 0.04647088 0.09026334 0.030883567 0.0050766733 0.072442874 0.063991934 0.17097388
-0.0074043353 -0.009773754 -0.059947506 -0.015506813 -0.04971755 0.114573844 0.030883301 -0.03451641
0.029044038 0.15392768 0.078685135 -0.08703376 0.1611893 0.07588132 0.092625715 0.15373063
-0.056866832 0.06236771 0.056194678 0.0075044073 -0.046536107 -0.0938404 -0.020829363 0.13286841

network_body._body_endoder.seq_layers.0.weight f4 [128, 68]
00000000: 5c5e 6ebe 6a2b 1c3d 27fb 2e3e 8d1f 803d
00000010: 071c f63d bd54 49be c3a7 9ebc a53f 9dbe
00000020: 742b ae3d bfab 98bd 2f47 073d 9ce0 803d
00000030: eaa8 5b3e d384 253e 5dd8 b5bd 2389 0e3d
00000040: a3b6 88be 7fad 1cbe e7b9 813d caa1 b1bd
00000050: 9e06 92bc fc23 3f3e 6094 f73c 2d08 813e
00000060: e5e3 8dbd a5c5 3c3e 9a9f 41be 901c a2bd
00000070: 9ec0 07be 5208 0f3d 8c55 a7bd e471 7abd
00000080: 4c18 c4bd 9f16 cebc f06a 6ebe 8af8 2abd
00000090: 2aa0 c5bb a174 38be 6e58 943c 9022 bebd
000000a0: 0121 28bd 07ca d8bc a155 bc3d 1e73 743e
000000b0: ee23 b8bd 8d9e 1dbd f33f 123c 40fa 6cbe
000000c0: 4265 dfba 3dc3 0abd edc4 003e 026b d3bd
000000d0: 3006 00be b478 473d a314 ad3d 9c27 a53e
000000e0: a0fb adbd 819d 1a3e fef2 613e 19b7 f4bd
000000f0: 1e1a 2ebe ff3b 5dbd e43b 933e a28a 7bbe
00000100: 2674 8ebe d4ec 243e c2e2 483e a986 5f3d
00000110: a9d3 40be 4f35 41bc 3249 5e3e 1bd5 0dbd
00000120: b2f4 353e 7917 903e 597f 8bbc 4ea7 e73d
00000130: 39b7 67bc 6153 863c a456 5a3d 5662 efbd
00000140: dbb7 08be 4879 c3bd 0d05 8d3d 8d9f 3a3e
00000150: b079 48bd 6d39 683d 20a7 3e3e 89b9 d83c
00000160: 1b84 c63c 7f48 4fbd 5c09 733e b262 003e
00000170: 8a35 8e3e 95b3 d9bb 5e10 8f3e e1bf b63d
00000180: 2cb5 983e 340a cc3d e919 27be 494c 653d
00000190: 7891 db3c 03ad cc3d 95b2 30be 4555 52bd
000001a0: 9352 c5bd 55d9 493e 100f c1be 2904 7b3d
000001b0: ccb4 0bbd e2f6 093e 7229 2ebd ce99 f73b
000001c0: 877a 1e3e 2ae1 abbd d050 033e 57dc 573d
000001d0: 9a5c e63d ab1b 0abe 976b bf3b 9698 3c3e
000001e0: a1c2 65bd 9773 84be 08fa d9bd 01c4 23bd
000001f0: 9093 c33d b8ba b93d 9bd0 7a3c db9c 9d3e
00000200: cd39 953e f658 0b3e 411c c3bd 5e53 a3be
00000210: b2ba 4d3e 29ba d03d a051 703e a834 8cbe
00000220: b817 e9bd 8e45 20be e226 b4bd d50a 913d
00000230: a55e da3d 21f0 2b3c 0194 cf3d e4d4 173d
00000240: 6c88 aabd 40ad 60bd 8195 f13c c826 f8bb
00000250: 2f27 29be ff81 d0bd 2e72 443e 7254 41bd
00000260: c4ba a83d 1834 dbbd 171f aabd ff7b 573e
00000270: 8bbc b93b 5fa2 a53c 4764 60be 74cf e63c
00000280: 7aa9 b53e c131 2bbe 0573 213e 062a bebc
00000290: 05de 233d 3c91 28bd 47d2 fb3d 9f31 1bbc
000002a0: 0ca6 693e f338 acbb 07f3 9e3d b891 6e3e
000002b0: 52f3 d9bc 07e9 5e3e e332 81be d501 55bd
000002c0: 7fa4 a13d 23b0 d73d 7aee 113c 6ad0 203d
000002d0: 9af2 fd3e 00e8 d6bd 3371 07be 4b1d 42be
000002e0: 193e 78bc e616 7fbd e36c 02be 0bbe da3d
000002f0: 5f15 3f3e 3f62 03be e49a 2c3e 0a10 603d
00000300: e90b cebd ee6d 853d 2c96 2a3e d551 d9bd
00000310: ff7e dd3d 09b8 c03d a0ed 753e 99c2 0abe
00000320: 1164 c53d e88f 4c3d 14d0 92bc 4854 e9bd
00000330: 499e 1ebe 492a f83d 961c ddbd 871c 4e3d
00000340: 2156 c83d 4d41 b53d 6f46 59bd b90f 9d3e
00000350: b4f2 25be 8f91 753e d9ed 4cbe e0c9 ebbc
00000360: ea77 30bd 6fc3 7ebe a155 ed3d 86d0 d23d
00000370: 3742 c63c 6ba5 813d 9ea4 4c3d a4e9 d33d
00000380: b886 99bd d53d 1f3e fe9b 27bd 9049 ccbd
00000390: de11 573e 8ac0 0ebd d94a b4bd ed29 ad3d
000003a0: e0c7 483d e943 e3bd cb9d 8bbd 01f8 9abd
000003b0: b1d9 713e 0711 bebc 0a61 563e 38d8 9c3d
000003c0: 925a f43d ab39 1e3e 84ac 59be a566 2b3d
000003d0: 6e6c 9cbd 8391 71be dd8c 20be ef53 ea3a
000003e0: 0a41 7f3e 8fd4 60be 3e15 333e ad7e 41bd
000003f0: b059 2f3e 1821 b1bd 67c9 4c3e 8b04 5f3d
-0.23278183 0.03812734 0.17087995 0.06256018 0.120170645 -0.19661231 -0.019367104 -0.3071262
0.08504382 -0.07454633 0.03302687 0.06292841 0.21451154 0.1616395 -0.08879159 0.034798753
-0.2670184 -0.15300559 0.06334286 -0.08673437 -0.017825421 0.1866607 0.030222118 0.2520155
-0.06928233 0.1843477 -0.1890854 -0.07915604 -0.13257071 0.034920044 -0.08170614 -0.06114377
-0.09574947 -0.025157271 -0.23282981 -0.04174093 -0.006031056 -0.1801324 0.018108573 -0.09283936
-0.0410471 -0.026463522 0.0919602 0.23872039 -0.08991228 -0.038481284 0.0089263795 -0.23142338
-0.0017043727 -0.0338776 0.12575121 -0.103231445 -0.1250236 0.048699096 0.08451202 0.32256782
-0.08495259 0.15099145 0.2206535 -0.119489856 -0.1700215 -0.054012295 0.2875663 -0.24564603
-0.2782299 0.16105968 0.19617751 0.05457178 -0.18830742 -0.011792495 0.2170761 -0.03462706
0.17769125 0.28142908 -0.017028498 0.11311208 -0.014142805 0.01639718 0.053305283 -0.11688678
-0.13351385 -0.09544617 0.06885729 0.18224926 -0.048944175 0.05669539 0.1861844 0.026455658
0.024232915 -0.050606247 0.23734039 0.1253765 0.27775222 -0.0066437223 0.27942175 0.08923317
0.29825723 0.099628836 -0.16318478 0.055980954 0.026802763 0.09993937 -0.17255624 -0.05135085
-0.096348904 0.19711812 -0.37706804 0.061283264 -0.03410797 0.13473085 -0.042519994 0.0075561767
0.15476428 -0.08392556 0.12823796 0.052700367 0.11248131 -0.13487117 0.005841683 0.18417582
-0.056093816 -0.25869438 -0.10643393 -0.039981846 0.0954963 0.09068817 0.0153085245 0.30783734
0.2914566 0.13608155 -0.095268734 -0.31899542 0.2009075 0.10191757 0.23468637 -0.27383924
-0.11381477 -0.15651533 -0.08796479 0.07082144 0.10662583 0.010494263 0.101356514 0.037068263
-0.08326802 -0.054852724 0.029490234 -0.0075729825 -0.16518854 -0.10181045 0.19184181 -0.047199674
0.08238748 -0.107032955 -0.08306711 0.21043395 0.005668228 0.020219026 -0.21913253 0.028175093
0.35480863 -0.16718198 0.15766533 -0.023213398 0.040006656 -0.04115413 0.122959666 -0.00947228
0.22817248 -0.0052558123 0.077611975 0.23297775 -0.026605282 0.2176858 -0.25234136 -0.0520037
0.07892703 0.10531642 0.008906955 0.03926126 0.49599153 -0.10493469 -0.13226776 -0.18956487
-0.015151524 -0.062277697 -0.1273685 0.10680779 0.18660496 -0.12830447 0.16855961 0.054702796
-0.100608654 0.06515108 0.16658849 -0.10611311 0.10815238 0.09410102 0.24016428 -0.13550796
0.09638227 0.049941927 -0.017921485 -0.113930285 -0.15490068 0.1211744 -0.10796468 0.050320175
0.09782053 0.08850346 -0.053045686 0.30676058 -0.16205865 0.23981307 -0.20012607 -0.028782785
-0.04308311 -0.2487924 0.11588598 0.10293679 0.024201496 0.06330379 0.04996168 0.10347298
-0.07496399 0.15550931 -0.04092025 -0.099749684 0.2100291 -0.03485159 -0.088033386 0.08455262
0.04901874 -0.11096937 -0.06817206 -0.07566834 0.23618199 -0.023201479 0.20935455 0.07658428
0.119313374 0.15451686 -0.21257216 0.041845936 -0.07637869 -0.23590665 -0.15678735 0.0017877797
0.24927154 -0.21956085 0.17488572 -0.047239948 0.17124057 -0.0864889 0.19998704 0.054447692

network_body._body_endoder.seq_layers.2.bias f4 [128]
00000000: 8516 e13d d148 433d 5b80 b73d 34db dc3d
00000010: 5a23 f53d 80b7 8e3a 7ba8 383e f267 583d
00000020: cb2a bf3d 85c0 ef3b 5ab3 e63d b16b ce3d
00000030: b115 8d3c 0a51 1e3d 19f4 6f3d bee6 313d
00000040: 1af3 0b3e fbea 44bd 9969 803d e72c 503d
00000050: 1d07 ed3d 9b59 f23c 0612 453d aa3f a13d
00000060: fa0e 0fbc 59aa 803c 95be d93d 8697 e8bd
00000070: 4b2e 85bd b18a be3d 12c3 5bbd b7ae 203e
00000080: 3c31 9a3d 3471 f23d a731 83bc 47d4 893d
00000090: c4d8 243e b235 ca3d 1276 b13d 5853 503d
000000a0: ac76 333d eb81 433d 5746 8f3d d5ef 0e3e
000000b0: 2246 d13d 82d6 d33d a8bb 163e 7df7 303e
000000c0: 7a44 533c f6df a83d 0d8d b93d 8c7d f23d
000000d0: 6d04 e53c ea06 093c e177 ed3d 693b 983d
000000e0: a78b ce3d e63e b3bc edcc 4c3d 2a5c e23d
000000f0: aba5 c43d fcdd 5abc 726d 5bbd 48dd b03d
00000100: 6c15 33bd 0279 ff3d ae4a 663d a6ba d53d
00000110: 9b3a a83d 9ac3 913c 2462 ba3c f511 bc3d
00000120: dae2 bd3d 1eac bb3c 822d a83d 80a9 b63b
00000130: 142c 24be 4beb 3f3d 174f 2bbd fc90 db3d
00000140: 9319 283e 09c0 5cbd 3a4e d03d 2672 0e3e
00000150: 41b9 0c3e 006b f53d 2b38 4b3d 9e9a b53d
00000160: c8b3 6bbd a280 983d b264 223d 8419 853d
00000170: bf02 14bd 2f98 cf3d 8c30 01bd f4ab 86bb
00000180: 7f8b f03d 7d46 3a3d 257d b93d 6d9c 14bc
00000190: 8a87 253e 8cfb 4f3d 0b84 d63d 4909 12bd
000001a0: 6369 493d 7492 093e 0b0f 95bb d022 0b3e
000001b0: 0808 c9bc c836 aa3d 1ff3 b33c 750e 983d
000001c0: 7bf7 d5bc 7091 163e 01c5 43bd 7890 193e
000001d0: 3e9e 7c3d b6ea 013e e068 bb3c bee8 d63d
000001e0: 629e e83d 66bc 7fbe c5a9 2d3d b9e9 a03d
000001f0: ee49 e5bd 7d61 65be 71fb 91b9 e476 eb3d
0.109906234 0.047676865 0.08960029 0.10783997 0.119696334 0.0010888427 0.1803302 0.052833505
0.09334334 0.0073166513 0.11264677 0.10079134 0.017222257 0.038651504 0.0585824 0.043432944
0.13666955 -0.048075657 0.06270141 0.050824072 0.115736224 0.029583743 0.04811289 0.07873471
-0.008731598 0.015706228 0.10632054 -0.11357026 -0.0650297 0.09303797 -0.05365283 0.15691648
0.07528922 0.11837998 -0.016014887 0.06729942 0.16098315 0.09873523 0.08665098 0.050860733
0.043814346 0.04773132 0.06995838 0.13958676 0.10218455 0.103436485 0.14720023 0.1728191
0.012894744 0.08245842 0.090601064 0.118403524 0.027956212 0.008363465 0.11595131 0.074332066
0.1008523 -0.021880578 0.05000012 0.11052735 0.09601911 -0.013358589 -0.053571172 0.08635956
-0.0437216 0.12474252 0.056223564 0.10435991 0.08214303 0.017793465 0.022751875 0.091831125
0.09271784 0.02290922 0.08211805 0.005574405 -0.1603244 0.046855252 -0.041823473 0.10721013
0.16416006 -0.053894076 0.101711705 0.13910732 0.13742544 0.11983299 0.049614113 0.088673815
-0.0575445 0.0744641 0.03964681 0.06499007 -0.03613543 0.101364486 -0.03154044 -0.004109854
0.11745357 0.04547738 0.090570726 -0.009070498 0.16164985 0.050777003 0.10474404 -0.035653386
0.04917277 0.13434774 -0.0045489124 0.13587499 -0.024539962 0.0831123 0.021966515 0.074246325
-0.026118984 0.14703918 -0.0477953 0.14996517 0.06167435 0.12687191 0.022877157 0.10493611
0.11358334 -0.24974212 0.042398233 0.07857079 -0.111957416 -0.2240047 -0.00027843894 0.11497286

network_body._body_endoder.seq_layers.2.weight f4 [128, 128]
00000000: 3d88 513d e31c 7fbe 64b7 9ebe 1459 78be
00000010: 1295 9cbd 0aa2 3c3e db21 223d e99c 953c
00000020: 392b 9d3e 58b9 f4bd ca06 d9bd f977 93bd
00000030: e9dc 9c3d b928 be3d 7f4b 97bd ef82 67bd
00000040: d80e 3bbd 4911 d4bd 670f af3d 3797 78bd
00000050: b15d 303e 0151 c43d 4233 913e e17e 37bd
00000060: e6b2 37be fb59 a23e c8cc a3bd aaea 303d
00000070: 14f1 53be 6f52 d6bd 491a 113e 3659 bbbd
00000080: f712 c0bd e9ce 693d 77b3 49be 8722 23be
00000090: ee4c 48be 7c98 f23c 25f8 e83d 4475 05be
000000a0: 3a96 3dbe d769 fe3d e1fe 7cbe 5238 24be
000000b0: 5830 e63d 855f 6f3d 0b0d 053e baee 0b3d
000000c0: 7ed0 04be d5f7 f13d 0835 d73d d8b2 2fbd
000000d0: 0f22 fb3d 42b1 8bbc 332f 103e b267 293e
000000e0: 235f c73d 4e72 31bd 86bd 0ebe 965f 20be
000000f0: 1bf0 d43d 0f9a 643e 1e21 923d 22a2 0fbe
00000100: 5a0e a2be df37 8fbd bedd c0bc 8da0 b43d
00000110: c2b1 d6bd 83d5 613e 3176 33be acfb d9bd
00000120: 33c7 a73d 5b0d 213b af3d 5b3d 463c a63d
00000130: e7da e03d 73d0 41bd bab7 02be c0f8 10be
00000140: 5d68 c3bd 71b2 623d 7b3a 423e 3159 333d
00000150: 1cad 28bd d2b7 2e3e b419 23bd c9b6 3dbc
00000160: a3bf 4d3d 46be b73d c758 ce3c 5972 32be
00000170: d4bd 41bd 9245 29bd 9ae9 703d 39be dc3c
00000180: ae7e 5b3e eab9 05bd c646 8bbe 8d7c f23d
00000190: cee9 e23d 3250 ec3d b0c1 ebbd 6c4a 2cbc
000001a0: 9f06 49bd a70f 2d3e de8c 0b3e f3d7 4d3e
000001b0: e230 04be 009e c33d f988 0c3e 08b4 29bd
000001c0: e363 043c 6762 edbd 32bf af3d bda9 d8bd
000001d0: 1bb1 313e 0b79 6c3d fda2 853e 950c 2bbd
000001e0: 905f 4d3e 544b 21be 9237 b13d f4b5 053d
000001f0: ae29 74bb bd3f 8fbc 60c3 9ebd d584 2b3d
00000200: d8f7 06be 1e64 853e 510f 293e 27af 803e
00000210: 287e 1a3e 86b6 b7bb 85da 543e 2e69 12bd
00000220: 90c2 bbbd ff8f 723c 7571 b93d b809 d3bc
00000230: 8559 92bb 8170 ef3d b5e2 0c3e d2b9 3b3e
00000240: 795a 183d b72e 193d c641 37be c560 05be
00000250: 305e 37be 5632 b2be 6cb8 f7bd 305a 0bbe
00000260: 7fcf d0bd a683 d93d 51df aebe 204f 4f3d
00000270: 914f edbb b86f c7bd 708f f3bd 9dec dcbd
00000280: 5a33 f0bd 8205 cb3d 9d1a f43d ae63 0cbd
00000290: 485e 0cbd 1c10 823c 8a65 7bbd 052c cabb
000002a0: a90c 8fbd 267f 28be 0e47 af3d e874 7f3d
000002b0: 9305 ff3d cb05 143e d228 01be 1c02 af3c
000002c0: eb28 c83d 501f 5ebe 3aaf c43d 64b2 2f3e
000002d0: df96 e2bd 62b8 0bbc 5907 ac3d cbf8 653e
000002e0: f71d a1ba c300 723d 2dad adbc 46c8 be3d
000002f0: 94ad 823e 37a9 e0bd 3aa0 1abc df82 503e
00000300: 6d19 df3d 1ad8 59bc f68b dcbb 0474 b93e
00000310: bdcc 33be 735f d73d 8b93 8bbd 541e ef3d
00000320: 3412 6cbe c6f6 ebbb c18c 9b3d c8cf b5bc
00000330: 2e5f 113d ef5c d03c 5be2 babd 28a8 e53c
00000340: 063e c13d 1897 bcbd 0d38 5fbe 931a fe3c
00000350: 2fab 233e 3822 1d3e 2674 e0bd c94c 13be
00000360: 6e73 85be 8d98 4dbe 498d 26bd 3de6 f53d
00000370: 21ef d5bc 13bd 623e 180f 23bd d832 913d
00000380: 3845 ecbd 5afd 4abd 74bc 99bd c62b e63d
00000390: 493b 49be 5e79 783d 2a40 a23d e4e3 3a3e
000003a0: 7227 823e 59e3 a3be db2d e8bd 34ac fcbd
000003b0: 3a55 783d 48e8 ebbd 4509 2a3e 07ac 983d
000003c0: 73dc 6bbe 69fd cfba e0ba b53d 9c2f d6bb
000003d0: 4283 66bd 37dd ed3c 87b1 30be 010b 873d
000003e0: 2b30 3abe 5b38 373e 8737 88be f09d 99bd
000003f0: 9594 cb3d 2e5c 31bd 3c3a aabc 11c7 213e
0.051155318 -0.24913363 -0.3099929 -0.2425273 -0.076456204 0.18421188 0.03958307 0.018263297
0.3069704 -0.11949414 -0.10596998 -0.07200617 0.07659323 0.09285111 -0.073874466 -0.056521352
-0.045668453 -0.103548594 0.0854786 -0.060691085 0.1722324 0.09585763 0.2835942 -0.044798736
-0.17939338 0.31709275 -0.07998043 0.043192543 -0.20697433 -0.10464942 0.14170183 -0.09147875
-0.09378617 0.05708209 -0.19697367 -0.1593114 -0.19560596 0.029613726 0.11375455 -0.13033015
-0.18514338 0.12422531 -0.24706604 -0.1603711 0.112396896 0.058440704 0.12993257 0.034163214
-0.12970158 0.11814848 0.10508162 -0.042895168 0.122623555 -0.017052297 0.14080505 0.16543463
0.09734943 -0.0433219 -0.13939485 -0.15661463 0.10397359 0.22324394 0.07135223 -0.14026693
-0.31651574 -0.069930784 -0.023543235 0.08819685 -0.10483123 0.22054105 -0.17525555 -0.10643706
0.08192291 0.002457461 0.053525623 0.08116965 0.10979252 -0.047317933 -0.12765399 -0.1415739
-0.0954139 0.055345956 0.18967621 0.04378623 -0.041180715 0.1706231 -0.039819434 -0.011579224
0.050231587 0.08971839 0.025188817 -0.17426433 -0.047300175 -0.041326113 0.05881653 0.026946174
0.21435043 -0.032648005 -0.27202433 0.118401624 0.11079751 0.115387335 -0.11511552 -0.01051579
-0.04907858 0.16900502 0.13627955 0.2010191 -0.12909272 0.095516205 0.13724126 -0.041431457
0.0080804555 -0.115910344 0.085813895 -0.1057925 0.17352717 0.057732623 0.26100913 -0.041760046
0.20055985 -0.15751392 0.08653177 0.032644227 -0.0037256288 -0.017486447 -0.077521086 0.041874725
-0.13180482 0.26052946 0.16509749 0.2513363 0.15087187 -0.0056064753 0.20786484 -0.03574484
-0.09167969 0.014804839 0.09054843 -0.02576147 -0.004466238 0.1169138 0.13758357 0.18332604
0.037195656 0.037398066 -0.17896184 -0.13025196 -0.17907023 -0.34804028 -0.120957226 -0.13608623
-0.10195827 0.10620813 -0.34154752 0.05061257 -0.007242151 -0.097381055 -0.11892593 -0.10787318
-0.117285445 0.0991316 0.119191386 -0.03427475 -0.0342696 0.015876822 -0.061376132 -0.0061697983
-0.069848366 -0.16454753 0.085584745 0.06236735 0.12452235 0.14455335 -0.12613228 0.02136331
0.097734295 -0.21691632 0.09603734 0.17157894 -0.110639326 -0.008527847 0.08399839 0.22458188
-0.0012292255 0.059082758 -0.02120074 0.09315543 0.25523055 -0.10969775 -0.009437615 0.20362423
0.108935215 -0.0132961515 -0.006730552 0.36221325 -0.1755857 0.10516252 -0.06815251 0.116757065
-0.23053819 -0.0072010485 0.07595206 -0.022193804 0.03549116 0.02543494 -0.09125205 0.028034285
0.09435658 -0.09208506 -0.21798725 0.031018531 0.1598327 0.15345085 -0.109596536 -0.1438476
-0.26064628 -0.20077725 -0.040662084 0.12006805 -0.026115002 0.22142439 -0.039809316 0.07089776
-0.1153664 -0.04955802 -0.07506648 0.11238818 -0.19651522 0.06066262 0.079223946 0.18250996
0.2542072 -0.3200939 -0.11336871 -0.12337533 0.060628153 -0.115189135 0.16605099 0.074546866
-0.23033313 -0.0015868369 0.08873534 -0.006536437 -0.05627752 0.029036148 -0.17255221 0.06593896
-0.18182437 0.17892592 -0.26604864 -0.07500827 0.09940449 -0.0433008 -0.020779721 0.15798594

network_body.observation_encoder.processors.0.normalizer.running_mean f4 [25]
00000000: 75fe 7f3f 0000 0000 0000 0000 0000 0000
00000010: 03f9 643e c3d4 7f3f 0000 0000 0000 0000
00000020: 0000 0000 9a18 723e fae0 7f3f 0000 0000
00000030: 0000 0000 0000 0000 7eaa 6d3e 8b7c 5f3f
00000040: 0000 0000 0000 0000 3aeb c53a cbb5 503e
00000050: b0a5 5e3f 0000 0000 0000 0000 d9e5 1439
00000060: c35f 3e3e
0.99997646 0.0 0.0 0.0 0.22360615 0.99934024 0.0 0.0
0.0 0.23642197 0.9995266 0.0 0.0 0.0 0.23209569 0.8729941
0.0 0.0 0.001510001 0.20381849 0.8697157 0.0 0.0 0.00014200005
0.18591218

network_body.observation_encoder.processors.1.normalizer.running_mean f4 [30]
00000000: fd2a 2e3e 368d 4e3f 0000 0000 0000 0000
00000010: 0000 0000 84d7 d43e 69e8 2d3f 21a0 763e
00000020: 0000 0000 0000 0000 0000 0000 c39c 823e
00000030: 24fc 243f f615 833e 0000 0000 0000 0000
00000040: 0000 0000 6b9a 943e 9462 453f 0a8b 943d
00000050: 0000 0000 0000 0000 0000 0000 1390 473e
00000060: bf19 3f3f 7215 133e 0000 0000 0000 0000
00000070: ab37 8635 ee85 523e
0.17008586 0.8068422 0.0 0.0 0.0 0.41570675 0.67932755 0.24084522
0.0 0.0 0.0 0.25510225 0.64447236 0.25602692 0.0 0.0
0.0 0.29024062 0.77103543 0.07253082 0.0 0.0 0.0 0.19488554
0.7464866 0.1436365 0.0 0.0 9.99998e-07 0.20558903

network_body.observation_encoder.processors.2.normalizer.running_mean f4 [13]
00000000: d600 f13c 75fe ffbe ecfe 9541 5d4c 663e
00000010: 2a68 ab3e f728 b440 46d0 d8ba 99b1 233c
00000020: 1636 13b9 6aab 7f3f 8b50 9243 0000 0000
00000030: 4f0d 44c0
0.029419344 -0.49998823 18.749474 0.22490068 0.33477908 5.6300006 -0.0016541563 0.009991073
-0.00014039161 0.9987093 292.62924 0.0 -3.0633123
