Assets/Brains/CarPractice_run29.onnx (onnx, 111516 bytes, 15 tensors)

85 f4 [30]
0.4395071 0.12563404 0.000999979 0.000999979 0.000999979 0.06349278 0.49362174 0.14207844
0.000999979 0.000999979 0.004471994 0.065360464 0.3823194 0.092014804 0.000999979 0.000999979
0.000999979 0.07116925 0.4928391 0.18439491 0.000999979 0.000999979 0.11329737 0.13117641
0.4164039 0.08212576 0.000999979 0.000999979 0.051603228 0.09959281
00000000: 1307 e13e 36a6 003e ba11 833a ba11 833a
00000010: ba11 833a 8108 823d fdbb fc3e 037d 113e
00000020: ba11 833a ba11 833a ce89 923b b5db 853d
00000030: 5ebf c33e 4272 bc3d ba11 833a ba11 833a
00000040: ba11 833a 2fc1 913d 6855 fc3e 05d2 3c3e
00000050: ba11 833a ba11 833a 7408 e83d 1c53 063e
00000060: e432 d53e 8d31 a83d ba11 833a ba11 833a
00000070: e85d 533d 51f7 cb3d

88 f4 [30]
0.4529737 0.13305806 0.000999979 0.000999979 0.013525384 0.27815193 0.46371382 0.16156866
0.000999979 0.000999979 0.00458232 0.2518444 0.45012674 0.08995577 0.000999979 0.000999979
0.003741533 0.16897906 0.44377977 0.15658414 0.000999979 0.000999979 0.0033164823 0.20061235
0.4524154 0.11875021 0.000999979 0.000999979 0.000999979 0.15888757
00000000: 2bec e73e 5f40 083e ba11 833a ba11 833a
00000010: 9299 5d3c ee69 8e3e e66b ed3e 4172 253e
00000020: ba11 833a ba11 833a 4927 963b c0f1 803e
00000030: 0377 e63e bb3a b83d ba11 833a ba11 833a
00000040: 8234 753b d908 2d3e 1a37 e33e 9857 203e
00000050: ba11 833a ba11 833a 5759 593b 536d 4d3e
00000060: fea2 e73e 4f33 f33d ba11 833a ba11 833a
00000070: ba11 833a 6cb3 223e

91 f4 [13]
13.64113 0.0011180046 6.672563 4.7151 0.00711415 5.3334527 0.0022499152 0.41322228
0.0038028504 0.11012338 307.15207 0.000999979 27.12579
00000000: 1242 5a41 028a 923a a385 d540 19e2 9640
00000010: d11d e93b a5ab aa40 5073 133b df91 d33e
00000020: 3e39 793b 5e88 e13d 7793 9943 ba11 833a
00000030: 9e01 d941

action_model._discrete_distribution.branches.0.bias f4 [3]
0.022636795 -0.15387425 0.13090402
00000000: cd70 b93c 3691 1dbe b40b 063e

action_model._discrete_distribution.branches.0.weight f4 [3, 128]
-0.07386636 -0.023077976 0.122605644 -0.04316518 -0.03256087 -0.0033480183 0.010817901 0.016157854
-0.0043852013 0.043581113 -0.16386075 0.07818896 -0.025204968 -0.142467 0.03576709 0.12815754
0.0418397 -0.0065770024 0.07930899 0.0047108443 0.09180118 0.030527592 -0.0027394954 0.04541681
0.03943879 -0.040791485 -0.025588416 0.09723831 0.021563314 0.044164333 0.080290176 0.10686496
-0.06009355 -0.003689884 -0.012757056 -0.13781227 -0.009440162 0.056452107 -0.11566227 0.004024592
0.09080376 0.16799666 0.05237832 0.051683087 -0.057759084 -0.1814784 0.081057325 0.06780777
0.014263559 -0.018239122 0.015211054 0.064184494 0.09387509 -0.030421082 -0.013660134 0.08729524
-0.032574072 0.021123467 -0.017554497 -0.13403794 0.06413983 -0.04605048 0.06735413 -0.18356045
0.035300255 0.002360326 0.030997086 0.04966747 -0.07192315 0.056749586 0.025763324 -0.043755338
0.037254676 0.021576127 -0.029627666 -0.034158144 -0.14999563 0.040286332 -0.0044065886 0.0062459526
0.01420768 0.09999229 0.0661078 -0.006828034 -0.10355564 0.035677545 0.07773236 -0.0020847453
-0.0015839731 0.12442318 0.030130735 -0.03383061 0.09622899 0.06910715 0.009772483 0.06986668
0.083295345 -0.083953515 0.0030195038 -0.19661984 0.12708767 0.12248114 -0.010694396 -0.018513052
0.008113488 0.029270744 -0.06855986 0.027571639 0.05834209 0.053702146 -0.12936698 0.010340747
0.020588066 0.05766201 0.10649664 0.03580384 0.03376149 -0.008397739 0.009802679 0.025813181
0.112516135 0.033271804 0.18836711 0.099541746 0.020556407 -0.019321304 0.11149435 0.06876959
0.13332283 0.017978366 -0.014847228 0.102343686 0.01549079 -0.03562953 0.10686044 0.103495
0.088279024 0.024261015 0.04047965 -0.0038667493 0.108165026 -0.0037364422 0.114979655 -0.17718947
-0.12886064 0.11298369 -0.088582 0.041985262 -0.106761344 0.08743256 -0.061015733 -0.028029628
0.037182286 0.1281925 0.091173865 -0.07623148 0.0149629675 -0.122729495 -0.021964632 0.033331525
0.07855834 0.016912729 -0.012015603 0.0628951 0.14934354 -0.02242672 -0.016701106 0.056077726
-0.09664987 -0.09096261 0.14962076 -0.091238715 0.08026429 0.07274203 -0.06892403 0.07574983
-0.0066427584 -0.06833477 0.011047428 -0.054768607 -0.11425775 -0.042336214 0.020510392 -0.023395773
-0.052592438 0.15985537 0.15520069 0.15688935 -0.13513403 -0.14487073 -0.05953082 0.034708984
0.047142264 -0.10968197 0.07191022 0.007850464 0.10962152 -0.037619796 -0.027182635 0.0710603
-0.0983878 0.06854634 0.002773823 -0.036402967 0.030475724 0.04857901 0.05951316 -0.014111309
0.10559154 -0.014465761 -0.174961 0.05575981 0.036942016 -0.0001630346 -0.23486967 -0.03894255
-0.24390768 0.057668727 0.020885529 0.04133481 -0.10130588 -0.009881983 0.07619775 0.019720906
0.0028130026 -0.08237737 0.066928804 0.11407128 -0.05869825 -0.058892842 0.12632498 0.12467082
0.008250809 -0.11829683 -0.0023976336 0.11534128 -0.017681766 0.18876837 0.0073461253 0.008515162
0.0009447217 -0.04105425 -0.02815153 0.030171514 -0.028941788 0.06089187 0.13328181 0.020989818
-0.07813208 -0.10142444 -0.09975903 -0.06867753 -0.0006148005 0.026627831 -0.031934097 -0.054539245
00000000: 3f47 97bd 060e bdbc ab18 fb3d f9cd 30bd
00000010: 8c5e 05bd 6d6a 5bbb 913d 313c 7a5d 843c
00000020: bcb1 8fbb 1c82 323d 1dcb 27be 8921 a03d
00000030: a67a cebc dfe2 11be 8380 123d bb3b 033e
00000040: 1b60 2b3d e583 d7bb c06c a23d 6d5d 9a3b
00000050: 4202 bc3d 0015 fa3c 1b89 33bb fa06 3a3d
00000060: 928a 213d f914 27bd cc9e d1bc e124 c73d
00000070: 8ca5 b03c a9e5 343d 2d6f a43d 04dc da3d
00000080: a724 76bd fbd1 71bb f902 51bc a91e 0dbe
00000090: e9aa 1abc 533a 673d 57e0 ecbd bae0 833b
000000a0: 52f7 b93d 5107 2c3e a68a 563d a5b1 533d
000000b0: ca94 6cbd 79d5 39be 6201 a63d cdde 8a3d
000000c0: b4b1 693c 366a 95bc c937 793c 2973 833d
000000d0: 9541 c03d a235 f9bc c1ce 5fbc d9c7 b23d
000000e0: 646c 05bd 1f0b ad3c 73ce 8fbc 3e41 09be
000000f0: be5b 833d 6e9f 3cbd f6f0 893d 45f7 3bbe
00000100: 0097 103d b3af 1a3b 9aed fd3c 1e70 4b3d
00000110: 724c 93bd 4172 683d 9b0d d33c cc38 33bd
00000120: 5c98 183d 6bc0 b03c b8b5 f2bc 69e9 0bbd
00000130: 7498 19be 4803 253d 2565 90bb d9aa cc3b
00000140: 54c7 683c c2c8 cc3d 8763 873d b3bd dfbb
00000150: fb14 d4bd 9e22 123d 2532 9f3d 39a0 08bb
00000160: 519d cfba 95d1 fe3d bbd4 f63c f791 0abd
00000170: b413 c53d 0d88 8d3d c41c 203c 4316 8f3d
00000180: c096 aa3d d2ef abbd dee2 453b b656 49be
00000190: 4523 023e 64d7 fa3d 8c37 2fbc afa8 97bc
000001a0: 6fee 043c 33c9 ef3c 1d69 8cbd ebdd e13c
000001b0: 1ef8 6e3d c8f6 5b3d c778 04be 3d6c 293c
000001c0: 4ea8 a83c 002f 6c3d e91a da3d 0ca7 123d
000001d0: 7d49 0a3d ac96 09bc 6a9b 203c 2a76 d33c
000001e0: dc6e e63d 0448 083d 4fe3 403e 8bdc cb3d
000001f0: e965 a83c b647 9ebc 2657 e43d 12d7 8c3d
00000200: c885 083e 5e47 933c ca41 73bc 9199 d13d
00000210: 15cd 7d3c 45f0 11bd a5d9 da3d 30f5 d33d
00000220: a2cb b43d 09bf c63c fdcd 253d 4a69 7dbb
00000230: a085 dd3d 19df 74bb 747a eb3d 2871 35be
00000240: 0bf4 03be fe63 e73d 7b6a b5bd bdf8 2b3d
00000250: b1a5 dabd d80f b33d a2eb 79bd 649e e5bc
00000260: 744c 183d e544 033e 5db9 ba3d 401f 9cbd
00000270: 3c27 753c 9a59 fbbd 2cef b3bc a386 083d
00000280: 32e3 a03d 908c 8a3c 17dd 44bc 25cf 803d
00000290: 83ed 183e 3eb8 b7bc c2d0 88bc c2b1 653d
000002a0: 5ef0 c5bd 9b4a babd 2f36 193e 5ddb babd
000002b0: 9b61 a43d c6f9 943d 0b28 8dbd ba22 9b3d
000002c0: 7fab d9bb 1af3 8bbd 4500 353c 0c55 60bd
000002d0: f8ff e9bd bd68 2dbd 6905 a83c 7ea8 bfbc
000002e0: 2b6b 57bd 20b1 233e eeec 1e3e 9aa7 203e
000002f0: 9360 0abe fe58 14be 97d6 73bd 022b 0e3d
00000300: 3f18 413d f1a0 e0bd aa45 933d 3c9f 003c
00000310: 3f81 e03d 3717 1abd 1eae debc 1088 913d
00000320: 8b7f c9bd 0662 8c3d 07c9 353b 471b 15bd
00000330: 3aa8 f93c c9fa 463d 12c4 733d 1f33 67bc
00000340: 6140 d83d cd01 6dbc fa28 33be 6664 643d
00000350: 8350 173d 44f4 2ab9 ad81 70be 3982 1fbd
00000360: efc2 79be 0b36 6c3d 2118 ab3c b14e 293d
00000370: 7579 cfbd 0ae8 21bc 910d 9c3d bd8d a13c
00000380: 5a5a 383b 77b5 a8bd f811 893d 349e e93d
00000390: 946d 70bd 9f39 71bd 565b 013e 6a53 ff3d
000003a0: 672e 073c 9c45 f2bd 9e21 1dbb 0d38 ec3d
000003b0: 5ad9 90bc 7f4c 413e c4b7 f03b 2e83 0b3c
000003c0: 33a7 773a 8028 28bd 0a9e e6bc 402a f73c
000003d0: 5417 edbc c169 793d 077b 083e d7f2 ab3c
000003e0: b603 a0bd 9eb7 cfbd 764e ccbd cea6 8cbd
000003f0: 902a 21ba 9c22 da3c 54cd 02bd 8b64 5fbd

action_model._discrete_distribution.branches.1.bias f4 [3]
0.059654597 0.026933743 -0.039944734
00000000: 6158 743d 27a4 dc3c 179d 23bd

action_model._discrete_distribution.branches.1.weight f4 [3, 128]
-0.055008892 -0.024892848 -0.05822716 0.035978604 0.07237853 -0.18485776 0.17308427 0.02496196
0.013073365 -0.1136681 0.009016188 -0.2007317 0.10946529 -0.15792759 -0.031459074 0.020975199
0.188125 -0.050951216 -0.090213425 0.014440653 0.029171173 -0.085500315 -0.14180806 -0.123767525
-0.090954654 -0.054233424 -0.12902719 -0.11636063 0.097935006 0.09002787 0.1145635 -0.02766151
-0.064828895 -0.049098164 -0.1004327 0.056729015 -0.0034672923 0.055113636 -0.10587579 -0.050724864
-0.005701088 0.0061036767 -0.0817649 0.044620406 -0.09402026 -0.11417726 -0.17225187 -0.029163824
-0.14224158 0.10684289 -0.115819134 0.022224812 0.12517492 -0.1929367 -0.22709729 -0.050185766
-0.1327708 -0.018542558 -0.022827545 0.05451689 -0.040061045 0.03463192 -0.096268944 0.0045697107
-0.15152489 -0.192001 -0.10924246 -0.097240984 0.019029036 0.0140695 -0.16644275 -0.09125916
-0.12648794 0.002140781 0.06950001 0.11721457 0.03097325 0.11332562 -0.20754485 0.097915314
0.0045916266 -0.013677037 0.011910495 -0.06928419 0.08304697 -0.010823624 -0.015453531 0.022005407
-0.01727827 -0.029801918 0.13152552 -0.05908536 -0.16235115 -0.037241638 -0.09745544 -0.017555377
-0.067877 -0.17660716 -0.17231432 0.044985782 -0.10418277 0.01945603 0.020983655 0.18960342
0.11879585 0.04023207 0.08265191 0.10067899 0.09916163 0.05287724 0.09840738 0.012900705
-0.11748836 -0.06733315 -0.09356345 -0.1972976 -0.24994375 0.0059893476 -0.096846074 -0.11326065
0.0023562335 0.10714823 -0.007916032 0.010382718 0.102481306 -0.24480954 -0.069127105 -0.08863209
-0.0601531 -0.09884173 -0.06220888 -0.13072106 0.00038500276 0.029641597 -0.082808375 -0.113787495
0.11573941 0.07649207 -0.033021495 -0.018654382 -0.13313006 0.0015976016 -0.040389404 -0.17938913
-0.12520869 -0.0038936145 -0.020320412 -0.13999303 -0.041649148 -0.008013778 -0.001140467 0.11356451
-0.004138203 -0.043602053 0.07186749 0.080596454 -0.010453908 -0.1850348 -0.21581103 0.0039562215
-0.15107185 -0.12246449 0.04584125 -0.08793646 -0.0041372064 -0.10690023 0.14982226 -0.029351983
0.003405794 -0.11827471 -0.06511022 0.024664668 -0.16494311 0.09983677 0.16713348 -0.108038336
0.14079331 0.05660661 0.050518632 -0.14540829 -0.08183541 0.055313874 0.03576584 0.061627883
0.16797604 -0.13504858 -0.036709916 0.0012700702 0.06600367 0.124246076 0.12625258 0.00075579056
0.010698107 0.10787624 -0.023850048 -0.07746024 -0.13366856 0.0820663 0.030259011 -0.076464236
0.08282032 -0.15393528 -0.084243394 -0.10520034 -0.020234842 -0.054476373 0.08352458 -0.14657804
-0.13621973 -0.025380515 -0.1142697 0.10072809 -0.080355294 -0.1247885 0.11850633 0.005397048
-0.009568028 -0.018353645 -0.15734565 -0.016920036 0.090465434 -0.012993943 -0.04755012 -0.16123706
-0.038331404 0.11829397 0.18036692 -0.065792695 0.084110096 -0.044798654 -0.08408597 -0.020900669
-0.03180727 -0.11156011 -0.19907035 -0.10559233 -0.2291204 -0.13946678 -0.008991844 0.0023897942
0.01782528 -0.08134274 0.03134421 0.1581083 0.110172674 -0.08660377 0.092286736 -0.020300278
-0.029520394 -0.16300912 0.06528462 -0.0781008 -0.021640686 0.21194403 -0.0069171297 -0.08720931
00000000: 0151 61bd 16ec cbbc 9a7f 6ebd 4d5e 133d
00000010: 323b 943d 5a4b 3dbe 013d 313e 067d cc3c
00000020: ab31 563c d2ca e8bd a2b8 133c 9c8c 4dbe
00000030: 572f e03d c5b7 21be 3bdb 00bd 2ed4 ab3c
00000040: d7a3 403e 39b2 50bd d1c1 b8bd 7d98 6c3c
00000050: 62f8 ee3c ca1a afbd 2236 11be d479 fdbd
00000060: 6f46 babd de23 5ebd b41f 04be 7b4e eebd
00000070: 2692 c83d 8860 b83d 45a0 ea3d 649a e2bc
00000080: 03c5 84bd 281b 49bd a9af cdbd af5c 683d
00000090: 833b 63bb d6be 613d 68d5 d8bd e0c4 4fbd
000000a0: 31d0 babb 5a01 c83b 5b74 a7bd e3c3 363d
000000b0: b28d c0bd c4d5 e9bd cb62 30be f9e8 eebc
000000c0: c7a7 11be 72d0 da3d 9532 edbd cf10 b63c
000000d0: db2d 003e 3391 45be 318c 68be 978f 4dbd
000000e0: 12f5 07be 90e6 97bc d500 bbbc 1a4d 5f3d
000000f0: 0d17 24bd 33da 0d3d a728 c5bd 83bd 953b
00000100: 5729 1bbe e99b 44be 83ba dfbd 4826 c7bd
00000110: c8e2 9b3c c383 663c f86f 2abe 15e6 babd
00000120: 0e86 01be 584c 0c3b 0556 8e3d 310e f03d
00000130: 9dbb fd3c 4317 e83d a386 54be d387 c83d
00000140: 5b75 963b a715 60bc 3d24 433c dfe4 8dbd
00000150: 8814 aa3d 9255 31bc cf30 7dbc af44 b43c
00000160: 298b 8dbc 2723 f4bc a0ae 063e 7e03 72bd
00000170: 613f 26be b08a 18bd b896 c7bd 4bd0 8fbc
00000180: 1903 8bbd 82d8 34be 2a73 30be 0343 383d
00000190: c75d d5bd 4162 9f3c eae5 ab3c 6627 423e
000001a0: 3d4b f33d 62ca 243d 6845 a93d c930 ce3d
000001b0: 4115 cb3d ce95 583d cf89 c93d 7b5d 533c
000001c0: bd9d f0bd f6e5 89bd 329e bfbd 6208 4abe
000001d0: 41f1 7fbe 4a42 c43b 3c57 c6bd 33f5 e7bd
000001e0: 0a6b 1a3b 8870 db3d 3fb2 01bc 471c 2a3c
000001f0: b8e1 d13d 5aaf 7abe 8392 8dbd be84 b5bd
00000200: 1963 76bd 886d cabd bdce 7ebd bedb 05be
00000210: 32da c939 efd2 f23c 7097 a9bd 6b09 e9bd
00000220: c908 ed3d e0a7 9c3d 8c41 07bd 13d1 98bc
00000230: 3f53 08be 9d66 d13a 5c6f 25bd c9b1 37be
00000240: b536 00be 032c 7fbb fe76 a6bc 555a 0fbe
00000250: 4c98 2abd 394c 03bc b97b 95ba 8394 e83d
00000260: c399 87bb 1198 32bd 432f 933d c10f a53d
00000270: de46 2bbc c379 3dbe 91fd 5cbe 31a3 813b
00000280: 94b2 1abe aace fabd 09c4 3b3d 0818 b4bd
00000290: 6791 87bb 82ee dabd 026b 193e 9273 f0bc
000002a0: be33 5f3b 033a f2bd 8258 85bd 8f0d ca3c
000002b0: d9e6 28be 3877 cc3d 0a25 2b3e 3443 ddbd
000002c0: 1f2c 103e 55dc 673d a0ec 4e3d e9e5 14be
000002d0: 5399 a7bd cd90 623d 347f 123d 856d 7c3d
000002e0: e901 2c3e 2d4a 0abe 235d 16bd 7c78 a63a
000002f0: ef2c 873d ba74 fe3d 5b48 013e 3f20 463a
00000300: 1d47 2f3c 38ee dc3d 2d61 c3bc 79a3 9ebd
00000310: 69e0 08be 6012 a83d bfe1 f73c 4899 9cbd
00000320: b39d a93d 36a1 1dbe cd87 acbd 4773 d7bd
00000330: 8ac3 a5bc 9e22 5fbd ef0e ab3d 8e18 16be
00000340: 2f7d 0bbe ccea cfbc 3c06 eabd 874a ce3d
00000350: 5191 a4bd 1d91 ffbd 72b3 f23d b8d9 b03b
00000360: 38c3 1cbc 625a 96bc 381f 21be e39b 8abc
00000370: f145 b93d 8ce4 54bc eac3 42bd 541b 25be
00000380: 6401 1dbd 1c44 f23d 1bb2 383e 52be 86bd
00000390: ea41 ac3d cb7e 37bd 4435 acbd e137 abbc
000003a0: 5748 02bd a079 e4bd 19d9 4bbe cb40 d8bd
000003b0: 8a9e 6abe 61d0 0ebe 8752 13bc 189e 1c3b
000003c0: 5206 923c 0697 a6bd c962 003d 24e7 213e
000003d0: 36a2 e13d 515d b1bd d400 bd3d c54c a6bc
000003e0: c1d4 f1bc ddeb 26be f1b3 853d 50f3 9fbd
000003f0: cf47 b1bc db07 593e 17a9 e2bb cb9a b2bd

discrete_action_output_shape f4 [1, 2]
3.0 3.0
00000000: 0000 4040 0000 4040

network_body._body_endoder.seq_layers.0.bias f4 [128]
0.04352151 0.11986064 -0.03308142 0.1242461 0.08714741 0.01047391 0.1510382 0.090696864
0.19948813 -0.12579285 0.1475701 0.02136128 -0.17218873 -0.037116017 -0.08120042 -0.00925649
0.07117484 -0.16545884 0.12672989 0.0012209635 -0.11703773 -0.08627677 0.108999774 -0.09584172
-0.053820107 0.06879145 0.078126274 0.04502092 0.12888724 -0.011263409 0.072297715 0.12382548
-0.111408144 -0.097185016 0.08400045 0.15727149 -0.053631287 -0.102876045 0.031776357 0.0019002439
-0.009795592 0.021295695 -0.006203079 -0.11565994 0.0031091506 0.025482327 0.17441534 0.10373496
-0.008167161 0.009458931 0.16317135 0.14269023 0.071171686 0.0074167904 -0.13219504 -0.022861691
0.06829549 -0.05369269 0.07458423 0.05861002 -0.0043291645 -0.02363138 0.14768383 -0.13300523
-0.087956876 0.07918835 -0.04266451 0.069123946 0.028980887 0.052723017 0.2455326 -0.08819027
-0.08193606 0.1104545 -0.039801378 -0.17552523 0.07379194 -0.10493012 0.08645324 0.11754648
0.11304719 -0.0042209127 0.029879782 0.030899253 -0.10719113 0.019053433 -3.978592e-05 0.03297895
-0.041676242 -0.08183588 0.008313845 0.0065636644 0.042205174 0.08868391 -0.062058818 -0.033351038
-0.16074692 -0.05124856 -0.024615122 0.071528785 0.01475605 0.10676227 0.049198136 -0.06470145
0.15196161 0.06382321 0.012490412 -0.051708214 0.07266575 0.019692909 -0.1288462 -0.09009034
-0.013002474 -0.09575638 0.019881373 -0.09959139 -0.089418486 0.030098047 0.041488893 -0.108149685
0.16593382 -0.07152474 -0.041978966 -0.045419876 0.073298514 0.13613373 0.08943155 0.062072814
00000000: 9c43 323d 7f79 f53d 6280 07bd bd74 fe3d
00000010: 577a b23d c39a 2b3c c2a9 1a3e 47bf b93d
00000020: 9e46 4c3e d7cf 00be 9e1c 173e dafd ae3c
00000030: 3e52 30be f706 18bd 684c a6bd 88a8 17bc
00000040: 1dc4 913d 0b6e 29be 7bc5 013e bd08 a03a
00000050: 7ab1 efbd e0b1 b0bd 463b df3d aa48 c4bd
00000060: 7972 5cbd 88e2 8c3d ab00 a03d db67 383d
00000070: 04fb 033e 298a 38bc d310 943d 3798 fd3d
00000080: f429 e4bd f008 c7bd 6e08 ac3d c70b 213e
00000090: 7bac 5bbd adb0 d2bd ed27 023d 9b11 f93a
000000a0: b17d 20bc 4f74 ae3c 3343 cbbb 1edf ecbd
000000b0: e4c2 4b3b 50c0 d03c ef99 323e ff72 d43d
000000c0: 8ecf 05bc a2f9 1a3c 6416 273e 631d 123e
000000d0: 76c2 913d 8c08 f33b 235e 07be 7148 bbbc
000000e0: 82de 8b3d deec 5bbd 9ebf 983d 0f11 703d
000000f0: aadb 8dbb 9996 c1bc 6e3a 173e 8632 08be
00000100: bc22 b4bd 802d a23d fbc0 2ebd db90 8d3d
00000110: 5369 ed3c 17f4 573d e66c 7b3e 1a9d b4bd
00000120: 18ce a7bd f835 e23d c506 23bd e3bc 33be
00000130: 3b20 973d 9ae5 d6bd 650e b13d 35bc f03d
00000140: 4985 e73d 954f 8abb 72c6 f43c 6e20 fd3c
00000150: 0687 dbbd f215 9c3c cedf 26b8 ef14 073d
00000160: b5b4 2abd 9299 a7bd cb36 083c 0214 d73b
00000170: 55df 2c3d e99f b53d 6331 7ebd 199b 08bd
00000180: d79a 24be 03ea 51bd a7a5 c9bc af7d 923d
00000190: 5cc3 713c 2da6 da3d fc83 493d 3282 84bd
000001a0: d39b 1b3e beb5 823d 96a4 4c3c fecb 53bd
000001b0: c8d1 943d 0653 a13c 42f0 03be 4981 b8bd
000001c0: 5408 55bc ec1b c4bd 43de a23c 92f6 cbbd
000001d0: 0a21 b7bd 2e90 f63c 42f0 293d 957d ddbd
000001e0: 8eea 293e 907b 92bd 23f2 2bbd 310a 3abd
000001f0: 881d 963d a466 0b3e e327 b73d 1040 7e3d

network_body._body_endoder.seq_layers.0.weight f4 [128, 73]
-0.22115195 -0.10631494 -0.107682295 -0.08531313 0.27794415 -0.064115115 0.16348822 -0.022884797
0.031980965 -0.07789585 0.31728166 -0.10904681 -0.12805665 -0.0027677212 0.103802145 -0.009164582
-0.08061477 0.086641006 0.063388504 0.16175276 0.0725577 0.07350217 -0.10063125 0.05805876
0.12138807 0.010807657 -0.031587012 0.0038384185 0.07433623 -0.11274442 0.17023458 0.023652598
-0.103507444 -0.039203666 0.31481403 0.096881844 -0.27317148 -0.1828267 0.14188476 -0.06078615
0.08841163 -0.052998055 -0.03475646 0.03470164 0.025431333 0.07210277 0.26293996 0.01254019
0.15161 -0.2157002 -0.042529296 0.2199253 -0.003036713 0.12913898 -0.33574206 -0.17566514
-0.09913003 -0.1420465 0.17039151 0.1123263 0.0338242 0.012553148 -0.18695913 0.025311697
-0.07299907 -0.01436652 0.43013936 0.0111555075 0.043974306 -0.084219635 0.01033582 0.31885237
-0.223382 0.32849035 -0.01211923 0.07488392 0.016114058 0.010384829 0.031205934 0.086932346
-0.087203324 -0.25890765 -0.0016875609 -0.13363515 0.11329676 0.2516285 0.034185186 0.121575564
-0.08407241 -0.029342003 -0.24218364 0.029390711 0.27264178 0.03662205 -0.08959838 0.013145689
0.27938324 -0.009142787 -0.021119658 0.20782812 -0.043459363 -0.3187577 -0.15359926 0.11035016
-0.065087624 0.072805166 -0.068789184 -0.008586998 -0.3167015 -0.2897512 -0.19675928 -0.049470976
-0.10951411 -0.021301294 0.08473675 0.32562092 0.0910789 -0.0059968745 0.113527276 -0.19299069
0.10417462 0.0015764917 0.010357375 -0.21831998 -0.003897616 -0.27829143 -0.0358116 -0.16911727
0.005558643 -0.15305376 -0.1568371 -0.08464035 -0.3059619 0.17449328 -0.03504172 -0.006162766
-0.058122307 0.09234995 -0.060884926 0.30563825 0.032578714 0.3306138 -0.11486922 -0.070920356
0.062294632 0.019553067 -0.11503 0.18795027 -0.075955525 0.16184463 0.05290639 0.16088437
0.09792322 0.035327706 0.09693977 -0.25975013 -0.24361746 0.061064288 0.10053269 -0.09699914
0.05877814 -0.12795453 0.050582673 -0.17340113 0.12933505 -0.24315071 -0.22349975 -0.039878555
-0.055801988 -0.20954509 0.026850909 0.060802724 0.019695373 -0.016471656 -0.041026488 -0.032657597
0.07555689 -0.19077373 0.028614707 0.061783075 -0.32585782 0.22328286 0.26810822 -0.22994587
0.067623265 -0.06216227 0.075693004 0.15454377 0.00115004 0.21781215 0.21394952 -0.025458751
-0.27435294 0.19689105 0.004261829 0.27308038 0.081677765 -0.2025241 -0.013101605 0.074473225
-0.13127363 -0.025389554 -0.232357 -0.00819124 0.10779082 0.01532389 0.31699786 0.10108533
-0.0055615464 0.07773784 0.09610316 -0.028266149 -0.013099276 -0.13202113 -0.26534808 0.28122604
-0.16070181 -0.05944105 0.3299188 -0.12278247 -0.15933616 -0.03758381 0.08793177 0.1310158
-0.03620637 -0.1399045 0.1339851 0.04178534 0.059971824 -0.16818105 -0.11483087 0.09362816
-0.021774685 0.20652837 -0.06086671 -0.06991277 0.034678064 0.13106954 0.013942036 0.039764352
-0.013666336 -0.10812488 0.21531653 0.3253621 -0.17761959 0.04511548 -0.057966523 0.12502563
-0.0030508975 0.3094755 -0.015546736 0.07307642 0.15932722 -0.18374285 -0.06795575 -0.0044021006
00000000: a875 62be a6bb d9bd 8988 dcbd a6b8 aebd
00000010: b24e 8e3e c94e 83bd 7569 273e e678 bbbc
00000020: 79fe 023d dc87 9fbd be72 a23e ef53 dfbd
00000030: 4821 03be a862 35bb 3896 d43d 0b27 16bc
00000040: 5b19 a5bd d770 b13d d5d1 813d 84a2 253e
00000050: 2299 943d 4e88 963d c217 cebd 06cf 6d3d
00000060: 4f9a f83d 9912 313c 6261 01bd fa8d 7b3b
00000070: 983d 983d 8ce6 e6bd f951 2e3e 18c3 c13c
00000080: b6fb d3bd 0694 20bd 4e2f a13e fd69 c63d
00000090: 22dd 8bbe ec36 3bbe 3d4a 113e e6fa 78bd
000000a0: 2811 b53d 7d14 59bd ca5c 0ebd 4f23 0e3d
000000b0: 5f55 d03c 9eaa 933d 11a0 863e 5e75 4d3c
000000c0: a73f 1b3e 83e0 5cbe 3333 2ebd 1934 613e
000000d0: 9703 47bb 023d 043e 62e6 abbe 90e1 33be
000000e0: af04 cbbd a374 11be 1d7b 2e3e 550b e63d
000000f0: 3f8b 0a3d b8ab 4d3c 3772 3fbe 7a5a cf3c
00000100: 8980 95bd 8d61 6bbc 3a3b dc3e 97c5 363c
00000110: 671e 343d 587b acbd 9257 293c 9e40 a33e
00000120: 40be 64be e32f a83e bc8f 46bc be5c 993d
00000130: a101 843c 2125 2a3c 96a3 ff3c 9609 b23d
00000140: a897 b2bd 8b8f 84be 2631 ddba a7d7 08be
00000150: 2208 e83d 73d5 803e c405 0c3d 9cfc f83d
00000160: 282e acbd a45e f0bc fdfe 77be cac4 f03c
00000170: b497 8b3e 0101 163d 5b7f b7bd 0461 573c
00000180: 520b 8f3e a1cb 15bc 2203 adbc e5d0 543e
00000190: 7202 32bd 3634 a3be 2049 1dbe 44ff e13d
000001a0: a94c 85bd e01a 953d 58e1 8cbd 7bb0 0cbc
000001b0: b326 a2be 455a 94be 447b 49be 14a2 4abd
000001c0: ef48 e0bd 0d80 aebc 768a ad3d c9b7 a63e
000001d0: 9387 ba3d 6e81 c4bb fd80 e83d 5a9f 45be
000001e0: 8159 d53d 49a2 ce3a fbb1 293c 468f 5fbe
000001f0: 256f 7fbb 377c 8ebe 2faf 12bd 142d 2dbe
00000200: 4725 b63b 20ba 1cbe e899 20be eb57 adbd
00000210: 0aa7 9cbe 5eae 323e e887 0fbd 07f1 c9bb
00000220: a811 6ebd f821 bd3d 7962 79bd 9e7c 9c3e
00000230: 4271 053d 3646 a93e 8e40 ebbd b13e 91bd
00000240: a828 7f3d c12d a03c d994 ebbd 0976 403e
00000250: 928e 9bbd 99ba 253e 5fb4 583d dfbe 243e
00000260: f88b c83d c9b3 103d 5c88 c63d f8fd 84be
00000270: db76 79be 8c1e 7a3d 15e4 cd3d 7ca7 c6bd
00000280: 59c1 703d 8306 03be c72f 4f3d 1190 31be
00000290: 6870 043e 80fc 78be 1edd 64be b257 23bd
000002a0: a090 64bd fd92 56be 70f6 db3c 470c 793d
000002b0: 3158 a13c 91ef 86bc 640b 28bd f9c3 05bd
000002c0: 92bd 9a3d 305a 43be 6469 ea3c 4010 7d3d
000002d0: d6d6 a6be 43a4 643e 7b45 893e ee76 6bbe
000002e0: 117e 8a3d dd9d 7ebd ef04 9b3d b940 1e3e
000002f0: f0bc 963a 260a 5f3e 9515 5b3e df8e d0bc
00000300: fd77 8cbe cf9d 493e d0a6 8b3b 31d1 8b3e
00000310: ac46 a73d 7a62 4fbe 1da8 56bc 6b85 983d
00000320: 986c 06be c1fd cfbc feee 6dbe 8d34 06bc
00000330: 6fc1 dc3d 0e11 7b3c 8b4d a23e d305 cf3d
00000340: a23d b6bb 0435 9f3d bcd1 c43d 698e e7bc
00000350: 599e 56bc 8c30 07be b4db 87be dcfc 8f3e
00000360: 048f 24be 7578 73bd 1eeb a83e 6075 fbbd
00000370: 0529 23be 7bf1 19bd 9215 b43d 0229 063e
00000380: 214d 14bd 2043 0fbe 6433 093e 1b27 2b3d
00000390: 04a5 753d a737 2cbe 722c ebbd 1fc0 bf3d
000003a0: d360 b2bc 2c7c 533e 5f4f 79bd 6d2e 8fbd
000003b0: 960a 0e3d 1837 063e 236d 643c f2df 223d
000003c0: c5e8 5fbc 9470 ddbd f07b 5c3e dc95 a63e
000003d0: e9e1 35be 02cb 383d 4e6e 6dbd b806 003e
000003e0: 91f1 47bb 9373 9e3e bdb7 7ebc 17a9 953d
000003f0: ad26 233e 1627 3cbe 622c 8bbd 7f3f 90bb

network_body._body_endoder.seq_layers.2.bias f4 [128]
-0.13690445 -0.10975335 -0.16358992 -0.08360218 -0.070163995 -0.10948368 0.020924132 -0.089331195
-0.029375626 0.02073551 -0.050983917 -0.20377903 -0.1074793 -0.05570192 -0.06391616 0.07643322
-0.056378216 -0.122354604 -0.17041762 -0.14344835 0.041977014 -0.16271873 -0.000507436 0.05040361
-0.115388654 -0.16235231 -0.061457142 -0.03915471 -0.1869114 0.05721416 -0.004774106 -0.030168429
-0.19047464 -0.21639432 -0.048037108 -0.052022967 -0.0770855 -0.051981185 -0.020212026 -0.09601899
0.01716076 -0.093010575 -0.061252687 0.02461422 -0.1270529 0.0020954537 0.025556406 -0.026221404
0.0027794596 -0.042052474 -0.097235695 0.023251576 -0.04778169 -0.043392368 -0.0726811 -0.15573718
0.073562995 -0.051750313 -0.11754114 -0.019715445 -0.017989375 0.07197492 0.07489001 -0.0058339606
-0.15863667 0.13052142 -0.13696773 -0.13297722 -0.1335241 0.023404099 -0.15703711 -0.14691672
-0.025107615 -0.1438348 -0.047171164 0.046670884 -0.010596394 -0.10778587 -0.031186748 -0.045459744
-0.11944884 -0.045483418 0.07328561 -0.05034329 -0.017252991 -0.046616964 0.07028939 -0.08066984
0.101429254 -0.045286458 0.057586234 -0.09972053 -0.014396767 -0.11933247 -0.09010998 -0.10907418
-0.1412398 0.058852445 0.023380693 -0.06674108 0.012133316 0.0992432 -0.1090571 0.081849515
-0.07536225 0.027097227 0.027027091 -0.032812662 0.02969465 -0.05260556 -0.06403024 -0.33104125
-0.31620422 -0.14980155 -0.14874625 0.057754435 0.024054 -0.053815454 -0.07637988 -0.104087435
-0.07307468 -0.037821215 -0.14042333 -0.0325415 -0.08151697 0.07705993 -0.14616324 -0.13721207
00000000: ae30 0cbe 5dc6 e0bd 1e84 27be 9f37 abbd
00000010: 24b2 8fbd fb38 e0bd 1669 ab3c 46f3 b6bd
00000020: 27a5 f0bc 84dd a93c 83d4 50bd 73ab 50be
00000030: 1b1e dcbd b227 64bd 7ae6 82bd 0589 9c3d
00000040: d8ec 66bd 0d95 fabd f581 2ebe 20e4 12be
00000050: 17f0 2b3d bd9f 26be 7405 05ba 0474 4e3d
00000060: e350 ecbd af3f 26be 7cba 7bbd b060 20bd
00000070: b465 3fbe 6559 6a3d 1b70 9cbb c823 f7bc
00000080: c90b 43be 7996 5dbe 8fc2 44bd 0916 55bd
00000090: 01df 9dbd 39ea 54bd b193 a5bc 9ba5 c4bd
000000a0: b994 8c3c 547c bebd 19e4 7abd c3a3 c93c
000000b0: 281a 02be e153 093b ab5b d13c 45ce d6bc
000000c0: 9827 363b 373f 2cbd 8223 c7bd 177a be3c
000000d0: bcb6 43bd 32bc 31bd d4d9 94bd 9179 1fbe
000000e0: 32a8 963d 23f8 53bd 69b9 f0bd 4982 a1bc
000000f0: 745e 93bc 9667 933d ef5f 993d cf2a bfbb
00000100: a771 22be 68a7 053e 4541 0cbe 2e2b 08be
00000110: 8bba 08be f4b9 bf3c 56ce 20be 5671 16be
00000120: 7cae cdbc 6e49 13be 8d36 41bd f829 3f3d
00000130: 7f9c 2dbc d7be dcbd 5a7b ffbc ff33 3abd
00000140: 98a1 f4bd d24c 3abd c416 963d c434 4ebd
00000150: 2556 8dbc 6ef1 3ebd e2f3 8f3d 3b36 a5bd
00000160: 24ba cf3d 4b7e 39bd 8bdf 6b3d 473a ccbd
00000170: 6be0 6bbc 9564 f4bd 958b b8bd 4962 dfbd
00000180: 2ba1 10be 430f 713d de88 bf3c 8caf 88bd
00000190: d1ca 463c 0540 cb3d 5459 dfbd b8a0 a73d
000001a0: 8657 9abd 01fb dd3c eb67 dd3c 9266 06bd
000001b0: 3242 f33c ed78 57bd 4922 83bd 3d7e a9be
000001c0: 85e5 a1be 9465 19be f050 18be ea8f 6c3d
000001d0: e50c c53c 986d 5cbd 0e6d 9cbd cb2b d5bd
000001e0: 2ea8 95bd 6bea 1abd 22cb 0fbe 3c4a 05bd
000001f0: 5ff2 a6bd 99d1 9d3d d1ab 15be 5281 0cbe

network_body._body_endoder.seq_layers.2.weight f4 [128, 128]
0.044976436 -0.1979748 -0.14141496 -0.03329825 -0.1935164 0.16959901 -0.18509963 -0.17611621
-0.2102099 0.16518983 0.12042384 0.23258787 0.22031344 0.061618168 0.17788465 0.17970051
0.08587253 -0.22015709 -0.14968094 0.06857943 0.005417155 0.07544867 -0.13692886 -0.007988303
-0.14204377 0.29777616 0.014011786 -0.038380384 0.15814081 -0.011821338 -0.19738148 -0.18560289
-0.050157797 -0.1003271 0.15989393 0.096278764 -0.0775624 0.1822649 -0.025251232 0.07308933
-0.14112926 -0.291139 0.09788399 -0.2395511 -0.11006474 -0.17270778 -0.28383493 -0.21680593
0.27186057 0.103193566 -0.025889924 -0.20745765 -0.16900606 -0.14874308 0.009223258 0.033594478
-0.12282687 0.099666715 -0.06315077 -0.05215849 0.22853401 -0.1078414 0.24632834 -0.060143527
-0.07092363 -0.075826325 -0.13229288 -0.10737839 -0.11548258 -0.00524709 -0.14552043 -0.22033036
0.04100692 0.20761885 -0.055842627 0.113343835 0.10543846 0.09761763 0.017263796 -0.14155869
-0.1597213 -0.23684855 -0.020078544 -0.19604787 0.0931039 0.17178752 0.11050585 -0.006519706
0.0075810966 -0.022467723 -0.05236681 -0.05979522 0.1093483 -0.0461462 0.009157534 -0.03227281
0.28542832 -0.27503848 -0.09854619 -0.0695673 0.13461894 -0.19976959 -0.051757865 -0.025742013
0.07285381 -0.23648994 -0.012120285 -0.23878102 -0.12716517 0.05729773 0.05858025 -0.016286744
-0.06548145 0.09310638 0.011256314 -0.2084651 -0.05742364 -0.14307623 0.0030733596 -0.07045411
-0.14201897 -0.0633605 0.037831735 0.15016554 -0.12123381 -0.11232017 -0.02056774 -0.17268246
0.028211337 -0.12991713 -0.016497154 -0.1149652 -0.1974797 -0.11094106 0.20864302 0.16404593
-0.02443081 0.067340694 0.05091686 -0.031215407 -0.15617551 0.19896348 0.028242888 0.19518848
0.22312368 0.0018714351 0.015069971 -0.10493755 0.091560066 -0.054235503 -0.017826883 0.07225388
-0.04235308 0.45287997 -0.2894875 0.0006954368 -0.021435486 0.092043184 0.02311092 0.14028421
0.106434576 0.08639038 0.09626667 0.07686473 -0.13253537 0.21056402 0.023318574 -0.0028408635
0.0019413974 -0.076401815 -0.2540085 -0.0017737218 -0.06108919 -0.09535116 -0.17406042 0.031293377
-0.19978902 0.10160924 -0.18200603 0.021018146 0.090213746 -0.08874929 0.06731855 -0.05295505
0.03335037 -0.07588062 -0.12035217 0.054443996 -0.21080619 -0.021008736 0.124924175 -0.103092775
0.04588941 0.1435497 -0.091006674 0.21844634 -0.18330474 -0.15927869 -0.15478022 0.0359226
-0.16914028 -0.08505348 -0.14879258 -0.14572021 -0.18922564 0.04400147 -0.14442438 0.042721365
-0.10094624 0.011395089 -0.042091794 -0.065032 -0.13018058 -0.04694024 -0.083019406 0.28726387
0.06667853 -0.1275195 0.03477423 0.051425774 -0.09019168 -0.07164111 -0.0067468924 -0.023807446
0.009391527 -0.07464801 -0.004070482 -0.07057201 0.16505285 -0.00956202 -0.25945827 -0.016092379
-0.1950446 -0.18077004 0.01228878 -0.1498754 0.0762018 -0.16067024 0.08700976 0.13882582
0.0260574 -0.046111345 0.060971648 0.093925916 -0.17435345 -0.15865172 -0.19837703 0.14176808
-0.22716817 -0.043160066 -0.072567366 0.07472815 0.2511616 0.07666555 0.0976515 -0.06127834
00000000: 3639 383d e8b9 4abe 15cf 10be bf63 08bd
00000010: 2a29 46be 5dab 2d3e c28a 3dbe cf57 34be
00000020: 4441 57be 8627 293e c6a0 f63d 842b 6e3e
00000030: d999 613e 5563 7c3d 6527 363e 6903 383e
00000040: f0dd af3d dc70 61be f645 19be 5f73 8c3d
00000050: 6482 b13b d584 9a3d 1437 0cbe 5fe1 02bc
00000060: ec73 11be 1e76 983e b191 653c c034 1dbd
00000070: aaef 213e 49ae 41bc 5f1e 4abe af0e 3ebe
00000080: 4372 4dbd 4b78 cdbd 3cbb 233e cd2d c53d
00000090: 09d9 9ebd a6a3 3a3e acdb cebc dcaf 953d
000000a0: 3084 10be 2c10 95be 6777 c83d e24c 75be
000000b0: 9f69 e1bd 4fda 30be d052 91be 6002 5ebe
000000c0: 4f31 8b3e 2657 d33d 1b17 d4bc c76f 54be
000000d0: ed0f 2dbe 1b50 18be 261d 173c 5d9a 093d
000000e0: a78c fbbd 101e cc3d 3155 81bd 24a4 55bd
000000f0: d204 6a3e f4db dcbd 7f3d 7c3e 0f59 76bd
00000100: 6840 91bd d54a 9bbd c977 07be 34e9 dbbd
00000110: 2282 ecbd c8ef abbb 4f03 15be 489e 61be
00000120: dff6 273d 099a 543e 3dbb 64bd d020 e83d
00000130: 1ff0 d73d c1eb c73d ce6c 8d3c c3f4 10be
00000140: fb8d 23be 6d88 72be c27b a4bc c6c0 48be
00000150: 42ad be3d 11e9 2f3e e450 e23d 42a3 d5bb
00000160: d96a f83b 3b0e b8bc 957e 56bd d5eb 74bd
00000170: 00f2 df3d cc03 3dbd 7b09 163c 7e30 04bd
00000180: a923 923e d8d1 8cbe 96d2 c9bd 4d79 8ebd
00000190: 8cd9 093e 6690 4cbe 0e00 54bd eae0 d2bc
000001a0: 6134 953d 6b2a 72be 2994 46bc 0383 74be
000001b0: 9637 02be 06b1 6a3d d8f1 6f3d c76b 85bc
000001c0: 231b 86bd 8fae be3d 676c 383c e077 55be
000001d0: 0d35 6bbd 9382 12be 6b6a 493b 3f4a 90bd
000001e0: 6c6d 11be 26c3 81bd 73f5 1a3d ffc4 193e
000001f0: 6f49 f8bd 1e08 e6bd ad7d a8bc acd3 30be
00000200: 761b e73c ff08 05be 0a25 87bc e072 ebbd
00000210: 1e38 4abe 1135 e3bd 84a6 553e a8fb 273e
00000220: 1f23 c8bc ebe9 893d 338e 503d 74b7 ffbc
00000230: 79ec 1fbe 15bd 4b3e a15d e73c 7ddf 473e
00000240: 897a 643e f14a f53a 0ae8 763c 80e9 d6bd
00000250: d883 bb3d 0c26 5ebd af09 92bc d8f9 933d
00000260: 6c7a 2dbd e2df e73e b537 94be f94d 363a
00000270: 7999 afbc 2381 bc3d 1d53 bd3c aaa6 0f3e
00000280: 5ffa d93d 71ed b03d 7627 c53d 416b 9d3d
00000290: 5ab7 07be 189e 573e 9806 bf3c c82d 3abb
000002a0: 7d76 fe3a 8e78 9cbd 670d 82be 3a7c e8ba
000002b0: a938 7abd 7847 c3bd e53c 32be 7c2d 003d
000002c0: 7e95 4cbe 8118 d03d ca5f 3abe 3f2e ac3c
000002d0: fcc1 b83d 30c2 b5bd 4fde 893d 65e7 58bd
000002e0: 669a 083d 4c67 9bbd 337b f6bd ab00 5f3d
000002f0: 94dd 57be 831a acbc 3fd8 ff3d 4e22 d3bd
00000300: 89f6 3b3d b1fe 123e b561 babd 66b0 5f3e
00000310: 3db4 3bbe f419 23be b57e 1ebe 9423 133d
00000320: 1c33 2dbe 8530 aebd 155d 18be ae37 15be
00000330: 5ec4 41be e33a 343d fce3 13be 99fc 2e3d
00000340: e7bc cebd 78b2 3a3c 7268 2cbd 7f2f 85bd
00000350: 0f4e 05be 6944 40bd 1406 aabd 4014 933e
00000360: c18e 883d 7994 02be 6c6f 0e3d d5a3 523d
00000370: 6ab6 b8bd 93b8 92bd 0915 ddbb d507 c3bc
00000380: ebde 193c 0ee1 98bd ae61 85bb 0f88 90bd
00000390: 9d03 293e 05aa 1cbc b7d7 84be 2ad4 83bc
000003a0: c6b9 47be c81b 39be e156 493c f078 19be
000003b0: b00f 9c3d bd86 24be 2c32 b23d 5b28 0e3e
000003c0: 5476 d53c 40df 3cbd 68bd 793d 3b5c c03d
000003d0: b689 32be 9975 22be 5923 4bbe a72b 113e
000003e0: c69e 68be 9cc8 30bd 339e 94bd 130b 993d
000003f0: 4198 803e d402 9d3d 82fd c73d fffe 7abd

network_body.observation_encoder.processors.0.normalizer.running_mean f4 [30]
0.7383965 0.016040333 0.0 0.0 0.0 0.12263536 0.57961386 0.020610137
0.0 0.0 1.8999179e-05 0.1320967 0.82222927 0.008538653 0.0 0.0
0.0 0.14661905 0.58432287 0.035242513 0.0 0.0 0.013004447 0.22360943
0.7767814 0.006789716 0.0 0.0 0.0026688871 0.23686221
00000000: 8e07 3d3f 0467 833c 0000 0000 0000 0000
00000010: 0000 0000 3f28 fb3d 9361 143f 97d6 a83c
00000020: 0000 0000 0000 0000 6d60 9f37 5b44 073e
00000030: 9e7d 523f b5e5 0b3c 0000 0000 0000 0000
00000040: 0000 0000 4e23 163e 2f96 153f 745a 103d
00000050: 0000 0000 0000 0000 9b10 553c dff9 643e
00000060: 25db 463f 447c de3b 0000 0000 0000 0000
00000070: 7fe8 2e3b 028c 723e

network_body.observation_encoder.processors.1.normalizer.running_mean f4 [30]
0.2883035 0.01802824 0.0 0.0 0.0001819925 0.33484608 0.31299725 0.026822882
0.0 0.0 1.9999106e-05 0.34734473 0.2823163 0.00815768 0.0 0.0
1.2999461e-05 0.3189015 0.26965463 0.025149943 0.0 0.0 9.999538e-06 0.34557268
0.7128895 0.014305376 0.0 0.0 0.0 0.42471948
00000000: 849c 933e f6af 933c 0000 0000 0000 0000
00000010: 3dd5 3e39 f270 ab3e 2d41 a03e a9bb db3c
00000020: 0000 0000 0000 0000 c1c3 a737 2bd7 b13e
00000030: c38b 903e caa7 053c 0000 0000 0000 0000
00000040: 4318 5a37 0f47 a33e 2c10 8a3e 4107 ce3c
00000050: 0000 0000 0000 0000 b0c3 2737 e7ee b03e
00000060: ed7f 363f 1961 6a3c 0000 0000 0000 0000
00000070: 0000 0000 d574 d93e

network_body.observation_encoder.processors.2.normalizer.running_mean f4 [13]
-1.4911239 -0.49998957 8.284356 1.5006846 0.32994032 2.016788 0.0001367284 0.16540337
0.0005626892 0.88867515 71.185905 0.0 4.659885
00000000: 26dd bebf a2fe ffbe b98c 0441 6f16 c03f
00000010: f0ed a83e 0e13 0140 c05e 0f39 805f 293e
00000020: 6f81 133a 3780 633f 2f5f 8e42 0000 0000
00000030: c71d 9540
