Assets/Brains/CarPractice_run27-9.onnx (onnx, 107354 bytes, 15 tensors)

85 f4 [25]
0	0x3eff7710	0.49895525
1	0x3eafed06	0.34360522
2	0x3a5609de	0.00081649225
3	0x3c5af266	0.013363456
4	0x3d83f471	0.06443108
5	0x3efaafc2	0.48962218
6	0x3e7acd5e	0.24492404
7	0x3a5609de	0.00081649225
8	0x3decb953	0.11558785
9	0x3dffd816	0.12492387
10	0x3efed3b2	0.49770886
11	0x3e876118	0.26441264
12	0x3a5609de	0.00081649225
13	0x3ded2d09	0.115808554
14	0x3e062447	0.13099776
15	0x3ef03103	0.46912393
16	0x3e205300	0.15656662
17	0x3a5609de	0.00081649225
18	0x3e8e1496	0.2775008
19	0x3e7efe9d	0.24901815
20	0x3effe137	0.49976513
21	0x3e42edef	0.19036077
22	0x3a5609de	0.00081649225
23	0x3e9ef30c	0.31044805
24	0x3e8de988	0.27717233

88 f4 [25]
0	0x3ec193b8	0.37808013
1	0x3e180961	0.14847328
2	0x3a5609de	0.00081649225
3	0x3e148b5b	0.14506285
4	0x3e0f013b	0.13965313
5	0x3ecb99f1	0.39765885
6	0x3de83c4f	0.11339628
7	0x3a5609de	0.00081649225
8	0x3ea78141	0.327158
9	0x3e9ee735	0.31035772
10	0x3ee7db74	0.45284617
11	0x3e1fee6a	0.15618291
12	0x3a5609de	0.00081649225
13	0x3e95ef96	0.29284352
14	0x3e8f0c38	0.2793901
15	0x3ee9561a	0.45573503
16	0x3d93f6f8	0.0722484
17	0x3a5609de	0.00081649225
18	0x3eb5f875	0.3554112
19	0x3eae17c8	0.3400252
20	0x3ee08eab	0.43858847
21	0x3db0ef18	0.086393535
22	0x3a5609de	0.00081649225
23	0x3ea28497	0.31741783
24	0x3e9bca40	0.30427742

91 f4 [15]
0	0x41d37fe5	26.437449
1	0x406654fb	3.5989368
2	0x41d9b36a	27.212605
3	0x40870c75	4.2202706
4	0x3d64b078	0.055832356
5	0x40ca3021	6.318375
6	0x3da39085	0.07986549
7	0x3eac3891	0.33636907
8	0x3db301dd	0.0874059
9	0x3f14ff69	0.58202225
10	0x3f113d5b	0.56734246
11	0x3dfaf693	0.122540615
12	0x3f3adfc7	0.7299771
13	0x3efb2052	0.49048096
14	0x3a5609de	0.00081649225

action_model._discrete_distribution.branches.0.bias f4 [3]
0	0x3d3e57f2	0.04647059
1	0x3cddfd16	0.02709822
2	0xbcee1bec	-0.029066049

action_model._discrete_distribution.branches.0.weight f4 [3, 128]
0	0x3dc96090	0.09832871
1	0xbddbde4d	-0.1073576
2	0xbe35d16f	-0.17755674
3	0x3ca530be	0.020164844
4	0xbcd1110b	-0.025520822
5	0xbe14a04a	-0.1451427
6	0xbca083f9	-0.01959418
7	0xbdd808a1	-0.10548521
8	0xbdcca30d	-0.09992037
9	0x3d9e3379	0.077246614
10	0x3c5c816a	0.013458589
11	0x3cdbe517	0.026842637
12	0x3c559522	0.013036044
13	0x3e545871	0.20736863
14	0x3dd5a0ff	0.10431098
15	0x3df51fd5	0.11968962
16	0xbdf05fdb	-0.11737033
17	0x3e60c0a3	0.21948485
18	0x3bdd2c31	0.006749653
19	0xbe35340b	-0.17695634
20	0xbeab81fc	-0.33497608
21	0x3d435907	0.047692325
22	0xbdc8a1a0	-0.097964525
23	0x3d5ef859	0.05443606
24	0xbe156991	-0.14591052
25	0x3e2fdbb5	0.17173655
26	0xbd73ddf6	-0.05953785
27	0xbe1c6624	-0.15273339
28	0x3c39ebd0	0.011347726
29	0x3e6d8f4a	0.23199192
30	0xbde2e40b	-0.11078652
31	0xbd538cb7	-0.051647868
32	0x3be6a5d1	0.00703881
33	0xbe2d3969	-0.16916431
34	0xbdb94037	-0.09045451
35	0xbe0927d7	-0.13394104
36	0xbdc334dd	-0.09531567
37	0xbe631ee3	-0.22179751
38	0xbd2199dc	-0.039453372
39	0xbdc760a6	-0.09735231
40	0xbdfe05be	-0.12403439
41	0xbe00cbd4	-0.12577754
42	0xbd1e2d95	-0.03861769
43	0xbd451c12	-0.048122473
44	0xbe87e4b5	-0.26541677
45	0xbd6cb012	-0.0577851
46	0xbe0562d6	-0.13025984
47	0x3d2e5c25	0.042568345
48	0x3c229a75	0.009924521
49	0xbd9a6d80	-0.07540417
50	0xbde5e00f	-0.112243764
51	0xbe419f7f	-0.18908499
52	0xbd051fc9	-0.032501016
53	0xbd4b706e	-0.04966777
54	0xbac45dfa	-0.001498162
55	0xbe2ae249	-0.16687883
56	0xbe3e171b	-0.18563502
57	0x3e111865	0.14169462
58	0x3d9fcb00	0.07802391
59	0xbe07a4f3	-0.13246517
60	0xbe4aaf0b	-0.19793336
61	0x3e9d2d6d	0.3069872
62	0x3cd50e21	0.026007714
63	0x3d9d0e63	0.0766876
64	0xbe595930	-0.21225429
65	0x3e073146	0.1320239
66	0xbcd844d2	-0.026400004
67	0xbd6275e4	-0.05528821
68	0xbe8f5665	-0.279956
69	0x3cf11139	0.029427158
70	0x3dbef28b	0.09323605
71	0xbd41f2d3	-0.047350716
72	0x3cf1d816	0.029521983
73	0xbd98bd66	-0.07458
74	0xbe3236d0	-0.17403722
75	0xbd2b31cf	-0.041795548
76	0x3e22455a	0.15846768
77	0x3cf13896	0.029445928
78	0x3c9d38ca	0.019192118
79	0xbe6e385d	-0.23263688
80	0x3d9ab9d6	0.07554977
81	0xbd8d1365	-0.06888465
82	0x3e86c3f1	0.26321366
83	0xbc90b842	-0.017665986
84	0x3d807c9b	0.062737666
85	0x3e43f18a	0.19135109
86	0xbd33760d	-0.043813754
87	0xbda5cc75	-0.08095638
88	0x3e2506aa	0.16115823
89	0xbc353ed7	-0.0110623455
90	0xbd7b912f	-0.061417755
91	0xbe2a6cdf	-0.16643094
92	0xbd90499f	-0.07045292
93	0xbb2dcd7b	-0.002652018
94	0xbdd3e2e9	-0.10346014
95	0x3ce2fd2a	0.027708609
96	0x3e10f3fc	0.14155573
97	0x3dbfccb9	0.093652196
98	0xbd393cb8	-0.04522392
99	0xbd9fd0b4	-0.07803479
100	0xbe82928a	-0.25502425
101	0x3e008355	0.12550099
102	0xbe57014d	-0.2099659
103	0x3d43307f	0.04765367
104	0x3d3a16a6	0.045431755
105	0x3ce80342	0.028321866
106	0x3dc11c28	0.094291985
107	0x3d8fe270	0.070256114
108	0xbda8d8f7	-0.08244508
109	0xbd3f49ed	-0.04670136
110	0x3bfe2fe0	0.007757172
111	0xbc8b76ba	-0.017024387
112	0x3e20cf9d	0.15704198
113	0xbe1037e4	-0.1408382
114	0xbe12ba65	-0.14328916
115	0xbc508b16	-0.012728473
116	0xbda7db31	-0.08196104
117	0xb8acce0d	-8.239979e-05
118	0x3e41e9c5	0.18936832
119	0x3d0b4050	0.03399688
120	0xbe90de8a	-0.28294784
121	0xbdc0326a	-0.09384616
122	0x3dda90cd	0.1067215
123	0xbe22b53d	-0.1588945
124	0x3d9b0647	0.07569557
125	0xbda06a67	-0.07832795
126	0x3d8595df	0.06522726
127	0x3d6a009f	0.0571295
128	0x3e23ce59	0.15996684
129	0x3e532dd7	0.20622955
130	0xbc782f3a	-0.015147978
131	0xbcd81bcb	-0.02638044
132	0x3e331c13	0.17491178
133	0x3e1a1a76	0.15049157
134	0xbd826b91	-0.06368173
135	0x3d490fc4	0.0490873
136	0xbb90be6e	-0.0044172322
137	0xbd1f0b02	-0.038828857
138	0xbd9560ff	-0.07293891
139	0xbdd58971	-0.104266055
140	0x3c836c52	0.016042862
141	0xbe3e2803	-0.18569951
142	0x3dd85c95	0.105645336
143	0xbdee8ff0	-0.11648548
144	0x3e413f4a	0.18871799
145	0xbdd93306	-0.10605435
146	0x3e0254bb	0.12727635
147	0x3d1b4bf0	0.037914217
148	0x3e2c8439	0.16847314
149	0xbde9ab47	-0.11409622
150	0x3e0dd873	0.138521
151	0xbded6080	-0.115906715
152	0x3e939a0e	0.28828472
153	0xbe59793c	-0.21237653
154	0xbd85cd8f	-0.06533348
155	0x3d090f2f	0.033461746
156	0xbdc9c293	-0.09851565
157	0xbda00a7a	-0.07814498
158	0xbd055579	-0.032552216
159	0x3dff6260	0.124699354
160	0x3cbd8f2e	0.023139562
161	0x3e598402	0.21241763
162	0x3db477fc	0.08811948
163	0x3e00e208	0.12586224
164	0x3dfcaf04	0.12338069
165	0x3e116aec	0.14200944
166	0x3dcddb0d	0.10051546
167	0x3e22058c	0.15822428
168	0x3e200790	0.15627885
169	0x3dd46e8f	0.1037265
170	0x3b3d354c	0.0028870879
171	0xbb324173	-0.0027199655
172	0x3e56c7bf	0.20974635
173	0xbd2459dd	-0.040124763
174	0x3e500309	0.20313658
175	0x3b1b7ab7	0.0023724267
176	0xbd878a0a	-0.06618126
177	0x3e343c7d	0.176012
178	0x3e93d849	0.2887595
179	0x3da95847	0.08268791
180	0x3db8da0f	0.090259664
181	0x3dcb7f6a	0.09936412
182	0x3e4452db	0.19172232
183	0x3dc21ce9	0.094781704
184	0x3e2347ec	0.15945405
185	0x3e08f61c	0.13375133
186	0x3d90a767	0.070631795
187	0x3e0d3019	0.13787879
188	0x3dea1230	0.1142925
189	0xbe1672fe	-0.14692304
190	0x3e2222e0	0.15833616
191	0xbd9c45e7	-0.0763052
192	0x3c595f9f	0.013267427
193	0x3c14def8	0.009086363
194	0x3db9cdb4	0.09072438
195	0x3c3b0bdd	0.011416403
196	0x3d83709b	0.06417962
197	0x3d0e2692	0.034704752
198	0x3d8a420c	0.06750879
199	0xbd9945f3	-0.07484045
200	0xbe3e5d22	-0.18590215
201	0xbd07fb53	-0.033198666
202	0x3e6ac002	0.22924808
203	0x3d177347	0.03697517
204	0xbca98ac8	-0.020696059
205	0x3d793ae2	0.06084717
206	0xbe16f9a2	-0.14743665
207	0x3d2e103f	0.042495962
208	0xbceecf51	-0.02915159
209	0x3cd52e2b	0.026022991
210	0xbdfedb7c	-0.12444207
211	0x3d50fff5	0.05102535
212	0xbe842a78	-0.2581365
213	0xbcdf0b4c	-0.027227066
214	0xbd359221	-0.044328813
215	0x3d27e909	0.040993724
216	0xbbdb10c2	-0.0066853473
217	0x3e70d7ea	0.23519865
218	0x3e4e5dad	0.20152922
219	0x3d859540	0.06522608
220	0x3dd3b39a	0.10336991
221	0x3ddd47e7	0.1080473
222	0x3c930584	0.017946966
223	0x3e0d087c	0.13772768
224	0xbd9bd6a9	-0.076093026
225	0xbd16bf02	-0.036803253
226	0x3e1baf84	0.15203673
227	0x3e1996d5	0.14998944
228	0x3d3fa337	0.046786513
229	0xbd8c023f	-0.06836366
230	0x3e1c1f98	0.15246427
231	0x3c40b253	0.011761266
232	0xbcb2448c	-0.021761201
233	0xbd9b7884	-0.07591346
234	0xbd0a08da	-0.033699848
235	0xbb1418ee	-0.0022597867
236	0x3e0c241c	0.1368565
237	0x3e6a6194	0.22888786
238	0xbd70f046	-0.058822893
239	0x3dd64904	0.104631454
240	0xbda15c4d	-0.07878933
241	0x3d12363d	0.035696257
242	0x3e20b20f	0.15692924
243	0x3e47e29c	0.19520038
244	0x3dbb3a99	0.09142036
245	0xbd1a8b66	-0.037730597
246	0xbe165342	-0.14680198
247	0xbdbd079a	-0.092299655
248	0x3cb86edc	0.0225138
249	0x3e2f0ce8	0.17094767
250	0xbe22320a	-0.15839401
251	0x3e5fe106	0.21863183
252	0xbd95fa42	-0.073231235
253	0x3e6b9808	0.23007214
254	0x3e31bda2	0.17357495
255	0xbd1d6bbb	-0.038432818

action_model._discrete_distribution.branches.1.bias f4 [3]
0	0xbe173cd2	-0.14769295
1	0x3e552e3e	0.20818421
2	0xbcc33250	-0.023827702

action_model._discrete_distribution.branches.1.weight f4 [3, 128]
0	0x3d01ef15	0.031722147
1	0x3d66952e	0.056294613
2	0x3cf1be62	0.029509727
3	0x3e2735ca	0.16329113
4	0xbd73ed39	-0.059552405
5	0x3da90585	0.08253006
6	0x3e2e49b4	0.17020303
7	0xbe61fe53	-0.22069673
8	0x3dfa4933	0.12220993
9	0xbc7e51f7	-0.015522472
10	0x3e461940	0.1934557
11	0x3e357232	0.17719343
12	0xbcf39ae4	-0.029736944
13	0xbd72ec84	-0.05930759
14	0x3ddaa3d4	0.10675779
15	0x3c3ae328	0.011406697
16	0xbe0a24c2	-0.13490584
17	0xbd3ac3ee	-0.04559701
18	0x3e0390f9	0.12848271
19	0xbd61b6ff	-0.05510616
20	0xbc8e1665	-0.017344663
21	0xbe072e83	-0.13201337
22	0x3bf8ae34	0.007589126
23	0x3e96abf8	0.29428077
24	0x3e0792e9	0.13239636
25	0x3e60273f	0.21889971
26	0x3e911724	0.28337967
27	0xbd2329e8	-0.039834887
28	0x3dfef4d6	0.124490425
29	0x3d3948ef	0.04523557
30	0x3e2da3ee	0.16957065
31	0x3e1a7afb	0.15085976
32	0x3e7e967c	0.24862093
33	0xbd32ad5f	-0.04362237
34	0x3e2cb125	0.1686445
35	0xbdd730ed	-0.10507379
36	0xbe26c424	-0.16285759
37	0x3c7e12c8	0.0155074075
38	0x3e3d421c	0.1848225
39	0x3e411ad5	0.18857892
40	0xbd575cb7	-0.052578654
41	0x3d9c4981	0.07631207
42	0x3e7bd239	0.24591912
43	0x3e4e0082	0.20117381
44	0x3ca964f6	0.020678025
45	0x3d4a962d	0.049459625
46	0x3df21f28	0.11822349
47	0xbd1107de	-0.035407893
48	0x3e06d7d0	0.13168263
49	0x3dc41b16	0.09575479
50	0x3d187528	0.037221104
51	0x3d3afa20	0.045648694
52	0x3db54472	0.088509455
53	0x3e01f37c	0.12690538
54	0x3b961d4c	0.004581129
55	0xbd2be04f	-0.041961964
56	0xbd3b0119	-0.045655344
57	0x3daccd54	0.08437601
58	0xbc6deecc	-0.014522266
59	0xbd6799e6	-0.056543253
60	0xbd9f888c	-0.07789716
61	0xbd3b1fe0	-0.045684695
62	0x3dbbc792	0.091689244
63	0x3e4393e4	0.19099385
64	0xbdebc72d	-0.11512599
65	0x3d40c665	0.047064204
66	0x3d9f4006	0.077758834
67	0x3e8240eb	0.25440153
68	0xbc99773e	-0.018733617
69	0xb9f15bf8	-0.00046035624
70	0xbde2b3e0	-0.11069465
71	0x3ed12c7c	0.4085425
72	0x3e014d9d	0.12627263
73	0x3e3fd0a2	0.18731931
74	0xbcf9cf35	-0.030494312
75	0x3eb5b1dc	0.35487258
76	0xbe55e703	-0.20888905
77	0x3d137867	0.036003496
78	0x3e4f0850	0.20218015
79	0x3c5b066f	0.013368233
80	0x3db187df	0.086684935
81	0xbe14449b	-0.14479296
82	0xbd965ef5	-0.0734233
83	0xbdd52577	-0.104075365
84	0x3e4cf1a1	0.20014049
85	0xbb935eac	-0.0044973698
86	0x3e148ee1	0.14507629
87	0x3e8930fe	0.2679519
88	0x3d945e5c	0.0724456
89	0x3e0d5ccb	0.13804929
90	0x3df55251	0.11978591
91	0xbdc6468c	-0.096814245
92	0xbc923a80	-0.01785016
93	0x3e368449	0.178239
94	0x3deb4f5e	0.114897475
95	0xbe0cbe94	-0.13744575
96	0xbc817e30	-0.015807241
97	0x3e0be897	0.13662945
98	0x3deae872	0.11470117
99	0xbccdd4e6	-0.025125932
100	0x3bb0881e	0.00538732
101	0xbd9dba2d	-0.07701526
102	0xbdbe1518	-0.09281367
103	0xbd5ca657	-0.05386957
104	0x3eb08dde	0.34483236
105	0x3e90739f	0.28213212
106	0xbdb9a428	-0.090645134
107	0xbd6165ce	-0.05502873
108	0x3dfc940f	0.123329274
109	0x3e154ed9	0.14580859
110	0x3d86d338	0.065832555
111	0x3c9aed3b	0.018911948
112	0xbdb714d8	-0.089395225
113	0xbe2da384	-0.16956908
114	0x3e351e38	0.17687309
115	0x3e1fcfee	0.15606663
116	0x3e08c4fa	0.1335639
117	0xbd931802	-0.071823135
118	0xbcd2d30b	-0.025735399
119	0x3e757ca0	0.23973322
120	0x3cdbd465	0.026834676
121	0x3d409abe	0.047022574
122	0x3e9137c2	0.28362852
123	0x3d62d4da	0.055378772
124	0x3d8207de	0.06349157
125	0x3bd0afa7	0.0063685956
126	0x3dcf05ad	0.101085044
127	0xbe555c03	-0.20835881
128	0x3d1d364b	0.038381856
129	0x3def5d45	0.116877116
130	0x3da230a5	0.079194345
131	0xbe63d814	-0.22250396
132	0x3e4cb1a0	0.19989634
133	0xbe4a762d	-0.19771643
134	0xbe1fe7b9	-0.15615739
135	0x3e243313	0.16035108
136	0xbdb9f1a1	-0.0907929
137	0x3c0bd041	0.008533538
138	0xbe7b40ef	-0.24536489
139	0xbc981891	-0.018566402
140	0x3e15c0c4	0.14624316
141	0x3e476af4	0.19474393
142	0xbe5c6596	-0.21523127
143	0x3de575b3	0.1120409
144	0xbd474062	-0.048645385
145	0x3db462a4	0.08807877
146	0x3d96045b	0.073250495
147	0x3e196508	0.14979947
148	0x3bb523d9	0.005527955
149	0x3e2c8aad	0.16849776
150	0xbdaf2883	-0.08552649
151	0xbe91d2d6	-0.28481168
152	0xbd8178d8	-0.06321877
153	0xbdf157eb	-0.11784347
154	0xbe91c44f	-0.28470084
155	0x3e019070	0.12652755
156	0xbd85feb6	-0.06542723
157	0xbd0d1d2c	-0.03445165
158	0xbdff3012	-0.124603406
159	0xbd743708	-0.059622794
160	0xbe4066bb	-0.18789189
161	0x3d6ea036	0.058258258
162	0xbe6046eb	-0.21902053
163	0x3e4c65c6	0.19960698
164	0xbc3067b5	-0.010766913
165	0xbd0f2978	-0.034951657
166	0xbd6c4fa4	-0.05769314
167	0xbdbeec53	-0.09322419
168	0x3e4abe61	0.19799186
169	0x3c52be21	0.012862713
170	0xbe119ba7	-0.14219533
171	0xbdf03537	-0.117289
172	0x3cb8acad	0.022543276
173	0xbd87aad6	-0.06624381
174	0xbe902002	-0.2814942
175	0x3df04061	0.11731029
176	0xbdc320e3	-0.09527757
177	0xbdf26bf6	-0.11836998
178	0x3db69fd9	0.08917207
179	0xbdffb58b	-0.124857984
180	0xbd1035e0	-0.03520763
181	0xbcbeac59	-0.023275541
182	0x3e04da35	0.12973864
183	0x3dc0eddb	0.09420367
184	0xbe058b0a	-0.1304132
185	0xbdbc0bd2	-0.09181942
186	0x3e264eaf	0.16240953
187	0x3dfb5169	0.12271387
188	0xbdc7d38c	-0.09757146
189	0x3e0283a8	0.12745535
190	0xbd91e7a0	-0.07124257
191	0xbe4ccfdb	-0.20001166
192	0xbdbcc184	-0.09216598
193	0xbcba1559	-0.022715257
194	0xbe5ce115	-0.21570237
195	0xbd8fb211	-0.07016385
196	0x3e0184c4	0.12648302
197	0xbdd7b3bb	-0.10532328
198	0x3dabbba6	0.083854005
199	0xbeb06060	-0.34448528
200	0xbe49eace	-0.19718477
201	0xbe8a4e7c	-0.27013004
202	0xbdb573e1	-0.08859993
203	0xbcf696a5	-0.03010113
204	0x3d7e4cec	0.062085077
205	0xbd811af5	-0.0630397
206	0xbe3d51ef	-0.18488286
207	0x3dcc0dad	0.09963546
208	0xbd2e7e4d	-0.04260092
209	0x3dc2896c	0.094988674
210	0x3e265741	0.16244222
211	0x3d4e4c0e	0.0503655
212	0xbe380c3a	-0.17973414
213	0xbdd76eb0	-0.10519159
214	0xbe109aee	-0.14121601
215	0xbe4039b0	-0.18772006
216	0xbc9d7891	-0.01922253
217	0xbe8aaad3	-0.27083454
218	0x3d91d2d1	0.07120288
219	0xbc14227e	-0.009041427
220	0xba815f7c	-0.0009870376
221	0xbe828a57	-0.2549617
222	0xbdc34528	-0.09534675
223	0x3e036905	0.1283303
224	0x3d3fb54e	0.046803765
225	0xbd76b369	-0.060229693
226	0xbc8ea8ff	-0.017414568
227	0x3d80a4ee	0.06281458
228	0x3db3fde9	0.08788664
229	0xbc0cc5dd	-0.008592096
230	0x3dda0896	0.10646169
231	0xbd4f10f9	-0.050553296
232	0xbe602689	-0.218897
233	0xbe3ec1ab	-0.18628566
234	0x3e41214e	0.18860361
235	0x3e173360	0.14765692
236	0xbdcc07e8	-0.099624455
237	0xbe917868	-0.28412175
238	0xbe39f82e	-0.1816108
239	0xbd91f009	-0.07125861
240	0x3e0031a0	0.1251893
241	0x3dfc792e	0.12327801
242	0xbda8039a	-0.08203812
243	0xbd06abea	-0.032878794
244	0xbdb485b7	-0.088145666
245	0x3d8a7b12	0.06761755
246	0x3e3d5f0b	0.18493287
247	0xbe831899	-0.25604704
248	0x3d2ca17e	0.0421462
249	0xbe2fcd15	-0.17168076
250	0xbe6f3234	-0.23358995
251	0xbda53082	-0.08065893
252	0xbd6548ad	-0.055977512
253	0x3e012fd8	0.12615907
254	0x3cc40424	0.023927756
255	0x3dcf4fb3	0.10122623

discrete_action_output_shape f4 [1, 2]
0	0x40400000	3.0
1	0x40400000	3.0

network_body._body_endoder.seq_layers.0.bias f4 [128]
0	0x3d0249fc	0.03180884
1	0x3c06fb84	0.008238677
2	0x3d8531dc	0.065036505
3	0xbe340616	-0.17580447
4	0x3cf8c561	0.030367555
5	0xbc4715ad	-0.012151164
6	0xbd00b16c	-0.031419203
7	0x3dc1dc18	0.09465808
8	0xbe4a96d7	-0.19784103
9	0x3e0701b5	0.13184245
10	0xbc2bb8c8	-0.010481067
11	0x3cefabbe	0.029256698
12	0xbc2b81d9	-0.01046797
13	0x3d56b064	0.052414313
14	0xbcaa5741	-0.020793559
15	0x3d6371c9	0.055528436
16	0xbe23044a	-0.15919605
17	0xbd22965d	-0.03969418
18	0xbc88cb46	-0.01669849
19	0x3d03aea1	0.03214896
20	0xbd8e37ec	-0.0694426
21	0xbdcd8b4a	-0.10036333
22	0x3c22d0a4	0.009937439
23	0x3cdcd909	0.02695896
24	0xbd2f8835	-0.042854507
25	0xbd5b274c	-0.053504273
26	0x3e1e7116	0.15472826
27	0x3db27a8e	0.08714782
28	0x3d65ffc5	0.056152124
29	0x3dc334d3	0.0953156
30	0x3e02c7a9	0.12771477
31	0x3daf3008	0.08554083
32	0x3c9db6a6	0.019252133
33	0xbe067045	-0.13128765
34	0x3d17aef3	0.03703208
35	0x3d36f4dd	0.044667114
36	0xbd1063b8	-0.03525135
37	0x3daf3ba7	0.085563
38	0x3e25d56c	0.16194695
39	0xbd98b840	-0.07457018
40	0xbd60e656	-0.054907165
41	0x3db347c8	0.087539256
42	0x3c81692d	0.015797222
43	0xbe1f8515	-0.1557811
44	0x3d5326f6	0.051550828
45	0x3dcb17e4	0.09916666
46	0xbda3101a	-0.079620555
47	0x3d9cff5e	0.07665895
48	0xbdf46e15	-0.11935059
49	0xbc992f58	-0.018699333
50	0xbd4ec96e	-0.050485067
51	0x3c680867	0.0141621595
52	0x3dc1c93c	0.094622105
53	0xbd29afe9	-0.041427527
54	0xbc57c3fc	-0.013169285
55	0x3d84d159	0.064852424
56	0xbdec69ab	-0.11543592
57	0x3d7084ff	0.058720585
58	0x3de93c19	0.11388416
59	0xbd938efc	-0.072050065
60	0x3d2a5971	0.041589204
61	0xbd1d67e9	-0.038429175
62	0x3bd4daa4	0.0064957906
63	0x3d7af06d	0.061264444
64	0x3dd85c82	0.105645195
65	0x3cf6d784	0.030132063
66	0x3c326389	0.010887989
67	0xbcd7161c	-0.02625566
68	0x3c7f8d67	0.015597678
69	0x3d6e6101	0.05819798
70	0x398fc54d	0.00027422086
71	0xbd5949a4	-0.053048745
72	0xbd611d15	-0.054959375
73	0x3d8e1b17	0.06938761
74	0x3cc9b96e	0.024624553
75	0x3db288ed	0.08717523
76	0xbd74c94e	-0.05976229
77	0x3ca2eb7a	0.019887675
78	0x3d96f3e5	0.07370738
79	0x3d2cf7d9	0.042228553
80	0x3d9e604b	0.0773321
81	0x3d348236	0.04406949
82	0xbd60b9c7	-0.05486467
83	0xbd52c8de	-0.051461093
84	0xbcb2293a	-0.021748174
85	0x3bd8ac7e	0.0066123595
86	0xbb9462da	-0.0045283856
87	0xbdb9c6ed	-0.09071145
88	0x3b04a107	0.0020237581
89	0x3dd4a9b7	0.10383933
90	0xbc82e938	-0.015980348
91	0x3dd14b5d	0.102194525
92	0xbe1562bb	-0.14588444
93	0x3d5069be	0.050882094
94	0x3c1ffb84	0.009764556
95	0xbdb82eb2	-0.089932814
96	0xbc9fab5f	-0.019490896
97	0x3aef1b5c	0.0018242407
98	0xbdfccb4e	-0.12343465
99	0xbd84e0fd	-0.064882256
100	0xbe2eaf75	-0.17059119
101	0x3c934473	0.017976975
102	0xbceeb332	-0.029138181
103	0x3e28be9e	0.16478965
104	0xbc4293f5	-0.011876096
105	0xbd482d8c	-0.048871562
106	0xbe038379	-0.12843122
107	0x3b9f1611	0.0048549254
108	0x3d8d686f	0.06904685
109	0x3d99926c	0.07498631
110	0xbd8ef5d7	-0.06980484
111	0xbdad9988	-0.084765494
112	0x3d0fde21	0.035123948
113	0xbda824f2	-0.08210172
114	0x3dfabbee	0.12242876
115	0x3dbcf6bd	0.09226749
116	0xbd34b7ab	-0.044120472
117	0x3da10470	0.078621745
118	0x3cb15840	0.021648526
119	0x3dde798e	0.108630285
120	0x3d96f9a8	0.07371837
121	0x3d4c01e6	0.049806498
122	0x3cec86b3	0.028872823
123	0xbd248983	-0.040170204
124	0xbceb14d5	-0.028696457
125	0x3d00b020	0.031417966
126	0x3e202283	0.15638165
127	0x3deba35a	0.11505766

network_body._body_endoder.seq_layers.0.weight f4 [128, 65]
0	0xbe36ef89	-0.17864813
1	0x3e4ce1e1	0.20008041
2	0xbe431b66	-0.1905342
3	0xbe54015b	-0.20703642
4	0x3ec0914d	0.37610856
5	0xbd2c4069	-0.042053614
6	0x3d9e9baa	0.07744534
7	0x3ec388ab	0.38190207
8	0xbe1dfd4c	-0.15428656
9	0x3e806bbd	0.25082198
10	0xbd2e61cd	-0.04257374
11	0xbeb2a330	-0.34890127
12	0x3e3f6a6a	0.18692937
13	0xbe3e89b6	-0.1860722
14	0x3d79a4db	0.060948234
15	0xbd96b7c4	-0.07359269
16	0xbdfdc407	-0.12390905
17	0xbbcad447	-0.006189856
18	0xbc1189d2	-0.008882957
19	0x3e04af80	0.12957573
20	0x3e825e00	0.2546234
21	0xbc9c0ef3	-0.019050097
22	0xbceb7679	-0.028743016
23	0xbd801dcb	-0.062556826
24	0xbd88f06b	-0.06686481
25	0x3dd40c9e	0.10353969
26	0x3e96a840	0.2942524
27	0xbe80ca65	-0.25154415
28	0xbdf4b395	-0.11948315
29	0xbe852a7a	-0.2600897
30	0xbd0a814d	-0.033814717
31	0x3df5f02e	0.12008701
32	0xbcbc9b29	-0.023023205
33	0x3e141189	0.14459814
34	0xbda32bc9	-0.07967336
35	0xbe18cac5	-0.149211
36	0xbe202875	-0.15640433
37	0x3e32e9e8	0.1747204
38	0xbc64c875	-0.013963808
39	0x3d981fdb	0.07427951
40	0x3dd2bd8f	0.10290062
41	0x3dfec06e	0.12439047
42	0x3dbd1079	0.092316575
43	0x3d5987bb	0.05310796
44	0xbe0acff1	-0.13555886
45	0x3e405ecf	0.18786167
46	0xbdc18782	-0.09449674
47	0x3dfb9208	0.122837126
48	0xbd3e695c	-0.046487197
49	0x3e2f147a	0.17097655
50	0x3d99d520	0.075113535
51	0x3c76fde8	0.015075184
52	0xbde05c0c	-0.109550565
53	0xbe1d28b0	-0.15347552
54	0x3d43b5b8	0.047780722
55	0x3dffcf66	0.1249073
56	0xbde68ba9	-0.11257107
57	0x3d64c8ad	0.05585544
58	0x3e522d46	0.20525083
59	0x3e01baa8	0.1266886
60	0xbe4ab530	-0.1979568
61	0x3e161dbf	0.14659785
62	0xbdbc04ed	-0.09180627
63	0x3d95f324	0.07321766
64	0x3d54027c	0.05176018
65	0x3e57ab9a	0.21061555
66	0x3d73b520	0.059498906
67	0xbe3a93d8	-0.1822046
68	0xbde124ca	-0.10993345
69	0x3e29c69b	0.16579668
70	0x3e3da00c	0.18518084
71	0x3b21b0f3	0.002467212
72	0x3de3e0b9	0.11126847
73	0x3e83ed91	0.25767186
74	0x3e13d892	0.14438084
75	0x3eeaf921	0.45893195
76	0x3e9a0de2	0.30088717
77	0x3e21d72e	0.15804741
78	0x3e27f4e6	0.16402015
79	0x3d84fc40	0.06493425
80	0x3e8ba8e3	0.27277288
81	0x3e0d4e52	0.13799408
82	0xbe3280a2	-0.17431882
83	0x3db526e1	0.08845306
84	0x3e7f6c2b	0.24943607
85	0x3dcb5967	0.099291615
86	0xbd320f8d	-0.04347186
87	0xbe9d0f8c	-0.30675924
88	0x3d872c3b	0.06600233
89	0x3dc17860	0.09446788
90	0x3e17dd71	0.14830567
91	0xbe177ada	-0.14792958
92	0xbd72fafb	-0.059321385
93	0xbe8e7e2d	-0.2783064
94	0xbd2802e5	-0.041018385
95	0xbe85c265	-0.26124874
96	0xbdb8ee74	-0.09029856
97	0xbe9c2a95	-0.30501238
98	0xbdfa3ae5	-0.122182645
99	0x3e1390eb	0.1441075
100	0xbd80a070	-0.06280601
101	0xbc9885f2	-0.018618558
102	0xbd502b15	-0.050822336
103	0x3d10d1fb	0.035356503
104	0x3cd3318e	0.025780465
105	0xbe0b335e	-0.13593814
106	0x3dbb1365	0.091345586
107	0x3d40fd39	0.047116492
108	0xbd46c22a	-0.048525013
109	0x3da68fb6	0.081328794
110	0x3c966f61	0.018363656
111	0xbcd32e76	-0.02577899
112	0xbda2eb9f	-0.079550974
113	0xbe180aa4	-0.14847809
114	0x3dca6906	0.09883313
115	0x3df0862a	0.1174434
116	0x3e2c7afc	0.1684379
117	0x3d8cbc61	0.06871868
118	0x3d9d7fac	0.07690367
119	0x3e9f4142	0.31104475
120	0x3e42fcbc	0.19041723
121	0xbe0c6116	-0.1370891
122	0xbd64a61a	-0.05582247
123	0x3de5474c	0.111952394
124	0x3e279746	0.163663
125	0xbe19b343	-0.15009789
126	0xbd9bbeb2	-0.076047316
127	0xbea1b756	-0.31585187
128	0x3e2dafa7	0.16961537
129	0xbe5c8230	-0.21534038
130	0x3e7080ec	0.2348668
131	0x3d767977	0.06017443
132	0x3e1286e7	0.14309274
133	0x3e090c26	0.1338354
134	0x3d4d7b8b	0.050166648
135	0x3e8803ad	0.26565304
136	0xbf01b0dd	-0.50660497
137	0x3e620c94	0.2207511
138	0xbeab9678	-0.33513236
139	0x3d4c484b	0.04987363
140	0xbe17a5dd	-0.14809366
141	0x3e1f5182	0.15558437
142	0xbbf53985	-0.0074836635
143	0x3ab1ad40	0.0013555661
144	0x3ee08e30	0.4385848
145	0x3d7bcc37	0.06147405
146	0x3e4ab0ee	0.19794056
147	0x3df420a1	0.11920286
148	0xbdb8e8fe	-0.09028815
149	0x3ccb47e9	0.024814563
150	0xbe3273b5	-0.17426951
151	0x3d9f1b48	0.07768875
152	0xbeb1c464	-0.34720147
153	0x3d6cd3b3	0.05781908
154	0xbe49dd45	-0.19713314
155	0x3e37891b	0.17923395
156	0x3d0735fc	0.033010468
157	0xbd9a2187	-0.07525926
158	0x3e1f9617	0.15584598
159	0x3e692255	0.22767003
160	0xbeebc7f6	-0.46050996
161	0xbec57048	-0.38562226
162	0xbcee9bde	-0.029127058
163	0x3e3889b0	0.18021274
164	0x3e0bcdb6	0.13652691
165	0xbc80eca4	-0.015737839
166	0x3cc0105f	0.023445306
167	0x3e17b880	0.14816475
168	0x3e894c54	0.26816046
169	0x3e2102d5	0.15723737
170	0xbc07b689	-0.008283266
171	0xbe675cae	-0.22593948
172	0xbdcd1819	-0.10014362
173	0xbdfa3e40	-0.122189045
174	0x3d868ce1	0.06569839
175	0x3e496742	0.19668296
176	0xbe2c5882	-0.16830638
177	0x3d1622ea	0.03665439
178	0xbddc39bb	-0.10753199
179	0xbe1b933f	-0.15192889
180	0xbdbbd98f	-0.091723554
181	0xbde698da	-0.11259623
182	0x3d074644	0.033025995
183	0xbd17c897	-0.03705653
184	0x3ead19b7	0.3380868
185	0xbe38e655	-0.18056615
186	0xbd412ef1	-0.047163907
187	0xbd3fa40d	-0.04678731
188	0x3e69d935	0.22836764
189	0x3e140c7b	0.14457886
190	0x3e9969df	0.29963586
191	0xbbf9490f	-0.007607586
192	0x3d0e1a05	0.034692783
193	0xbd473091	-0.0486303
194	0x3ce87fa5	0.028381178
195	0x3d5c1fcf	0.053741273
196	0xbe84334d	-0.2582039
197	0xbe458d0c	-0.19292086
198	0x3e808f31	0.25109246
199	0x3cb1246e	0.021623816
200	0x3d6c5919	0.057702158
201	0xbe31ba17	-0.17356144
202	0x3e7180cd	0.2358429
203	0x3e8b4ed3	0.27208576
204	0xbe9b4065	-0.30322567
205	0xbe31dc2b	-0.17369144
206	0xbd944b43	-0.072409175
207	0x3d7e09c2	0.062021025
208	0x3d52817c	0.051393017
209	0xbd5c3f94	-0.05377157
210	0x3cad4fff	0.02115631
211	0xbd09a371	-0.033603135
212	0x3d02a482	0.031895168
213	0x3dfc3f24	0.123167306
214	0x3dff0fce	0.124541864
215	0x3be8fc64	0.0071101654
216	0xbd19804a	-0.03747586
217	0xbd04f0b3	-0.03245611
218	0xbd9a4fbb	-0.07534739
219	0xbe230f60	-0.15923834
220	0x3e92517d	0.28577796
221	0x3d73dbbe	0.059535734
222	0x3d94795f	0.07249712
223	0xbd9ed349	-0.07755143
224	0x3e3274a0	0.17427301
225	0x3d4fad57	0.05070242
226	0xbc111759	-0.008855664
227	0xbcb9a960	-0.022663772
228	0x3cd66ffc	0.026176445
229	0xbe489a1c	-0.19590038
230	0xbe00c621	-0.1257558
231	0xbdcca412	-0.099922314
232	0xbd804907	-0.06263929
233	0xbd8dc373	-0.069220446
234	0x3da21782	0.0791464
235	0xbe35a34b	-0.17738073
236	0x3e18c2ff	0.14918135
237	0xbe352327	-0.17689191
238	0x3c8ee7d0	0.017444521
239	0xbe534745	-0.20632656
240	0xbe380582	-0.17970851
241	0xbb7b9ab8	-0.003839178
242	0x3dfb0302	0.12256433
243	0xbdd74ed3	-0.105130814
244	0x3ce5d810	0.028057128
245	0xbc42b3fe	-0.011883734
246	0x3e5f7f8f	0.21826003
247	0x3e8f6cce	0.280127
248	0x3e0c0938	0.13675392
249	0x3e5b0a22	0.21390584
250	0xbe562218	-0.20911443
251	0xbe565b4a	-0.20933262
252	0xbbaba5f8	-0.005238291
253	0x3dcd4365	0.1002262
254	0x3e44b56c	0.19209832
255	0x3ca63b00	0.020291805

network_body._body_endoder.seq_layers.2.bias f4 [128]
0	0x3dc6f552	0.0971476
1	0xba065649	-0.0005124552
2	0xbd87ecff	-0.06637
3	0xbdba794c	-0.09105167
4	0x3cc6bfe1	0.024261417
5	0xbdba01ce	-0.090823755
6	0xbe1e14bf	-0.15437602
7	0x3c70db0c	0.014700662
8	0xbe57f40c	-0.2108919
9	0xbbde6df6	-0.0067880107
10	0xbdea4db4	-0.11440602
11	0xbb50919e	-0.0031825076
12	0x3d7daa56	0.061930023
13	0x3d6057dc	0.05477129
14	0xbc8cab41	-0.017171504
15	0x3d8dc682	0.06922628
16	0xbcb29290	-0.021798402
17	0x3cb149ed	0.021641696
18	0xbbfe1974	-0.007754499
19	0x3daf5fe0	0.085632086
20	0xbc887067	-0.01665516
21	0x3d33ee9e	0.043928735
22	0xbcfd32b5	-0.030907968
23	0xbd4a95ba	-0.049459197
24	0x3d0512c2	0.032488592
25	0xbdb08c67	-0.086205296
26	0xbd9a2817	-0.07527178
27	0x3cd8a74a	0.026446957
28	0xbe1d6b6d	-0.15373011
29	0xbdbc0672	-0.09180917
30	0xbd027e42	-0.03185869
31	0x3d64009f	0.055664655
32	0xbc118cdb	-0.00888368
33	0xba9095ad	-0.0011030935
34	0xbda2335c	-0.07919952
35	0xbb3bb168	-0.0028639678
36	0x3d1c7cb8	0.03820488
37	0xbdaf0eac	-0.0854772
38	0xbb944b91	-0.00452561
39	0x3ba72135	0.005100394
40	0x3b961f36	0.0045813574
41	0xbdca347d	-0.098732926
42	0xbd4aeec8	-0.049544126
43	0xbe19eb75	-0.15031226
44	0xbc00774a	-0.007840941
45	0xbdf1db4d	-0.118094064
46	0xbd5d5259	-0.05403361
47	0x3d68cb0d	0.05683427
48	0xbdf72523	-0.1206763
49	0xbc7c95db	-0.015416588
50	0x3d2efa6f	0.0427193
51	0xbd5a08c0	-0.053231
52	0x3c89ba1e	0.01681238
53	0xbd9507b7	-0.07276862
54	0x3d8d60a3	0.069031976
55	0x3dab53da	0.08365603
56	0xbd2d5040	-0.04231286
57	0x3c8d1356	0.017221134
58	0xbcb2b4e5	-0.021814773
59	0x3c688c0a	0.014193544
60	0xbd88f158	-0.06686658
61	0x3c9c72e3	0.019097751
62	0xbce9e72d	-0.028552616
63	0xbdb05840	-0.08610582
64	0xbcf054ac	-0.02933725
65	0xbdab4a73	-0.083638094
66	0xbcdbda3a	-0.026837457
67	0x3d479681	0.048727516
68	0xbc2449f6	-0.010027399
69	0xbd9963e0	-0.07489753
70	0xbcd565a2	-0.026049439
71	0x3d22c6f8	0.039740533
72	0xbdc5d61a	-0.09659977
73	0xbd5f8c7f	-0.054577347
74	0x3cf3fa73	0.02978251
75	0x3dcfa0e0	0.10138106
76	0x3d30b1bd	0.043138254
77	0xbd1c2bdc	-0.038127765
78	0xbdb1e788	-0.08686739
79	0x3d47a34e	0.048739724
80	0xbd36897d	-0.044564713
81	0xbd972a09	-0.073810644
82	0x3b98d880	0.0046644807
83	0xbc0397b4	-0.008031774
84	0xbd705492	-0.058674403
85	0xbde74291	-0.112919934
86	0xbe008e09	-0.12554182
87	0xbd984cd3	-0.07436528
88	0x3d98f15e	0.07467912
89	0x3d384a34	0.04499264
90	0x3d5a4b7c	0.053294644
91	0xbced199d	-0.028942877
92	0xbdf2e70c	-0.11860475
93	0xbdca2f4f	-0.09872305
94	0xbcf68dd2	-0.030096922
95	0xbd33ae76	-0.04386755
96	0xbcb1271e	-0.021625098
97	0xbdc01aab	-0.093800865
98	0xbd3ac110	-0.045594275
99	0xbd1d8f47	-0.038466718
100	0xbd884fb5	-0.06655828
101	0xbdb0d4c3	-0.08634331
102	0x3e0229b7	0.12711225
103	0xbd134d89	-0.035962615
104	0x3da3aae9	0.07991583
105	0x3d51eb46	0.051249765
106	0x3e1d369d	0.15352865
107	0xbd4b814c	-0.049683854
108	0xbd517cdc	-0.051144466
109	0x3da05095	0.0782787
110	0xbdc3e89c	-0.09565851
111	0xbdd8ed12	-0.105920926
112	0x3e0214ec	0.12703294
113	0x3db159e5	0.08659724
114	0xbdf7b11e	-0.12094329
115	0xbb3c0b83	-0.0028693385
116	0xbc405c75	-0.0117407935
117	0x3ccd147e	0.025034185
118	0x3d97735f	0.07395052
119	0xbd4a632a	-0.049410976
120	0xbcb6bfd8	-0.022308275
121	0x3b1c16c2	0.0023817276
122	0x3cead2c4	0.028664954
123	0xbd83789e	-0.0641949
124	0xbdb5382d	-0.08848605
125	0xbca56744	-0.020190842
126	0xbcee97ee	-0.02912518
127	0x3dd3c193	0.10339656

network_body._body_endoder.seq_layers.2.weight f4 [128, 128]
0	0x3e60e5f0	0.21962714
1	0x39c503af	0.00037577513
2	0xbd05d089	-0.032669578
3	0x3d657504	0.056019798
4	0xbe91d313	-0.2848135
5	0xbe2d8551	-0.16945387
6	0x3e0aa8ef	0.13541006
7	0xbe0a2160	-0.13489294
8	0x3c03539b	0.008015539
9	0x3ebdcfd3	0.3707262
10	0x3d212620	0.039343
11	0xbac51c5e	-0.0015038361
12	0x3e2d58ac	0.16928357
13	0xba65b5a7	-0.0008762725
14	0xbea33cb6	-0.31882256
15	0xbdbcc5ee	-0.092174396
16	0xbe5aef4c	-0.21380347
17	0xbe40760f	-0.18795036
18	0xbdc99798	-0.09843367
19	0xbd1653f9	-0.036701176
20	0x3d1dafcf	0.038497742
21	0x3d81eac8	0.06343609
22	0xbd6c2d41	-0.057660345
23	0xbcd5fbff	-0.026121138
24	0xbd93e4ff	-0.07221412
25	0xbcc22573	-0.023699498
26	0xbe00d04c	-0.12579459
27	0xbe19487f	-0.14969061
28	0x3c64e6ac	0.013971012
29	0xbe131236	-0.14362416
30	0xbdbdd882	-0.09269811
31	0x3e3063db	0.17225592
32	0x3d330516	0.043706022
33	0xbd2c579a	-0.04207573
34	0xbb82f094	-0.0039959643
35	0x3dff242a	0.124580696
36	0xbe20413b	-0.15649883
37	0xbee3e62a	-0.4451154
38	0xbd9254c2	-0.071450725
39	0x3ea73d79	0.32664087
40	0xbe90dffa	-0.2829588
41	0x3e609131	0.21930386
42	0x3aba88fe	0.0014231501
43	0xbd7baf49	-0.06144646
44	0x3d7e57a7	0.06209531
45	0xbdce6b0b	-0.100790106
46	0x3e05ce61	0.13067009
47	0xbe3d4df0	-0.18486762
48	0xbe2caebf	-0.16863535
49	0xbdbdd2e0	-0.09268737
50	0xbe4da3b5	-0.2008198
51	0xbe004136	-0.12524876
52	0xbc799d01	-0.015235187
53	0x3dbf2159	0.093325324
54	0x3f0634f4	0.5242455
55	0xbe9f4a48	-0.3111136
56	0xbd2a7fc1	-0.041625742
57	0xbe26067f	-0.16213416
58	0xbebb9c98	-0.3664291
59	0x3c4e22b2	0.012581514
60	0x3c699f69	0.014259198
61	0x3db22270	0.08697975
62	0x3ddc7d86	0.10766129
63	0xbdd32ff3	-0.1031188
64	0xbe433879	-0.19064511
65	0xbd8b8157	-0.06811779
66	0xbbffbd68	-0.0078045614
67	0xbdd214ec	-0.10257897
68	0xbe325ab7	-0.17417417
69	0xbe28c970	-0.16483092
70	0xbe3188fe	-0.17337415
71	0x3e6e02bb	0.23243229
72	0x3e71ab6c	0.23600549
73	0xbd812c28	-0.0630725
74	0x3e756723	0.23965125
75	0xbe87aaf0	-0.26497602
76	0xbd8f36c7	-0.0699287
77	0x3e6496b9	0.22323121
78	0x3dd4895d	0.103777625
79	0x3d42dc7d	0.047573555
80	0xbeb7a6bb	-0.35869393
81	0x3e69d1c9	0.22833933
82	0xbd8bd0b7	-0.068269186
83	0xbd17178a	-0.036887683
84	0xbe4b0937	-0.19827734
85	0x3d4c05e5	0.04981031
86	0x3e71e6da	0.23623219
87	0x3e0f8023	0.14013724
88	0xbcb55689	-0.02213599
89	0xbe32ca04	-0.17459875
90	0x3df6edb4	0.12057057
91	0xbe80a179	-0.25123194
92	0xbe2ab0d3	-0.16669016
93	0x3d417320	0.047228932
94	0xbd91ffcc	-0.071288675
95	0xbe4d29ce	-0.20035478
96	0xbd42b1ab	-0.04753272
97	0xbdbed954	-0.09318796
98	0xbe8ea964	-0.2786361
99	0xbdd23e89	-0.10265834
100	0xbe1093ca	-0.14118877
101	0x3dd74c9b	0.10512658
102	0xbde25088	-0.11050516
103	0xbd8e29f7	-0.06941598
104	0x3e55016a	0.2080132
105	0x3e64e4fa	0.22352973
106	0xbc5de204	-0.013542656
107	0xbda318ba	-0.079637006
108	0xbe1815bc	-0.14852041
109	0x3d459772	0.048240133
110	0xbe40e585	-0.18837555
111	0xbe326321	-0.17420627
112	0xbe6519c8	-0.22373116
113	0xbe7111ce	-0.23541948
114	0x3dbf4133	0.09338608
115	0xbda3d82c	-0.08000216
116	0xbcfe39f9	-0.031033503
117	0x3df47871	0.11937035
118	0x3dce3769	0.100691624
119	0xbe60c788	-0.21951115
120	0xbd5d27a1	-0.05399287
121	0xbd931290	-0.07181275
122	0xbefde424	-0.4958812
123	0xbdd69ef8	-0.1047954
124	0xbe2c8c3b	-0.16850369
125	0xbe591a04	-0.2120133
126	0xbecd1598	-0.40055537
127	0x3ea58d9e	0.32334608
128	0x3e42d318	0.19025838
129	0xbde5e6ca	-0.1122566
130	0x3d9e1b26	0.07720022
131	0x3e220e29	0.15825714
132	0xbd96ea47	-0.073689036
133	0x3d0e596c	0.034753248
134	0xbd4b91c8	-0.049699575
135	0xbe36d328	-0.17853987
136	0x3d4b6e57	0.049665775
137	0x3ececedf	0.40392205
138	0x3d3b9d4e	0.045804314
139	0xbdef96cf	-0.11698686
140	0x3dc4ad2d	0.09603343
141	0x3e863b08	0.26216912
142	0x3e5905b0	0.21193576
143	0x3daa3fb4	0.08312932
144	0x3dd93abf	0.10606908
145	0x3cea48b4	0.02859912
146	0x3e06bfb6	0.1315907
147	0xbeb695c6	-0.35661143
148	0xbd67870c	-0.056525275
149	0x3d41a2bf	0.047274347
150	0xbdf8d2dd	-0.12149594
151	0xbe1f6f69	-0.15569843
152	0x3e8d0d6f	0.27549312
153	0xbe76f638	-0.24117362
154	0xbe534a2a	-0.2063376
155	0x3d65381a	0.055961706
156	0xbe5e378f	-0.21700881
157	0x3e21aa0e	0.15787527
158	0x3dcbee69	0.099575825
159	0x3cf5eb30	0.030019373
160	0xbcb84244	-0.022492535
161	0xbe3a1f3d	-0.18175979
162	0x3e710dcc	0.2354042
163	0xbe35e26b	-0.17762153
164	0x3db5a3b5	0.08869115
165	0xbe30b7e8	-0.17257655
166	0x3d957137	0.07296985
167	0xbdd3d506	-0.10343365
168	0x3e255ec0	0.16149426
169	0xbe7250e0	-0.23663664
170	0xbeb62e4d	-0.355822
171	0xbdefe803	-0.117141746
172	0xbdc479be	-0.09593533
173	0xbd8e845a	-0.06958838
174	0xbe362ccf	-0.1779053
175	0x3b77bf75	0.0037803326
176	0xbdb2a32d	-0.087225296
177	0x3db43474	0.08799067
178	0x3d2f7aa1	0.042841557
179	0x3d113dfd	0.035459507
180	0x3e1b5954	0.15170795
181	0x3de51d80	0.11187267
182	0xbcfe25e6	-0.03102393
183	0x3dfbf5a8	0.123027146
184	0x3d4e26b4	0.05032988
185	0xbdc26633	-0.09492149
186	0xbdbfaac2	-0.09358741
187	0xbe6fa34f	-0.23402141
188	0xbd93a6be	-0.07209538
189	0x3c114e03	0.008868697
190	0xbc6a2111	-0.01429011
191	0xbe12421e	-0.14283034
192	0xbd22cdae	-0.039746933
193	0x3c8409ac	0.016117893
194	0x3ef6c770	0.48199034
195	0x3c848a79	0.01617931
196	0xbea209e2	-0.31648165
197	0x3dd779d3	0.10521283
198	0xbb808e79	-0.003923234
199	0x3dc5f31b	0.09665509
200	0xbeb430fa	-0.35193616
201	0xbd5533f2	-0.052051492
202	0x3dc16178	0.09442419
203	0x3cd644cc	0.026155852
204	0xbc871b19	-0.016492413
205	0x3c52b6bd	0.012860951
206	0x3e6fb6a7	0.2340952
207	0x3d4a0277	0.049318757
208	0x3d7f1fef	0.062286314
209	0x3c3e0c57	0.011599622
210	0x3e42c648	0.19020951
211	0xbce23622	-0.027613703
212	0x3e895f05	0.26830307
213	0xbe350e47	-0.17681228
214	0xbdde1911	-0.10844625
215	0xbd9ca99b	-0.07649537
216	0xbe9da494	-0.30789626
217	0xbb6f3c76	-0.0036504543
218	0x3e9a32d1	0.30116895
219	0x3d98dfb7	0.07464545
220	0x3d71dabf	0.059046503
221	0xbd872abb	-0.06599947
222	0xbd93f712	-0.07224859
223	0x3c85042b	0.016237339
224	0x3e0b754f	0.13618968
225	0x3de846e1	0.11341644
226	0xbb2f84c7	-0.0026782022
227	0x3e3f1e8d	0.18663998
228	0x3d52f02e	0.051498584
229	0xbd85168d	-0.06498442
230	0x3dc75ba1	0.09734274
231	0xbcfcb512	-0.03084806
232	0x3ddfd359	0.10928983
233	0xbe3c09da	-0.18363133
234	0x3e1e3f09	0.15453734
235	0xbe44a627	-0.19204007
236	0xbeb64ed4	-0.35607016
237	0xbe8c6f39	-0.27428606
238	0x3d956f8a	0.07296665
239	0xbcf25a51	-0.029584082
240	0x3cfc2afe	0.030782219
241	0xbe92b9f3	-0.28657493
242	0x3eb3e07e	0.3513221
243	0x3d917894	0.071030766
244	0x3c69bca4	0.014266167
245	0xbdcfca7b	-0.10146042
246	0x3d2971f3	0.041368436
247	0xbd063952	-0.03276951
248	0x3deb712f	0.114961974
249	0xbe24aff0	-0.1608274
250	0x3d4eee87	0.050520446
251	0xbdfc074f	-0.123060815
252	0xbdc80350	-0.09766257
253	0x3e498ba0	0.19682169
254	0x3d76df2e	0.060271434
255	0xbe2453a8	-0.16047537

network_body.observation_encoder.processors.0.normalizer.running_mean f4 [25]
0	0x3f0834ca	0.5320555
1	0x3e0c0d83	0.1367703
2	0x00000000	0.0
3	0x393aa4f7	0.00017799796
4	0x3d9cb071	0.07650841
5	0x3f19f1bf	0.601345
6	0x3d834539	0.064096875
7	0x00000000	0.0
8	0x3c5de486	0.013543254
9	0x3dca3e00	0.09875107
10	0x3ee78395	0.45217577
11	0x3d9ae608	0.07563406
12	0x00000000	0.0
13	0x3c5ec147	0.013595886
14	0x3ddb74fa	0.10715671
15	0x3f2c48b4	0.67298436
16	0x3ccdfa63	0.025143808
17	0x00000000	0.0
18	0x3dac2ed3	0.084073685
19	0x3e593e7a	0.21215239
20	0x3ef824f2	0.48465687
21	0x3d1a3c1a	0.037654974
22	0x00000000	0.0
23	0x3ddd4a8b	0.108052336
24	0x3e72c044	0.23706156

network_body.observation_encoder.processors.1.normalizer.running_mean f4 [25]
0	0x3f53c356	0.82719934
1	0x3cb8bffc	0.022552483
2	0x00000000	0.0
3	0x3cb02b7b	0.021505108
4	0x3da44ee9	0.080228634
5	0x3f4d9845	0.8031047
6	0x3c5572e1	0.013027878
7	0x00000000	0.0
8	0x3df9a050	0.1218878
9	0x3e2e4210	0.17017388
10	0x3f3643d7	0.71197265
11	0x3cccf35c	0.025018387
12	0x00000000	0.0
13	0x3dc201f8	0.09473032
14	0x3e0ec85c	0.13943619
15	0x3f34a79b	0.70568246
16	0x3babeb97	0.0052465904
17	0x00000000	0.0
18	0x3e17df9d	0.14831395
19	0x3e3f6518	0.18690908
20	0x3f3d762b	0.74008435
21	0x3bf66454	0.0075192843
22	0x00000000	0.0
23	0x3de8cf6b	0.11367687
24	0x3e1bcdf4	0.15215284

network_body.observation_encoder.processors.2.normalizer.running_mean f4 [15]
0	0x410e47a9	8.892495
1	0xbeb9ea01	-0.36311343
2	0xc0a35f86	-5.1054106
3	0xc08c58ce	-4.3858404
4	0x3eae068d	0.33989373
5	0xc02b2dbd	-2.6746666
6	0xbc72e99b	-0.014826204
7	0xbf343710	-0.7039652
8	0xbc8897c2	-0.016673926
9	0x3e47b0ef	0.19501089
10	0x3dc75870	0.09733665
11	0xbd7d9f99	-0.061919782
12	0xbeaf14c4	-0.3419553
13	0xbece4a45	-0.40291038
14	0x00000000	0.0
