Assets/Brains/CarPractice_run27-11.onnx (onnx, 108394 bytes, 15 tensors)

85 f4 [25]
0.08754068 0.033095498 0.0008164949 0.001414202 0.07012759 0.15339914 0.022981323 0.0008164949
0.042403072 0.093835056 0.13404855 0.02305421 0.0008164949 0.040819846 0.08005304 0.3359283
0.050012656 0.0008164949 0.0623121 0.10796133 0.27398893 0.035042968 0.0008164949 0.0803856
0.08776073
00000000: 8748 b33d 258f 073d 0c0a 563a bf5c b93a
00000010: 0e9f 8f3d aa14 1d3e 5443 bc3c 0c0a 563a
00000020: d8ae 2d3d 982c c03d 0644 093e 2fdc bc3c
00000030: 0c0a 563a b632 273d d9f2 a33d cbfe ab3e
00000040: 12da 4c3d 0c0a 563a f93a 7f3d d41a dd3d
00000050: 4748 8c3e 3789 0f3d 0c0a 563a 35a1 a43d
00000060: e6bb b33d

88 f4 [25]
0.4654652 0.49978554 0.0008164949 0.045945678 0.056608766 0.48840788 0.20464498 0.0008164949
0.14805122 0.14392044 0.48797965 0.33876997 0.0008164949 0.057999272 0.060907014 0.4465705
0.082818255 0.0008164949 0.10784083 0.105520956 0.47561944 0.14671905 0.0008164949 0.10737783
0.10471675
00000000: 7451 ee3e e4e3 ff3e 0c0a 563a 8931 3c3d
00000010: 98de 673d 9910 fa3e 748e 513e 0c0a 563a
00000020: bd9a 173e e15f 133e 78d8 f93e 4273 ad3e
00000030: 0c0a 563a a590 6d3d a279 793d e3a4 e43e
00000040: 9e9c a93d 0c0a 563a a7db dc3d 5f1b d83d
00000050: 6484 f33e 853d 163e 0c0a 563a e8e8 db3d
00000060: bc75 d63d

91 f4 [17]
20.998938 0.828493 12.522521 3.3843672 0.027986577 7.283511 0.02353377 0.19309972
0.01719071 0.12995936 545.00366 24.881117 0.3541278 0.20097162 0.32339758 0.4879694
0.0008164949
00000000: d3fd a741 1e18 543f 3f5c 4841 7999 5840
00000010: 1b44 e53c 8612 e940 e5c9 c03c efbb 453e
00000020: 88d3 8c3c 1114 053e 3c40 0844 870c c741
00000030: 3d50 b53e 81cb 4d3e 5e94 a53e 20d7 f93e
00000040: 0c0a 563a

action_model._discrete_distribution.branches.0.bias f4 [3]
0.068197906 0.01465702 -0.06580746
00000000: 58ab 8b3d ff23 703c 10c6 86bd

action_model._discrete_distribution.branches.0.weight f4 [3, 128]
-0.0033464127 0.030425007 0.034583576 -0.18545406 0.075744815 -0.1970322 -0.05755165 -0.28190604
0.05590604 0.02965981 0.031786032 0.056543216 0.060224976 -0.017208459 0.31114805 -0.20436381
-0.061491065 0.12794009 0.13806288 -0.14176261 0.1404436 0.006247186 0.07767172 0.032622185
-0.046502274 -0.009828493 0.024052816 -0.15154406 -0.0235861 0.014171871 0.08198512 -0.080110446
-0.02172017 -0.0016717559 -0.01631759 0.049311027 0.15032503 0.2077504 -0.0148595935 0.19696298
-0.052527864 0.13600016 0.29161218 0.13522069 0.1501017 -0.00054611 -0.09432566 0.122362405
0.08805852 -0.26722437 0.028607331 0.25530735 -0.10328906 0.016307173 0.3035538 -0.1840455
0.25619543 0.2646375 -0.18219091 0.044642396 -0.04383109 0.025464354 0.15727441 -0.103107214
0.16737862 0.04060108 -0.029037075 -0.19489102 0.16200253 0.022499584 -0.24414626 0.064848036
-0.06038196 -0.09647771 -0.030626288 -0.19074214 -0.067042075 -0.043335076 0.09669501 -0.063425094
-0.050646365 -0.16389368 0.065097116 0.0025979348 0.121377766 0.0052991207 0.026159879 -0.0015421315
-0.044017583 -0.09165894 -0.24171081 0.2717409 -0.07770239 0.08280674 0.07229194 0.029882278
0.2039338 0.020674614 -0.28064778 0.07305472 0.30836308 0.004189776 0.03434008 0.1714561
0.010281772 -0.097129345 0.08708235 -0.13284689 0.08449052 0.1677149 0.038632534 0.13425238
-0.012655604 0.13299689 -0.0030743384 -0.23980004 -0.023593105 0.050475094 0.11508839 -0.094276674
0.025945827 0.086938545 0.089909434 0.25620162 -0.06214468 -0.04570604 -0.23309433 0.24275282
0.2801078 -0.28990638 -0.06119267 0.032741208 -0.18306634 0.0744737 0.033750445 0.2879347
-0.14925818 -0.097890794 -0.11961441 0.07460388 -0.055059444 0.151656 -0.20029317 0.018662259
0.12183477 0.023395304 -0.18291177 -0.06533311 -0.27149275 -0.03472932 0.022310948 -0.058936596
0.10719871 0.075884074 0.121857494 0.23495409 -0.0970824 0.1305422 0.12015879 0.09533193
0.15479429 0.2724744 0.1641158 -0.06407813 0.07322909 -0.28024513 0.06238936 -0.1725786
0.12820944 -0.20232148 -0.098869435 -0.34952515 -0.23582554 0.2125584 0.084284335 0.020558657
-0.0069125053 0.006407574 0.052196242 -0.18272813 0.15438296 -0.10273523 -0.25673404 0.16070302
-0.065716736 -0.06652073 0.14597209 -0.10307326 -0.101358704 -0.0629716 -0.41459835 -0.042974997
-0.3840189 0.006048272 -0.012753674 -0.069541715 0.007614695 -0.117777936 0.12598148 -0.13201864
0.04209277 -0.110639066 -0.038990844 0.19098765 -0.014470753 0.18691534 -0.25385395 0.026447563
-0.13503234 0.15438862 -0.10712699 0.093305536 -0.07976804 0.074325934 -0.1774512 -0.0739711
0.08479254 0.10373808 0.16173683 0.109595224 -0.0024289188 0.019471051 0.087376736 -0.09522324
-0.28536418 0.00011236519 0.1728536 -0.027488593 -0.23895505 0.06922919 0.110470705 -0.3690627
0.027984891 -0.06711459 0.08291895 0.18460119 0.055472877 -0.36948466 -0.011030771 -0.38054985
0.013392978 -0.065117344 0.05520135 0.1435225 -0.046042275 0.023863222 -0.015967902 0.14474544
-0.23364055 -0.4159155 0.06350132 -0.2069863 -0.11013149 0.20420869 -0.026139643 -0.15737718
00000000: 7d4f 5bbb dd3d f93c 82a7 0d3d abe7 3dbe
00000010: 1920 9b3d cfc2 49be 47bb 6bbd fd55 90be
00000020: bbfd 643d 21f9 f23c 1232 023d dc99 673d
00000030: 77ae 763d c1f8 8cbc cc4e 9f3e bf44 51be
00000040: 0ede 7bbd ba02 033e 5b60 0d3e 382a 11be
00000050: 72d0 0f3e 32b5 cc3b 5a12 9f3d d79e 053d
00000060: 2b79 3ebd b007 21bc 690a c53c 5e2e 1bbe
00000070: a337 c1bc 2331 683c d1e7 a73d f210 a4bd
00000080: 7fee b1bc d21e dbba 77ac 85bc 5cfa 493d
00000090: ceee 193e 85bc 543e a775 73bc aab0 493e
000000a0: 7527 57bd a043 0b3e 314e 953e 4b77 0a3e
000000b0: 43b4 193e d228 0fba d02d c1bd 2499 fa3d
000000c0: 0658 b43d a2d1 88be ec59 ea3c a5b7 823e
000000d0: 3789 d3bd 9f96 853c 676b 9b3e 6c76 3cbe
000000e0: 0c2c 833e 917e 873e 4190 3abe f2da 363d
000000f0: 3b88 33bd 9f9a d03c 8b0c 213e e029 d3bd
00000100: 4d65 2b3e 514d 263d 29df edbc 8391 47be
00000110: fee3 253e 0c51 b83c 7a01 7abe 0ccf 843d
00000120: 1353 77bd 1b96 c5bd fbe3 fabc e851 43be
00000130: 5b4d 89bd 1f80 31bd 0908 c63d 04e5 81bd
00000140: 9072 4fbd bfd3 27be a351 853d 1d42 2a3b
00000150: e894 f83d 3fa4 ad3b 3e4d d63c 5921 caba
00000160: c84b 34bd afb7 bbbd 0a83 77be a021 8b3e
00000170: 6e22 9fbd 9596 a93d cc0d 943d aecb f43c
00000180: 06d4 503e cf5d a93c 11b1 8fbe b79d 953d
00000190: c4e1 9d3e 634a 893b 2fa8 0c3d 3092 2f3e
000001a0: e174 283c c0eb c6bd 3b58 b23d 0409 08be
000001b0: 5e09 ad3d 74bd 2b3e 263d 1e3d 7579 093e
000001c0: 7359 4fbc 5630 083e d77a 49bb 248e 75be
000001d0: 5446 c1bc f9be 4e3d 76b3 eb3d 2114 c1bd
000001e0: 588c d43c d60c b23d 7022 b83d dc2c 833e
000001f0: 6c8b 7ebd 4236 3bbd 48b0 6ebe 3294 783e
00000200: 4a6a 8f3e 9c6e 94be 2aa5 7abd a51b 063d
00000210: be75 3bbe ab85 983d e83d 0a3d 2d6c 933e
00000220: 23d7 18be f87a c8bd 66f8 f4bd ebc9 983d
00000230: 0386 61bd b64b 1b3e a719 4dbe 98e1 983c
00000240: 8284 f93d 82a7 bf3c 394d 3bbe 5ecd 85bd
00000250: 1901 8bbe 5540 0ebd 73c5 b63c 8067 71bd
00000260: ff8a db3d 1c69 9b3d 6c90 f93d ce97 703e
00000270: 23d3 c6bd dbac 053e d015 f63d 633d c33d
00000280: 6582 1e3e c481 8b3e f90d 283e 653b 83bd
00000290: 22f9 953d 4a7c 8fbe fc8b 7f3d 72b8 30be
000002a0: 5649 033e 5d2d 4fbe 0f7c cabd f6f4 b2be
000002b0: 407c 71be e9a8 593e 449d ac3d a16a a83c
000002c0: 4c82 e2bb a0f6 d13b bacb 553d 151d 3bbe
000002d0: 9116 1e3e d966 d2bd a572 83be 558f 243e
000002e0: 7f96 86bd 053c 88bd b579 153e 1318 d3bd
000002f0: 2795 cfbd 41f7 80bd 3c46 d4be 8d06 30bd
00000300: 209e c4be 9530 c63b c9f4 50bc e36b 8ebd
00000310: b184 f93b 8f35 f1bd 4a01 013e e52f 07be
00000320: 7869 2c3d bc96 e2bd ddb4 1fbd 4492 433e
00000330: bd16 6dbc bc66 3f3e 25f9 81be 8fa8 d83c
00000340: eb45 0abe 0d18 1e3e 6565 dbbd f916 bf3d
00000350: 6d5d a3bd 3238 983d c4b5 35be 297e 97bd
00000360: b6a7 ad3d a174 d43d 579e 253e 7673 e03d
00000370: 7f2e 1fbb c181 9f3c 93f2 b23d 6704 c3bd
00000380: 411b 92be 9aa5 eb38 8900 313e c22f e1bc
00000390: a2b0 74be 09c8 8d3d 773e e23d c9f5 bcbe
000003a0: 9240 e53c 6073 89bd 69d1 a93d 1808 3d3e
000003b0: 8737 633d 182d bdbe 68ba 34bc 6ed7 c2be
000003c0: 396e 5b3c 3e5c 85bd d01a 623d 90f7 123e
000003d0: d396 3cbd ce7c c33c 1ecf 82bc 2638 143e
000003e0: 783f 6fbe e0f2 d4be fb0c 823d 37f4 53be
000003f0: 9e8c e1bd 151c 513e ce22 d6bc 7c27 21be

action_model._discrete_distribution.branches.1.bias f4 [3]
0.09426651 -0.059799355 -0.0025099374
00000000: cd0e c13d 2bf0 74bd c37d 24bb

action_model._discrete_distribution.branches.1.weight f4 [3, 128]
-0.13988191 -0.09171357 -0.20033266 -0.11104125 -0.09690443 -0.019432163 0.008572549 0.03390561
0.09317886 -0.2965908 -0.22904173 0.03222885 0.1915027 -0.051063627 0.021321334 -0.18010966
-0.28931475 0.179322 -0.004131935 -0.3247943 0.12305891 -0.008890181 0.14231236 0.17893797
0.14778437 0.15137786 0.09527083 -0.083841875 -0.19555053 -0.1417376 0.029185891 -0.33256462
0.039274335 0.04638319 0.12690075 0.11664008 0.15397064 0.030243743 -0.16873308 -0.12621129
0.064716294 0.14071828 -0.23966971 0.015179234 -0.14212799 0.07016408 0.051201466 0.20806588
-0.33430776 0.048995387 -0.2310454 -0.010464248 -0.20091823 -0.29392344 -0.026602503 -0.40194345
-0.15132865 -0.11975155 0.07565689 -0.28354988 0.076813914 0.08111193 -0.08369419 -0.38455218
-0.26048464 -0.34822878 -0.15806593 0.0013666555 0.20694052 -0.10547506 -0.0150599 0.062161513
0.10671416 -0.045179218 -0.05096166 -0.30655894 0.004391997 0.14919102 0.13518654 0.2753556
0.08058193 0.008878418 -0.1951579 -0.23469289 -0.29260767 -0.09965513 -0.08855585 0.122810274
0.01931221 -0.34180495 -0.21686415 0.04398533 0.07907889 0.048338033 0.015366406 0.14107044
0.15778436 -0.020232959 0.068508096 0.18574467 -0.1754699 0.096907035 0.15467072 -0.09647314
-0.10800293 -0.07736292 -0.047362544 -0.16950054 0.1795812 -0.045212742 -0.1516383 0.1312816
0.043002672 -0.11945898 -0.24751595 0.030628387 -0.07677265 -0.12005644 -0.1356654 -0.14863
0.114703044 -0.027598044 -0.27352127 -0.06884872 -0.2107267 0.093510404 0.09866857 -0.12953821
0.06748467 0.08481128 0.13351858 0.20975888 -0.091410354 0.08045327 -0.08621267 -0.042281374
-0.009039643 -0.018168919 0.043746416 0.2160905 -0.2719684 -0.33098358 0.04804088 0.20122358
0.09255864 -0.2342834 0.153812 0.22379987 -0.091282435 0.05634144 -0.07448437 -0.15752423
-0.13452546 0.123139635 -0.2452044 -0.07493724 0.015272972 -0.012163469 0.2024395 0.3481661
-0.21668369 -0.18553494 -0.14374483 0.08102439 -0.18618493 -0.16191413 0.35049483 0.096965834
0.07815384 -0.021254256 0.13844451 -0.10939983 0.111935064 -0.116811104 -0.23416081 0.089860596
0.09397756 0.05059748 -0.1083885 0.035140026 0.37610826 0.13888615 0.0330942 0.35536256
0.115918405 0.017675899 -0.27968433 0.13831562 0.105662875 -0.3024617 0.13127373 0.37606817
0.066828765 -0.03502689 -0.0019589604 -0.12025091 0.038514055 0.069370955 0.097454466 -0.13953334
-0.30002356 -0.0050842636 -0.16825841 0.13749646 0.11128686 -0.020645393 -0.053454965 -0.07526315
0.07741625 -0.053757414 0.028183734 0.08821833 0.1216154 0.13180071 0.26135662 -0.10857239
-0.21102273 0.49808654 0.24959107 -0.088180415 -0.0018256523 0.12772308 0.18093109 0.01966339
-0.19887339 -0.011237332 -0.061402015 0.12791897 0.08407292 -0.22711876 -0.2805391 0.046746604
0.058767453 -0.019154498 -0.05248392 0.34481174 0.033061754 0.076213114 0.13640805 -0.0078004487
-0.27254173 0.0429639 0.1946796 -0.12340899 -0.03983473 0.291182 0.026193408 0.043996327
-0.11357105 0.010509598 -0.07518233 0.09082604 -0.11861754 -0.1729397 -0.1652322 0.118886754
00000000: 343d 0fbe 53d4 bbbd 0124 4dbe 9869 e3bd
00000010: d475 c6bd 3330 9fbc e073 0c3c 9ce0 0a3d
00000020: 8fd4 be3d c0da 97be ea89 6abe 6602 043d
00000030: 4919 443e 1828 51bd 14aa ae3c ab6e 38be
00000040: 1021 94be 30a0 373e 2f65 87bb 704b a6be
00000050: 4f06 fc3d 1fa8 11bc 55ba 113e 843b 373e
00000060: c954 173e cc02 1b3e 5a1d c33d 4ab5 abbd
00000070: 663e 48be a923 11be 4017 ef3c e945 aabe
00000080: 20de 203d 4dfc 3d3d 45f2 013e ffe0 ee3d
00000090: 7baa 1d3e bac1 f73c 5dc8 2cbe 883d 01be
000000a0: fa89 843d 7418 103e fa6b 75be 52b2 783c
000000b0: 008a 11be 2fb2 8f3d a1b8 513d 390f 553e
000000c0: 632a abbe 63af 483d 2a97 6cbe 3d72 2bbc
000000d0: 82bd 4dbe 227d 96be 7eed d9bc 88cb cdbe
000000e0: e6f5 1abe 4d40 f5bd 00f2 9a3d 732d 91be
000000f0: 9d50 9d3d 031e a63d dc67 abbd 06e4 c4be
00000100: 3e5e 85be 0b4b b2be 09dc 21be 5921 b33a
00000110: 37e8 533e 4f03 d8bd ccbd 76bc 129d 7e3d
00000120: f48c da3d d80d 39bd 2cbd 50bd 4bf5 9cbe
00000130: beea 8f3b 88c5 183e 576e 0a3e 69fb 8c3e
00000140: 2408 a53d c976 113c 79d7 47be 5553 70be
00000150: acd0 95be fd17 ccbd c55c b5bd f483 fb3d
00000160: a434 9e3c 0f01 afbe a311 5ebe f629 343d
00000170: 1df4 a13d 1afe 453d 61c3 7b3c c574 103e
00000180: 3992 213e 97bf a5bc f94d 8c3d da33 3e3e
00000190: 62ae 33be 3277 c63d 0062 1e3e b693 c5bd
000001a0: a430 ddbd 7370 9ebd 3aff 41bd 8d91 2dbe
000001b0: 22e4 373e ff30 39bd 1247 1bbe af6e 063e
000001c0: 9223 303d e9a6 f4bd d274 7dbe 62e8 fa3c
000001d0: fb3a 9dbd 27e0 f5bd dfeb 0abe 7632 18be
000001e0: 6ee9 ea3d 4b15 e2bc fb0a 8cbe 8f00 8dbd
000001f0: bdc8 57be 6282 bf3d bf12 ca3d aaa5 04be
00000200: 6735 8a3d 89b1 ad3d 18b9 083e 08cb 563e
00000210: 5a35 bbbd afc4 a43d 4590 b0bd 3c2f 2dbd
00000220: 031b 14bc fcd6 94bc 712f 333d d446 5d3e
00000230: 713f 8bbe ae76 a9be 84c6 443d 8e0d 4e3e
00000240: 628f bd3d fde7 6fbe e580 1d3e cb2b 653e
00000250: 49f2 babd 48c6 663d 438b 98bd 084e 21be
00000260: 0bc1 09be a230 fc3d dd16 7bbe b278 99bd
00000270: 7d3b 7a3c 4949 47bc 4d4c 4f3e d442 b23e
00000280: 54e2 5dbe dffc 3dbe d831 13be 1ef0 a53d
00000290: 43a7 3ebe d1cc 25be 0f74 b33e 0696 c63d
000002a0: 1f0f a03d 681d aebc 66c4 0d3e 050d e0bd
000002b0: 363e e53d a93a efbd dac7 6fbe d508 b83d
000002c0: 4f77 c03d 4e3f 4f3d cafa ddbd fdee 0f3d
000002d0: 4391 c03e 2c38 0e3e c98d 073d 15f2 b53e
000002e0: a166 ed3d 0ccd 903c c932 8fbe 9ca2 0d3e
000002f0: c765 d83d 43dc 9abe 9f6c 063e 028c c03e
00000300: 85dd 883d 5b78 0fbd e761 00bb 1c46 f6bd
00000310: eac0 1d3d 5c12 8e3d 3596 c73d d4e1 0ebe
00000320: b09c 99be e599 a6bb ef4b 2cbe dfcb 0c3e
00000330: 5eea e33d 8720 a9bc 98f3 5abd 9123 9abd
00000340: 698c 9e3d bc30 5cbd 93e1 e63c d0ab b43d
00000350: 7f11 f93d c4f6 063e 89d0 853e 345b debd
00000360: 5816 58be 3305 ff3e cd94 7f3e ef97 b4bd
00000370: ba4a efba d7c9 023e 0046 393e 1e15 a13c
00000380: 77a5 4bbe c91c 38bc ae80 7bbd 31fd 023e
00000390: 6c2e ac3d d291 68be d2a2 8fbe 5e79 3f3d
000003a0: 24b6 703d e5e9 9cbc 61f9 56bd 2a8b b03e
000003b0: c36b 073d 9f15 9c3d 8dae 0b3e e89a ffbb
000003c0: 978a 8bbe eafa 2f3d 175a 473e dabd fcbd
000003d0: be29 23bd cf15 953e 8f93 d63c 7e35 343d
000003e0: f097 e8bd 7330 2c3c 32f9 99bd 0103 ba3d
000003f0: c1ed f2bd 1b17 31be a132 29be e67a f33d

discrete_action_output_shape f4 [1, 2]
3.0 3.0
00000000: 0000 4040 0000 4040

network_body._body_endoder.seq_layers.0.bias f4 [128]
0.050977863 0.038024228 -0.13091938 0.008641818 0.055429798 0.047177784 -0.010218037 -0.03214618
0.084828086 -0.0083797015 0.04639424 -0.1259485 0.087862 0.04713213 0.014473757 0.10740298
-0.024015658 -0.086310424 0.09463864 0.06973638 0.13847806 -0.11447056 0.14015576 0.04541149
-0.10343995 0.04045908 -0.0543171 0.09340308 0.075667344 0.2205579 0.029966049 -0.13616423
-0.042898707 -0.015890194 0.10213784 -0.008212982 -0.04012172 -0.066600926 0.0108907325 -0.027316792
0.11134354 0.1058383 -0.028948499 -0.09945037 0.008897254 0.08505963 0.03289249 -0.018907195
0.011678262 0.144719 0.045494057 -0.024369353 0.049329232 0.027277283 -0.08671726 0.048906434
-0.05759616 -0.12018927 -0.2061425 -0.050302763 -0.008310191 0.13469477 0.011383617 0.12496266
0.05779526 0.00028622747 0.039221667 0.012688988 0.055305704 0.05524218 0.07576477 -0.06706602
-0.0024844324 0.0818537 0.09460679 0.09443943 0.050438054 -0.07957286 -0.056828193 0.03247914
0.06838154 0.066638485 -0.05003587 -0.097212456 -0.01850378 -0.10720182 -0.110900536 -0.017117856
0.023448836 0.045367815 -0.054344445 0.039767157 0.015374398 0.070413135 0.016502533 0.031192789
-0.019179374 -0.10346124 0.02983544 0.058923677 -0.1240819 0.008037058 0.06562126 0.008858677
0.10039037 0.0025420634 -0.066867694 0.07444915 -0.022536967 0.050744437 -0.036116876 0.0034697116
0.010938214 -0.22024755 0.1421438 -0.02640528 0.012247604 -0.10023347 -0.029459044 0.005614615
0.06188318 0.0497292 0.0043117357 0.051632136 0.174621 0.019925654 0.04491734 -0.02565899
00000000: 2ace 503d 4bbf 1b3d bb0f 06be 6996 0d3c
00000010: 5b0a 633d 7e3d 413d 8e69 27bc b6ab 03bd
00000020: 59ba ad3d 044b 09bc e307 3e3d a5f8 00be
00000030: fef0 b33d 9f0d 413d 5623 6d3c 18f6 db3d
00000040: 7cbc c4bc 85c3 b0bd e7d1 c13d f2d1 8e3d
00000050: 31cd 0d3e 8a6f eabd fe84 0f3e 6601 3a3d
00000060: 53d8 d3bd 6cb8 253d 9c7b 5ebd 1d4a bf3d
00000070: 7bf7 9a3d eed9 613e 5c7b f53c a36e 0bbe
00000080: 8eb6 2fbd 272c 82bc a52d d13d be8f 06bc
00000090: ac56 24bd 1166 88bd 0b6f 323c 77c7 dfbc
000000a0: 1508 e43d c0c1 d83d 6725 edbc a3ac cbbd
000000b0: cac5 113c be33 ae3d 47ba 063d 43e3 9abc
000000c0: 2e56 3f3c 3831 143e fa57 3a3d 3da2 c7bc
000000d0: 730d 4a3d 9c74 df3c d298 b1bd 1d52 483d
000000e0: f3e9 6bbd cb25 f6bd 0517 53be 450a 4ebd
000000f0: 7827 08bc 6ded 093e 5a82 3a3c 6cec ff3d
00000100: b9ba 6c3d cd10 9639 e6a6 203d 79e5 4f3c
00000110: 3c88 623d a045 623d 8f2a 9b3d e959 89bd
00000120: dcd1 22bb eaa2 a73d 34c1 c13d 7669 c13d
00000130: 2298 4e3d 18f7 a2bd aec4 68bd d908 053d
00000140: 9f0b 8c3d c279 883d 6af2 4cbd 5317 c7bd
00000150: 3d95 97bc a18c dbbd d21f e3bd bf3a 8cbc
00000160: c617 c03c 9ad3 393d 4898 5ebd e3e2 223d
00000170: e6e4 7b3c c334 903d 5230 873c 0588 ff3c
00000180: 101e 9dbc 7de3 d3bd 7469 f43c f459 713d
00000190: a71e febd ddad 033c 7064 863d fc23 113c
000001a0: 7799 cd3d bf98 263b eef1 88bd cc78 983d
000001b0: 729f b8bc 66d9 4f3d 4aef 13bd 1a64 633b
000001c0: 3236 333c 9388 61be 258e 113e e34f d8bc
000001d0: 2daa 483c 3547 cdbd 1854 f1bc cefa b73b
000001e0: 3879 7d3d d8b0 4b3d 7649 8d3b 387c 533d
000001f0: d9cf 323e 203b a33c 3ffb 373d cd32 d2bc

network_body._body_endoder.seq_layers.0.weight f4 [128, 67]
0.043585923 -0.13459592 -0.13495228 0.05625558 0.09570898 0.15893425 -0.09314125 0.013068371
-0.20267977 -0.0034639915 0.13076839 -0.17637712 -0.31635463 0.039154638 0.021993952 0.1171984
0.033823896 0.19324523 0.014264966 0.12828974 -0.044309314 0.10177651 0.13696375 0.331056
-0.056589577 -0.1447587 -0.24105729 0.050703954 0.10440818 0.107427634 -0.044863608 0.14580187
-0.03647909 -0.07025348 -0.11895069 0.026541987 -0.2175933 0.19393203 0.13641673 -0.011955327
0.07698917 0.07687911 0.28131157 0.020970626 -0.0005603124 -0.006770513 -0.24656042 -0.13475373
0.04862327 -0.20348015 -0.06073096 0.186937 -0.020810524 -0.056249853 -0.18275714 -0.33273575
0.050260462 -0.059371103 0.1712794 -0.09890273 -0.13704556 0.20293333 0.25138044 -0.0980524
-0.06876326 0.03326125 -0.22495465 0.023459913 -0.1420285 0.091584794 0.053689755 -0.2651161
0.15471789 -0.09829815 -0.07092616 0.14105037 0.019823965 -0.19259809 -0.18825746 0.019479487
-0.04635111 -0.035480723 0.18365009 0.078021005 0.0042197797 -0.0781143 0.13446696 0.07560654
0.031150445 -0.1424161 -0.07719868 0.02529788 0.23084055 -0.51610494 0.074203916 0.2742994
0.16131653 0.1478999 0.07113258 -0.14708546 0.024227854 0.12550269 0.09575292 -0.45875922
-0.022401439 0.06871988 0.111710705 0.19649154 -0.004153529 -0.13911434 0.12104038 0.10531333
0.14229675 0.087570995 -0.08475236 0.09323386 0.09458374 0.0064235916 -0.037792325 0.22344758
0.09485862 -0.060536835 -0.18733141 0.07221716 0.082995914 0.10290833 -0.11820665 -0.09697026
-0.058670092 0.24716692 0.13211241 0.18558365 0.54433405 0.058542505 0.043765634 -0.035418104
0.020474927 0.15787943 0.1805735 -0.26102522 0.13857637 -0.25372976 0.29080778 -0.23736952
-0.11296867 0.217719 0.09259008 0.23127374 0.14341581 -0.036437344 0.05873772 0.10727125
0.16664375 -0.056879688 0.21080564 0.16860192 0.120027244 0.005049788 -0.077328995 -0.19813299
0.20310466 0.13890506 0.23145686 0.20376807 0.016222786 0.14370601 -0.051118948 0.17122336
0.10035787 0.10422685 0.027012384 0.17687756 0.21848163 -0.07249328 0.26680037 0.39564028
-0.11909579 0.2718797 0.077016465 0.038989764 0.119641274 0.10851481 0.043229476 -0.0061302204
0.08939524 -0.14422657 0.07267978 -0.1360557 -0.049669493 0.13818187 -0.35802796 0.10172583
0.09945584 0.23164344 0.011321512 0.008028208 0.29842302 -0.2633572 0.14679587 -0.11397197
-0.1220072 0.11329943 0.072585136 -0.16553819 0.19879207 0.03392586 0.0866729 -0.25134742
-0.083451554 0.1493636 -0.14724462 0.1552991 0.060769916 -0.124248065 0.050421506 0.06651887
0.4590847 0.034116004 -0.014433089 0.013648372 -0.09581061 0.24324547 -0.082248375 -0.08699577
-0.099452816 0.29450235 -0.09662314 -0.524161 -0.045900803 -0.15533133 0.08944451 0.14830436
0.06125949 -0.08247364 0.16783485 -0.046045523 0.05293351 -0.1272579 -0.047112893 -0.023227192
0.37139648 0.1168467 -0.020010924 0.039798245 -0.020690346 0.33740175 0.16261727 -0.47790143
0.12252589 0.10214888 0.037370324 -0.048578534 0.026626183 -0.019898718 0.044061694 -0.29340833
00000000: 2787 323d 83d3 09be ee30 0abe 406c 663d
00000010: 1203 c43d a9bf 223e d7c0 bebd b91c 563c
00000020: 498b 4fbe 2204 63bb 26e8 053e 349c 34be
00000030: 3cf9 a1be 9d60 203d a92c b43c b705 f03d
00000040: ed8a 0a3d 14e2 453e 9bb7 693c 635e 033e
00000050: af7d 35bd 3470 d03d 3a40 0c3e 2c80 a93e
00000060: 79ca 67bd a03b 14be b9d7 76be f3ae 4f3d
00000070: f5d3 d53d 0503 dc3d e7c2 37bd 164d 153e
00000080: 196b 15bd 0ee1 8fbd 6b9c f3bd 956e d93c
00000090: c7d0 5ebe 1e96 463e d4b0 0b3e 47e0 43bc
000000a0: 7fac 9d3d cb72 9d3d 1208 903e 97ca ab3c
000000b0: eee1 12ba 2edb ddbb 567a 7cbe e2fc 09be
000000c0: 3229 473d 1a5d 50be 07c1 78bd 6a6c 3f3e
000000d0: d57a aabc 3f66 66bd b024 3bbe 575c aabe
000000e0: eadd 4d3d 1d2f 73bd de63 2f3e 848d cabd
000000f0: ac55 0cbe c1cd 4f3e f0b4 803e b2cf c8bd
00000100: c1d3 8cbd f33c 083d 835a 66be 012f c03c
00000110: eb6f 11be cf90 bb3d cae9 5b3d 4cbd 87be
00000120: 5e6e 1e3e 8a50 c9bd bc41 91bd 826f 103e
00000130: de65 a23c 6f38 45be 90c6 40be 7293 9f3c
00000140: a9da 3dbd 3c54 11bd c50e 3c3e 7ac9 9f3d
00000150: 1446 8a3b 64fa 9fbd b5b1 093e 9ad7 9a3d
00000160: 382f ff3c 87d5 11be 571a 9ebd 803d cf3c
00000170: 7761 6c3e 741f 04bf 39f8 973d f970 8c3e
00000180: 2930 253e 1273 173e f5ad 913d 929d 16be
00000190: 7e79 c63c c783 003e 1b1a c43d 7de2 eabe
000001a0: 3983 b7bc 02bd 8c3d 95c8 e43d 1435 493e
000001b0: 541a 88bb fd73 0ebe 05e4 f73d 84ae d73d
000001c0: 3db6 113e 6c58 b33d a592 adbd 65f1 be3d
000001d0: 1fb5 c13d fe7c d23b 20cc 1abd 71cf 643e
000001e0: 3c45 c23d 79f5 77bd ced3 3fbe 97e6 933d
000001f0: c3f9 a93d 9ac1 d23d 5416 f2bd 5898 c6bd
00000200: 0d50 70bd 5319 7d3e 7a48 073e a409 3e3e
00000210: 7a59 0b3f 44ca 6f3d 9843 333d 9312 11bd
00000220: 09bb a73c 25ab 213e 42e8 383e 19a5 85be
00000230: f7e6 0d3e dee8 81be c2e4 943e ff10 73be
00000240: 1e5c e7bd bbf1 5e3e de9f bd3d 06d3 6c3e
00000250: 98db 123e 533f 15bd f796 703d 07b1 db3d
00000260: a9a4 2a3e adfa 68bd 6fdd 573e fba5 2c3e
00000270: d8d0 f53d b178 a53b aa5e 9ebd 60e3 4abe
00000280: abfa 4f3e 213d 0e3e 0703 6d3e 94a8 503e
00000290: a6e5 843c ab27 133e 1a62 51bd 2d55 2f3e
000002a0: 6d88 cd3d e374 d53d 1349 dd3c 641f 353e
000002b0: a6b9 5f3e 5b77 94bd 0f9a 883e 5d91 ca3e
000002c0: 7ee8 f3bd d133 8b3e cfba 9d3d bbb3 1f3d
000002d0: 7c06 f53d 033d de3d 6411 313d 04e0 c8bb
000002e0: da14 b73d 21b0 13be 23d9 943d 2f52 0bbe
000002f0: 3d72 4bbd 8c7f 0d3e 714f b7be a255 d03d
00000300: 81af cb3d f033 6d3e dd7d 393c bf88 033c
00000310: e7ca 983e c1d6 86be a851 163e 236a e9bd
00000320: e9de f9bd 8809 e83d 84a7 943d d882 29be
00000330: 2690 4b3e d8f5 0a3d 9081 b13d 9cb0 80be
00000340: a6e8 aabd c6f2 183e 4bc7 16be ba06 1f3e
00000350: e0e9 783d c575 febd c886 4e3d 0c3b 883d
00000360: 260d eb3e 39bd 0b3d c378 6cbc 6c9d 5f3c
00000370: 5a38 c4bd 5715 793e d671 a8bd d72a b2bd
00000380: ebad cbbd 03c9 963e 5ae2 c5bd 6a2f 06bf
00000390: 7b02 3cbd 2d0f 1fbe af2e b73d 19dd 173e
000003a0: 3beb 7a3d f1e7 a8bd e6dc 2b3e 3b9a 3cbd
000003b0: cfd0 583d e54f 02be 73f9 40bd f446 bebc
000003c0: ae27 be3e 534d ef3d f3ed a3bc 7c03 233d
000003d0: cd7e a9bc ecbf ac3e 2485 263e 7faf f4be
000003e0: dbee fa3d 6f33 d13d a011 193d 49fa 46bd
000003f0: 271f da3c a302 a3bc 097a 343d 9e39 96be

network_body._body_endoder.seq_layers.2.bias f4 [128]
-0.06464452 0.023092663 -0.0108523965 -0.08353609 0.07510138 -0.10826845 -0.0842985 0.07076861
0.050592475 0.04801416 0.016146583 0.068085626 0.028213747 0.0048043164 -0.051241223 -0.09415692
-0.11357775 0.0354615 -0.021745807 -0.05289064 0.021110913 -0.008492632 0.0057384875 -0.07786959
0.0038840878 0.07425919 0.032861624 0.008562694 -0.043470666 -0.01156399 0.007119966 -0.05898494
0.018322246 0.088667676 -0.024820993 0.10334147 0.041730557 0.0764339 0.04052404 -0.04503636
-0.053829532 0.06616727 -0.026588047 0.091283664 -0.09786189 0.030378923 -0.021699239 0.15552796
0.038261298 0.004886897 0.04558502 0.020935144 0.06334673 -0.050024103 -0.096598305 0.04416162
-0.059436418 -0.0972379 0.06647678 -0.028117642 -0.02397375 0.07122067 0.026485013 0.023393847
0.091598295 0.012551892 -0.15246129 0.008900901 0.14124744 -0.14181282 -0.029327702 -0.018891506
-0.0041990164 -0.13794856 -0.03935512 -0.04151491 -0.030330943 -0.167513 -0.07591437 0.08943399
-0.078659646 -0.10699132 -0.049324207 -0.013847634 0.02610755 -0.006851229 0.018413913 -0.0147985155
-0.09099749 0.10060683 0.009405957 0.07164316 -0.06629711 -0.033706937 0.08911889 0.014066114
0.07886387 -0.083131306 0.014087154 0.19029205 0.034210447 0.03057679 -0.02924195 -0.0006939495
-0.1553596 -0.12961811 -0.01047053 0.001440766 0.11584999 0.016469589 -0.016804814 -0.053776126
0.0007738275 -0.09508323 -0.0047706156 -0.021018263 -0.056551803 -0.008838186 0.011454413 -0.10066445
-0.0076148636 0.00039086593 0.043173987 -0.04220613 0.06363291 -0.01639478 -0.06024167 -0.029982451
00000000: 5964 84bd d32c bd3c 40ce 31bc f814 abbd
00000010: c1ce 993d d9bb ddbd b1a4 acbd 22ef 903d
00000020: 0e3a 4f3d 7faa 443d d745 843c 7a70 8b3d
00000030: 8420 e73c 876d 9d3b 51e2 51bd 58d5 c0bd
00000040: 749b e8bd 1440 113d 4324 b2bc dba3 58bd
00000050: cbf0 ac3c ae24 0bbc ec09 bc3b 177a 9fbd
00000060: 2e8c 7e3b 3415 983d e999 063d 8b4a 0c3c
00000070: 4c0e 32bd e476 3dbc 9b4e e93b 319a 71bd
00000080: 8918 963c 6697 b53d 6555 cbbc b1a4 d33d
00000090: a9ed 2a3d 6089 9c3d 89fc 253d 0c78 38bd
000000a0: 5b7c 5cbd b582 873d 2dcf d9bc eef2 ba3d
000000b0: d16b c8bd 38dd f83c 9ac2 b1bc b942 1f3e
000000c0: e1b7 1c3d 4322 a03b 5cb7 3a3d 2e80 ab3c
000000d0: eebb 813d 13e6 4cbd 55d5 c5bd d1e2 343d
000000e0: 9a73 73bd aa24 c7bd fa24 883d f856 e6bc
000000f0: 9964 c4bc 25dc 913d 19f7 d83c 74a4 bf3c
00000100: e397 bb3d 73a6 4d3c d01e 1cbe 16d5 113c
00000110: 2ba3 103e 6137 11be a640 f0bc 5cc2 9abc
00000120: e797 89bb 6342 0dbe d632 21bd 8a0b 2abd
00000130: 9978 f8bc 8788 2bbe fe78 9bbd 2b29 b73d
00000140: 4f18 a1bd 441e dbbd 2e08 4abd 30e1 62bc
00000150: 80df d53c 4680 e0bb c6d8 963c 7975 72bc
00000160: e45c babd f40a ce3d 711b 1a3c a6b9 923d
00000170: c7c6 87bd 4910 0abd f783 b63d 8f75 663c
00000180: 6183 a13d bf40 aabd cecd 663c ebdb 423e
00000190: 4120 0c3d 2d7c fa3c d08c efbc 2aea 35ba
000001a0: 9616 1fbe 9cba 04be 968c 2bbc 16d8 bc3a
000001b0: c242 ed3d 3beb 863c 40aa 89bc 5b44 5cbd
000001c0: afda 4a3a ffba c2bd d352 9cbb 7e2e acbc
000001d0: dda2 67bd 0ace 10bc 4aab 3b3c 2a29 cebd
000001e0: 1b86 f9bb 23ed cc39 35d7 303d 56e0 2cbd
000001f0: f951 823d 584e 86bc f8bf 76bd c29d f5bc

network_body._body_endoder.seq_layers.2.weight f4 [128, 128]
0.12011002 0.07343796 -0.091614455 -0.07156408 -0.04261607 0.03826726 -0.23916367 -0.18055907
0.28065363 0.1117431 -0.37157708 0.22593425 -0.09060049 -0.01942962 0.1864286 0.2058347
-0.052747987 -0.02409891 0.32073462 -0.30154526 0.054874167 -0.056712963 -0.019139852 0.107631266
-0.0529334 -0.08296474 0.030645454 -0.16635163 -0.016892014 -0.0551069 0.14462052 0.10029024
-0.06583212 0.06367739 0.032702055 0.022841182 0.162139 0.07952248 -0.23164044 -0.21104331
0.33101153 -0.11797522 -0.24289566 -0.08991332 -0.16361742 -0.16165704 -0.149542 -0.12548079
0.26759812 0.07937288 -0.21723318 -0.07737644 -0.29054382 -0.16243245 -0.016181761 -0.107967466
-0.057385832 0.122947626 0.07186506 0.11439798 0.10053709 0.039345838 0.17042935 0.054284725
0.21272957 -0.10288432 0.045404587 0.0025497943 0.036837198 -0.31396756 0.04856794 -0.065262415
0.10043888 0.2615917 -0.09153238 -0.30983478 -0.0616753 0.33657792 -0.15261742 0.087527536
-0.2877458 -0.04731016 -0.053008527 0.28320917 -0.17066567 -0.24802163 -0.20268446 0.07173408
0.0034932643 -0.06549879 -0.16144948 -0.2524682 0.21995449 -0.4031341 0.008511374 0.08013647
-0.30973393 -0.047374 -0.07690654 0.076749064 0.057772256 -0.07671151 -0.20035987 0.1585742
-0.008304694 0.020205801 0.21430103 0.07201961 -0.011887433 0.07348877 0.07108171 -0.20213932
-0.1739192 -0.13143188 0.22595899 0.1686639 -0.14607884 -0.049240764 0.023894103 0.14932355
0.034069773 -0.19041626 -0.16670498 0.40981284 -0.20913114 0.08488382 0.07477866 0.062437557
-0.013919848 0.066497646 -0.0052284556 -0.2032642 0.18224284 0.15798657 0.07819027 0.0051363083
-0.03864406 0.18314213 -0.20369829 -0.037656873 0.3490083 0.17049155 0.11183607 -0.009103174
0.08764577 -0.13632819 0.009623625 -0.015145699 0.1391066 0.12560265 -0.061642807 0.05481455
0.20820433 0.01619828 -0.21191688 0.12014675 -0.33713275 0.13651218 -0.52074707 0.05984251
-0.26398084 -0.15649946 0.20103964 -0.23202422 -0.06332153 -0.10117315 -0.038865283 -0.015353148
0.20066836 -0.07476882 0.14598025 0.12899478 0.12772816 -0.2654701 -0.1612864 -0.16008161
-0.061469883 -0.16143095 -0.1356561 0.04571972 -0.18186422 -0.04154976 -0.16277605 0.11683507
-0.2090373 0.030055568 -0.12413676 -0.15994763 0.17995213 0.13507381 -0.27233753 -0.054176774
0.023021815 0.0037744357 -0.012143151 0.12905733 0.2269441 -0.09963987 -0.18526219 0.07211718
-0.19908108 0.2509942 0.14666408 -0.21880898 0.10388202 0.099365644 0.008537631 0.24779446
0.11837775 0.12306725 0.07211822 -0.12268139 -0.027352227 0.14001825 -0.2038851 -0.05904262
-0.12517126 0.0061149956 0.043924868 0.18087026 0.13262591 0.18035166 0.31708112 -0.19087023
-0.02212605 0.065187946 -0.055832848 -0.2505241 -0.050906397 0.07047551 -0.08576268 0.0049537295
0.12351591 -0.091108106 -0.1996492 -0.10327992 -0.093924694 0.31195134 -0.0013510583 -0.041909147
0.2068819 0.0244803 -0.36932692 -0.054358233 -0.31881648 0.036502 -0.07254919 -0.17087257
-0.105858065 0.1983888 0.018192017 -0.22041729 -0.019137425 0.18824954 -0.048710514 -0.005574386
00000000: 3efc f53d a466 963d 5ca0 bbbd 3090 92bd
00000010: 308e 2ebd 21be 1c3d 52e7 74be 7ae4 38be
00000020: d5b1 8f3e 91d9 e43d 5a3f bebe 4f5b 673e
00000030: c08c b9bd de2a 9fbc 24e7 3e3e 55c6 523e
00000040: 460e 58bd 146b c5bc 5437 a43e 2464 9abe
00000050: bcc3 603d da4b 68bd 2ecb 9cbc c86d dc3d
00000060: b1d0 58bd 6be9 a9bd 2d0c fb3c 1558 2abe
00000070: 1f61 8abc c6b7 61bd 6717 143e f864 cd3d
00000080: fed2 86bd 4b69 823d 97f2 053d 6e1d bb3c
00000090: c407 263e afdc a23d 2733 6dbe bd1b 58be
000000a0: 587a a93e fe9c f1bd a4b9 78be 7a24 b8bd
000000b0: 538b 27be 6c89 25be 8a21 19be 097e 00be
000000c0: 9f02 893e 408e a23d 6072 5ebe 8a77 9ebd
000000d0: 29c2 94be b154 26be 9d8f 84bc 0c1e ddbd
000000e0: 680d 6bbd f7cb fb3d fd2d 933d 7d49 ea3d
000000f0: 64e6 cd3d 1a29 213d 0885 2e3e a959 5e3d
00000100: c8d5 593e 04b5 d2bd 29fa 393d 731a 273b
00000110: 9ae2 163d 5bc0 a0be 2def 463d 4da8 85bd
00000120: e6b2 cd3d 59ef 853e 5475 bbbd aaa2 9ebe
00000130: 3d9f 7cbd f153 ac3e be47 1cbe a341 b33d
00000140: 6b53 93be 4cc8 41bd 781f 59bd cb00 913e
00000150: fbc2 2ebe 62f9 7dbe 848c 4fbe 51e9 923d
00000160: 40ef 643b 3b24 86bd 0353 25be 8343 81be
00000170: c03b 613e 9867 cebe 4a73 0b3c 971e a43d
00000180: 7295 9ebe 3d0b 42bd 2d81 9dbd 9d2e 9d3d
00000190: 9aa2 6c3d ed1a 9dbd 232b 4dbe 4661 223e
000001a0: 6910 08bc a386 a53c bb71 5b3e 047f 933d
000001b0: 82c3 42bc 4881 963d 4a93 913d 9cfd 4ebe
000001c0: e017 32be 1496 06be cb61 673e 3bb6 2c3e
000001d0: b195 15be afb0 49bd 91bd c33c 46e8 183e
000001e0: bf8c 0b3d 7bfc 42be b6b4 2abe fdd2 d13e
000001f0: 7926 56be 91d7 ad3d 8e25 993d 86be 7f3d
00000200: 1310 64bc eb2f 883d 7753 abbb 7e24 50be
00000210: de9d 3a3e 3bc7 213e 3822 a03d 7a4e a83b
00000220: 3c49 1ebd 9c89 3b3e 4996 50be 183e 1abd
00000230: 37b1 b23e 5695 2e3e 4f0a e53d 7b25 15bc
00000240: a07f b33d 9e99 0bbe 69ac 1d3c aa25 78bc
00000250: f671 0e3e fb9d 003e 2b7d 7cbd 3985 603d
00000260: 8433 553e 41b2 843c bd00 59be 800f f63d
00000270: aa9c acbe d9c9 0b3e ae4f 05bf 6b1d 753d
00000280: 7f28 87be 6541 20be 56dd 4d3e c297 6dbe
00000290: b8ae 81bd de33 cfbd 3431 1fbd c58b 7bbc
000002a0: 027c 4d3e 6520 99bd d97b 153e 3517 043e
000002b0: 2ccb 023e b2eb 87be 4328 25be 6fec 23be
000002c0: d8c7 7bbd 284e 25be 6fe9 0abe 9a44 3b3d
000002d0: 9d3a 3abe 1530 2abd c4ae 26be 3a47 ef3d
000002e0: e00d 56be 1837 f63c 6a3b febd 50c9 23be
000002f0: 5f45 383e ca50 0a3e d36f 8bbe 77e8 5dbd
00000300: 3f98 bc3c 865c 773b 11f4 46bc 9b27 043e
00000310: 0964 683e fd0f ccbd 5fb5 3dbe 2cb2 933d
00000320: e9db 4bbe 5082 803e 1c2f 163e 760f 60be
00000330: 19c0 d43d 3780 cb3d 6be1 0b3c d5bd 7d3e
00000340: 0970 f23d af0a fc3d b8b2 933d 6140 fbbd
00000350: c711 e0bc f260 0f3e 41c7 50be add6 71bd
00000360: e52c 00be 4d60 c83b 90ea 333d 0e36 393e
00000370: 16cf 073e 1bae 383e 7558 a23e 7c73 43be
00000380: b141 b5bc 4281 853d fcb0 64bd b244 80be
00000390: 3a83 50bd 7755 903d 58a4 afbd e552 a23b
000003a0: e9f5 fc3d e396 babd d770 4cbe 6c84 d3bd
000003b0: 975b c0bd 16b8 9f3e fe15 b1ba eda8 2bbd
000003c0: d9d8 533e e98a c83c 6b18 bdbe bda6 5ebd
000003d0: ea3b a3be 1f83 153d ab94 94bd 38f9 2ebe
000003e0: 1dcc d8bd 6f26 4b3e 6d07 953c 12b5 61be
000003f0: 17c6 9cbc 7dc4 403e ad84 47bd 57a9 b6bb

network_body.observation_encoder.processors.0.normalizer.running_mean f4 [25]
0.9922603 0.001095993 0.0 1.3333288e-06 0.104318514 0.9758843 0.0005279965 0.0
0.0018006603 0.12614875 0.9816969 0.0005313316 0.0 0.0016686617 0.11783205 0.87035763
0.002506643 0.0 0.0038973137 0.18544112 0.91826135 0.0012293397 0.0 0.0065033226
0.15154706
00000000: c504 7e3f 6ca7 8f3a 0000 0000 d4f4 b235
00000010: f2a4 d53d 8ed3 793f 3f69 0a3a 0000 0000
00000020: 2204 ec3a 232d 013e 7d50 7b3f 0f49 0b3a
00000030: 0000 0000 ffb6 da3a ee51 f13d c2cf 5e3f
00000040: 7e46 243b 0000 0000 136a 7f3b 47e4 3d3e
00000050: 2d13 6b3f cc21 a13a 0000 0000 d319 d53b
00000060: 272f 1b3e

network_body.observation_encoder.processors.1.normalizer.running_mean f4 [25]
0.31740546 0.48511836 0.0 0.0021153202 0.05963522 0.60703945 0.04380028 0.0
0.022420596 0.06817028 0.39108673 0.13225876 0.0 0.0033740187 0.049862172 0.72489655
0.0069059953 0.0 0.011767943 0.046676304 0.6542214 0.022009859 0.0 0.011664613
0.05707755
00000000: f882 a23e 6f61 f83e 0000 0000 2fa1 0a3b
00000010: 0f44 743d f066 1b3f ec67 333d 0000 0000
00000020: 66ab b73c dc9c 8b3d 853c c83e d76e 073e
00000030: 0000 0000 a41e 5d3b 473c 4c3d d292 393f
00000040: b04b e23b 0000 0000 55ce 403c a72f 3f3d
00000050: 0e7b 273f 054e b43c 0000 0000 ef1c 3f3c
00000060: 26ca 693d

network_body.observation_encoder.processors.2.normalizer.running_mean f4 [17]
-17.094091 -0.91256005 27.853542 -1.517988 0.3374579 -2.1152139 -0.0017718626 -0.10214253
-0.00097543065 0.96670455 436.1229 -0.96982485 -0.14012021 -0.13663433 0.8314562 -0.3909834
0.0
00000000: b3c0 88c1 899d 69bf 0ed4 de41 6e4d c2bf
00000010: 48c7 ac3e aa5f 07c0 d83d e8ba 1a30 d1bd
00000020: 0bb4 7fba f379 773f bb0f da43 7146 78bf
00000030: ac7b 0fbe dfe9 0bbe 50da 543f fa2e c8be
00000040: 0000 0000
