Assets/Brains/CarPractice_run24.onnx (onnx, 108915 bytes, 15 tensors)

85 f4 [25]
0.0019966848 0.0014118803 0.0014118803 0.0014118803 0.14731523 0.0024454158 0.0014118803 0.0014118803
0.0019966974 0.13401648 0.0019966848 0.0014118803 0.0014118803 0.0014118803 0.14755762 0.08590774
0.0130913565 0.0014118803 0.08491904 0.086584896 0.026668383 0.0014118803 0.0014118803 0.026630988
0.058727942
00000000: d0da 023b d70e b93a d70e b93a d70e b93a
00000010: ced9 163e 4543 203b d70e b93a d70e b93a
00000020: 06db 023b 9e3b 093e d0da 023b d70e b93a
00000030: d70e b93a d70e b93a 5819 173e 66f0 af3d
00000040: 217d 563c d70e b93a 09ea ad3d 6c53 b13d
00000050: a777 da3c d70e b93a d70e b93a 3b29 da3c
00000060: b68c 703d

88 f4 [30]
0.4931316 0.4931305 0.0014118803 0.0014118803 0.0014118803 0.31458282 0.38939977 0.37567872
0.0014118803 0.0014118803 0.0014118803 0.14715257 0.3871968 0.3741302 0.0014118803 0.0014118803
0.0014118803 0.14389841 0.2861518 0.21941452 0.0014118803 0.0014118803 0.0014118803 0.062319726
0.3252355 0.24617122 0.0014118803 0.0014118803 0.0014118803 0.06595964
00000000: bf7b fc3e 9a7b fc3e d70e b93a d70e b93a
00000010: d70e b93a 0011 a13e 685f c73e f658 c03e
00000020: d70e b93a d70e b93a d70e b93a 2aaf 163e
00000030: a93e c63e fe8d bf3e d70e b93a d70e b93a
00000040: d70e b93a 1b5a 133e 7d82 923e 33ae 603e
00000050: d70e b93a d70e b93a d70e b93a f842 7f3d
00000060: 4485 a63e 4f14 7c3e d70e b93a d70e b93a
00000070: d70e b93a d915 873d

91 f4 [13]
1.8734785 0.0015785209 0.02651027 1.1198473 0.021820948 8.761746 0.0031515842 0.06080562
0.010834549 0.0073499437 375.97107 0.0014118803 19.097792
00000000: 25ce ef3f 5fe6 ce3a 112c d93c 2857 8f3f
00000010: d8c1 b23c 1d30 0c41 cf8a 4e3b 500f 793d
00000020: 6483 313c ccd7 f03b 4cfc bb43 d70e b93a
00000030: 47c8 9841

action_model._discrete_distribution.branches.0.bias f4 [3]
0.12566191 -0.16108795 0.08862047
00000000: 84ad 003e 3df4 24be a67e b53d

action_model._discrete_distribution.branches.0.weight f4 [3, 128]
0.13901229 0.12768993 0.063748844 0.04850031 -0.03550556 0.08991962 -0.018710924 0.1444144
0.15083432 -0.015344734 0.017633244 0.21608996 0.084424414 0.22582215 0.14977907 -0.20791173
0.20550768 0.036944754 -0.05330636 0.02416669 0.17134243 0.038231958 -0.010786971 0.093489185
0.25427118 0.2385073 0.044382736 0.120363384 -0.093634516 0.070459865 -0.05892328 -0.02188565
0.038686153 -0.010179163 0.16439162 -0.100688815 -0.04334722 -0.107601576 0.14863299 0.2468608
-0.06883311 0.23916318 0.13958697 -0.028447218 0.1227957 -0.06638493 -0.08551466 -0.06779707
-0.054452613 -0.0326293 -0.15726037 0.06307436 -0.13799907 0.23748383 -0.065090805 0.15403567
0.035529695 0.0033845494 0.08731056 -0.0015640998 0.0262748 0.1879049 -0.045723144 -0.030219236
0.035275307 -0.06962276 0.032589994 0.36813328 -0.21933733 -0.0180219 0.09339515 0.056900326
0.13537766 0.20964956 0.0027400162 -0.054115254 -0.07486122 0.0071840836 -0.02957169 0.014494945
0.17582677 0.14646487 0.17310414 0.2797407 0.07094988 0.109174185 -0.06415078 0.018139904
0.033550907 0.06776629 0.110378854 -0.06205465 0.07026484 0.010649707 -0.08933645 0.3438868
0.07302491 -0.09450654 0.10568446 0.06725864 -0.020805836 0.08986674 -0.015244123 0.17289746
0.004295548 -0.11003237 0.049443513 0.03273622 0.12937419 0.15299724 -0.03036448 0.027468398
-0.11323807 0.23167719 0.11445634 -0.03738426 -0.08718822 -0.09043892 -0.1585521 0.14028324
0.13347007 0.012744968 0.25036725 -0.060961742 0.13843136 0.31985754 0.14034392 -0.00045516607
-0.036168527 0.009242457 -0.16065219 -0.12964733 0.14373253 -0.19420262 -0.00031596053 -0.07170227
-0.2909941 -0.088505924 0.15133001 -0.026279962 0.045846056 -0.047116876 -0.03504958 0.1715292
-0.13274379 0.16078325 0.011360407 0.18118294 0.022937998 -0.06967146 0.059516154 -0.20968424
-0.24915782 -0.20134903 -0.10571715 -0.009091012 0.014340202 -0.1340164 0.122494504 0.034029998
-0.16050072 0.061081126 0.012938851 0.10280796 -0.0031932306 0.03029809 0.0393296 -0.084505364
-0.00687995 -0.023807222 0.000823975 -0.040100593 -0.027219491 0.117571056 0.054377504 0.04496771
-0.057964176 -0.073267445 0.21044776 0.00084983127 0.072830565 -0.031100366 -0.13293353 -0.08873781
-0.049366716 -0.044728104 -0.003136603 0.103313886 -0.047708955 0.038119093 -0.075539045 -0.03480557
-0.14230752 0.02996382 0.12144697 -0.14074607 0.21591099 0.11208227 -0.10045318 -0.06703477
0.03328931 -0.04303227 -0.18787712 0.005263053 0.08182381 0.005423807 0.113760956 -0.031957965
-0.028411414 -0.08191634 -0.068201885 -0.13353848 -0.15934081 -0.07239144 -0.023696959 0.094499245
-0.17456062 -0.046806034 -0.008290023 0.107436426 -0.07900013 0.028594026 0.04146177 -0.13237731
-0.08157854 0.06100757 0.062419567 0.0090458365 0.0030727 -0.2299519 -0.033675298 -0.120520405
-0.08258415 0.15660284 -0.06672406 -0.16943492 -0.18464622 -0.07817784 -0.032984287 0.02822185
0.24473067 -0.089700446 0.02339492 -0.0036771295 -0.026960475 0.16677779 0.24727575 -0.037804354
-0.033422094 0.22474979 -0.15240459 -0.016894128 -0.023383372 -0.18749242 -0.07224255 0.11035421
00000000: 3d59 0e3e 26c1 023e c18e 823d 43a8 463d
00000010: 476e 11bd c727 b83d a747 99bc 5ee1 133e
00000020: 5074 1a3e 7b68 7bbc 9873 903c b046 5d3e
00000030: b5e6 ac3d ec3d 673e af5f 193e d0e6 54be
00000040: 9b70 523e 6253 173d c557 5abd 39f9 c53c
00000050: 6474 2f3e 1d99 1c3d d6bb 30bc 4277 bf3d
00000060: d52f 823e 423b 743e acca 353d 1481 f63d
00000070: 74c3 bfbd 434d 903d 8a59 71bd 8949 b3bc
00000080: 5f75 1e3d 81c6 26bc 4756 283e f035 cebd
00000090: db8c 31bd 375e dcbd 3f33 183e 14c9 7c3e
000000a0: 60f8 8cbd 31e7 743e e3ef 0e3e 240a e9bc
000000b0: 507c fb3d d2f4 87bd 4f22 afbd 31d9 8abd
000000c0: b409 5fbd 4da6 05bd dd08 21be 212d 813d
000000d0: a14f 0dbe f62e 733e 544e 85bd 87bb 1d3e
000000e0: 9687 113d 51cf 5d3b e1cf b23d 7b02 cdba
000000f0: 403e d73c 246a 403e 3148 3bbd 558e f7bc
00000100: d77c 103d 6196 8ebd 167d 053d f77b bc3e
00000110: f799 60be aaa2 93bc f545 bf3d 5110 693d
00000120: 71a0 0a3e 60ae 563e d891 333b f5a7 5dbd
00000130: d750 99bd 7668 eb3b 5440 f2bc 357c 6d3c
00000140: ef0b 343e e3fa 153e 3642 313e 2c3a 8f3e
00000150: 2c4e 913d b796 df3d 7c61 83bd 239a 943c
00000160: ad6c 093d 0dc9 8a3d 4f0e e23d 042d 7ebd
00000170: 03e7 8f3d 1c7c 2e3c 07f6 b6bd ee11 b03e
00000180: 168e 953d a58c c1bd 1871 d83d e6be 893d
00000190: 0071 aabc 0e0c b83d 7cc2 79bc 080c 313e
000001a0: abc1 8c3b a758 e1bd 4885 4a3d 6a16 063d
000001b0: ab7a 043e 4fab 1c3e eebe f8bc 6805 e13c
000001c0: 5ce9 e7bd c93c 6d3e 1668 ea3d 3d20 19bd
000001d0: bd8f b2bd 0a38 b9bd 7b5b 22be 69a6 0f3e
000001e0: 61ac 083e 45d0 503c 2330 803e 05b3 79bd
000001f0: f3c0 0d3e 5ec4 a33e 51b6 0f3e 5ba3 eeb9
00000200: 7325 14bd ad6d 173c 0282 24be 45c2 04be
00000210: 9f2e 133e 0ddd 46be 81a7 a5b9 a4d8 92bd
00000220: 2efd 94be 9842 b5bd 41f6 1a3e 1349 d7bc
00000230: 13c9 3b3d a0fd 40bd 2690 0fbd 5aa5 2f3e
00000240: fded 07be 5da4 243e 0021 3a3c 0588 393e
00000250: 78e8 bb3c e9af 8ebd 36c7 733d 77b7 56be
00000260: 3a23 7fbe 712e 4ebe 3c82 d8bd 78f2 14bc
00000270: 2bf3 6a3c 983b 09be 66de fa3d 0a63 0b3d
00000280: 4d5a 24be 3430 7a3d 79fd 533c fb8c d23d
00000290: 8545 51bb b333 f83c 1318 213d 2611 adbd
000002a0: 3471 e1bb 5d07 c3bc 0700 583a 8540 24bd
000002b0: 69fb debc 18c9 f03d f2ba 5e3d 1030 383d
000002c0: d86b 6dbd 3e0d 96bd 9e7f 573e 36c7 5e3a
000002d0: 3128 953d 32c6 febc ba1f 08be 2bbc b5bd
000002e0: c134 4abd d134 37bd 778f 4dbb 3b96 d33d
000002f0: 776a 43bd c422 1c3d 37b4 9abd 4990 0ebd
00000300: 10b9 11be af76 f53c 30b9 f83d bd1f 10be
00000310: c517 5d3e 648b e53d 66ba cdbd 8749 89bd
00000320: 5f5a 083d 9b42 30bd dc62 40be b075 ac3b
00000330: 3e93 a73d 31ba b13b 81fb e83d 5be6 02bd
00000340: 0ebf e8bc c1c3 a7bd 6ead 8bbd 50be 08be
00000350: 3d2a 23be f741 94bd 2020 c2bc d288 c13d
00000360: 05c0 32be afb7 3fbd e0d2 07bc a107 dc3d
00000370: d2ca a1bd 053e ea3c d1d3 293d eb8d 07be
00000380: a612 a7bd 13e3 793d a9ab 7f3d fd34 143c
00000390: 5a5f 493b 8378 6bbe 1cef 09bd 67d3 f6bd
000003a0: e121 a9bd 7f5c 203e a0a6 88bd 5980 2dbe
000003b0: e613 3dbe b41b a0bd 881a 07bd 8231 e73c
000003c0: ad9a 7a3e deb4 b7bd b4a6 bf3c fffb 70bb
000003d0: 37dc dcbc ccc7 2a3e db35 7d3e bdd8 1abd
000003e0: 9be5 08bd cf24 663e f30f 1cbe 8e65 8abc
000003f0: 7c8e bfbc 03fe 3fbe e7f3 93bd 6301 e23d

action_model._discrete_distribution.branches.1.bias f4 [3]
-0.025082452 0.021694958 0.0032595063
00000000: b779 cdbc a0b9 b13c 719d 553b

action_model._discrete_distribution.branches.1.weight f4 [3, 128]
0.102390654 -0.22972062 -0.059681505 0.07494181 -0.11560196 0.0571486 0.20855428 -0.05479287
0.06561037 0.12615429 0.07132315 -0.07840183 -0.30049428 -0.172559 -0.027610622 0.15326612
0.08101687 -0.310296 0.24280354 -0.19916862 -0.120251164 0.016188368 0.034372926 0.074926585
-0.07104159 -0.04415322 0.055479657 -0.027682753 0.20591718 0.10427688 0.05362092 0.11107032
-0.032833215 -0.031183442 -0.29668486 0.087702416 0.15751363 0.12043951 -0.14332147 -0.14039719
0.09080792 -0.1304984 -0.13633376 0.0978175 -0.12579514 0.06339744 0.15725516 0.18727855
0.06054264 0.07337349 -0.001892512 0.07554819 0.010396874 -0.038963154 0.0651265 -0.061394338
0.20724748 0.13999508 -0.15305948 -0.0923105 -0.06272021 -0.18953852 0.13428238 -0.07373463
0.13992289 0.039229117 -0.051393297 -0.13272178 0.08784307 -0.06514848 -0.022609329 0.025174428
-0.11192334 -0.29713646 -0.044795614 0.1318402 0.06636267 -0.06633921 -0.06471749 0.11078116
-0.14309995 -0.062913485 -0.13268262 -0.10710292 0.07349673 0.05067912 0.2707207 -0.041412156
-0.017903786 -0.082425654 0.042510785 0.12333003 0.124361075 0.16208178 0.1320542 -0.026069427
-0.034807023 0.10128708 -0.14583334 0.06254941 0.17239368 0.12255447 0.09439202 -0.08036682
0.20093995 0.032991927 0.124347895 0.13591337 0.16463399 0.09344631 0.18918978 -0.21270902
0.02296334 -0.028037403 -0.10184309 0.19262819 0.20883377 -0.08228943 0.041583873 -0.2107222
-0.06821697 -0.26372316 -0.05664456 0.057689633 -0.13356581 -0.032944996 -0.10129169 -0.04471506
0.21814287 0.08516645 -0.24974881 0.068667084 0.14730586 -0.15250748 0.046424363 0.0034908596
0.021174626 0.01584018 -0.04823017 -0.0014468103 0.2634623 0.13512646 -0.12787093 -0.069855615
-0.073522806 -0.07075248 -0.19817108 -0.075075775 -0.13227144 -0.22030848 -0.28940657 -0.02043699
-0.018589033 -0.09051725 -0.051553413 0.16210215 -0.08852845 -0.13697393 -0.019755857 -0.11902783
0.093857236 -0.036168646 0.102781415 -0.10787103 0.07435597 -0.22391206 -0.111490965 0.104002565
-0.08008945 0.013836846 -0.064199984 -0.21110995 0.0993017 -0.090092 -0.06380748 -0.10569881
-0.013064363 -0.40662935 0.05105317 -0.10723378 0.111500084 0.030221084 -0.15536444 0.17262742
0.07913358 0.029919922 -0.1559783 0.19293615 -0.17754062 0.12090825 -0.2924319 -0.0063742814
-0.2640064 0.053052317 0.10097525 0.056805052 -0.051912207 -0.13111724 0.14803535 0.21371345
-0.2394562 0.016356707 -0.2537729 0.10198367 -0.13255034 -0.2669683 -0.0039701187 -0.36883044
-0.14195678 -0.19035992 0.2868325 -0.0058190483 0.10871939 0.11937876 -0.29551384 -0.27697268
-0.26127627 -0.083481684 -0.112658486 -0.076161 0.13829407 -0.4081231 -0.17037417 -0.063308425
-0.3440668 -0.113844834 0.014269708 0.124134146 -0.20381732 -0.22091712 -0.014935926 0.24734044
-0.26301637 0.05197316 -0.22537085 0.036968835 -0.28874025 -0.07609472 -0.12002698 -0.13392939
0.06709592 0.07899303 0.19231288 -0.19995658 -0.14206704 0.15740754 0.068139486 0.1980708
0.0073130727 -0.034366474 0.05149796 0.118483305 -0.0085708955 -0.016742293 0.22621633 0.12559795
00000000: 31b2 d13d e23b 6bbe 9874 74bd 177b 993d
00000010: b8c0 ecbd a714 6a3d 418f 553e 7d6e 60bd
00000020: bb5e 863d 972e 013e df11 923d 2391 a0bd
00000030: 63da 99be 4eb3 30be ac2f e2bc cbf1 1c3e
00000040: 2cec a53d 1edf 9ebe 7ea1 783e dcf2 4bbe
00000050: 3e46 f6bd 789d 843c a0ca 0c3d 1c73 993d
00000060: 417e 91bd 02da 34bd a33e 633d f1c6 e2bc
00000070: f4db 523e 1e8f d53d 9ca1 5b3d d678 e33d
00000080: 1f7c 06bd 6b74 ffbc 14e7 97be 539d b33d
00000090: 414b 213e fda8 f63d ddc2 12be 48c4 0fbe
000000a0: 81f9 b93d 5fa1 05be 149b 0bbe 8b54 c83d
000000b0: 71d0 00be 84d6 813d 7f07 213e f3c5 3f3e
000000c0: 8ffb 773d d744 963d 2a0e f8ba 02b9 9a3d
000000d0: a657 2a3c d497 1fbd 0b61 853d a178 7bbd
000000e0: af38 543e df5a 0f3e a0bb 1cbe 4a0d bdbd
000000f0: 7473 80bd 6316 42be 5281 093e 2f02 97bd
00000100: f247 0f3e b6ae 203d c781 52bd 38e8 07be
00000110: 11e7 b33d 916c 85bd 3337 b9bc 9a3a ce3c
00000120: 1038 e5bd 4522 98be 9b7b 37bd 1e01 073e
00000130: 27e9 873d dadc 87bd 9a8a 84bd 3ce1 e23d
00000140: cb88 12be c9d8 80bd f4dd 07be c758 dbbd
00000150: 7485 963d e994 4f3d e79b 8a3e cb9f 29bd
00000160: f6aa 92bc c8ce a8bd ca1f 2e3d 7494 fc3d
00000170: 05b1 fe3d c4f8 253e 3739 073e 8d8f d5bc
00000180: cf91 0ebd 9a6f cf3d 5655 15be e819 803d
00000190: f887 303e d7fd fa3d 9a50 c13d 5c97 a4bd
000001a0: 34c3 4d3e 8b22 073d 1caa fe3d e02c 0b3e
000001b0: d095 283e c760 bf3d f7ba 413e 65d0 59be
000001c0: 9d1d bc3c b2ae e5bc 1c93 d0bd 5340 453e
000001d0: 85d8 553e 5c87 a8bd da53 2a3d 8fc7 57be
000001e0: 57b5 8bbd b906 87be 2004 68bd f74b 6c3d
000001f0: 7ac5 08be 55f1 06bd 0472 cfbd 2427 37bd
00000200: d860 5f3e bf6b ae3d 27be 7fbe 54a1 8c3d
00000210: 59d7 163e ec2a 1cbe 7927 3e3d e8c6 643b
00000220: 6976 ad3c 44c3 813c 008d 45bd e6a2 bdba
00000230: 88e4 863e 975e 0a3e 99f0 02be 7610 8fbd
00000240: 2093 96bd ade6 90bd 5ced 4abe 54c1 99bd
00000250: 2a72 07be 8c98 61be 192d 94be 796b a7bc
00000260: 0748 98bc 1c61 b9bd ac29 53bd 1bfe 253e
00000270: 674e b5bd e542 0cbe 09d7 a1bc ddc4 f3bd
00000280: 3938 c03d 9325 14bd 107f d23d 7deb dcbd
00000290: f147 983d 3449 65be 6055 e4bd 4cff d43d
000002a0: f005 a4bd f0b3 623c 487b 83bd 352d 58be
000002b0: b15e cb3d 2882 b8bd 7fad 82bd 9e78 d8bd
000002c0: e90b 56bc b931 d0be 211d 513d 629d dbbd
000002d0: 285a e43d 3592 f73c db17 1fbe 3ec5 303e
000002e0: c910 a23d a01a f53c c7b8 1fbe 0e91 453e
000002f0: 35cd 35be bf9e f73d a2b9 95be 59df d0bb
00000300: d92b 87be 634d 593d 1dcc ce3d 6aac 683d
00000310: e5a1 54bd 9943 06be 9496 173e b3d7 5a3e
00000320: 0234 75be 80fe 853c 86ee 81be d0dc d03d
00000330: 47bb 07be 12b0 88be c517 82bb 58d7 bcbe
00000340: 1e5d 11be b6ed 42be b6db 923e b7ad bebb
00000350: 46a8 de3d da7c f43d 974d 97be 5dcf 8dbe
00000360: 01c6 85be 72f8 aabd 7eb9 e6bd 4cfa 9bbd
00000370: f69c 0d3e 83f5 d0be 9176 2ebe d9a7 81bd
00000380: 8629 b0be 7b27 e9bd 7ecb 693c 0b3a fe3d
00000390: 7db5 50be 1938 62be d0b5 74bc d046 7d3e
000003a0: 15aa 86be cfe1 543d 9ec7 66be a26c 173d
000003b0: c3d5 93be 8cd7 9bbd b5d0 f5bd c924 09be
000003c0: 9669 893d 19c7 a13d abed 443e 6bc1 4cbe
000003d0: 067a 11be 712f 213e b78c 8b3d 12d3 4a3e
000003e0: 80a2 ef3b dcc3 0cbd 86ef 523d 60a7 f23d
000003f0: f16c 0cbc 2227 89bc 41a5 673e c09c 003e

discrete_action_output_shape f4 [1, 2]
3.0 3.0
00000000: 0000 4040 0000 4040

network_body._body_endoder.seq_layers.0.bias f4 [128]
-0.05880936 -0.01727934 0.18775983 -0.060571358 0.13218907 -0.10088102 -0.026497735 0.19914256
0.1537333 0.013339269 -0.038093336 0.0993832 0.1119485 0.07185806 0.18465805 0.13832365
0.025146136 0.22104774 -0.07475838 0.010387471 -0.13981819 0.1720032 0.06948768 0.19850871
0.061937537 0.0075401096 0.034735885 0.05608812 0.08767536 -0.048601985 0.19245915 -0.026329257
0.18074617 -0.14920467 0.1478191 -0.019345604 0.00034103007 0.08243049 0.15912145 -0.05148934
-0.024667323 0.017714618 -0.04880158 0.025400614 -0.08554792 0.053865943 0.06229242 0.1472407
0.031203326 -0.036490556 0.16290852 0.022281054 -0.045728028 0.19112357 0.018740853 0.16071777
-0.023476286 0.12064776 0.04508446 0.0072877984 -0.0073344274 0.14421701 0.056771483 0.026869636
0.1133407 0.038599763 0.047931064 -0.00594283 0.11927036 0.017885705 -0.029398616 -0.024051433
0.1627337 -0.033444934 0.0049973396 0.08422615 0.13491973 0.15449713 0.09643495 0.15086442
0.11249016 0.10841532 -0.018151361 0.18095824 0.09884669 -0.0026885492 0.19495189 0.03172147
-0.07279459 -0.07382909 -0.024104943 0.008487082 -0.01145667 -0.0037483617 -0.027434321 0.017896278
-0.01412989 0.06170007 0.006084398 0.19605833 0.004839899 -0.054019477 -0.11912184 0.049966477
0.09042299 0.18327665 -0.08745409 -0.05062097 -0.068888985 0.021317704 0.09495664 -0.010251356
0.1583258 -0.011237373 0.06329429 0.04035992 -0.020722385 0.010762189 0.03236751 -0.05046384
-0.14411606 -0.07304666 0.046845805 0.013218202 0.12026673 -0.097406484 -0.059284702 0.07417712
00000000: 15e2 70bd 678d 8dbc 1d44 403e ac19 78bd
00000010: 925c 073e b59a cebd c711 d9bc 07ec 4b3e
00000020: 436c 1d3e f38c 5a3c c207 1cbd 6b89 cb3d
00000030: 4145 e53d 522a 933d 0017 3d3e b7a4 0d3e
00000040: 45ff cd3c 575a 623e ec1a 99bd 3630 2a3c
00000050: 802c 0fbe 9b21 303e 8f4f 8e3d de45 4b3e
00000060: 37b2 7d3d 0613 f73b 3747 0e3d a8bc 653d
00000070: 248f b33d e012 47bd 0314 453e 74b0 d7bc
00000080: 8615 393e 1cc9 18be e45d 173e ac7a 9ebc
00000090: 48cc b239 51d1 a83d bcf0 223e 7ce6 52bd
000000a0: 2013 cabc 3f1e 913c 2ae4 47bd f314 d03c
000000b0: bf33 afbd 89a2 5c3d 5626 7f3d 44c6 163e
000000c0: 1e9e ff3c 1f77 15bd 7ed1 263e c286 b63c
000000d0: 504d 3bbd e6b5 433e 6b86 993c 3393 243e
000000e0: 5751 c0bc 2c16 f73d 7caa 383d 7cce ee3b
000000f0: a355 f0bb a0ad 133e 3789 683d b61d dc3c
00000100: 2b1f e83d c91a 1e3d 5d53 443d 12bc c2bb
00000110: 0544 f43d 0b85 923c 5ed5 f0bc 8307 c5bc
00000120: aaa3 263e 8efd 08bd b9c0 a33b c27e ac3d
00000130: 6628 0a3e 7f34 1e3e b07f c53d 347c 1a3e
00000140: 3e61 e63d da08 de3d 2ab2 94bc 1e4d 393e
00000150: 2270 ca3d 5f32 30bb 78a1 473e 5fee 013d
00000160: 5415 95bd b533 97bd bb77 c5bc 670d 0b3c
00000170: c2b4 3bbc 13a7 75bb f1bd e0bc 379b 923c
00000180: 0e81 67bc 36b9 7c3d a15f c73b 84c3 483e
00000190: 0498 9e3b 8743 5dbd 27f6 f3bd a6a9 4c3d
000001a0: b02f b93d e0ac 3b3e 211b b3bd ef57 4fbd
000001b0: ab15 8dbd 77a2 ae3c a078 c23d 4ef5 27bc
000001c0: 2920 223e f51c 38bc 70a0 813d 7250 253d
000001d0: fec1 a9bc e453 303c cb93 043d 2cb3 4ebd
000001e0: 2993 13be 7d99 95bd 63e1 3f3d 2891 583c
000001f0: 674e f63d 0d7d c7bd 84d4 72bd 2dea 973d

network_body._body_endoder.seq_layers.0.weight f4 [128, 68]
-0.14950994 -0.097484946 -0.09980278 -0.008809637 0.21966879 -0.055034667 0.22767967 -0.14989889
0.20237194 0.027123258 -0.034261174 0.036993854 0.061822664 0.0133968005 0.05183092 0.17722878
-0.28930497 -0.15567164 0.09975055 -0.14434157 -0.067636274 -0.12515384 0.22701672 0.023537278
-0.09371507 0.30085677 -0.1048906 0.13059205 0.028553357 -0.053179458 -0.0049290988 -0.30096832
0.3149005 -0.04655229 -0.117534526 0.01005182 -0.08245862 0.102788225 0.10802965 -0.16894735
-0.20634133 0.2165379 -0.07507436 0.2651826 0.03184483 0.19688329 0.034736548 -0.06078861
-0.023005359 0.10477306 -0.0022589522 -0.009591319 0.046005547 -0.0073496774 -0.06503455 0.076420866
-0.2399892 0.15694666 -0.07836723 0.0013838774 -0.043454718 -0.27763796 -0.17713802 0.13944915
0.03220791 0.05105317 0.029565044 0.058152374 -0.20597528 0.012547328 -0.0631677 -0.071887694
0.15823439 0.10992168 -0.14110492 0.044101276 -0.014714145 0.053890817 0.22579561 0.14090817
0.14049627 -0.008348773 0.013971182 0.019772064 0.097349524 0.05177859 0.18349455 -0.13633886
-0.18060191 0.09542006 0.03471005 0.08571833 0.002894418 0.22581849 0.08127776 0.15562627
0.09812227 -0.085582815 0.14438872 0.09055515 0.05894378 -0.17953545 -0.08856461 -0.063476466
0.06705556 -0.09413237 -0.10388252 0.06549151 -0.017207809 -0.09128741 -0.08145886 0.022517938
-0.12848245 0.26363057 -0.08596826 0.1573616 0.32201186 0.39738747 -0.32344252 0.0650336
-0.10681113 -0.31808233 -0.21920653 -0.03907174 -0.03365875 0.08898868 -0.23207925 0.013891101
-0.1139424 0.2618565 -0.2585629 -0.036446128 -0.27821696 0.1802938 0.21827458 -0.1422888
0.2068393 0.2582664 -0.14526395 0.093516566 0.08353043 0.050007645 0.12837818 -0.057606034
0.01680941 -0.06575766 0.23265019 -0.16129068 0.18321143 0.14532132 -0.17659374 0.23959124
-0.031379152 -0.049529433 -0.13029511 0.1293304 0.18589872 0.078369625 -0.2491618 -0.19961141
-0.09388486 -0.12727623 -0.06987515 0.039702315 -0.014239995 0.17462336 0.12437656 0.43729767
-0.19505996 -0.39599735 0.034416433 0.18737237 -0.13754638 -0.003853535 0.08301585 -0.08350698
0.12204003 0.16511884 0.14180931 0.43821132 -0.20519763 -0.16601147 -0.031146506 0.060861614
-0.0017746672 0.33552784 -0.1949905 -0.08715092 0.05904515 -0.0832031 0.16436988 -0.033265993
-0.0041000284 0.24422422 -0.07391298 0.05807028 -0.07620929 0.123572566 0.07541372 -0.0066013304
0.16155638 -0.35580638 0.09682948 -0.1516163 -0.04487086 0.10918958 -0.1622553 0.20733632
0.22753961 -0.06497397 0.024810981 -0.1868662 0.304696 0.23769318 -0.07429659 0.1941002
-0.11267763 -0.052472554 -0.13956158 -0.053067643 0.008752296 0.15452294 -0.07893115 -0.010703659
-0.113262154 -0.30080926 0.008045666 0.1568817 0.21356633 -0.039284933 -0.08774397 0.22177559
-0.008813913 0.13956328 -0.053538006 -0.23863597 0.10874828 -0.023516681 0.12806012 -0.08133828
-0.19157977 -0.020658182 -0.004008441 0.17088823 0.0063897893 0.052287817 -0.122395225 -0.048950024
0.0010372809 -0.1138231 -0.055475328 0.23988937 -0.060609713 -0.060927697 0.2448826 -0.21917863
00000000: 2219 19be 30a6 c7bd 6665 ccbd 4c56 10bc
00000010: dbf0 603e 086c 61bd dc24 693e 187f 19be
00000020: 973a 4f3e 9831 de3c 7255 0cbd de86 173d
00000030: c339 7d3d 417e 5b3c a94c 543d 767b 353e
00000040: c81f 94be 6368 1fbe 044a cc3d 47ce 13be
00000050: e384 8abd 5428 00be 1277 683e 40d1 c03c
00000060: b0ed bfbd e609 9a3e e2d0 d6bd ecb9 053e
00000070: bbe8 e93c b4d2 59bd 4784 a1bb 8518 9abe
00000080: a33a a13e 9dad 3ebd f1b5 f0bd 64b0 243c
00000090: 11e0 a8bd a282 d23d a63e dd3d 8900 2dbe
000000a0: 244b 53be 1cbc 5d3e 96c0 99bd 04c6 873e
000000b0: b96f 023d c69b 493e e947 0e3d 7afd 78bd
000000c0: bc75 bcbc 4293 d63d ee0a 14bb e824 1dbc
000000d0: 5070 3c3d 90d5 f0bb d630 85bd 8b82 9c3d
000000e0: bbbf 75be a0b6 203e 007f a0bd 3863 b53a
000000f0: 93fd 31bd 9026 8ebe ab63 35be c2cb 0e3e
00000100: 71ec 033d 211d 513d 6432 f23c 2f31 6e3d
00000110: 2feb 52be 4f93 4d3c 115e 81bd db39 93bd
00000120: 3208 223e 9e1e e13d cf7d 10be 8aa3 343d
00000130: 9913 71bc 9ebc 5c3d f736 673e 3b4a 103e
00000140: 41de 0f3e 4bc9 08bc 62e7 643c 06f9 a13c
00000150: 305f c73d c915 543d ffe5 3b3e 6a9c 0bbe
00000160: b5ef 38be 986b c33d 202c 0e3d 188d af3d
00000170: 47b0 3d3b f63c 673e f474 a63d 7e5c 1f3e
00000180: 54f4 c83d 0b46 afbd a3da 133e fa74 b93d
00000190: 086f 713d 24d8 37be 5d61 b5bd f3ff 81bd
000001a0: 6d54 893d 79c8 c0bd 5cc0 d4bd 6a20 863d
000001b0: 64f7 8cbc e5f4 babd e7d3 a6bd 8a77 b83c
000001c0: e790 03be 96fa 863e 2110 b0bd 6623 213e
000001d0: bdde a43e 5f76 cb3e 429a a5be 5630 853d
000001e0: cbbf dabd b0db a2be ad77 60be b009 20bd
000001f0: c2dd 09bd b23f b63d 2fa6 6dbe 8097 633c
00000200: a25a e9bd 0e12 863e 5b62 84be 8948 15bd
00000210: 7472 8ebe f09e 383e 5f83 5f3e 28b4 11be
00000220: aecd 533e 7e3b 843e 13c0 14be 9d85 bf3d
00000230: 0112 ab3d d1d4 4c3d 9275 033e 4ef4 6bbd
00000240: e3b3 893c f4ab 86bd da3b 6e3e 6229 25be
00000250: c79b 3b3e 1dcf 143e fdd4 34be 6857 753e
00000260: 6d87 00bd 60df 4abd 156c 05be 306f 043e
00000270: 3c5c 3e3e 4180 a03d 4524 7fbe ef66 4cbe
00000280: b546 c0bd b354 02be b41a 8fbd e59e 223d
00000290: de4e 69bc 77d0 323e 23b9 fe3d 7be5 df3e
000002a0: ccbd 47be 2ac0 cabe 3ff8 0c3d 8bde 3f3e
000002b0: f5d8 0cbe 978b 7cbb 3704 aa3d b505 abbd
000002c0: 20f0 f93d ea14 293e 7636 113e 3c5d e03e
000002d0: 541f 52be e9fe 29be f526 ffbc 074a 793d
000002e0: f39b e8ba 4eca ab3e 97ab 47be 2e7c b2bd
000002f0: 54d9 713d 6366 aabd 9450 283e ec41 08bd
00000300: 8859 86bb ea15 7a3e b05f 97bd 1adb 6d3d
00000310: 9e13 9cbd 9d13 fd3d 8272 9a3d f94f d8bb
00000320: 096f 253e 412c b6be 894e c63d 4e41 1bbe
00000330: 82ca 37bd c99e df3d 4126 26be f94f 543e
00000340: 2500 693e 1311 85bd 6640 cb3c da59 3fbe
00000350: 1d01 9c3e d765 733e d028 98bd 34c2 463e
00000360: 87c3 e6bd 76ed 56bd 3be9 0ebe 755d 59bd
00000370: ca65 0f3c 433b 1e3e a8a6 a1bd 665e 2fbc
00000380: fdf5 e7bd ac03 9abe f8d1 033c 99a5 203e
00000390: 22b1 5a3e 3de9 20bd 1cb3 b3bd 2419 633e
000003a0: 3b68 10bc ade9 0e3e ab4a 5bbd fd5c 74be
000003b0: 6bb7 de3d 0ea6 c0bc 3122 033e af94 a6bd
000003c0: 7d2d 44be 593b a9bc 3e59 83bb 53fd 2e3e
000003d0: 7061 d13b c02b 563d 59aa fabd d27f 48bd
000003e0: 5ff5 873a 161c e9bd 193a 63bd 8fa5 753e
000003f0: e441 78bd 528f 79bd 81c2 7a3e 5d70 60be

network_body._body_endoder.seq_layers.2.bias f4 [128]
0.06167854 -0.011223641 0.12108593 0.028059548 0.04805056 0.13146733 0.021617021 0.11922505
0.22399253 0.049350876 -0.09473459 0.09585622 0.12041367 0.2253579 0.082198985 -0.10821219
0.17904007 0.03624245 0.04023459 0.046568893 0.07198572 0.07236309 0.021362584 0.1667164
0.13202262 0.18714689 -0.0029000705 0.0105734635 -0.036884733 0.067537636 -0.039323755 -0.055347115
0.11128624 -0.0408009 -0.020211145 -0.121244095 -0.0663043 0.03826211 0.04991192 0.14613028
-0.009047414 0.13170835 0.083847605 0.064839095 0.1373476 -0.06674566 -0.028705815 -0.02859422
0.008025425 0.085912436 -0.06531021 -0.053887088 0.014159568 0.12262723 0.12090692 0.04917583
0.025578992 0.06546438 0.032310154 0.11271695 0.08812706 0.18902984 0.030246075 -0.0010204756
0.12637267 -0.102528594 0.0009419185 0.19489224 -0.100455455 -0.040569242 0.10432766 0.09069895
0.10852354 0.0713992 0.14868183 0.0031544678 -0.14482056 0.08147732 -0.016700651 0.089329794
0.10703215 0.1192399 0.07690458 0.1439244 0.07989707 0.06451892 0.06333112 0.039535947
0.13483407 0.12113106 0.04767101 -0.1154153 0.06753158 0.048487466 -0.08369386 0.22328164
0.12885407 -0.08504752 0.07096535 -0.06410642 0.0036274209 0.1590708 -0.056354407 0.08394378
0.09811013 -0.035518527 0.015027076 0.072670355 0.07357597 0.12212444 -0.026333304 0.093934685
-0.08783207 0.087931596 0.040988058 0.017751243 0.04544051 0.019493781 -0.09740856 0.15802546
0.10378402 0.03184334 0.08624027 0.008201803 0.11784775 0.20065615 -0.01338913 0.059549935
00000000: a3a2 7c3d 5de3 37bc e6fb f73d 23dd e53c
00000010: aad0 443d 5f9f 063e 2e16 b13c 432c f43d
00000020: 4c5e 653e 2524 4a3d 3504 c2bd 4450 c43d
00000030: 719b f63d 39c4 663e f157 a83d 5a9e ddbd
00000040: 4856 373e f772 143d 07cd 243d 06bf 3e3d
00000050: 406d 933d 1a33 943d 9600 af3c b4b7 2a3e
00000060: f030 073e 6fa3 3f3e 1c0f 3ebb 523c 2d3c
00000070: 7214 17bd 2c51 8a3d f211 21bd a8b3 62bd
00000080: 0aea e33d d81e 27bd d891 a5bc d34e f8bd
00000090: 8dca 87bd bbb8 1c3d 7170 4c3d 2da3 153e
000000a0: 9b3b 14bc 8ede 063e 4bb8 ab3d 5cca 843d
000000b0: d9a4 0c3e f3b1 88bd 7528 ebbc 6d3e eabc
000000c0: 127d 033c dcf2 af3d 5cc1 85bd b5b8 5cbd
000000d0: 88fd 673c fc23 fb3d 0c9e f73d 986c 493d
000000e0: 098b d13c 3012 863d a757 043d 25d8 e63d
000000f0: f67b b43d 0a91 413e 9ec6 f73c 7bc1 85ba
00000100: d667 013e 83fa d1bd 15eb 763a d591 473e
00000110: 97bb cdbd ef2b 26bd bda9 d53d 5fc0 b93d
00000120: 9741 de3d be39 923d 0d40 183e 30bb 4e3b
00000130: d74b 14be 95dd a63d cecf 88bc 8af2 b63d
00000140: ac33 db3d 0c34 f43d 2680 9d3d eb60 133e
00000150: 13a1 a33d 7f22 843d bfb3 813d 72f0 213d
00000160: f111 0a3e 9013 f83d ad42 433d db5e ecbd
00000170: ff4d 8a3d cb9a 463d b067 abbd f1a3 643e
00000180: 52f2 033e 652d aebd 4856 913d 3a4a 83bd
00000190: 06ba 6d3b 75e3 223e e1d3 66bd b7ea ab3d
000001a0: f7ed c83d e07b 11bd 2034 763c 32d4 943d
000001b0: 00af 963d 611c fa3d f1b8 d7bc d460 c03d
000001c0: 4de1 b3bd 7b15 b43d 18e3 273d 0e6b 913c
000001d0: d41f 3a3d 6cb1 9f3c 247e c7bd 6dd1 213e
000001e0: b78c d43d 296e 023d bd9e b03d db60 063c
000001f0: 295a f13d ce78 4d3e 155e 5bbc a2ea 733d

network_body._body_endoder.seq_layers.2.weight f4 [128, 128]
0.0379152 -0.06833606 0.08013857 -0.055904675 -0.10379911 0.044369116 -0.1621923 0.16625984
-0.009099797 -0.03226655 -0.0044509023 0.12897322 -0.076531306 0.11427151 0.09987153 -0.013342324
0.09035435 -0.27286592 0.22346537 0.24269198 -0.08564942 -0.08820853 0.08293744 -0.059938468
0.12490294 -0.092003874 -0.23331185 -0.06833089 -0.2591241 0.023930488 0.21649538 0.04990019
-0.13747674 -0.27138516 0.17723401 -0.17749998 0.06248581 0.32339758 0.12151899 -0.076606646
-0.38731596 0.13815361 -0.28142872 0.03015595 -0.066700056 -0.14373174 -0.00617239 0.20868732
0.33085072 0.122270174 -0.05913992 -0.2837872 0.15670218 0.05032395 -0.0036594148 -0.15931416
-0.14658612 -0.032606237 0.15365821 0.21504898 -0.05197981 -0.10023574 -0.058910776 -0.0047026044
-0.14075938 0.043987565 0.17154983 -0.34934634 -0.09166165 -0.2230744 -0.08563645 -0.26653218
0.15221046 -0.15862003 0.08545875 -0.048128195 -0.11341343 -0.046890464 -0.087999076 -0.10089132
-0.24522233 -0.2479043 -0.14863817 -0.22938134 0.21331368 0.3018745 -0.27435145 -0.32364446
-0.23856062 0.0024590562 0.30351874 0.3981317 0.20312428 -0.19557591 0.08837636 0.14475055
-0.21055755 0.04744466 -0.3440082 -0.20734331 0.1438561 0.25608772 -0.031752102 0.16285104
0.04607613 -0.23823507 -0.07926037 -0.122331776 0.088189006 -0.19955653 -0.3947235 -0.15396817
-0.16348821 -0.045538615 -0.17677006 0.26855657 0.0753462 -0.17886849 -0.21070941 -0.13870692
0.07270359 -0.17029735 -0.15314278 0.22923578 0.23691481 0.016601166 -0.051391967 0.14256658
-0.20565598 -0.25411534 0.03603669 -0.054528907 -0.050922204 0.0064096255 0.00753109 -0.039071042
-0.07393303 -0.10491575 -0.047646433 0.26021534 -0.21661454 -0.3070497 0.36418927 -0.06222458
-0.1089806 0.094001986 -0.28067067 0.22177659 -0.08387009 0.18919787 0.19377717 -0.15483625
0.04043765 -0.06303283 0.29988748 0.38589776 -0.06581387 -0.10748862 0.0019894596 0.015692044
-0.004802084 0.1806513 -0.017728504 -0.06967798 0.017259836 0.009171522 -0.30439156 0.059999473
0.08991825 -0.030228345 -0.09603665 -0.14623383 -0.036009286 -0.0008921034 -0.006694152 0.085849844
0.29399732 0.07464912 0.2938539 -0.16679344 -0.05763186 -0.12784219 -0.23680776 -0.057578858
-0.21433362 -0.027885817 -0.08050386 0.032562513 -0.12275963 -0.21485959 0.3244021 -0.11698109
-0.19933659 -0.21100304 -0.0561637 0.14005892 0.14853796 -0.2381059 -0.17842905 0.058780428
-0.059062716 -0.17399156 -0.19960788 0.26406756 -0.20984751 0.09771335 0.05538528 0.05082857
0.11571333 0.14039333 0.0044295336 0.03900136 0.07695969 0.020601764 -0.14152692 0.034121882
0.03266787 0.032130625 0.009660734 0.079256944 0.08839219 -0.07839944 -0.16270706 -0.011472914
-0.07456031 -0.3482926 0.04030572 0.16350164 -0.05152568 0.024676688 -0.066430375 0.017073855
-0.21774986 -0.13781577 0.08512958 -0.24788556 -0.09558673 0.006052745 -0.20721798 -0.09869339
-0.121565655 0.053238224 0.071767926 0.010978914 -0.053334296 -0.057894602 -0.09362384 -0.02950505
-0.13309759 0.17097817 0.036967084 -0.093677774 -0.016714375 -0.12481802 0.076903515 -0.3060246
00000000: f84c 1b3d c7f3 8bbd b11f a43d 4dfc 64bd
00000010: a194 d4bd 64bc 353d bd15 26be 0540 2a3e
00000020: 5117 15bc ee29 04bd e0d8 91bb 8e11 043e
00000030: 72bc 9cbd 2e07 ea3d 7289 cc3d c399 5abc
00000040: b40b b93d 15b5 8bbe 1bd4 643e 3f84 783e
00000050: f768 afbd aca6 b4bd 1bdb a93d 0a82 75bd
00000060: 1dcd ff3d 876c bcbd 4de9 6ebe 11f1 8bbd
00000070: eaab 84be df09 c43c f7b0 5d3e 2464 4c3d
00000080: b4c6 0cbe fff2 8abe d57c 353e 8ec2 35be
00000090: 1ff1 7f3d 5e94 a53e f3de f83d f2e3 9cbd
000000a0: 474e c6be 2478 0d3e 6d17 90be 9c09 f73c
000000b0: 0a9a 88bd 6a2e 13be c341 cabb 21b2 553e
000000c0: 4465 a93e c968 fa3d b33c 72bd 8e4c 91be
000000d0: 8976 203e 7c20 4e3d cbd2 6fbb 4023 23be
000000e0: ac1a 16be 1e8e 05bd 9458 1d3e cd35 5c3e
000000f0: c8e8 54bd 6548 cdbd 6d4c 71bd 4e18 9abb
00000100: 3a23 10be 4e2c 343d c2aa 2f3e 86dd b2be
00000110: 1ab9 bbbd 9e6d 64be 2a62 afbd e876 88be
00000120: 0fdd 1b3e 4a6d 22be ff04 af3d 1222 45bd
00000130: 4d45 e8bd 3710 40bd dc38 b4bd 1ca0 cebd
00000140: 901b 7bbe a0da 7dbe 9b34 18be f1e2 6abe
00000150: e76e 5a3e 4b8f 9a3e cb77 8cbe bab4 a5be
00000160: 3c49 74be 1e28 213b cf66 9b3e ebd7 cb3e
00000170: d0ff 4f3e 0d45 48be aafe b43d 7d39 143e
00000180: 669c 57be 5555 423d d821 b0be ce51 54be
00000190: 034f 133e ee1d 833e 7e0e 02bd 6cc2 263e
000001a0: 53ba 3c3d e5f3 73be 4353 a2bd 1589 fabd
000001b0: 709c b43d 8c58 4cbe 3319 cabe d5a9 1dbe
000001c0: 7469 27be b386 3abd 3603 35be 3f80 893e
000001d0: 1c4f 9a3d 4d29 37be 35c4 57be 3009 0ebe
000001e0: 9fe5 943d 6e62 2ebe 76d1 1cbe c9bc 6a3e
000001f0: cc99 723e 2bff 873c 6280 52bd f9fc 113e
00000200: 7b97 52be 681b 82be 359b 133d b459 5fbd
00000210: cd93 50bd d607 d23b 5dc7 f63b f508 20bd
00000220: 336a 97bd 12de d6bd e828 43bd f23a 853e
00000230: 34d0 5dbe 9e35 9dbe 0477 ba3e 34df 7ebd
00000240: 3931 dfbd 1d84 c03d 11b4 8fbe 6719 633e
00000250: 15c4 abbd 16bd 413e 866d 463e 658d 1ebe
00000260: f3a1 253d 5b17 81bd da8a 993e 6494 c53e
00000270: 6cc9 86bd fe22 dcbd 9861 023b 9a8c 803c
00000280: cd5a 9dbb a8fc 383e 5e3b 91bc 54b3 8ebd
00000290: 8064 8d3c 2744 163c 36d9 9bbe 02c2 753d
000002a0: 0f27 b83d 6fa1 f7bc ddae c4bd 52be 15be
000002b0: 797e 13bd 0cdc 69ba 9e5a dbbb 0bd2 af3d
000002c0: d186 963e a3e1 983d 0574 963e e6cb 2abe
000002d0: 630f 6cbd 10e9 02be bc7d 72be cfd7 6bbd
000002e0: 467a 5bbe cc70 e4bc 35df a4bd 4560 053d
000002f0: 6769 fbbd 2704 5cbe 0818 a63e c893 efbd
00000300: e41e 4cbe 2e11 58be e80b 66bd 9b6b 0f3e
00000310: 561a 183e 08d2 73be 1bb6 36be bfc3 703d
00000320: bfeb 71bd d82a 32be 0266 4cbe dd33 873e
00000330: 44e2 56be f01d c83d addb 623d 9e31 503d
00000340: 1cfb ec3d 45c3 0f3e 9f25 913b e4bf 1f3d
00000350: 0b9d 9d3d 08c5 a83c 6fec 10be 63c3 0b3d
00000360: bfce 053d 679b 033d 0e48 1e3c 7751 a23d
00000370: f706 b53d e38f a0bd ae9c 26be e4f8 3bbc
00000380: 13b3 98bd 6853 b2be 9c17 253d f96c 273e
00000390: 970c 53bd c426 ca3c a60c 88bd 78de 8b3c
000003a0: d2f9 5ebe 941f 0dbe 6b58 ae3d b6d5 7dbe
000003b0: fac2 c3bd 1b56 c63b f330 54be c31f cabd
000003c0: 6af7 f8bd 5310 5a3d 10fb 923d e7e0 333c
000003d0: 1075 5abd e422 6dbd dbbd bfbd 93b4 f1bc
000003e0: bc4a 08be e714 2f3e cc6a 173d 22da bfbd
000003f0: 96ec 88bc 97a0 ffbd 977f 9d3d 42af 9cbe

network_body.observation_encoder.processors.0.normalizer.running_mean f4 [25]
0.9999785 0.0 0.0 0.0 0.21428265 0.99997276 0.0 0.0
1.993408e-06 0.21935792 0.9999785 0.0 0.0 0.0 0.23291484 0.9925654
0.00016943947 0.0 0.0072619747 0.2293197 0.99928826 0.0 0.0 0.0007076565
0.22791418
00000000: 97fe 7f3f 0000 0000 0000 0000 0000 0000
00000010: e96c 5b3e 37fe 7f3f 0000 0000 0000 0000
00000020: 7dc6 0536 5d9f 603e 97fe 7f3f 0000 0000
00000030: 0000 0000 0000 0000 3a81 6e3e c418 7e3f
00000040: 90ab 3139 0000 0000 dcf5 ed3b c9d2 6a3e
00000050: 5bd1 7f3f 0000 0000 0000 0000 0682 393a
00000060: 5662 693e

network_body.observation_encoder.processors.1.normalizer.running_mean f4 [30]
0.5826467 0.4173496 0.0 0.0 0.0 0.46621403 0.81363386 0.17004877
0.0 0.0 0.0 0.30874214 0.81635773 0.16829497 0.0 0.0
0.0 0.29914814 0.91002125 0.05071232 0.0 0.0 0.0 0.23670563
0.8797675 0.06479746 0.0 0.0 0.0 0.23024741
00000000: 5628 153f d9ae d53e 0000 0000 0000 0000
00000010: 0000 0000 9bb3 ee3e 4f4a 503f 4421 2e3e
00000020: 0000 0000 0000 0000 0000 0000 7313 9e3e
00000030: d2fc 503f 8455 2c3e 0000 0000 0000 0000
00000040: 0000 0000 f229 993e 27f7 683f b9b7 4f3d
00000050: 0000 0000 0000 0000 0000 0000 f662 723e
00000060: 7138 613f 88b4 843d 0000 0000 0000 0000
00000070: 0000 0000 fac5 6b3e

network_body.observation_encoder.processors.2.normalizer.running_mean f4 [13]
0.20044391 -0.49998924 18.74947 -0.017400565 0.33398342 5.0451694 -0.0009717222 0.00243302
-3.3722747e-05 0.9980553 286.67685 0.0 -1.2958547
00000000: 2b41 4d3e 97fe ffbe eafe 9541 a18b 8ebc
00000010: e0ff aa3e 0772 a140 2cbb 7eba 4d73 1f3b
00000020: 8671 0db8 8d80 7f3f a356 8f43 0000 0000
00000030: 91de a5bf
