Assets/Brains/Misc/GettingStarted/RollerBall 1.onnx (onnx, 75401 bytes, 8 tensors)

action_model._continuous_distribution.log_sigma f4 [1, 2]
00000000: bc4b b0be 5eed f3bd
-0.3443278 -0.119105086

action_model._continuous_distribution.mu.bias f4 [2]
00000000: b891 66bc 11dc 873d
-0.014072828 0.06633771

action_model._continuous_distribution.mu.weight f4 [2, 128]
00000000: b663 3c3d 2965 1e3d e68b dfbc 9df4 893c
00000010: 8171 93bc 76ac 0f3d 011f b13b c2cb 41bc
00000020: c3b1 503c 89fa 90bd f96a 0ebd 9f4b 7bbc
00000030: c649 1f3d 5ef0 533d f3f0 093d 7373 113c
00000040: c297 963c 7169 a93c 3ef0 8a3d 6084 1f3c
00000050: cc68 163d 733f df3c 2d11 313c f918 ffbc
00000060: bd66 3b3c cfdd 6dbb de45 b23d ba67 0bbd
00000070: 7fd8 87bb 19bf 5e3d 90fc 463b b86a 0d3c
00000080: a65d 4d3c 3c17 053d 4164 f5bb 00be ccbc
00000090: 4fb3 0abc 1151 273d 73e8 08bd 8a20 2f3c
000000a0: 1b00 3c3d f914 0e3d bd7e c23c e68a 7c3b
000000b0: 92a1 213d e133 be3b 772b 603a fac5 863d
000000c0: bfbe 27bd c476 96bb 61fb 9f3c 77c3 ba3b
000000d0: 519b ef3b c331 88bb 1403 efba 7285 dc3c
000000e0: 24be 103b 7d86 1c3d 80a3 e7bc de04 51bb
000000f0: e534 133c c82f ab3d 9e19 f6bc f71e 4d3d
00000100: 0a2c 1a3d 027b 53bd fd9f 983c 89fa 5f3d
00000110: 81c7 6b3d 7784 9cbd af5c 913c d322 653d
00000120: a27e 933c ef37 9e3c 3e5d 5a3d d78f 02bd
00000130: 4913 013d 0b5e 543c 95b6 5a3d 471a 213c
00000140: e6cf 713c 6dda 483d 3965 c5bb b4eb 2b3b
00000150: 1fba 293d a780 acbd 2704 013d ef21 e8bc
00000160: 7077 37bd ff6c 903b dc2c 4abc ff03 983c
00000170: 1e25 083d 10d8 51bc fa2d b23d cb4b a33c
00000180: ae07 59bd b5a7 0a3d 9ba2 fa3c 63fc ad3c
00000190: 1a7d 523c 5a49 07bd 5be8 3e3d 1d14 82bd
000001a0: 510a cdbb ab20 823d 84be 23bc 4eb9 e3bb
000001b0: 9bb9 38bd 64bd 3cbc 1bfb 943b c57c a43c
000001c0: a17e 7f3c c824 883c ed31 3a3c 45bc 173d
000001d0: a849 193d 6d42 19bd d16e 3c3d 2d71 9b3d
000001e0: b98e 223c a4d6 203a 22f4 9e3d 62da 113d
000001f0: c0c4 993b 1902 9abc bd55 073d 97b2 b1bc
00000200: d3c4 4b3c ee63 4cbd abbe b5bb 9f20 30bd
00000210: a853 713c 1b88 5dbc d491 dcbc ce56 58bc
00000220: 64b7 30bd 909f ef3c 3373 4f3d 6011 b2bc
00000230: f3a2 c03b 32d0 2cbd 7a62 42bc 8fc3 d9bc
00000240: 1c78 7c3b 281a 0cbd a9e0 16bd 4424 d0bc
00000250: 01de 79bd 6b05 c03c 3e20 aebc 9771 05bc
00000260: 6f7a 853b 1506 e6bc 9055 a33b 3adf 1d3d
00000270: 5ca9 42bc 47e5 22bc 5539 9b3c df64 153c
00000280: 9e4c 093d 5c2c 1cbd eb8a 303d b39a 38bd
00000290: b08e 24bd bf2c 1f3b 31f6 f33c 058e 36bc
000002a0: f95d 1fbb d619 7bbc d940 0c3c f8b8 eb3b
000002b0: a48a 8fbb e302 81bb 2a84 7c3d a906 1d3d
000002c0: a9a6 afbc 894b eabc 31fd 88bd ecc2 b739
000002d0: 3ebb 1bbc 55d0 81bc b91f 01bb 5230 b2bc
000002e0: 50d4 f53b 61bb adbc 4f5a ddbc 6dcb d0bc
000002f0: 0171 aabc fde0 3fbd 3f07 2dbd d7ca d4bb
00000300: e7b3 e3bb 8331 813c ae69 10bd ea8c 253b
00000310: 9cff 4bbd a847 43bd 8ef2 293c d832 91bd
00000320: f814 3dbd 137e bfbc 7428 5cbb 4cec bdbb
00000330: c099 59bc 3b31 073d 0c9f 8dbc d03d 843b
00000340: 9a22 36bc af45 03bd 03e2 e63c b148 0dbc
00000350: bc56 6e3c c517 853d 31bd a0bd 626d dbbc
00000360: d24b 313b e06e f6ba 3136 063d 1947 9ebc
00000370: e3bb 12bd a956 febc cb60 823c 6b4c 13bd
00000380: 22a0 ac3c 6b09 7fbc dc9f a5bb 4a81 0dbb
00000390: b441 883c cf0d 55b9 1da9 1d3c d216 833d
000003a0: bfc0 20bc 66ef a33c f5f3 2e3c 685d 2c3d
000003b0: 5fcb 633d 8933 a4bc 8327 8e3b 6509 a4bc
000003c0: 6c8b bebc 64ac 07bd eab2 71bc 42b2 a3bc
000003d0: ea16 09bd 8979 0ebd 728b e9bc 771a d63c
000003e0: 3769 1c3d 2da4 4dbc 35cf 55b8 779d 0c3c
000003f0: 8d9c 683b c251 a9bc 3dc1 66bb 2ad6 34bd
0.04599353 0.038670693 -0.027288388 0.016840274 -0.017998459 0.03507658 0.0054053073 -0.011828365
0.012737694 -0.07079036 -0.034769986 -0.015337854 0.038888715 0.051742904 0.033677053 0.008877623
0.01838291 0.020680161 0.06784104 0.0097361505 0.036721036 0.027251935 0.010807318 -0.031139838
0.011438069 -0.0036295538 0.08704732 -0.03403447 -0.0041456814 0.054381464 0.0030362941 0.008631401
0.012534535 0.03249286 -0.007488758 -0.024992943 -0.008465602 0.040848795 -0.033424806 0.01068891
0.045898538 0.03468797 0.023742074 0.0038534938 0.039460726 0.0058045243 0.00085513986 0.0658073
-0.040953394 -0.0045917947 0.019529046 0.0056995708 0.0073122163 -0.0041563227 -0.001823517 0.0269191
0.002208599 0.038214196 -0.028276205 -0.003189377 0.008984779 0.08358723 -0.030041512 0.05007836
0.037639655 -0.05163098 0.018630976 0.05468229 0.05756331 -0.07642453 0.01774439 0.055941414
0.01800472 0.01931378 0.05331158 -0.031875458 0.031512532 0.012961875 0.05339678 0.009832925
0.0147590395 0.049036432 -0.0060240296 0.002623302 0.041437265 -0.08422976 0.0314981 -0.028336493
-0.04479164 0.0044075246 -0.012339797 0.018556593 0.033238523 -0.012807861 0.087001756 0.019933602
-0.05298584 0.033851344 0.030595114 0.021238511 0.012847209 -0.033028938 0.04660831 -0.063514926
-0.0062573333 0.06353887 -0.009994153 -0.0069495803 -0.045098882 -0.011519764 0.0045465357 0.020079026
0.0155941555 0.016619101 0.011364442 0.037044782 0.03742376 -0.037416864 0.04600412 0.07589946
0.009921723 0.00061354996 0.077614084 0.035608657 0.004692644 -0.018799828 0.03304075 -0.021691604
0.012437063 -0.049899988 -0.005546411 -0.04299986 0.014729418 -0.01352122 -0.026925005 -0.01320429
-0.043143645 0.02925089 0.050646972 -0.0217368 0.0058788 -0.042190738 -0.011864299 -0.026582507
0.003852374 -0.034204632 -0.036835346 -0.025407918 -0.061002735 0.023440083 -0.021255609 -0.008144758
0.004073433 -0.028079072 0.004984565 0.038542964 -0.011881199 -0.009942359 0.018948236 0.009118288
0.033520333 -0.038128242 0.043101232 -0.045069408 -0.04017514 0.0024288145 0.02978048 -0.0111422585
-0.0024317487 -0.015325984 0.008560383 0.007193681 -0.004380541 -0.0039371117 0.06164948 0.03833643
-0.021441774 -0.028600471 -0.066889174 0.00035049708 -0.009505091 -0.01584641 -0.0019702746 -0.021751557
0.0075021163 -0.021207513 -0.027020602 -0.025487626 -0.020805838 -0.046845425 -0.04224324 -0.006493907
-0.0069489363 0.01577068 -0.035257034 0.0025260993 -0.049804315 -0.04767576 0.010372771 -0.07089776
-0.046162575 -0.023375547 -0.0033593448 -0.005795991 -0.013281286 0.033005934 -0.017287754 0.004035689
-0.011116648 -0.032048877 0.028183943 -0.008623288 0.014547046 0.06498674 -0.078485854 -0.026785556
0.002705325 -0.0018801354 0.032766525 -0.019321011 -0.035823714 -0.031047182 0.015915295 -0.03596155
0.021072451 -0.01556621 -0.005054457 -0.0021591955 0.016632892 -0.00020318407 0.009622839 0.06400837
-0.009811579 0.020011615 0.010678281 0.042081267 0.05561387 -0.020044105 0.0043382063 -0.02002401
-0.02325984 -0.03312339 -0.014752129 -0.01998246 -0.03346912 -0.034783874 -0.028508876 0.026135666
0.03818628 -0.01255135 -5.0976134e-05 0.008582464 0.0035493702 -0.020668868 -0.0035210394 -0.044149555

action_model._discrete_distribution.branches.0.weight f4 [1, 128]
00000000: 0be9 dcbb 233d c4ba ec56 b93b 61ad bfbb
00000010: d411 4539 8dd9 d83b a240 29bc f820 023c
00000020: 5773 0dbc 6ffe 903a e1ad a4bc 48fb 65bb
00000030: eb95 50bb 430c aa3b 728f efbb 3ffd b4bc
00000040: 6d6b 98bc 889f f33b 8f7a f9bb 97f7 413c
00000050: 30c9 91bc d864 d9ba 8f18 06bc f775 53bc
00000060: d5ae c53c 54a7 8b3b 05e4 4cbc 27ff 16bc
00000070: 983d 40bb b8b4 db3b f300 9e3b 102a b8bb
00000080: 763f 8fbb b531 dd3c e432 0ebc a7ab b23b
00000090: 5dde 013c 4dd0 e2bb 1a11 1a3c b299 e2bb
000000a0: 5562 babb 2144 c7bb 66a2 b23b fabc a83b
000000b0: 18ea 47bc 68d3 943b 13c2 923a db6d 4bba
000000c0: 53f0 8fbb bfa1 8eba a9d8 3dbc fd8d ecbb
000000d0: 55bc 50bc 2787 c63b 3f6c 00bc e686 4a3c
000000e0: dc01 b5bb a3ae 60bc 25ba 893b 43e6 91bc
000000f0: ef42 a93b d52b 0abc 8fd2 b9bb cf78 a83a
00000100: a9ea ad3b 4569 c0bb f83f d0bb 2771 f339
00000110: 5efa 22bb 37bb 13bb 1fa6 82bc 52e3 98ba
00000120: 5fa7 fe3b 4f3c 27bc 4a6c 4dbc f5d6 7abc
00000130: 3288 74bc d8c9 34bc 1d72 5dbc 6a27 7dbb
00000140: 7076 7b3c 5b3d 083c ac5a 073c 837f 96bb
00000150: 78c6 9f3b af56 b7bb 4c90 183c cb7a d1bb
00000160: 2260 343c 771c a8bb 27d5 563b 879a 8dbc
00000170: d30c 2d3b ffb6 d93b bd21 0cbc efcb 2cbc
00000180: 7be7 743a a894 b43c 6e5d 87bc e50b 233c
00000190: 7433 2bbc a73d f7bb 82bd f33a f33f 073b
000001a0: 4dcb 8a3b 7304 0b3c 374f 543b d3ef aa3b
000001b0: 8676 933b dec3 37bc 73a0 4dbb 2266 e63b
000001c0: ab7e db3b a136 823a cb90 3f3b a91f 903b
000001d0: b334 8d3b a749 8d3b 0215 3dbb 6f45 d1bb
000001e0: d0e7 07bb 10f8 e93b 17a1 61ba d03c 67ba
000001f0: c5b8 e0bb 8751 0ebb c90c 22bc d20e c4bb
-0.006741648 -0.0014971833 0.005656114 -0.005849526 0.00018794026 0.006617731 -0.010330351 0.007942431
-0.008633456 0.0011062155 -0.020102443 -0.0035092402 -0.003182764 0.00518945 -0.007310801 -0.022093413
-0.018605912 0.007434789 -0.007613487 0.011838815 -0.017796129 -0.001658584 -0.008184566 -0.012906543
0.024131218 0.0042618904 -0.012505536 -0.0092161065 -0.0029333588 0.006704893 0.0048218905 -0.0056202486
-0.004371579 0.027001241 -0.008679125 0.0054525915 0.007926551 -0.006921804 0.009403491 -0.0069152946
-0.0056879916 -0.0060811196 0.0054514883 0.005149481 -0.012201808 0.004541803 0.0011196755 -0.0007760205
-0.0043926626 -0.0010881944 -0.0115873 -0.0072190748 -0.012740214 0.006058592 -0.007838308 0.012361264
-0.0055239033 -0.013713512 0.0042030984 -0.017809993 0.00516545 -0.008433302 -0.0056708525 0.0012853387
0.0053075147 -0.005871924 -0.006355282 0.00046432877 -0.0024868469 -0.0022542009 -0.015948353 -0.0011664426
0.007771417 -0.01020725 -0.012538025 -0.015310039 -0.01492505 -0.011034451 -0.013515976 -0.003862823
0.015348062 0.0083154095 0.008261364 -0.0045928373 0.0048759542 -0.0055950503 0.009311747 -0.006392812
0.011009248 -0.0051303464 0.0032780857 -0.017285598 0.002640535 0.0066441293 -0.008552966 -0.010546668
0.00093423546 0.022043541 -0.016524043 0.009951566 -0.010449279 -0.0075451913 0.0018595906 0.0020637482
0.004235661 0.0084849475 0.0032395849 0.0052165776 0.004500213 -0.011216132 -0.0031376153 0.007031218
0.0066984496 0.0009934494 0.002923059 0.0043983054 0.0043092608 0.0043117586 -0.0028851633 -0.006386451
-0.0020737536 0.007140167 -0.0008607073 -0.00088210125 -0.0068579637 -0.0021716075 -0.0098907435 -0.005983212

network_body._body_endoder.seq_layers.0.bias f4 [128]
00000000: 8acc 72bd 76e8 c33c b055 53bd 436a 41bd
00000010: e8b8 0bbd b389 ba3d b8c7 80bd 23d6 16bd
00000020: 4d1f a9bb cea3 f0bc 8cbe 7fbd 0db0 39ba
00000030: e41d 81bb 388a 963c 6577 11bd 3bda 7bbd
00000040: 9eeb 6e3b a0f5 fa3a c029 77bd bc10 80bd
00000050: 93fc 98bb 3e92 b1bc 08f0 353b b6fc 5dbd
00000060: 60aa 9cbb f9ca bcbc 418c ecbc 7df9 9fbd
00000070: 4ed3 68bd c065 c239 3fd7 9bbb 6256 babd
00000080: 3220 df3c 5321 35bc 383e 61bd 965d 403c
00000090: 5abc 10bd ff95 ccba 3a0d 50bd 7206 bdbc
000000a0: 43f4 f0bc cb06 5d3b feec a0bb a618 febc
000000b0: 24ca 30bc fa30 04be 269d 233d fb2a 41bc
000000c0: 4933 853d 3b9b f13c 54f0 8bbd 74f5 48bd
000000d0: d53b 7bbd b5b7 77bd 8903 cf3c 4b6c 483d
000000e0: 0384 8e3c 29a6 4ab9 0af4 6bbc f962 dabc
000000f0: 5eb8 04bd 8e63 dbbb d09f b5bc 3576 5239
00000100: 9efb ac3c 6101 d43c cc2a 2cb9 9e76 5dbd
00000110: 2480 193c 2474 d2bc 7d69 3abd a8f7 f13c
00000120: ef66 a9bd 433b df39 2ea1 6abd ff46 60bd
00000130: 4753 c2bd 030d 083d 80ce c7bd b780 ccbc
00000140: 57a5 253c 1d3e 873d ace4 473c 03b9 a73c
00000150: 3fd8 01bc eb9a bc3d 5ee9 91bc 52cd 11bc
00000160: 98a4 7cba 0a24 80bd 253f cdbc 8277 1abd
00000170: e4d5 16bd 7cf0 13bc 6402 d9bb 536d 753c
00000180: 7462 f43b 8706 1dbd 7430 82bd f465 ae3c
00000190: bf5e 47bc b77d 853b c17c b0bc 8fbf 35bc
000001a0: 395e 72bd f569 26bd c509 5dbd dc9e 3dbc
000001b0: 75f5 f4bc b11e 4cbc 264b 813c db9c eb3c
000001c0: ce29 9ebb ed14 22bd 8df7 00bd 5360 2a3d
000001d0: fb81 ca3b 2ce5 4d3d b99b 163d a3ae bcbc
000001e0: 6188 803d c626 64bd ba20 2dbd c16c efbb
000001f0: 2615 33bc a717 3e3d 7874 e7bc 083d 823a
-0.059277095 0.023914557 -0.05159539 -0.04722048 -0.034111887 0.09108295 -0.06288093 -0.03682531
-0.005161202 -0.029374983 -0.06243758 -0.00070834236 -0.003940331 0.018376455 -0.035514254 -0.061487418
0.0036456357 0.0019146688 -0.06034255 -0.06253192 -0.004668781 -0.021676179 0.0027761478 -0.054196082
-0.0047810525 -0.023046004 -0.028875472 -0.07811258 -0.05684214 0.00037078373 -0.004755884 -0.090985075
0.027237032 -0.011055308 -0.054990977 0.011741063 -0.035335876 -0.0015608667 -0.050793864 -0.023074362
-0.029413348 0.0033725973 -0.004911064 -0.031017613 -0.010790382 -0.12909308 0.03994479 -0.0117900325
0.065039225 0.029492965 -0.06832948 -0.049062207 -0.061336357 -0.06047793 0.02527024 0.0489314
0.017396932 -0.0001932612 -0.014401445 -0.026658522 -0.03240239 -0.0066952175 -0.022170931 0.00020071196
0.021116074 0.025879564 -0.00016419141 -0.0540682 0.00936893 -0.025690146 -0.045510758 0.029537037
-0.08271586 0.00042578028 -0.05728262 -0.054755207 -0.0948854 0.033215534 -0.097561836 -0.02496372
0.010110221 0.06603644 0.012200516 0.020473963 -0.007925092 0.09209236 -0.017811473 -0.00889905
-0.00096375635 -0.06256874 -0.025054524 -0.037711628 -0.036825076 -0.009029504 -0.0066225994 0.014979678
0.0074580256 -0.038336303 -0.06356898 0.02128885 -0.012168585 0.0040738243 -0.021543862 -0.011093034
-0.05917189 -0.040628392 -0.053964395 -0.01157352 -0.0299022 -0.012458489 0.015782904 0.028761318
-0.004826761 -0.039570738 -0.031486083 0.04159577 0.0061800457 0.050267383 0.036769602 -0.023032492
0.06276012 -0.05570104 -0.04226754 -0.0073066656 -0.010930335 0.046409275 -0.028253779 0.0009936402

network_body._body_endoder.seq_layers.0.weight f4 [128, 8]
00000000: 3c3f 12be 92f8 1a3d 6cc7 79bd 3ad8 693e
00000010: 9297 d83e 1805 623d b794 dabe 51e1 ba3e
00000020: 8bbb 073e 79f6 903e 04f3 d83e b1e6 423d
00000030: e7b3 453e b348 253c ac46 6dbf c4ec bdbe
00000040: 66df e2be d444 573e ac6a eb3e d8c6 4d3c
00000050: 1a90 95be 72f1 a1be f853 a13d 1b46 67bf
00000060: bea4 d13e 0824 8a3e 9806 8c3e 8a05 cc3e
00000070: 5421 16bd 4df4 3f3f 1ecf 06be 5dec bbbd
00000080: 557c fe3e fe41 f03d ac01 f93e 0a35 823e
00000090: 7f0b 91be 4153 943d 007a 39be 00e3 99be
000000a0: 6162 0abe 4e9b 323e 4a83 843e 1396 8fbf
000000b0: b125 2c3c 4aa7 12be c277 d9be bdfb e5bc
000000c0: 50f5 d8be b713 06bf b78e cd3c 8cb0 603e
000000d0: a2fe ea3c 8b54 c83b a859 6f3d b84c 083e
000000e0: 7a13 6f3e c831 cebe 5a2d 9fbb 351b 373e
000000f0: caf0 503e 5d26 ba3c ce35 5c3e 0ff1 803e
00000100: 9715 31bf 4f6f 1abe 5457 5d3e 1cff 73be
00000110: 6184 76be 454a edbb 6706 56bf 9ba2 e03e
00000120: a83b ecbd 0621 883d e826 edbd d4b1 03be
00000130: f5cc 63be 8f84 24bf b1eb d2be ee79 a7be
00000140: 2778 3a3d b084 96be 22b7 01be 8666 9a3e
00000150: 439a 16be dc1f b7be 1256 e33c c5de 5dbd
00000160: 2e04 6dbe b8f9 60be 7976 503e 46cd 94be
00000170: e6b4 8cbb f2a2 66be 2d82 fdbd defd 00bf
00000180: c35b 203e 5b56 cdbd 2e5e ac3e 9cd7 afbe
00000190: 84f1 9dbe 170b 01bf 3a7e b2be 5c8c 313e
000001a0: baa3 963d ebcd e23e 476a 44bc bb33 1dbf
000001b0: a25c 2f3e bf71 c2bd 7c6a 2d3f ecd4 9ebc
000001c0: 8174 7fbe 908e 803e 1ca2 063f 640b e03e
000001d0: 995e 31bf 29c2 1c3d fd04 b23d 37e9 efbe
000001e0: bf98 df3d 8e16 09bf 5806 0d3f a2fd fb3e
000001f0: 3548 94bd 6398 1cbf f994 523f a2b7 f73d
00000200: 2f31 e23d 54de f5be 52a6 463d 96ad e5be
00000210: 5cb7 9f3e de8e 2bbf 8e32 2d3e c567 063f
00000220: 6ff3 76be 9c15 16bd 7ebd 74bd 6bc6 09be
00000230: e985 5f3d 4004 543d af6d 43be b0b3 29bf
00000240: 617b 35be 8754 8f3e 1f82 d53e af91 c3bd
00000250: 7553 813e 7939 573d f54b 993e 0d49 bdbe
00000260: dd45 7c3e d582 d53e 37a0 ca3e a125 8c3c
00000270: 8d61 cfbe 04dd c63d cbb8 abbe 1920 823e
00000280: aa05 d33e cae1 f13e c784 903e 41c7 23bf
00000290: 135a a1bb 2c07 253e f359 903e a8d0 e93d
000002a0: d71f a73e a724 853e 6d05 f3bd 508e 34be
000002b0: 2f11 0e3f 1f13 293e 0182 9bbd bf9e 51be
000002c0: 0a59 86be a1dc 053f 1262 0dbf 48f2 a33e
000002d0: 9612 273f 1ebb ea3e 1238 f3be 8bc3 f73e
000002e0: d388 91be 2de4 233d c126 a73e 9ba2 9a3e
000002f0: c01d 20bf 27a4 2c3f 82e3 163f 2b77 9f3e
00000300: c79b 74be 188a 95be 923b 213e 655f b2be
00000310: 353b 7b3e 2e34 e0bd 8d7c 673e 8ad2 a7be
00000320: b776 063f f6e0 723e c5e3 21be 9823 bc3e
00000330: e4bf e23d 770a 8abd e6cc 02bf 1719 b63d
00000340: 4674 103e 2121 de3e 1bb3 853e ba14 86bd
00000350: 66cd c93e 60c0 3b3e bd3f 43bc 4d43 3a3f
00000360: f87d ac3c 67a7 9cbe c3a7 d6bd 1988 b3bd
00000370: a3b9 3a3c 6294 c4be 458e a4be e9dc 1abd
00000380: 39ae a23c 31bf 1b3f fb60 afbe b4f7 d43e
00000390: a60c cabd 0e55 193d b911 613e f6bf aebd
000003a0: b678 623e 80f2 acbe eff6 5b3e 20ed 4cbe
000003b0: 277b 6ebe c3e3 01bf 3a22 c0be b43a b8bc
000003c0: 34aa 373d 17a7 d63e aa6f bb3e d35e 8dbe
000003d0: 7eec 2abe 7bdc bb3e e3ca 05bf 6840 60be
000003e0: 86dd 203f 6f0a 463e b393 36bf 45da af3e
000003f0: 0d3a 3b3e fa7a c93e 1775 aebd 6f2c 2fbf
-0.14281934 0.03783471 -0.0609812 0.2283639 0.4230314 0.05518064 -0.42691585 0.36500028
0.13255136 0.28313044 0.42372906 0.047583286 0.19306909 0.010088134 -0.9268596 -0.370947
-0.44311064 0.2102235 0.45979822 0.012559615 -0.29211503 -0.3162952 0.07877344 -0.9034135
0.40946 0.26980615 0.2734878 0.39847976 -0.036652878 0.7498215 -0.13164946 -0.09175942
0.49704233 0.11731337 0.48634088 0.2543109 -0.28329083 0.07242442 -0.18112946 -0.30056
-0.13514091 0.17442057 0.25881416 -1.1217674 0.010507033 -0.14321628 -0.4247418 -0.02807414
-0.4237466 -0.5237383 0.025092466 0.21942347 0.028685872 0.006113594 0.058435112 0.13310516
0.23347273 -0.40272355 -0.0048577012 0.17881472 0.20404354 0.022723371 0.215049 0.25183913
-0.6917357 -0.15081523 0.21615344 -0.23827785 -0.24073936 -0.0072415196 -0.8360352 0.43874058
-0.11534816 0.06646924 -0.115796864 -0.12860805 -0.22246154 -0.6426477 -0.41195443 -0.32710212
0.045524742 -0.29398108 -0.12667516 0.30156344 -0.14707284 -0.35766494 0.027751002 -0.054167528
-0.23146126 -0.2197026 0.20357694 -0.2906286 -0.0042940257 -0.22523096 -0.12378345 -0.5038737
0.15660004 -0.100262366 0.33665603 -0.34344184 -0.30848324 -0.50407547 -0.34861928 0.17338699
0.07355447 0.44297728 -0.011988229 -0.6140706 0.1712518 -0.094943516 0.6774061 -0.019388638
-0.24946786 0.25108767 0.5259111 0.4375869 -0.6928497 0.038271103 0.08692358 -0.46857616
0.10917806 -0.5355004 0.55087805 0.49216944 -0.07240335 -0.61170024 0.82258564 0.12095572
0.11044537 -0.48021185 0.04849846 -0.44858998 0.3119458 -0.67014873 0.16913816 0.5250209
-0.241163 -0.036641702 -0.059751026 -0.13454597 0.054571066 0.051761866 -0.1908481 -0.66289806
-0.17722847 0.27994177 0.41700837 -0.09549271 0.25258985 0.052545045 0.29940763 -0.36969796
0.24636026 0.4170138 0.3957536 0.017107787 -0.40504113 0.09710124 -0.33539423 0.25415114
0.4121526 0.47242576 0.282263 -0.6397591 -0.0049240678 0.16116017 0.28193626 0.11416751
0.3264148 0.26004526 -0.11866269 -0.17632413 0.5549497 0.165112 -0.07593156 -0.20470713
-0.26239806 0.5228978 -0.5522777 0.32020783 0.65262735 0.45845884 -0.47503716 0.48391375
-0.284247 0.040012527 0.32646754 0.30202183 -0.62545395 0.67437977 0.589409 0.31145605
-0.2388755 -0.2920692 0.1574538 -0.34838405 0.24534304 -0.109474525 0.22606106 -0.32777816
0.52524894 0.23718628 -0.15809543 0.36745906 0.110717565 -0.06740277 -0.510939 0.08891504
0.14106855 0.4338465 0.2611321 -0.06546922 0.3941452 0.18335104 -0.011917052 0.7275894
0.02105616 -0.30596468 -0.10481217 -0.08766193 0.011396798 -0.38394457 -0.32139793 -0.037808333
0.019858466 0.6083861 -0.34253678 0.41595232 -0.09865694 0.03743463 0.21979417 -0.085327074
0.2211636 -0.33778763 0.21480916 -0.20012331 -0.23289166 -0.5073816 -0.37526113 -0.02248893
0.044840053 0.41924354 0.3660863 -0.27611408 -0.16691777 0.3669165 -0.52262706 -0.21899569
0.6283802 0.19339918 -0.7131912 0.34346214 0.18283863 0.39351636 -0.08518427 -0.68427175

network_body._body_endoder.seq_layers.2.bias f4 [128]
00000000: c39f d0bc 2eb6 853b 44ba 1b3c 6ca3 a8bb
00000010: 0d05 91bb e9d5 9abc c69b bcbc 8902 3cbb
00000020: 2dfc fabc b5fd 093d b6d1 bb3c 0257 87bd
00000030: f094 65bc ce98 d53c 32fd 67bc 77bc 00bd
00000040: 7a81 90bc e3e6 7bbc aae9 9c39 0185 dabc
00000050: a15b 03bc 621d 83bd 2c7a 66bd 99f2 b9ba
00000060: 4be1 193c d986 03bd 6f1a 4a3d 05b8 623c
00000070: 56cb 6dbd 4e52 e6bc 57aa a9bc 09d0 80bc
00000080: a69c 113d a4bd 0ebd a3d6 b53c 0c95 13bd
00000090: f4fc 0f3c 6a1e 4cbd afa5 fcbc 46c5 2cbd
000000a0: a548 d23b 02f5 2fbc ad0b 22bd 21f0 d839
000000b0: d125 3cbc b88c 71bc 65e0 b43c 56c9 1f3d
000000c0: 147e 733c 1e09 51bd 0843 d6ba 3580 b6bb
000000d0: 514b 97bd 3614 0cbd ce41 773b d661 f5bc
000000e0: aad1 cabb 5dd4 b0bb e94b f13c 7c3a 53bd
000000f0: 3aab 45bd b6db 243c 9ec2 aabb cbc2 0dbb
00000100: 4ccd 95bc dc68 afbb e477 68bd b767 95b9
00000110: 6a1d c03b c099 153d 157b 5ebd 6303 81bc
00000120: 60eb 3fbc b34b ffbc 461a 8cbb 4a68 2dbd
00000130: a376 a8bc 0d23 d73c ffd2 e3bb 29b7 1bbd
00000140: 407a 71bc 704a 22bc fe04 f13c 8657 50bd
00000150: f22a 04bc 8050 0b3d 0cba c53c e56b 473c
00000160: f19d 46bc 04cd 66bd 0b87 20bc 6ac4 e7bc
00000170: 82b7 97bc d3ca ef3c 1c86 083d bd3c 65bc
00000180: 39f3 a7bc 6e90 eabc fa49 f2bc a9c2 88bc
00000190: d0b3 31bd b327 0b3c 57c9 e6bb 1767 c33c
000001a0: f586 81bd 0a72 b23c eae4 133c 0897 723c
000001b0: 6b5d 183c aad5 87bc 04a4 03bd 3185 b1bc
000001c0: d1cc 1dbd 640c 00bc 925b d9bc 39b7 093c
000001d0: 84d1 3f3c 51da fdbc 3d03 80bc 139c ab3c
000001e0: 0492 ea3c 44b3 5abd 7595 0fbb f3a0 cabc
000001f0: 6d69 3cbd 2544 8b3c ccaf 3c3b a021 02bd
-0.025466805 0.0040805554 0.009504858 -0.0051464345 -0.004425651 -0.018900828 -0.023023497 -0.0028688035
-0.030637825 0.03368922 0.022927146 -0.06608392 -0.01401256 0.02607384 -0.014159488 -0.031429734
-0.017639864 -0.015374872 0.00029928732 -0.02667475 -0.0080174515 -0.06402089 -0.056268856 -0.001418668
0.009392093 -0.032111023 0.049341615 0.013837819 -0.058055244 -0.028115418 -0.020711107 -0.015724199
0.035549782 -0.034848824 0.022197073 -0.036030814 0.008788336 -0.049833693 -0.030840723 -0.042180322
0.0064173513 -0.010739567 -0.039561916 0.0004137764 -0.0114836255 -0.014743023 0.022079656 0.03901037
0.014861602 -0.051034085 -0.0016346881 -0.0055694827 -0.07387412 -0.034198962 0.0037728432 -0.029953878
-0.0061895447 -0.0053964094 0.029455142 -0.051569447 -0.048258997 0.010062149 -0.0052111885 -0.0021630998
-0.01828637 -0.0053530764 -0.05675496 -0.00028496768 0.0058628814 0.03652358 -0.0543166 -0.015748685
-0.011713833 -0.031164026 -0.004275593 -0.042335786 -0.020564383 0.02626183 -0.006952643 -0.038016472
-0.014738619 -0.009905443 0.029421326 -0.05086472 -0.00806688 0.034012318 0.024136566 0.01217172
-0.012122617 -0.056347862 -0.009797822 -0.0282919 -0.01852012 0.029271519 0.03333102 -0.013991532
-0.02050172 -0.028633323 -0.02957629 -0.016694384 -0.043384373 0.008493352 -0.0070430445 0.023852868
-0.06324569 0.021782894 0.009026745 0.0148065165 0.009299616 -0.016581375 -0.03213884 -0.021669956
-0.038525406 -0.007815454 -0.026532922 0.0084055 0.011707667 -0.03098789 -0.015626544 0.020948445
0.028634079 -0.053393617 -0.0021909152 -0.02473495 -0.04599898 0.017000267 0.0028791307 -0.03177035

network_body._body_endoder.seq_layers.2.weight f4 [128, 128]
00000000: e03c 3bbe 99a1 333d 1a50 3d3c f6ca 9c3d
00000010: 8b19 9d3d f822 dcbd 81e0 68be 8012 cfbd
00000020: 2226 84bd 31d5 46bd 0803 61be eaea 06bc
00000030: 2e2d 0dbd 314a 943d b647 f0bc 8ee0 ddbc
00000040: e617 c7bd c7aa 573d 04c3 683d aa0c 8b3d
00000050: b6d4 913a ab26 203e 4782 483d e3aa b0bd
00000060: e845 293d ca0f d3bc 53a7 8f3c bfc3 843d
00000070: b525 933d 251b 64bc 5462 3cbe 8758 243d
00000080: 8582 66bd 312b 97bd d713 f7bd 9a34 903d
00000090: f771 4a3c 1f2d da3c 9cae edbc 732a b1bd
000000a0: 18aa 64bd f5f8 b13c 45c1 b0bd 967f 22be
000000b0: c721 c03c b805 733c 7fe2 ecbc 970b 84bd
000000c0: 9a69 60bd f9c5 4fbe dffb 16be 451f 92bd
000000d0: 0f8a 813d ac2f a1bd 4e53 64be 8b86 7c3d
000000e0: 800b f0bb b81e 303d 23d9 14bd 4d8d f8bd
000000f0: 4b79 ccbd acc1 503d c088 c2bd 9a58 203c
00000100: b3db 0c3d 988f 9d3c 4681 443d b855 083c
00000110: adc7 84bd 1a99 813c 9aab 59bd 6887 173d
00000120: 6714 0e3e b5d3 753d b1b0 f23c 0615 a3bd
00000130: e64c eabc 60f9 71bd cddd e2bd 5a46 843d
00000140: 3c8f 2cbe 6fdd 65be 5e0f ef3d 017e 453e
00000150: 9d73 a13d 2360 e3bc 9ba9 73bd 026c 0abe
00000160: 257b 56be d0b9 0f3b 5116 cabc e5ee ccbd
00000170: b61a 16bc 2d77 3dbc 45cb 35be a752 28be
00000180: efcc 23bd b1e6 8b3e 4a58 18be 06d9 393d
00000190: 7a4d c1bd 09f4 9b3d 383c b63d 7e58 0f3e
000001a0: 8578 b1bd 19e4 8ebd cbf5 6ebe 683e 993d
000001b0: c2c1 4b3c 9164 1dbd 6b2a 8cbd 367a 47be
000001c0: 4b44 a1bc 687e 0a3e 107d 4e3c f261 db3d
000001d0: c135 e7bd f27e 1fbe 89e1 35be ec25 013e
000001e0: 05ae d5bc 4496 3fbe e54b ccbd 8637 8cbd
000001f0: 2162 d43d e003 963d 00ec 223e d26a 8abc
00000200: 9374 d5bd 0ff6 c53d 6b87 3f3d 2c87 b63d
00000210: 11f7 4fbd 68de a33d 6c8a 8fbc 6d7c 8dbd
00000220: 6e32 a0bd 6bbf c53d 1b95 a3bd 8a98 bd3d
00000230: ab65 bdbd acc0 593b 2118 11be 13de 17be
00000240: 1fa5 78bd 0770 80bc d25c 72bc 27b3 b93d
00000250: 3124 d93d 699b b6bd b9f4 c8bd 0b21 6a3c
00000260: b5a3 2d3c 9e28 793d 6abf 0c3d a27c 2dbc
00000270: 8772 9abd 112b 123d d0f0 073e 8213 1cbd
00000280: f5cc 153e 89e3 3ebe f6d0 b93a cea2 0abe
00000290: c481 b0bd e9db 49be c4c6 9f3d a5fb 53bd
000002a0: 38a3 213e 76df 03be 7a09 d5bd e26f b93d
000002b0: dcee 2dbe 9a86 e3bd 2ce4 1a3d 00aa 34be
000002c0: c936 b23c 1449 45be 17c1 0d3d 5cbd d3bd
000002d0: 9933 2d3d d3ef d03d 2932 b83d 305c 8cbd
000002e0: cc32 fe3c 9899 6cbe 52c1 6d3d b38e 05be
000002f0: 921f 31bd 58b5 61bd a200 4b3d c748 a83d
00000300: 3c2e 3abd 28f6 8bbe f84d 393d cce7 913d
00000310: 0484 3fbe b88d 46be dc9f f8bc 7a7f aabc
00000320: c03e 9bbc 2eca 243c c1b1 823d e340 be3c
00000330: 9aa5 aa3b 8bfc 973d e10f 96bd df30 2fbe
00000340: 25df 7abd 8117 e8bd ca2c db3c 50d6 643e
00000350: 7112 33be 181e c8bc fba5 babc 4156 cbbd
00000360: 6ba6 053e 0c1a d03d a50f a4bd e5ad 80bd
00000370: e83e db3d bdd9 173e 532c c4bd 6037 553e
00000380: f63b ff3c ff45 2c3e 1898 643d 2039 05be
00000390: 3f66 d63c 85a2 1d3b 0057 f7bc d14b 4d3c
000003a0: b48e 1c3e f16a 063d 5943 e5bd 5c2a 73bd
000003b0: 87ae 7fbd e299 bb3b baf0 bbbd 57c0 bb3d
000003c0: 7dc1 0d3e 2f48 88bd ae3f aabd e85d 9d3c
000003d0: bbac 453d b5f1 87bd 125b d2bd 2da5 2ebd
000003e0: c1cf 0f3c d2a9 01be 46bb af3d 76c9 07be
000003f0: 55c7 bd3c 3d00 cb3d 9aaa 293d f94c 3fbd
-0.1828494 0.043855283 0.011554742 0.07655899 0.076708876 -0.10748857 -0.22741891 -0.101109505
-0.06452586 -0.04854316 -0.21973813 -0.008234719 -0.034466915 0.072407134 -0.02933107 -0.027084615
-0.09721355 0.0526531 0.056826606 0.06789525 0.0011126015 0.1563975 0.048952367 -0.08626344
0.041326433 -0.025764365 0.017535841 0.06482648 0.071849264 -0.013922487 -0.18396884 0.04012349
-0.056276817 -0.07381285 -0.12064331 0.07041283 0.012356273 0.026632844 -0.029013924 -0.08650675
-0.055826277 0.021725157 -0.08630613 -0.15868983 0.023453606 0.014832906 -0.028916596 -0.06447523
-0.05478821 -0.20290364 -0.14744519 -0.071348704 0.06325161 -0.07870421 -0.22297403 0.061651748
-0.0073255897 0.042998046 -0.03633989 -0.12136326 -0.09984072 0.05096595 -0.09498739 0.009786749
0.03438921 0.01923351 0.047974847 0.008321218 -0.06483398 0.015820075 -0.053142168 0.036994368
0.1387497 0.060016353 0.029625269 -0.07962994 -0.028601121 -0.059075713 -0.110774614 0.06458731
-0.16851515 -0.22447751 0.11672853 0.19286348 0.078833796 -0.027755802 -0.05948792 -0.13517764
-0.20945413 0.0021930821 -0.024668844 -0.10006503 -0.009161642 -0.011564058 -0.17753322 -0.1643778
-0.03999036 0.2732444 -0.1487743 0.045372985 -0.094386056 0.076149054 0.088982046 0.13998601
-0.086655654 -0.069771 -0.2333595 0.07482606 0.012436332 -0.038425986 -0.06844028 -0.19480214
-0.019685885 0.13524783 0.012603059 0.10712041 -0.112895496 -0.1557577 -0.17761816 0.12612122
-0.026083956 -0.18709666 -0.09975413 -0.06846528 0.10370279 0.07324958 0.1591034 -0.016896639
-0.104226254 0.096660726 0.046760004 0.08912501 -0.05077273 0.08001405 -0.01752206 -0.06908498
-0.07822119 0.09655651 -0.07987424 0.0925761 -0.09247907 0.0033226414 -0.1416936 -0.14830808
-0.060704347 -0.015678419 -0.014792638 0.09067374 0.10602606 -0.08916361 -0.09812302 0.014290105
0.010598113 0.06082975 0.034362234 -0.010588797 -0.075413756 0.035685603 0.13275456 -0.03810454
0.14628966 -0.18641485 0.0014176655 -0.13538668 -0.08618501 -0.19712795 0.078015834 -0.05175366
0.1578492 -0.12878212 -0.10402198 0.09054543 -0.16985649 -0.111096576 0.037815258 -0.17642975
0.02175464 -0.19266158 0.034607973 -0.10338852 0.042285535 0.10201993 0.08993942 -0.06853521
0.031030081 -0.23105466 0.058045693 -0.13042717 -0.043243 -0.055104584 0.04956115 0.08217006
-0.04545425 -0.2733624 0.045240372 0.0712429 -0.18702704 -0.19389999 -0.030349664 -0.020812739
-0.01895082 0.010057969 0.0638156 0.0232243 0.0052077295 0.074212156 -0.073272474 -0.17108487
-0.061247963 -0.11332608 0.026754756 0.22347379 -0.17487504 -0.024428412 -0.022784224 -0.09928561
0.13051765 0.10161218 -0.080107965 -0.06283168 0.10705358 0.14829154 -0.09578767 0.20821905
0.031156521 0.16823576 0.05580911 -0.13010073 0.026171802 0.0024053168 -0.030192852 0.012530283
0.15288812 0.03281683 -0.11194486 -0.05936657 -0.0624223 0.0057251314 -0.09176774 0.09167545
0.13843341 -0.06654393 -0.08312927 0.019209817 0.04826043 -0.06637899 -0.102712765 -0.042637993
0.00877756 -0.12662438 0.085806414 -0.13260445 0.023166338 0.09912155 0.041422464 -0.046704266
